graph2vec_optimization/model/10_mlp_graph2vec_opt_4.pt (torch_old, 382907 bytes, 6 tensors)

weight f4 [128, 600]
0	0xbc85d5fe	-0.016337391
1	0xbd1ad452	-0.03780014
2	0xbc9f1ba2	-0.019422356
3	0xbcd73b91	-0.02627352
4	0x3b6631be	0.0035124863
5	0x3c95982c	0.018261038
6	0x3aae433c	0.0013295184
7	0xbc91be17	-0.017790837
8	0x3d1e4c89	0.03864721
9	0xbcb6bf6c	-0.022308074
10	0xbd1b37ad	-0.037894893
11	0xbcb1a05b	-0.021682909
12	0x3cad5885	0.021160373
13	0xbd259017	-0.040420618
14	0xbc2de68a	-0.010614047
15	0xbc3ad49e	-0.011403231
16	0xbb9fcf80	-0.004877031
17	0x3cdffa03	0.027340895
18	0x3c3ba08c	0.011451852
19	0xbcf7cea1	-0.030249896
20	0xbd1a35b0	-0.037648857
21	0xba5deb33	-0.00084655284
22	0xbcb1f33c	-0.021722429
23	0x3c82bc5a	0.015958954
24	0x3b2ed64c	0.0026678024
25	0xbd271858	-0.0407947
26	0xbd17244f	-0.03689986
27	0xbd096a30	-0.033548534
28	0x3d05133f	0.032489058
29	0xb9de0dee	-0.00042353518
30	0xbd0699b1	-0.032861415
31	0x3c59f4c0	0.013302982
32	0x3ca099a2	0.019604508
33	0xbc7dea9e	-0.015497832
34	0xbbdf3593	-0.0068118065
35	0x3d0ab255	0.033861477
36	0x3d0f07c5	0.03491952
37	0x3c8f4cee	0.017492738
38	0x3cc5a4bb	0.024126401
39	0x3ca33d17	0.01992659
40	0x3c22a51d	0.009927061
41	0xbc7ba407	-0.015358931
42	0x3cc9031e	0.02453762
43	0xbd175717	-0.03694829
44	0xbd2c0f05	-0.04200651
45	0x3b64b96d	0.0034900561
46	0xbd2653c4	-0.04060723
47	0xba49b262	-0.00076941226
48	0x3c53a6eb	0.012918214
49	0x3d1d5267	0.038408663
50	0xbc9b22ce	-0.018937495
51	0x3bcf006a	0.006317188
52	0xbc8e1d5b	-0.017347982
53	0xbcfaf51b	-0.030634454
54	0xbc263b5f	-0.010145991
55	0xbd0604af	-0.03271931
56	0x3d1cb6af	0.03826016
57	0xbcc424b2	-0.023943279
58	0xbc31068f	-0.010804786
59	0xbb4a0e67	-0.0030831338
60	0xbd21daf2	-0.039515443
61	0xb9f2bef5	-0.0004630011
62	0xbbcca283	-0.006244959
63	0xbca4c924	-0.020115443
64	0x3cda75c3	0.026667481
65	0xbcfaf3a2	-0.030633751
66	0x3cc0dad5	0.023541847
67	0xbb88e75a	-0.00417797
68	0xbc93a16d	-0.01802131
69	0x3d1b1ac6	0.03786733
70	0xbc50367b	-0.012708302
71	0xbb5d52b6	-0.0033771223
72	0x3cba31fc	0.022728913
73	0x3b1b5254	0.0023700194
74	0xbccd3f8b	-0.025054714
75	0xbc32785b	-0.010892953
76	0xbb6ab42a	-0.0035812953
77	0xbca594b0	-0.020212501
78	0x3c0afff2	0.008483874
79	0xbc8b1bb1	-0.016980978
80	0x3cb7f68a	0.022456426
81	0xbc74c4df	-0.014939516
82	0x3ba94135	0.005165244
83	0xba4c1330	-0.00077848416
84	0x3d18f5d9	0.037343834
85	0xbc8b90e0	-0.017036855
86	0xbc04f4b1	-0.00811498
87	0x3c517eda	0.012786591
88	0xbcf12356	-0.029435795
89	0x3cc1f82a	0.023677904
90	0xbc40a05d	-0.011756984
91	0xbca9d7a0	-0.0207327
92	0x3cc7c01a	0.024383593
93	0xbd2718a1	-0.040794972
94	0xbc56b9ca	-0.013105819
95	0xbbf1ead1	-0.0073827286
96	0xbc55d90e	-0.013052238
97	0xbc0d3de0	-0.008620709
98	0xbbdbff73	-0.0067138015
99	0x3c88f98f	0.016720561
100	0xbd2ab1f9	-0.041673634
101	0x3b35b2ed	0.0027725056
102	0x3b98e6ed	0.0046662004
103	0xbceb6021	-0.028732361
104	0x3d0f9317	0.035052385
105	0x3d188ce9	0.037243757
106	0xbcd39fa5	-0.02583296
107	0x3caf2816	0.02138142
108	0xbcb2190d	-0.02174046
109	0x3d1be400	0.038059235
110	0x3c2be1b1	0.010490821
111	0xbc48b035	-0.012249042
112	0x3d041933	0.032250594
113	0x3ca0cced	0.019628966
114	0xbcb66c80	-0.022268534
115	0xbc1e079b	-0.009645368
116	0x3d1b0361	0.03784502
117	0xbcff1160	-0.031136215
118	0xbcc12bae	-0.023580398
119	0x3c7b4487	0.015336162
120	0xbc9a696b	-0.018849095
121	0x3d1b79e7	0.037958052
122	0x3c09a78b	0.008401762
123	0x3c4f20af	0.01264207
124	0xbbffa9bc	-0.0078022163
125	0x3cdb7d9a	0.02679329
126	0x3bd77bbf	0.006576031
127	0x3cb288dd	0.021793777
128	0x3b36b742	0.0027880226
129	0xbc9c9787	-0.019115223
130	0x3d07f85f	0.03319585
131	0xbcac7d4e	-0.021055844
132	0xbd0be8cb	-0.034157556
133	0xbd26cc80	-0.04072237
134	0x3d2431cb	0.04008655
135	0xbba78d5a	-0.005113286
136	0x3d018c9d	0.03162824
137	0xbd07393b	-0.033013564
138	0xbc89f6f0	-0.016841382
139	0x3d279fac	0.04092376
140	0xbc5b926d	-0.01340161
141	0x3c1c1dda	0.009528602
142	0xbd119df9	-0.035551045
143	0x3c98b5f1	0.018641444
144	0x3caf6a99	0.021413134
145	0x3cdb1244	0.026742108
146	0xbc2e1952	-0.010626154
147	0xbc572ae5	-0.013132785
148	0x3caffc7e	0.021482702
149	0xbcfb3967	-0.03066702
150	0x3cdd3823	0.027004307
151	0x3c840639	0.016116248
152	0x3c9c747e	0.019098517
153	0xbc5c7820	-0.013456374
154	0xbcb0cacd	-0.021581078
155	0xbca5609f	-0.020187674
156	0x3bb64781	0.005562723
157	0x3d024883	0.031807434
158	0xbc2a2d32	-0.010386752
159	0x3cb9b1a0	0.022667706
160	0x3ca7bdfe	0.020476338
161	0x3c1f2a7d	0.00971472
162	0x3c32d969	0.010916092
163	0xbd201fe2	-0.039092906
164	0x3ab49fe2	0.0013780559
165	0xbc567f01	-0.0130918035
166	0x3b38e9d6	0.002821555
167	0xbc1d6346	-0.009606188
168	0x3c90eb52	0.017690334
169	0x3bd0fe8d	0.006378001
170	0xbce57137	-0.028008087
171	0x3cfe0c84	0.031011827
172	0xbcd61d15	-0.026136914
173	0xbcd44b79	-0.025914894
174	0xbc4d30bb	-0.012523825
175	0xbc6d8c2b	-0.014498751
176	0x3cf33f76	0.029693346
177	0x3cbcd33d	0.023049945
178	0xbca2d689	-0.019877689
179	0xbd161581	-0.0366416
180	0xb94e5a32	-0.00019679291
181	0x3ce34e26	0.027747225
182	0x3c08321c	0.008312728
183	0xbc32fc3b	-0.010924394
184	0xbcbfa961	-0.023396196
185	0xbcbd2256	-0.023087662
186	0xbb839348	-0.00401536
187	0xbd0db127	-0.034592774
188	0x3b826b0c	0.003980046
189	0x3c690d94	0.014224429
190	0xbcedc076	-0.029022437
191	0x3d19f8f8	0.03759095
192	0xbcb83dc1	-0.022490384
193	0x3c805a9d	0.015668208
194	0xba0b903f	-0.00053239235
195	0xbbabe7f6	-0.0052461578
196	0xbd1e1257	-0.03859171
197	0x3c781ca5	0.015143548
198	0xbba5d283	-0.0050604953
199	0xbc8c187a	-0.017101515
200	0xbbcf5613	-0.0063273995
201	0x3cea4ede	0.02860206
202	0xbccd8afc	-0.025090687
203	0xbcdd16a2	-0.026988331
204	0xbd016933	-0.031594466
205	0xbc551781	-0.013006092
206	0xbc4b1897	-0.012395999
207	0xbbaaf2a3	-0.005216913
208	0xbbde27dc	-0.006779654
209	0xbc65f0e1	-0.014034481
210	0x3ca24cca	0.019812007
211	0xbcef10be	-0.029182788
212	0xbc4fc45c	-0.012681093
213	0x3c709006	0.014682775
214	0x3bd8e5ea	0.0066192048
215	0x3c5d016b	0.013489108
216	0xbce10b3c	-0.027471177
217	0x3c746d86	0.014918691
218	0x3d18123b	0.03712676
219	0x3cd438f8	0.025906071
220	0xbc941d65	-0.018080423
221	0xbc426375	-0.011864533
222	0xbd04f85e	-0.032463424
223	0xbd0a2ae0	-0.033732295
224	0x3c3d41ce	0.011551334
225	0x3d1a207e	0.037628643
226	0xbcf6adb2	-0.030112121
227	0xbcc494c6	-0.023996722
228	0x3b35f618	0.0027765092
229	0x3c1b2350	0.009468868
230	0xbcc855b6	-0.024454933
231	0x3d074602	0.03302575
232	0xbd2cec0d	-0.042217303
233	0x3c89f5c8	0.01684083
234	0x3b98c5d1	0.0046622534
235	0x3b242a1d	0.0025049516
236	0x3c6f2557	0.014596305
237	0xbcfb423a	-0.030671228
238	0xbd1270eb	-0.03575222
239	0x3bd5afb0	0.0065211877
240	0x3a37a764	0.0007005839
241	0xbc9101e7	-0.017701102
242	0x3bb280e6	0.005447495
243	0x3c5861c8	0.013206907
244	0x3ab05420	0.0013452806
245	0xbcbdf407	-0.02318765
246	0x3c638635	0.013886978
247	0x3c80ee96	0.015738767
248	0x3d0722e3	0.032992255
249	0xbb9d1329	-0.004793544
250	0x3d03c024	0.03216566
251	0xbc82404e	-0.015899803
252	0xbd150a9b	-0.036387067
253	0xbc0db7da	-0.008649791
254	0x3c8c1434	0.017099477
255	0x3abdeb13	0.0014489613

bias f4 [128]
0	0x3be1eb49	0.0068945033
1	0xbd10f66e	-0.035391264
2	0xbc294b3c	-0.010332879
3	0xbbd82d03	-0.0065971627
4	0x3b6e8e7a	0.003640084
5	0x3d505d6d	0.050870348
6	0xbc411c8a	-0.011786589
7	0xbc4727a1	-0.012155444
8	0x3cdb893c	0.026798837
9	0xbc116f82	-0.008876683
10	0xbbfafc93	-0.0076595037
11	0xb8883038	-6.493967e-05
12	0x3cc28484	0.023744829
13	0xbb94c484	-0.004540028
14	0x3d19697d	0.037454117
15	0xbc88ae9e	-0.016684826
16	0x3bfc7358	0.0077041797
17	0xbca3f344	-0.020013459
18	0xbc6f7c98	-0.014617108
19	0x3a72b1d8	0.0009258068
20	0xbd32b7d7	-0.043632355
21	0x3c5ebdfc	0.0135951005
22	0xbd1fb5f1	-0.038991872
23	0xbab672fc	-0.0013919766
24	0xbce8e71c	-0.028430514
25	0x3c9af91f	0.018917618
26	0x3b9dad82	0.0048119435
27	0x3c45d112	0.012073772
28	0xbc776014	-0.01509859
29	0x3c772f01	0.01508689
30	0xbd2f3c98	-0.042782396
31	0xbd2a7a6c	-0.041620657
32	0xbd01e9e1	-0.031717185
33	0x3d241e11	0.040067736
34	0x3c9ba3d4	0.018999018
35	0xbc8b6fdb	-0.01702111
36	0xbd0ff1b5	-0.03514262
37	0xbbcdf6e6	-0.006285536
38	0xbccd2edd	-0.02504676
39	0x3b2a1732	0.0025953767
40	0xbc717258	-0.014736734
41	0x3cc13160	0.023583114
42	0xbcc0d7ae	-0.023540344
43	0xbc311aec	-0.010809641
44	0x3cfb7a92	0.030698095
45	0xbba4a560	-0.005024597
46	0xbbda382b	-0.006659528
47	0xbd22f3a9	-0.039783154
48	0x3c344bfd	0.011004445
49	0xbd0694e9	-0.032856856
50	0x3cc813b3	0.024423456
51	0xbd375c15	-0.04476555
52	0x3c2bfa07	0.010496623
53	0x3d25487a	0.040352322
54	0x3c4e9b88	0.012610324
55	0x3ad0e57e	0.0015937535
56	0x3d2fe62d	0.042944122
57	0x3c70a7b7	0.014688424
58	0x3cd0c8fc	0.025486462
59	0x3cc2270a	0.023700256
60	0x3b7bb62d	0.0038408146
61	0xbc0121cb	-0.007881592
62	0x3c87ee16	0.01659302
63	0xbcdbbd45	-0.02682365
64	0xbd20f0b2	-0.039292045
65	0xba926e4b	-0.0011171786
66	0xbd250596	-0.04028853
67	0xbd1693d8	-0.03676209
68	0x3bc8cd60	0.0061279982
69	0xbd31af88	-0.04338029
70	0x3c0eb221	0.008709461
71	0xbd08406b	-0.03326456
72	0x3c2a16d2	0.010381417
73	0xbcab9b8e	-0.020948198
74	0x3c5622b1	0.0130697945
75	0xbb998192	-0.0046846354
76	0xbd276d42	-0.04087568
77	0xbbaf44d0	-0.0053487793
78	0xbcaeda1b	-0.021344235
79	0xbca4f91f	-0.020138321
80	0x3cf49dac	0.02986034
81	0x3d004d58	0.03132376
82	0xbc8052ba	-0.015664447
83	0x3d299456	0.04140123
84	0x3d158814	0.036506727
85	0x3ce97116	0.028496306
86	0x3cb0b123	0.02156884
87	0x3cc8e655	0.024523893
88	0x3d07bdd3	0.033140015
89	0xbca4376d	-0.02004596
90	0x3d1910b5	0.03736945
91	0x3d200fa5	0.03907742
92	0x3c0f887a	0.008760566
93	0xbd1f9f66	-0.038970374
94	0x3c3f5b41	0.0116794715
95	0x3d577b37	0.05260774
96	0x3d01c929	0.031685982
97	0x3cf4ca31	0.029881569
98	0xbc2b1084	-0.010440949
99	0xba2e5d2f	-0.00066514587
100	0x3c84757b	0.0161693
101	0xbc3e5458	-0.011616789
102	0x3cbccad5	0.023045937
103	0x3c9bbfd5	0.019012371
104	0x3cd0834b	0.02545323
105	0x3d14a4e1	0.036290053
106	0x3cbe7bbc	0.02325236
107	0xbd4c32e5	-0.049853224
108	0xbb7f510d	-0.0038958222
109	0x3c885a9e	0.016644772
110	0x3cf2069e	0.029544171
111	0xbced3529	-0.028956013
112	0xbb926720	-0.00446786
113	0x3d35875e	0.04431855
114	0xbd1ae3fb	-0.037815075
115	0x3d02b41f	0.031910058
116	0xbd48bc8a	-0.04900793
117	0x3b118cf3	0.0022209256
118	0x3cb87840	0.022518277
119	0xbd09d19c	-0.033647165
120	0x3cef8fd9	0.029243397
121	0x3bd9111e	0.006624355
122	0x3c0606c1	0.008180321
123	0x3d0127a4	0.031531945
124	0x3d03f27d	0.032213677
125	0x3c2c5520	0.010518342
126	0x3cb2b98e	0.021816995
127	0xbc926339	-0.017869579

weight f4 [128, 128]
0	0x3d5da4cd	0.054112244
1	0xbb13c120	-0.0022545531
2	0xbd50d200	-0.05098152
3	0x3b5fd5b1	0.003415447
4	0xbd4b2441	-0.04959512
5	0xbcef23cd	-0.029191876
6	0x3cfc0b35	0.030767063
7	0x3cbaa693	0.022784507
8	0xbcc9af2f	-0.024619667
9	0x3ced5acf	0.028973965
10	0xbc93e972	-0.018055651
11	0x3d4e62a5	0.050387044
12	0x3bb7fa14	0.0056145284
13	0x3d3b94f3	0.045796346
14	0x3d512365	0.051059145
15	0xbcd2d386	-0.025735628
16	0x3d54abb4	0.05192156
17	0xbd44f8c0	-0.04808879
18	0xbd6c6fda	-0.057723857
19	0x3d8c6bbc	0.06856486
20	0x3bc2b695	0.0059421756
21	0x3d7fe3d4	0.062473133
22	0xbd687bbf	-0.05675864
23	0xbd0fee99	-0.035139654
24	0x3d57c7f9	0.052680943
25	0xbd7bb560	-0.06145227
26	0xbd40a64f	-0.047033604
27	0xb907024c	-0.00012875459
28	0x3db1a880	0.08674717
29	0x3d7f9d55	0.062405903
30	0x3d99c34b	0.07507952
31	0x3ce8170d	0.028331304
32	0x3bc34cca	0.0059600817
33	0x3c4a9e1d	0.012366799
34	0x3dcae4b1	0.09906901
35	0x3da62dc3	0.08114197
36	0xbc8f2665	-0.017474363
37	0x3c8ae83e	0.016956445
38	0xbc7e6492	-0.0155269075
39	0xbbb0fbf8	-0.0054011308
40	0xbd3cb630	-0.046072185
41	0x3d2b992e	0.04189413
42	0xbb42bf02	-0.00297159
43	0x3d5ab4a7	0.05339494
44	0xbd576160	-0.0525831
45	0x3c9b81f6	0.018982869
46	0xbd107ddd	-0.035276283
47	0x3da56177	0.080752306
48	0x3d196e86	0.03745892
49	0x3d0c76b3	0.034292888
50	0xbc5d376f	-0.013501986
51	0x3c486f39	0.012233549
52	0x3d2d9930	0.04238242
53	0xbda91d14	-0.08257499
54	0xbd7ced8d	-0.061749984
55	0x3d902e97	0.07040136
56	0x3987c275	0.00025894088
57	0xbd8b1c81	-0.06792546
58	0x3c656ea8	0.014003433
59	0xbc586681	-0.013208033
60	0xbc805576	-0.015665751
61	0xbdacc03d	-0.08435104
62	0xbd9d0c29	-0.07668335
63	0x3d5e8f07	0.05433562
64	0x3db13a83	0.08653738
65	0x3db8042b	0.0898517
66	0xbcb4683b	-0.022022357
67	0x3da69402	0.08133699
68	0x3d7c3bcb	0.06158046
69	0x3c8530e6	0.016258668
70	0xbd1b8e9c	-0.0379778
71	0x3da6085e	0.08107065
72	0x3b390e53	0.0028237298
73	0xbd9124c9	-0.07087094
74	0xbccec7ac	-0.025241695
75	0xbd6a3876	-0.05718275
76	0x3c2d3c58	0.010573469
77	0x3d1385a9	0.03601614
78	0xbc36b0a1	-0.01115051
79	0xbd25dd14	-0.04049404
80	0xbd6f9fd2	-0.058502026
81	0x3d06737d	0.032824982
82	0xbcccd192	-0.025002275
83	0x3db44d37	0.0880379
84	0xbdbcf656	-0.09226672
85	0xbcf2c071	-0.029632779
86	0x3d2c0283	0.041994583
87	0x3d29aa3e	0.04142212
88	0xbb993a52	-0.004676142
89	0xbdab16f5	-0.08353988
90	0x3d02c959	0.0319303
91	0x3b934ca2	0.0044952193
92	0x3d68adaa	0.056806244
93	0xbda0d6fb	-0.07853504
94	0x3c9d0dc3	0.019171601
95	0xbdc74abd	-0.09731052
96	0x3bcb196e	0.0061981
97	0xbd0d0673	-0.03442998
98	0x3cc7a1f3	0.024369216
99	0xbd043eb3	-0.032286357
100	0x3d898592	0.0671493
101	0x3d52f0c9	0.051499162
102	0xbdb485ff	-0.0881462
103	0xbccbddf2	-0.024886105
104	0xbd12d1e8	-0.035844713
105	0xbda8fd09	-0.082513876
106	0x3d715409	0.058918033
107	0x3dbd89c5	0.09254793
108	0x3d3024a4	0.043003693
109	0x3d06fcee	0.032956056
110	0x3d9e3cc8	0.07726437
111	0x3d6614e4	0.056172267
112	0x3d846395	0.06464306
113	0xbc1dde16	-0.009635469
114	0x3c01420a	0.00788928
115	0xbd0555ec	-0.032552645
116	0x3dcce761	0.100050695
117	0xbd9d2dcf	-0.07674753
118	0xbcdb0c29	-0.026739197
119	0xbba0b290	-0.004904099
120	0x3d9a84aa	0.07544835
121	0x3d0471fe	0.032335274
122	0x3d8159f5	0.06315986
123	0xbcfe9679	-0.03107761
124	0xbd2d6e06	-0.042341255
125	0x3d86b98b	0.06578358
126	0x3d9c3ae8	0.07628423
127	0xbd89f3b9	-0.067359395
128	0x3d856888	0.065140784
129	0x3d951240	0.072788715
130	0x3d9c509d	0.07632563
131	0xbd29ec0f	-0.04148489
132	0xbcaeb613	-0.021327054
133	0x3dd250b3	0.102692984
134	0xb9ef93c7	-0.00045695735
135	0xbd648e69	-0.055799875
136	0xbd19b490	-0.037525713
137	0xbd8a19b4	-0.06743184
138	0xbd85dad6	-0.0653588
139	0xbd1c4f51	-0.03816158
140	0x3d6e330f	0.058154162
141	0xbd394f56	-0.045241676
142	0x3d8c8eb1	0.06863154
143	0x3d709953	0.05873997
144	0x3cac6249	0.02104296
145	0x3c73b293	0.014874118
146	0xbcd3b18d	-0.025841499
147	0xbd824a25	-0.06361798
148	0x3d9f2459	0.07770605
149	0x3dadd302	0.08487512
150	0x3da26c9f	0.07930874
151	0xbd77cf6e	-0.060500555
152	0xbd276741	-0.040869955
153	0x3d67de36	0.0566084
154	0x3d6221e0	0.055208087
155	0xbc8fd30c	-0.01755669
156	0xbc95ae53	-0.0182716
157	0x3c927b6a	0.017881114
158	0xbd6475bb	-0.05577634
159	0x3d2de812	0.042457648
160	0x3d0dae96	0.034590326
161	0x3d8a6214	0.06756988
162	0x3d84ff6c	0.0649403
163	0xbbbb9a80	-0.005725205
164	0xbc1907d8	-0.009340249
165	0xbdc76ed7	-0.09737938
166	0x3d9cfc0d	0.07665262
167	0xbae13cc6	-0.001718425
168	0xbc5d824b	-0.013519834
169	0xbd3be362	-0.045871146
170	0x3ce9b207	0.028527273
171	0x3db5ae78	0.08871168
172	0xbd94fde3	-0.072749875
173	0xbc67a3a1	-0.014138133
174	0xbd99a4f6	-0.07502167
175	0x3d9b4ebf	0.07583379
176	0x3d5addef	0.05343431
177	0xbcbacf54	-0.02280394
178	0xbd885b34	-0.066580206
179	0xbd17841f	-0.036991235
180	0x3dcef376	0.1010503
181	0xbd879437	-0.066200666
182	0x3d988b7c	0.074484795
183	0x3d66137d	0.05617093
184	0xbc9b41c2	-0.018952254
185	0x3c0936d0	0.008374885
186	0xbd0ad5cd	-0.033895303
187	0xbcdc4ac5	-0.026891122
188	0x3c5cc38e	0.013474358
189	0x3cd61ee9	0.026137786
190	0x3dad39c1	0.08458281
191	0xbd1f29c7	-0.0388582
192	0xbd3b0dc3	-0.04566742
193	0xbd77d466	-0.060505293
194	0x3d560620	0.052251935
195	0x3d666b1b	0.056254487
196	0x3d0465a1	0.032323483
197	0x3d707002	0.05870057
198	0xbc4b614b	-0.012413333
199	0x3cf1325a	0.029442955
200	0xbccd87d0	-0.025089175
201	0xbdaa741a	-0.08322926
202	0x3db7f125	0.089815415
203	0xbd96a56a	-0.07355769
204	0x3c21b77f	0.009870409
205	0xbd8453cb	-0.06461295
206	0x3d6076ac	0.054800674
207	0xbd45f5ea	-0.048330225
208	0xbc875ebc	-0.016524665
209	0xbd422645	-0.047399778
210	0xbd4ee98e	-0.050515704
211	0x3c8ca9a4	0.017170735
212	0x3dcc788a	0.099839285
213	0x3d9fc664	0.07801512
214	0xbc22b9fe	-0.009932039
215	0x3ca3ab24	0.019979067
216	0xbd849cbf	-0.064752094
217	0xbd95153f	-0.07279443
218	0xbd0475c3	-0.03233887
219	0xbd6be9e8	-0.057596117
220	0x3cf9b425	0.030481407
221	0x3d804d81	0.06264783
222	0xbaf9b48f	-0.0019051003
223	0xbd1cbdf9	-0.03826711
224	0xbd945981	-0.07243634
225	0x3d82b352	0.06381859
226	0x3c6b52fe	0.014363049
227	0x3cf6ca4e	0.030125763
228	0xbd37a14a	-0.04483155
229	0xbd7838e5	-0.060601134
230	0x3d852a06	0.06502156
231	0xbda36b8d	-0.07979498
232	0xbc667f3a	-0.014068419
233	0xbd3f1205	-0.046648044
234	0xbabeb48e	-0.0014549659
235	0xbc81b518	-0.015833423
236	0xbd2eb389	-0.042651687
237	0x3d8d719f	0.06906437
238	0xbd727a74	-0.05919881
239	0x3cc2633f	0.023728965
240	0x3d28ace9	0.041180525
241	0xbc00d4e9	-0.007863262
242	0xbcbd6914	-0.023121394
243	0x3c2252e9	0.009907463
244	0x3bbd788d	0.005782193
245	0xbb04d704	-0.002026976
246	0xbbcd4b2c	-0.0062650647
247	0x3c7a889f	0.015291362
248	0xbbcc48dd	-0.006234272
249	0xbcea4853	-0.02859894
250	0xbc82d9f6	-0.015973072
251	0x3d7e3e35	0.062071044
252	0x3dad82f8	0.08472246
253	0xbd7ffc52	-0.06249649
254	0xbd0af364	-0.03392352
255	0x3ba7d1c8	0.0051214434

bias f4 [128]
0	0xbd8d63cf	-0.069038026
1	0x3c278ae9	0.01022599
2	0xbd9b1638	-0.07572597
3	0x3c9f4fa0	0.019447148
4	0xbd9fd872	-0.078049555
5	0xbc624f8a	-0.013812909
6	0xbc91f220	-0.01781565
7	0x3d8a6e20	0.06759286
8	0xbd06df69	-0.032927904
9	0xbd82ea08	-0.06392294
10	0x3da0a2d3	0.07843556
11	0x3bca38db	0.0061713285
12	0xbd9ccb03	-0.07655909
13	0xbd96a56e	-0.07355772
14	0x3d617f6c	0.05505316
15	0xbc953220	-0.018212378
16	0xbc84cf5e	-0.016212162
17	0xbd264859	-0.04059634
18	0x3d8f938f	0.070105664
19	0x3d77e564	0.0605215
20	0xbda60934	-0.08107224
21	0xbc98865d	-0.018618757
22	0x3db11494	0.08646503
23	0x3bae14fe	0.005312561
24	0xbd4317b8	-0.04763004
25	0xbd888b74	-0.066672236
26	0x3d41094b	0.047128003
27	0x3ca33bb9	0.019925939
28	0x3da0f725	0.07859639
29	0x3d924d47	0.07143646
30	0x3ca21843	0.01978696
31	0xbd1f1f27	-0.03884807
32	0x3db23982	0.08702375
33	0x3c0df594	0.008664507
34	0x3d9aa87a	0.075516656
35	0xbcf34ccf	-0.029699711
36	0xbc3ccc6b	-0.011523346
37	0xbdac404d	-0.08410702
38	0x3c3847e8	0.011247613
39	0xbda8b4a0	-0.082375765
40	0x3d25a162	0.04043711
41	0xbcb123a2	-0.021623436
42	0xbd5e2306	-0.05423262
43	0x3d03e3b5	0.03219958
44	0xbc04dd12	-0.008109348
45	0xbca51446	-0.020151269
46	0xbd82bcfb	-0.063837014
47	0x3d57bd25	0.052670617
48	0x3d6fc264	0.058534995
49	0xbdb197fd	-0.086715676
50	0xbd3c7b1f	-0.046015855
51	0xbd617da3	-0.055051457
52	0xbc2f8233	-0.010712194
53	0xbd110ecf	-0.035414513
54	0x3dbde1e2	0.09271599
55	0x3d172739	0.03690264
56	0xbd04b808	-0.03240207
57	0xbdabe3de	-0.083930716
58	0xbc138403	-0.009003642
59	0xbd82a20c	-0.06378564
60	0xbd05d487	-0.032673385
61	0x3d1b246b	0.037876528
62	0x3cdb84fa	0.026796807
63	0xbcfb3ae1	-0.030667724
64	0xbd5f132c	-0.054461643
65	0xbb7e2570	-0.0038779639
66	0xbdb435bf	-0.08799314
67	0x3d46d3ed	0.048541952
68	0xbdae582e	-0.08512913
69	0xbd7c71ee	-0.06163209
70	0xbc090b91	-0.008364574
71	0x3cbdf104	0.023186214
72	0x3d5713cd	0.052509118
73	0x3d8af6b7	0.06785338
74	0x3da96fbc	0.08273265
75	0x3c9a280d	0.018817926
76	0x3daaa6ef	0.08332621
77	0xbc7964a0	-0.015221745
78	0xbd29870b	-0.041388553
79	0x3d8a819f	0.067630045
80	0x3d0248ed	0.03180783
81	0x3d4d2f7a	0.050094105
82	0xbcf6c976	-0.030125361
83	0xbca91691	-0.020640643
84	0x3cbdc03f	0.02316296
85	0xbd6ee97c	-0.058328137
86	0xbd999f6e	-0.07501112
87	0x3d5a63aa	0.053317703
88	0x3d5e4e4c	0.05427389
89	0x3c19c55d	0.009385434
90	0x3d7e1898	0.062035173
91	0xbd79f809	-0.06102756
92	0xbdb41b7c	-0.08794305
93	0xbcc636ae	-0.024195995
94	0x3d3e6015	0.04647835
95	0x3c5fcc0c	0.013659488
96	0xbcf59a95	-0.029980937
97	0x3cbef8fe	0.023312088
98	0x3da8aa8c	0.08235654
99	0xbc14a320	-0.009072095
100	0xbdaf314d	-0.08554325
101	0x3d990084	0.074708015
102	0xbd63990b	-0.055565875
103	0xbc86988d	-0.016430164
104	0x3d9840c2	0.074342266
105	0x3d0118a8	0.031517655
106	0xbc85f78f	-0.016353397
107	0xbd936550	-0.07197058
108	0x3d613a9a	0.054987527
109	0xbd0df590	-0.034658015
110	0xbd1585bd	-0.036504496
111	0xbda7e297	-0.081975155
112	0x3d73eb65	0.05955066
113	0x3d50c8f7	0.050972905
114	0xbcf6aa59	-0.030110525
115	0x3d63453e	0.055485956
116	0xbd32ad77	-0.04362246
117	0xbc95d578	-0.018290266
118	0xbd7e0b30	-0.062022388
119	0x3c459c3d	0.012061176
120	0xbd87df12	-0.06634344
121	0x3d9a987e	0.07548617
122	0xbd54b0fd	-0.0519266
123	0x3990da3a	0.00027628412
124	0xbda9f940	-0.08299494
125	0xbcec9fb3	-0.028884744
126	0x3cd09fc1	0.025466802
127	0xbb63526d	-0.003468658

weight f4 [2, 128]
0	0xbe13a564	-0.1441856
1	0x3dff7567	0.124735646
2	0x3d04ff72	0.032470174
3	0xbc23a538	-0.009988122
4	0xbdc2ce14	-0.095119625
5	0x3d9605cd	0.07325325
6	0xbd6f7e80	-0.05847025
7	0xbdd4e6bd	-0.10395572
8	0x3c4324cc	0.0119106285
9	0x3d71a499	0.058994863
10	0xbcbdc2d7	-0.023164196
11	0x3ac45429	0.0014978695
12	0xbd9a72b5	-0.0754141
13	0x3d3fa846	0.046791337
14	0x3d825216	0.06363313
15	0xbd49276c	-0.04910986
16	0x3c140922	0.009035381
17	0xbdb1294c	-0.08650455
18	0x3e41709f	0.18890618
19	0xbd860ce7	-0.0654543
20	0xbdd64b44	-0.104635745
21	0xbd6f13f1	-0.058368627
22	0x3d17d706	0.037070297
23	0x3ce3f9da	0.0278291
24	0x3e02bf5b	0.12768309
25	0x3c9553b8	0.018228397
26	0x3c86927f	0.016427277
27	0x3debd3f3	0.115150355
28	0x3dd6ce78	0.104885995
29	0x3ca78814	0.02045063
30	0xbcd6b8a6	-0.026211094
31	0x3cbc15f0	0.02295968
32	0x3e1ec7c2	0.15505889
33	0xbde283bb	-0.11060282
34	0x3de28157	0.11059826
35	0xb98f5598	-0.00027338858
36	0xbd885e3d	-0.066585995
37	0xbc4a2a40	-0.012339175
38	0x3e4909f9	0.1963271
39	0x3d6b0d99	0.057386015
40	0xbd13ba40	-0.036066294
41	0xbd2166e6	-0.039404772
42	0x3b29a22d	0.0025884018
43	0x3cf982eb	0.030457934
44	0x3d7a4c00	0.061107635
45	0xbcb84ca8	-0.02249749
46	0x3e32dcfa	0.17467108
47	0xbc83ed62	-0.016104404
48	0x3d43cb26	0.04780116
49	0x3d4c5354	0.049884155
50	0xbd1c26e4	-0.038123026
51	0xbcb917c7	-0.022594346
52	0x3c7f3a13	0.015577811
53	0xbd90c854	-0.070694596
54	0x3e11c560	0.14235449
55	0xbda0b0a5	-0.07846192
56	0x3da5e5b2	0.081004515
57	0x3d0b633a	0.034030177
58	0xbd662170	-0.056184232
59	0xbd9b49a0	-0.07582402
60	0xbc08e216	-0.008354684
61	0xbe50c415	-0.203873
62	0x3e076ec8	0.13225853
63	0x3d890949	0.06691224
64	0x3d0af956	0.03392919
65	0xbcfc750b	-0.03081753
66	0xbd151a9e	-0.036402337
67	0x3dbe4bf6	0.09291832
68	0xbce3955a	-0.027781177
69	0x3e154ba9	0.14579643
70	0xbd9438b3	-0.07237377
71	0x3e76055e	0.24025485
72	0xbe011709	-0.12606443
73	0x3d75a03a	0.059967257
74	0x3d0daeb4	0.034590438
75	0xbe2118c0	-0.15732098
76	0x3db953d6	0.090491936
77	0x3d4da4ac	0.05020587
78	0xbda3b273	-0.07993021
79	0xbda9c168	-0.082888424
80	0xbc126348	-0.008934803
81	0xbcde65fc	-0.02714824
82	0xbd9d558d	-0.07682333
83	0x3b88de98	0.004176926
84	0x3d1f0972	0.038827367
85	0x3bc35dc0	0.0059621036
86	0x3dae1757	0.085005455
87	0x3d2469ee	0.040140085
88	0x3d370a4e	0.04468756
89	0xbc66e91a	-0.014093662
90	0x3e3f8463	0.18702845
91	0x3c01be46	0.0079189
92	0xbd668813	-0.056282114
93	0x3d032f80	0.03202772
94	0x3d099d96	0.03359755
95	0xbdbea2e8	-0.09308416
96	0x3ca74ed5	0.020423332
97	0x3d8b1d3a	0.06792684
98	0x3e3296dd	0.17440362
99	0xbe04b3bc	-0.12959188
100	0xbc82f6f4	-0.015986897
101	0xbbf88974	-0.007584745
102	0xbd932015	-0.071838535
103	0xbda6928f	-0.081334226
104	0x3d4a62ef	0.049410757
105	0x3b69d43a	0.0035679475
106	0x3d037416	0.03209313
107	0xbdbfb0e8	-0.09359914
108	0xba34ac01	-0.00068920857
109	0xbe007b1f	-0.12546967
110	0x3dcd0ae8	0.10011846
111	0x3dd47bbc	0.10375163
112	0xbcc42f18	-0.023948237
113	0x3d5d729c	0.05406438
114	0xbca83c64	-0.020536609
115	0xbd7ea8d3	-0.062172722
116	0x3b751b79	0.0037400408
117	0x3bc3f69e	0.005980327
118	0x3d1b87b5	0.037971217
119	0xbd78d76f	-0.06075233
120	0xbd593366	-0.053027533
121	0xbdacfcdf	-0.08446669
122	0xbd6d3a4c	-0.057916924
123	0xbd4776b6	-0.048697196
124	0x3b50191a	0.0031753243
125	0x3df3cf21	0.11904741
126	0x3e3ca02f	0.1842048
127	0x3c5e4783	0.013566854
128	0x3c4a339a	0.012341404
129	0xbd35e45b	-0.04440723
130	0xbdd49c8b	-0.10381421
131	0x3d5b25d2	0.053502865
132	0x3e1052f1	0.1409414
133	0xbdd7dc47	-0.105400614
134	0x3d5ed746	0.05440452
135	0x3d20c507	0.0392504
136	0xbc8ff4af	-0.017572729
137	0x3d8c41bf	0.068484776
138	0xbd3b50b0	-0.045731246
139	0x3c1930c4	0.009350006
140	0x3d7f46f8	0.06232354
141	0xbdbea6a6	-0.093091294
142	0x3d0894ba	0.03334496
143	0x3d78e6ba	0.060766913
144	0x3d82fc12	0.06395735
145	0x3e180b99	0.14848174
146	0xbddba787	-0.10725313
147	0xbd4c84cb	-0.04993133
148	0xbc1b3dca	-0.009475181
149	0x3dc3dfde	0.09564184
150	0xbb0213db	-0.001984826
151	0x3da4c9e6	0.080463216
152	0xbd8b9a7b	-0.06816574
153	0xbbfd6044	-0.007732423
154	0xbca1d285	-0.019753704
155	0xbdc97fb9	-0.09838814
156	0xbdb9b5d0	-0.09067881
157	0x3d47a2de	0.048739307
158	0x3deb23d4	0.11481443
159	0xbd8ea424	-0.06964901
160	0xbe0a5989	-0.13510717
161	0xbb95b5a4	-0.0045687724
162	0x3c171c98	0.009223126
163	0xbc1c0412	-0.009522455
164	0x3d4f0a9c	0.050547227
165	0x3d898dc9	0.067164965
166	0xbe31a62f	-0.1734855
167	0x3ac9cce2	0.0015396143
168	0xbd640799	-0.05567131
169	0x3da77b8a	0.0817786
170	0x3d89b674	0.06724253
171	0xbe08d676	-0.1336306
172	0x3bf75980	0.007548511
173	0xbd71545b	-0.05891834
174	0xbe2b0e9c	-0.16704792
175	0x3c788d46	0.015170401
176	0xbd9fc081	-0.07800389
177	0xbcf4a964	-0.029865928
178	0xbce83b10	-0.028348476
179	0xbd8288ec	-0.06373772
180	0x3dda8aac	0.10670981
181	0xbd2a2987	-0.04154351
182	0xbe30bac7	-0.1725875
183	0x3e1c784f	0.15280269
184	0xbd78da9b	-0.060755353
185	0xbd1fee6c	-0.039045736
186	0xbcc5be39	-0.024138557
187	0x3dbab579	0.091166444
188	0x3db2cdf1	0.087306865
189	0x3e555968	0.20834887
190	0xbe53a39d	-0.20667882
191	0xbbda9988	-0.0066711344
192	0xbc058f1e	-0.008151798
193	0x3c19fac1	0.009398163
194	0x3d358e06	0.044324897
195	0xbdef4a96	-0.11684148
196	0x3be688a0	0.00703533
197	0xbdd6c503	-0.10486796
198	0x3d4dd233	0.05024929
199	0xbe80d668	-0.2516358
200	0x3dae7df4	0.085201174
201	0x3d81040b	0.06299599
202	0xbb9eb27f	-0.0048430557
203	0x3e413fcf	0.18871997
204	0xbda00c9b	-0.07814904
205	0x3db0e1ab	0.08636793
206	0xbd8a357e	-0.06748484
207	0x3c43171a	0.011907363
208	0xbd7a77db	-0.06114946
209	0xbd19c7b7	-0.03754398
210	0xbd03965c	-0.032125816
211	0xbd6b269a	-0.05740986
212	0xbd58c52f	-0.052922424
213	0xbd0988fa	-0.033577897
214	0x3b800989	0.0039073867
215	0x3d449c16	0.048000418
216	0xbd7063ab	-0.0586888
217	0x3ce7b45f	0.02828425
218	0xbe4ce820	-0.20010424
219	0x3d3aab98	0.0455738
220	0x3d737249	0.059435163
221	0xbcd64233	-0.026154613
222	0x3d6d94ac	0.058003113
223	0x3e022375	0.12708838
224	0x3d6b99d8	0.057519764
225	0x3c3d92a0	0.011570603
226	0xbe1b6e5c	-0.15178818
227	0x3e16c7be	0.14724633
228	0x3c82a0a0	0.015945733
229	0x3c302a7e	0.010752318
230	0x3d2a0165	0.041505236
231	0xbb52a179	-0.0032139702
232	0x3a5eacb2	0.00084943615
233	0xbd9adafc	-0.07561299
234	0x3d9cd3a3	0.07657554
235	0x3de0b454	0.10971895
236	0xbd338648	-0.043829232
237	0x3df06907	0.117387824
238	0xbdacd8c4	-0.08439782
239	0xbce852d2	-0.028359804
240	0xbadb92ff	-0.0016752182
241	0x3d4b7d93	0.049680304
242	0xbb02d177	-0.0019961277
243	0x3d57fd58	0.05273184
244	0x3d061bc9	0.03274134
245	0x3d967088	0.073456824
246	0xbe0c31f7	-0.13690935
247	0x3df9538f	0.12174141
248	0xbd74af67	-0.05973759
249	0x3e19099c	0.14945072
250	0x3dde2078	0.10846037
251	0x3c8ab132	0.016930196
252	0xbd306391	-0.043063704
253	0xbdfb603f	-0.12274217
254	0xbe04f7dd	-0.12985177
255	0x3da44725	0.08021382

bias f4 [2]
0	0x3e3651d6	0.17804655
1	0xbe12da18	-0.14341009
