graph2vec_optimization/model/10_mlp_graph2vec_opt_1.pt (torch_old, 382907 bytes, 6 tensors)

weight f4 [128, 600]
00000000: ae68 ebbb 9348 9a3b 8106 46bb e7b6 c13c
00000010: bc5b 21bd 8e51 133d bc26 fcbc 7ed6 00bd
00000020: deac babc 2e7a 6f3c e0bf 00bd 8421 8c3c
00000030: 98da 31bd d3a3 a5bc 848f c7bc 6c16 9dba
00000040: 1c2b 3abd 9ea8 863c 6d6b bfbb 9779 1b3c
00000050: 16c7 1e3d 9856 933a a34a 013c 2017 313d
00000060: 0861 82bc 60bd 773c 81d7 b9bc f4a4 8b3c
00000070: 32c0 2f3d 0a91 58bd 3ec7 2d3d e5e9 f93b
00000080: 1f04 bc3c 9ef5 ca3c 38ca e73c baf8 41bb
00000090: 543b 1ebd 706c 83bc d3f0 00bd a949 9eba
000000a0: cc84 03bc 2b6b bbbc 48f6 a83a f0a3 323d
000000b0: 858c baba bffa 0a3b d822 85bb f731 f63b
000000c0: 966c ac3c 15ee 023d 8000 ab3c 6894 c53c
000000d0: 6bc1 f2ba bd50 9f3c e217 41bc 26a2 1abd
000000e0: bfd7 b1bc 8c7b ff3c 7d15 5a3c b7f8 26bd
000000f0: fba0 223c ed92 033d 9b1e 39bd 57c9 8dbc
00000100: d4b1 03bd 59cb 68bc 6c5c 32bc 8189 2a3b
00000110: 7f61 22bd 6641 af3c 7348 e43c 02ef 0a3d
00000120: acd7 07bd 7a22 2bbd 9496 4b3c ec09 673c
00000130: f253 f23c 6fbe 1bbd 169b 133c 8397 9a3c
00000140: dd10 d43b f5f7 e73b 7929 123c e886 67bb
00000150: 561d 24bc cab1 dfbc 85a0 c8bb 349a 473d
00000160: 35bd fd3c 1299 6f3c d269 a9bc edf6 dc3c
00000170: e5dd c63c 0e6e b43c 61e3 acbc bd10 873c
00000180: ec10 d93c abf2 0b3d f0dd eb3c 6646 133b
00000190: 591f ed3c 387a 30bd bab0 ef3a 3d5b 87bc
000001a0: 0cbb 21bb 865d a3bb 6733 29bc 80dc 023d
000001b0: 96b6 ec3c 480b 5f3b 93fe 0c3d 8c6e 70bc
000001c0: 2a96 9f3c eeef b8ba eb84 29bc 5abf c63b
000001d0: 2ef9 a3bc 7f0d b53a dab5 9c3c 6c5f 323d
000001e0: a803 f8bb baa5 b93c 4ab0 e93c 2306 abbc
000001f0: 860d 4b3d 7461 91bc 6306 a83c 7333 f23c
00000200: 6807 ae3c 9364 d93c 3df6 9dbc 00f0 5b3c
00000210: b1a9 633c 139e bfbc 4cdd e2bc 4317 98bc
00000220: c0fa aa3c 5da3 63ba 2b08 203a b9b4 1bbc
00000230: 78d1 e8b8 03a4 02bc b8be 493b 1cf9 403d
00000240: f415 a53b b747 89bc 560d f4bc 704d 823c
00000250: 8b12 aebc 835e 0dbd 84de 70bc a0b6 93bc
00000260: d9e9 3139 9bb7 213d bfce 8d39 1a36 1f3d
00000270: 5d57 d2bc b120 4c3c 3bf1 09bd ea5c 843c
00000280: 9711 473c 2321 213d 28bd b3bc c031 103d
00000290: ed3c 073d f8bd eb3c 6d7b 6b3c 7c4a 163d
000002a0: 264f 0e3d 986f 183d 5848 03bc 853c 0cbd
000002b0: e159 fd3b 57d6 74bb 18c9 38bd 6d99 8ebc
000002c0: b263 24bd 515e 853b 3a97 1e3d 1bdc e13b
000002d0: 3763 ef3b e47a 1b3c b1cb c13c 5b80 07bd
000002e0: 627e 28bd 10a6 acbc 3b4c 6ebc 5b70 9a3c
000002f0: 60bf 243d 2261 2fbd 8dab 96bc 5723 15bd
00000300: fdae d33c e2d4 133d c90e ecbc 1ed5 493b
00000310: 9505 b23c 49c8 2bbd 86eb eb3c ee69 ce3c
00000320: 2b10 7ebc ab04 a2bb 5b2b 803c cccf 8ebc
00000330: a959 28bd 098c 0fbb c076 203c b0ab 143a
00000340: ec48 4f3c beb8 1d3d 91a5 8bbc b7c1 483c
00000350: 9a81 863c 39b8 0ebd 45be a03c 229f 8f3a
00000360: aa0b a83c db5b 0fbd 53e7 453c f040 973a
00000370: b482 02bd 6c21 cfbc 57ba 093c 5473 92bc
00000380: 969c 433c a5ae 04bd b886 cebc bc39 13bd
00000390: be6a 3d3c b8c5 7d3c a306 79bc b286 0fbc
000003a0: 0aa7 29bd 90e8 c73c f535 0b3b c4b8 06bd
000003b0: 3781 67bb 0d4b a13b 0c03 54bd a874 8e3c
000003c0: e921 b43c ef09 9fbc e836 24bd 09ef 453a
000003d0: 5b9b bb3c 4fcf 253d f72b e7bc c91c 2ebd
000003e0: 09eb 193d 236a 1f3d 48ca b73c 3c76 d7bc
000003f0: 0438 1f3d d309 20bd b811 d9bb 0aa7 0e3c
-0.0071841097 0.0047083586 -0.003021628 0.023646785 -0.039394125 0.03596645 -0.030780189 -0.031454556
-0.022787508 0.014616532 -0.031432986 0.017105825 -0.043421358 -0.020219719 -0.024360426 -0.0011984832
-0.04545127 0.016437825 -0.0058416636 0.0094894385 0.038764082 0.0011241017 0.00789133 0.043234944
-0.015915409 0.015120834 -0.022685768 0.01704643 0.0429079 -0.052872695 0.04242634 0.0076267594
0.022951184 0.024775323 0.028294668 -0.0029597715 -0.0386308 -0.016042918 -0.031479668 -0.0012076396
-0.008027267 -0.02287825 0.001289078 0.043613374 -0.0014232552 0.0021206585 -0.0040629916 0.0075132805
0.021047872 0.031965334 0.020874262 0.024118617 -0.0018520778 0.019447679 -0.011785479 -0.037752293
-0.021709321 0.031186841 0.013310787 -0.040764537 0.009926076 0.03212254 -0.045195203 -0.01730792
-0.032152012 -0.014208638 -0.010886293 0.00260219 -0.03964376 0.02139349 0.027866578 0.03391934
-0.033164665 -0.041780926 0.012426037 0.014101487 0.029581044 -0.03802341 0.009009143 0.018871075
0.006471737 0.0070791193 0.008921021 -0.0035328213 -0.01001676 -0.027306456 -0.006122651 0.048731044
0.03097401 0.014623897 -0.020680342 0.026973212 0.02427573 0.022025134 -0.021104516 0.016487474
0.026497327 0.034166973 0.028792351 0.002247238 0.028945612 -0.043085307 0.0018286922 -0.016522998
-0.002467814 -0.004985514 -0.010327197 0.031948566 0.028895658 0.0034033824 0.03442247 -0.014674794
0.019480783 -0.001410959 -0.0103466315 0.0060652914 -0.02001628 0.0013813226 0.019129682 0.043548033
-0.0075687952 0.022662032 0.028526444 -0.02087695 0.049573444 -0.017746665 0.020510858 0.029565549
0.021243766 0.026537215 -0.019282455 0.01342392 0.013895438 -0.023390805 -0.027693413 -0.01856578
0.02087152 -0.0008683706 0.0006104733 -0.009503537 -0.00011101639 -0.007973674 0.0030783843 0.04711257
0.0050380174 -0.01675783 -0.029791515 0.015906066 -0.021249076 -0.03451396 -0.014701489 -0.018031418
0.0001696715 0.03948174 0.00027047654 0.038869955 -0.025676424 0.012458966 -0.03367732 0.016157586
0.01215019 0.039338242 -0.021940783 0.035203695 0.033017088 0.028777108 0.014372689 0.036692128
0.03474345 0.0372158 -0.008012854 -0.034237403 0.0077316617 -0.0037359202 -0.045113653 -0.017407143
-0.04013414 0.0040700813 0.03871844 0.0068926937 0.0073055285 0.009489749 0.023656698 -0.033081394
-0.041136153 -0.021075279 -0.014544542 0.018852403 0.040221572 -0.042817242 -0.018392349 -0.036410656
0.025840277 0.036091693 -0.028815644 0.0030797194 0.021731177 -0.041939054 0.02879883 0.025196996
-0.015506784 -0.004944404 0.015645673 -0.01743307 -0.04110113 -0.0021903536 0.009793937 0.00056713354
0.012651663 0.038506262 -0.017046722 0.0122532165 0.01641922 -0.034843657 0.019621978 0.001095746
0.020513374 -0.03499971 0.012079078 0.0011539739 -0.03186293 -0.025284491 0.008406243 -0.017877258
0.011939188 -0.032393117 -0.025210723 -0.03594373 0.011561094 0.015489034 -0.015199336 -0.008760141
-0.041419066 0.024402887 0.0021241878 -0.03289105 -0.003532482 0.004922277 -0.05176072 0.01738961
0.021988826 -0.019413916 -0.040091425 0.00075505726 0.022901228 0.040480908 -0.028219206 -0.04250792
0.037577663 0.03891958 0.022435322 -0.026301496 0.03887178 -0.03907187 -0.0066244267 0.008706817

bias f4 [128]
00000000: 6603 3ebd f6cd 91bb e42f dc3b f586 2bbd
00000010: ccf0 b83c 7d40 e43c 7f9b 2f3d f508 db3c
00000020: 16d8 ccbc 200b 40bc 5156 9cbc 1902 ec3c
00000030: d170 d0bc 7dcc 98bb 04a8 88bc ec8a d63c
00000040: 2a3f ce3b 3dd9 dcbc d0b7 f6bc 6b5a cfbc
00000050: 9a88 c3bb 35f9 93bc e371 97bb b5ad 0fbd
00000060: f4f4 9e3c ea81 393d 7b1d 103d e88b 3b3d
00000070: 2d17 bbbc 5779 e73c 37ce 153b ea5e 82ba
00000080: 24b4 2d3b 471a 8b3c 5da5 cebc 5a38 d6bc
00000090: 74ef dcbc f839 05bd d71d f1bc 822a 2c3d
000000a0: 37cf e4bc 9621 b53b c0d4 31bb 315a 943c
000000b0: 86c1 d7bc 3c8e c3bc a0ea 8dbb c117 6f39
000000c0: 4a88 c2bc 2dac 893c b936 12bc 0d42 d93c
000000d0: f66a 113d 922f 80bb 9f4b 313c 9595 d53b
000000e0: 5261 86bc bc98 113d 79f0 1bbd 35d5 8abb
000000f0: 8954 e8bc ff2b 753c f2a9 aebb 6ea3 273d
00000100: b844 183d f43e 6cbc 2412 de3c d571 22bd
00000110: d6b8 cabc 6fd1 093d 4188 91bc e1ca ca3c
00000120: aa89 b03c 04fe 863b 2eeb 093d 363a 7b3c
00000130: d77f 21bd 624a 153d 5046 95bc c4f0 8bbb
00000140: 62c6 d23b 0dc7 023d fdc2 e4bb f25b f8bb
00000150: 947a 01bd b0b2 d83c e019 3ebd 008d c53a
00000160: c21a 223b c795 ef3c fac0 02bd 51ab b8bc
00000170: 24f8 313d a486 12bd 5c47 c0bc dc61 0b3c
00000180: 8314 e7bc 25f0 bfbc 9d07 b73c 6d7b e9bc
00000190: 7bf8 0b3d b1cd 183d c1c7 7a3b 11cb 863c
000001a0: 6b85 a5ba 85ba c03c e365 9b3c 0653 813a
000001b0: deaf 043d 3b9f 583c 51c4 113d 4795 6cbd
000001c0: 8af4 17bc 180a 06bd 48a4 07bd fdc4 db3c
000001d0: d1f8 8fbc b4c0 db3c 2ba9 0bbc a2f5 9fbb
000001e0: b133 82bc 1037 15bc 7fa9 0c3a 5f24 eabb
000001f0: 6fc6 ae3c 7750 1d3d 0193 943c ae71 983c
-0.04638996 -0.0044496013 0.006719576 -0.041876752 0.022575758 0.027862782 0.042872902 0.02673767
-0.025005382 -0.011721402 -0.019084128 0.028809594 -0.02544442 -0.004663049 -0.016681679 0.02618929
0.006294151 -0.026959056 -0.030116946 -0.02531167 -0.005967212 -0.018063167 -0.0046217307 -0.03507777
0.019403912 0.04528991 0.035184365 0.045787722 -0.0228382 0.028256102 0.002285851 -0.00099465
0.0026505077 0.016980303 -0.025225336 -0.026149917 -0.026969649 -0.032525986 -0.029433174 0.042032726
-0.027930839 0.0055276854 -0.0027134866 0.018109413 -0.026337396 -0.023871534 -0.004330948 0.00022801665
-0.023746628 0.016805733 -0.00892418 0.026520753 0.035502397 -0.003911921 0.010821252 0.0065180757
-0.016403828 0.03554605 -0.03807113 -0.004236842 -0.028360622 0.014964103 -0.0053303177 0.040927343
0.03717491 -0.014419306 0.02710826 -0.03965934 -0.02474634 0.033646997 -0.017765166 0.024754943
0.021550018 0.0041196365 0.03367155 0.015333703 -0.03942856 0.03644789 -0.018222004 -0.004270645
0.0064323405 0.03192811 -0.006981252 -0.00757932 -0.03161104 0.026452392 -0.046411395 0.0015071929
0.0024735187 0.029246224 -0.031922318 -0.022542628 0.043449536 -0.035772935 -0.023471527 0.008507218
-0.028208023 -0.02342994 0.022342497 -0.028501237 0.034172516 0.037305538 0.0038266035 0.016454251
-0.0012628263 0.02352644 0.018969482 0.0009866662 0.032394283 0.013221557 0.035587613 -0.05775955
-0.009274611 -0.03272447 -0.033115655 0.02682733 -0.0175747 0.026825286 -0.0085242195 -0.0048815766
-0.015893789 -0.009107366 0.0005365833 -0.007145449 0.021334855 0.038406815 0.018136503 0.018608894

weight f4 [128, 128]
00000000: 9627 203d c579 403d 1404 ff3c 8635 26bb
00000010: 23ef 25bc 69a8 5fbd f1f2 b0bd bf77 2dbd
00000020: 930d e93c b829 e03c ae29 783d 17af 923c
00000030: 9a41 953c 7b7c a0bc b838 b6bc 4168 983d
00000040: be42 623d b975 923d 1fcf 193d 05c3 7ebd
00000050: 4593 433d 192d dabc dba3 b23c 72f5 45bd
00000060: 5a9a 353d 4b11 8f3d a574 563d c7b9 b83c
00000070: 5df5 a6bd 981b 96bd 10d6 9a3d 706c 8fbb
00000080: 1c0f 8fbd 976c 30bd f989 833d c2de 9fbd
00000090: 2a63 97bd ad5a 0f3d 83b3 74bd 99d3 773d
000000a0: 3ced 9fbb 71b2 27bd 6bd6 9f3d 3291 78bd
000000b0: d20f 5d3d e38c 06bd e853 c93c 941d 8ebd
000000c0: 5e2c 67bc 5316 95ba 7b63 483d 9126 1d3d
000000d0: 1871 b93c 666a 323d 7069 c0bc 3f94 c0bc
000000e0: 94a3 c0bb dc8e 22bc 50cf 6cbd ed89 99bd
000000f0: 633e 59bd 6c07 23bd 7846 20bd e378 8e3c
00000100: 956d 83bd d05c a9bd 750f 9e3d 6531 963d
00000110: dba7 073d ed66 9d3d b668 be39 f22d 49bd
00000120: 99bb 0e3d 8827 1c39 66e4 9c3c 7cce 8abc
00000130: 418a a93d ba4c 90bc a650 b63d 62c1 14bd
00000140: a370 babc 8781 b33d 1220 dcbc 788f a7bd
00000150: 6f20 b2bc 69f1 503d 298a 12bd 680b 86bc
00000160: a2fd 15bd 4f4d c4ba f000 92bd b261 373d
00000170: c286 06bd cf17 9e3d eaf7 023d acd9 9bbd
00000180: e366 acbd 9799 4bbd 6d37 8dba 5736 703c
00000190: 8cf5 19bc 24da a9bd 727c 923d 12c7 febc
000001a0: 5d11 bdbb 0a45 1ebd 8236 5fbd 7dff 61bd
000001b0: 5f13 febc e892 893d ce99 db3a b450 08bd
000001c0: 3573 343d 11fe 893d e9a6 a9bc 5cca fabc
000001d0: a161 32bd 9db1 923d 2755 88bd 9d04 053d
000001e0: a7dc 00bd d1d6 6abd 20a2 843d 4490 d03c
000001f0: b410 633c 287c ac3d 76de 273c 43d7 5a3d
00000200: c2d2 9f3d 089b 8ebd 8f55 21bd 5307 13bc
00000210: 377d b9bc c387 283d da9d 10bd 6ae0 08bd
00000220: 0e29 1bbd 5d0e 9fbc 1463 903d e479 a1bd
00000230: 7822 5a3d a638 573d 7d50 d7bb 538d 9b3d
00000240: 0320 b4bd b94f 4fbd 52ef 8f3d a2da 59bd
00000250: f167 94bd 0b7c 723d aecd a3bd 3783 983d
00000260: e3a0 01bd d942 c3bd 5b90 76bd d706 7ebd
00000270: 583b 7ebc 0761 ce3c ad1a 923d 0315 603d
00000280: 9c00 08bd f161 3b3d 4aba 643d 4c8e 793d
00000290: 6437 a23c 0304 a8bd 305c b53d afaa 88bd
000002a0: eeeb 5abd 9c9d a6bd 8c30 6cbd 5734 95bd
000002b0: 88ad 8bbd 9063 a5bb 51a0 8b3d c852 a33d
000002c0: f5f8 973d 7e67 98bc 9895 77bd 5ca4 e33c
000002d0: a700 223d 3491 33bd 0c81 41bd 3214 e7bc
000002e0: a1c7 533d b533 423d ef03 413d 142a 803c
000002f0: f18f 283d 8b55 6bbd 6d4e 53bd 151c dfbc
00000300: 82d5 0cbd a537 cc3c f041 1dbc 2544 56bd
00000310: 0ecd 57bd 0b18 353d bb36 1e3d 59f0 7e3d
00000320: abf2 7cbd 36e5 55bd af86 ae3d 6cac 38bd
00000330: 2726 9b3d e903 5d3d b86c a3bc e37f 9fba
00000340: 4986 893d 1335 b1bd 9abf 57bd 480e 803c
00000350: 7cb8 fcbc 7350 6f3d 979c 83bd 79d7 9dbd
00000360: 27e7 9b3d 2a42 07bb 5e6b bbbc cf0e 2abd
00000370: 7649 afbd d9e7 1cbd 7e1d 69bd 5881 bd3d
00000380: 6d15 a63c c978 1e3d 3d09 093d e98d 143d
00000390: f2b7 b1bd c0cc 34bd 960a ab3b 646c 5cbd
000003a0: f624 b33d 08ca 3c3d 0e84 983d 1067 f63b
000003b0: 4b8d b03c d6eb ecbc 4fe7 933d a5cf 903c
000003c0: b8b9 a33d 81a2 21bd 9307 9a3d 4489 3fbd
000003d0: 7173 29bc 51ec 813d 9a0f cabc 9b7a 7a3d
000003e0: 8b6a 8c3d 1cbc a23d 6ad3 023d 763e 223d
000003f0: c339 863d 3b11 5bbd 5d9c 39bc 0e46 dc3c
0.039100252 0.04699113 0.031129874 -0.0025361492 -0.010127815 -0.054603968 -0.086400874 -0.042350527
0.028448856 0.027363643 0.060586624 0.017905755 0.018219758 -0.019590607 -0.022243842 0.0744176
0.05523943 0.0715136 0.03755104 -0.062197704 0.04774787 -0.026632832 0.021806648 -0.048329778
0.044336654 0.0698572 0.052357335 0.022549523 -0.08152268 -0.07329482 0.075603604 -0.0043769404
-0.06985304 -0.04307231 0.064228006 -0.078061596 -0.07391961 0.034998585 -0.05974151 0.06050453
-0.0048805755 -0.04094166 0.07804569 -0.060685344 0.053970166 -0.032849204 0.024576142 -0.06939235
-0.014109699 -0.0011374451 0.048922997 0.038366858 0.022636935 0.0435585 -0.023487777 -0.02350819
-0.005878875 -0.009921756 -0.057814896 -0.074970104 -0.053038012 -0.039802 -0.039129704 0.017391628
-0.064173855 -0.08269656 0.07717792 0.0733364 0.033119064 0.07685647 0.0003631764 -0.049116082
0.034846876 0.00014892046 0.019151878 -0.016944163 0.08278323 -0.017614711 0.08902101 -0.036317237
-0.022758787 0.0876494 -0.026870761 -0.08181661 -0.021743981 0.051011477 -0.03577629 -0.01636286
-0.036618836 -0.0014976653 -0.07129085 0.044770904 -0.03284336 0.07719385 0.03197471 -0.07609877
-0.084180616 -0.04970702 -0.0010773964 0.014661393 -0.009396922 -0.0829356 0.07152642 -0.031100783
-0.005769892 -0.03864006 -0.054495342 -0.055175293 -0.031015096 0.06717473 0.0016754211 -0.03328009
0.044055182 0.067379124 -0.020709472 -0.03061407 -0.043550137 0.07162783 -0.066568665 0.032475103
-0.03146043 -0.05733377 0.064762354 0.025459416 0.013858963 0.084221184 0.01024591 0.053427946
0.07803871 -0.069631636 -0.039388236 -0.008973914 -0.022642715 0.041145097 -0.03530679 -0.033417143
-0.03788095 -0.019416029 0.07050148 -0.07884577 0.05325553 0.05254426 -0.0065708742 0.07595315
-0.08795168 -0.05061314 0.070280686 -0.05318702 -0.07246388 0.059200328 -0.07998215 0.07446902
-0.031647574 -0.095342346 -0.06019626 -0.06201824 -0.015517078 0.02519275 0.07133994 0.05470754
-0.033203706 0.0457477 0.05584172 0.06092672 0.019801803 -0.0820389 0.08855474 -0.0667318
-0.053447656 -0.0813553 -0.057663485 -0.07285374 -0.06820208 -0.005047269 0.06817687 0.07974774
0.07420532 -0.018604036 -0.060445398 0.027788334 0.039551403 -0.04383965 -0.04724221 -0.028207872
0.051704053 0.047412593 0.047122892 0.015645064 0.0411529 -0.057454627 -0.051588465 -0.02723507
-0.034383304 0.024928877 -0.00959824 -0.05231108 -0.05268579 0.044212382 0.038626414 0.062240932
-0.061754864 -0.052220546 0.085217826 -0.04508631 0.07575636 0.053958807 -0.019949302 -0.001216885
0.06715066 -0.08652701 -0.05267296 0.01563181 -0.030849688 0.05842633 -0.064263515 -0.07707114
0.07612448 -0.0020638802 -0.022878345 -0.04151803 -0.085589334 -0.038307045 -0.05691289 0.09253186
0.020273888 0.03868941 0.033456076 0.03626815 -0.08677663 -0.044140577 0.005219768 -0.053814307
0.08747284 0.04609111 0.074470624 0.00751961 0.021551749 -0.02892105 0.07221853 0.017677138
0.079944074 -0.039461616 0.07520976 -0.046761766 -0.010342465 0.06343902 -0.024665643 0.061152082
0.06856259 0.07946035 0.0319399 0.03961035 0.06553986 -0.05348323 -0.011328784 0.026888873

bias f4 [128]
00000000: 2c30 24bd 185c 75bb 7c24 713d b934 89bd
00000010: b809 97bd eb1a 0dbd 0f5b 85bd 48a9 63bc
00000020: 40ff 0c3d b0d7 aebb 473b 2cbd ac78 89bd
00000030: 196e b43d ed28 45bc 019d 453d 7ec4 a2bd
00000040: 6419 913c 6a1d fe3c 949e f73c 52f6 503d
00000050: a058 813c e463 04bd 9777 e63c 0fd1 863d
00000060: 9173 4b3d d514 813c 8aa3 f03b 719c 553d
00000070: 326c ddbc 1fbb 7f3d cce5 973d beb9 a43d
00000080: d60e 77bd 557d 6d3d d539 4f3c 125d 9d3b
00000090: 6ee8 393d 8e80 61bd 5a9b 67bd 7bea 11bd
000000a0: a653 91bd ed0a 4ebb 2052 963d 8c16 8abd
000000b0: 964a a0bd e395 02bd 3e34 3bbc ef42 a2bd
000000c0: f8f8 be3d 484f 983d 001f 16bd 3094 833d
000000d0: 12bf 1f3d bf86 833d da6e 113d 4ea2 023d
000000e0: 4ee3 a93d 36da 23bd f20f 933d dce2 0bbd
000000f0: 9be2 1e3d 672e 60bd ecbe 823a d27b 713d
00000100: 9d4c 683d ebc5 323d 2786 d7bc 1208 cf3c
00000110: a22a d03b d8e1 bb3c 2e92 aebc dabb 283d
00000120: 0f0d 15bd b0bf 65bd 7050 a4bd 8413 10bd
00000130: 69b6 393d c632 85bc 1956 5cbd a88c 023d
00000140: 0f0f 84bd 97fa d33d bc90 bdbd d98f d83c
00000150: 5d00 9c3d 2902 b4bd 8b35 a03c 209e 6fbd
00000160: 401a 99bd 74f4 a9bd 0717 acbd d3d0 38bc
00000170: dfe2 6c3c 33b0 f33c 72df 7c3d ff1f 2d3d
00000180: 8b3f 373d db63 1dbd eef3 b4bd 0708 d53c
00000190: d877 1a3b a6d6 adbd 64a0 e33a cc1f 943d
000001a0: f91c 7c3d 3ca1 8f3d f8a8 f73b 53d1 d7bc
000001b0: a53b 24bd ad38 433d 1359 823d 3820 a03c
000001c0: 3fbe db3c f2f7 3f3c 6b5c 92bc a2a6 edbc
000001d0: f2f3 a53d 30aa 98bc d7fc 4fbd eddb 593d
000001e0: d54e 49bd 40f8 bc3d 4be6 a43d 8454 2f3d
000001f0: f5f4 0e3d 6672 6fbd 5744 2abd 6a1e b33d
-0.040085003 -0.0037438925 0.058872685 -0.06699509 -0.073749006 -0.0344495 -0.06511509 -0.01389534
0.034423113 -0.0053357705 -0.04204872 -0.067124695 0.08810062 -0.012033683 0.048245434 -0.07947634
0.017712303 0.031019885 0.030226983 0.05101616 0.01578933 -0.032321826 0.028133197 0.065828435
0.04967076 0.015757004 0.007343714 0.052151147 -0.02702913 0.062434312 0.07416877 0.0804324
-0.060316883 0.057980854 0.012648066 0.0048023546 0.045387678 -0.05505424 -0.05654464 -0.03562401
-0.07096033 -0.0031439618 0.07339883 -0.06742582 -0.07826726 -0.031881224 -0.01142603 -0.07922923
0.09324831 0.07436997 -0.036650658 0.06424749 0.03900058 0.06422185 0.035506107 0.031893067
0.08295308 -0.040003024 0.07180776 -0.034151897 0.038790327 -0.054731753 0.0009975112 0.058955975
0.05671369 0.04364578 -0.026309086 0.025272403 0.0063527385 0.02293484 -0.021309938 0.041194774
-0.036389407 -0.05609101 -0.08023155 -0.03517486 0.045339976 -0.016259562 -0.053793047 0.03187242
-0.06448185 0.103505306 -0.092561215 0.02643578 0.07617257 -0.087894745 0.019556781 -0.05850041
-0.0747571 -0.08298579 -0.084028296 -0.011280256 0.014458387 0.029747104 0.06173653 0.042266842
0.044738334 -0.038425308 -0.088355884 0.026004804 0.0023569968 -0.084882066 0.0017366526 0.07232627
0.061551068 0.07013175 0.0075579844 -0.02634493 -0.040095944 0.047661472 0.06364646 0.019546613
0.026824115 0.01171683 -0.017866334 -0.02901012 0.081031695 -0.01863584 -0.050778236 0.053188253
-0.049147446 0.092270374 0.080517374 0.04280521 0.034901578 -0.05845871 -0.04156908 0.087460354

weight f4 [2, 128]
00000000: d158 ca39 cac2 dbbd fcd2 40ba 0a34 763b
00000010: d170 833c 978d fcbc 91c5 b03d 0968 4f3c
00000020: 5750 bb3d 4519 b43d c07a cc3b c89d 50bc
00000030: 9de7 0cbd d2a3 a53d d769 c43b 1688 9abc
00000040: f318 40be 5925 0c3e 95e7 4cbd e618 c6bd
00000050: e813 913d 9850 bfbb 47da fc3d 91e1 2dbd
00000060: fa54 853d ca47 f73c 8073 f9bd da19 8fbd
00000070: b357 5dbd 8a40 853d 4d03 36bc abef bd3d
00000080: 9238 13bd b314 733d 70ae 213d 80b9 e93d
00000090: 8366 1a3e 57f2 24be a2b5 9bbb 0fb0 353d
000000a0: f3d2 d1bc c9b7 333b afd1 ff3d bc2a 8ebd
000000b0: dfc8 e63c 3f8e 673d b480 28bc a868 7dbd
000000c0: d492 ae3d 7fec 79bd bf0e 7bbc 177f 453d
000000d0: 486c 6fbd 2dba 66bd b866 27be e0a0 bf3d
000000e0: 4d79 223c 74bb ea3b 2960 b23d b08c 2d3c
000000f0: fbac 703d 150a aebc 641e 6cbe 5074 ba3c
00000100: 598d b83c 3156 3bbe 5f05 0a3b 9b38 043d
00000110: d25d 8fbc 74d1 25be c150 84bc c7e7 963c
00000120: ca43 aebd ab71 ec3d 5ede 9abd 4f2c ea3d
00000130: 8c49 0ebd bdf4 c13d 08d8 ecbb 3853 fa3d
00000140: 7bb8 be3d 4617 373e 9cce b9bd 61ca acbd
00000150: e3b9 2f3c 6523 98bc 2d32 133e d134 1c3e
00000160: dd80 af3c 31a7 08be 460f 343d 5da3 9d3d
00000170: c0a1 94bd 8180 f6bd 184e 6bbd 8dbb dabd
00000180: b7af cf3c a2d5 2abd 0f61 84bd ff89 35be
00000190: 5bb5 08bc dad3 403c cdc6 1e3d 77df 3abd
000001a0: 6c73 223e ea7d 8ebd 0c1c 42be 0b57 e3bd
000001b0: 9a68 6e3d 6f14 5e3e 324a 7abd 09b0 57bd
000001c0: 6f40 ccba 8e4a 2abe e2f6 01be 7269 39bc
000001d0: 709d b0bd 29e1 63bd 925a a13d 1a24 0c3e
000001e0: 779d 5e3b 1dd0 2e3e 0010 babd c2b5 88bd
000001f0: 109b 9a3c 0026 143b f6df 0dbd affe a5bd
00000200: eba3 a1bc 05a3 a53d 287e 913c 61d3 fbbc
00000210: 1d2f 99bc 421e 6dbc 3ed8 993d 5a5c 8fbd
00000220: e88f 11bd 7693 753d a7a9 ae3d 0d05 9b3d
00000230: 2313 473d 3adc 31bc 1425 8b3c 4736 dcbc
00000240: bee8 7f3e 4aaf 03bd 787e bdbc 1962 afbc
00000250: eef3 bf3d b81a 653d 8c3e a1bd b46a 073e
00000260: feff 103d 88e3 a0bd 47b1 813d 5c8f 223d
00000270: a45d 5e3b 8893 85bd b4f3 473d 605a dc3c
00000280: f0ec b9bb c927 513d 6f75 8d3d e0f6 31be
00000290: 17fe 9fbc 8eca 4a3e 1ea6 3ebb 8389 953c
000002a0: e5a9 e73c 07e7 353d 0278 2fbe 168a a93d
000002b0: fa76 a7bc 1b03 f6bd 10d8 873d 789e b5bb
000002c0: b8db 96bb f402 ee3d 87b4 773d 2710 893c
000002d0: c274 86bc 73f1 913d bcb9 973d 23e4 a6bc
000002e0: 1c8e 9f3d f70e 053d 0c51 453d 2b2e 29bd
000002f0: d6e4 873d 79b1 163e 959a 2f3e 0919 05bd
00000300: 8ebe 9dbd 8a4d 033e 7fa3 663c 907b b23d
00000310: 612c 973d dbdf 973d f4bd 853c ad22 12bd
00000320: fa6e 823d 9b6c f6bc 407f c33d 2c9d 80bd
00000330: 9806 a9bd 2604 e43c b8c2 a7ba 16b7 0abe
00000340: f8fa 17bd 617b 1fbe 89c3 873b 187d 263d
00000350: 80e2 36bc 1630 a239 82f4 69be 8a3d adbd
00000360: d063 23bd 10ff 103e ddc0 833d 2604 a3bd
00000370: 240b 7ebd 0b6d ca3d 79d2 083e 6c03 dd3c
00000380: c5c9 943d 6f6d ae3d 69db 7fbd 3731 313d
00000390: a936 043d f2dc 0ab9 ec44 c83d 3e77 7bb9
000003a0: 8b35 03be 3355 d83d 8f9d 4b3e a062 363c
000003b0: 0bba 98bb 56bd 5ebe 7748 b0bd 4071 643b
000003c0: 0967 743d cb0f 3c3e 7169 bb3d db9c 4d3d
000003d0: 3a3c e73b b4ab 9cbd 91a0 5a3c d7a1 a7bd
000003e0: 2bc9 50bd 9533 d7bd d4e9 48bd a856 89bd
000003f0: 1802 1b3d 0022 8dbd 2e37 703c 13f8 033d
0.00038594616 -0.107305124 -0.0007355658 0.0037567639 0.016045006 -0.030829234 0.08631433 0.012659081
0.09146183 0.08793882 0.006240219 -0.0127329305 -0.03440057 0.08087887 0.0059940624 -0.018863719
-0.18759517 0.13686122 -0.05002554 -0.09672718 0.07083875 -0.005838465 0.123463206 -0.042451445
0.065103486 0.030185599 -0.12180233 -0.06987353 -0.054038715 0.065064505 -0.011109185 0.09274229
-0.03594262 0.059345912 0.039472997 0.114123344 0.15078168 -0.1610807 -0.004751877 0.044357356
-0.025613284 0.0027422777 0.12491166 -0.06941745 0.028171955 0.05653214 -0.0102845915 -0.061867386
0.08524099 -0.061016556 -0.01532334 0.048216905 -0.058452874 -0.056329895 -0.16347778 0.09356856
0.009916616 0.0071634594 0.08709747 0.010592625 0.058758717 -0.021245042 -0.23058468 0.02276054
0.022528337 -0.18294598 0.002106033 0.032280546 -0.017500792 -0.16193181 -0.016151788 0.018421067
-0.085090235 0.11545118 -0.075619444 0.114342324 -0.03473811 0.09470508 -0.0072279014 0.12222904
0.093125306 0.17879972 -0.09072611 -0.08437038 0.010725471 -0.018571565 0.1437461 0.15254523
0.021423751 -0.13345028 0.04395988 0.07697175 -0.07257414 -0.12036229 -0.057447523 -0.10680304
0.025352342 -0.041707642 -0.06463825 -0.17728423 -0.00834402 0.011769259 0.03876381 -0.04562327
0.15864342 -0.0695761 -0.18956012 -0.111005865 0.058205225 0.21687482 -0.061105914 -0.052658115
-0.0015583168 -0.16630003 -0.12691835 -0.011316644 -0.08623779 -0.05563465 0.07878603 0.13685647
0.0033968368 0.17071576 -0.09085083 -0.066752926 0.018872768 0.0022605658 -0.034637414 -0.08105218
-0.019731482 0.08087734 0.017760351 -0.030740442 -0.018699223 -0.014472546 0.07511948 -0.070000365
-0.03553763 0.059955083 0.08528452 0.07569323 0.048602235 -0.010855729 0.016985454 -0.02688135
0.24991128 -0.03214959 -0.023131594 -0.021409081 0.09372698 0.055933684 -0.07873258 0.13224298
0.035400383 -0.07855898 0.06332641 0.0396875 0.0033930326 -0.0652228 0.048816398 0.026898563
-0.005673997 0.051063333 0.06907164 -0.17379332 -0.01953034 0.19803831 -0.0029090713 0.018254047
0.028279254 0.044409778 -0.17135623 0.08278291 -0.020442475 -0.12012311 0.066330075 -0.0055425726
-0.0046038292 0.11621657 0.0604749 0.016731335 -0.016413096 0.07126131 0.07408473 -0.020372456
0.07790777 0.032484975 0.048172995 -0.041303795 0.06635444 0.14716138 0.17148812 -0.03249458
-0.07702361 0.12822548 0.014077066 0.08714974 0.073815115 0.07415744 0.016325928 -0.0356776
0.06368823 -0.030081084 0.095457554 -0.06279978 -0.08253211 0.02783401 -0.001279912 -0.13546404
-0.037104577 -0.15574409 0.0041431827 0.040646642 -0.0111624 0.00030934875 -0.22847179 -0.08459003
-0.03989011 0.14159799 0.0643327 -0.079597756 -0.062022343 0.098840795 0.13361539 0.02697917
0.07265047 0.085169666 -0.062465105 0.043259826 0.03227869 -0.00013243014 0.09778771 -0.00023981647
-0.12813394 0.105631255 0.19884323 0.0111319125 -0.00466085 -0.21751913 -0.086075716 0.0034857541
0.059668574 0.183654 0.09150971 0.050198417 0.00705674 -0.07649937 0.013343946 -0.081851654
-0.0509731 -0.10507885 -0.04905112 -0.067059815 0.037843794 -0.068912506 0.014661593 0.032219004

bias f4 [2]
00000000: f7a1 e13d 2aa0 1bbe
0.110172205 -0.15197816
