graph2vec_optimization/model/10_mlp_graph2vec_opt_3.pt (torch_old, 382907 bytes, 6 tensors)

weight f4 [128, 600]
00000000: 734f 453c 46fb f8bc 25a9 45bc a0df 96bc
00000010: b9b2 80bc 838b 29bd c3c9 173d ecdf 27bb
00000020: 3d2e 803b 8f28 33bc 2c1c cdbb b1c4 803c
00000030: 8adc c03c 1931 e1bc 9698 133d 606c 43bd
00000040: f8b9 2b3d 6635 373d 4065 e53c ef0c b6bb
00000050: 9143 28bd 9955 90bc f932 d5bc ab69 c63c
00000060: 1013 0f3d 3ff1 d93c 0258 3fbc 5de6 44bc
00000070: dba6 48bd fd26 babc 43d9 fa3c 8a55 62bc
00000080: f865 27bd 0895 21bd 1366 e73c ec96 25bd
00000090: 6caf 473c 31af cfbc 5483 0b3c 9664 363c
000000a0: 6cb8 a5bc 591d 7a3c 99f2 f4bc ab32 6a3c
000000b0: 9dc3 cbbc fc70 24bd 30cb 1cbd 0551 cabc
000000c0: 5439 62bb 7f2e 56bc 2a6a ccbc d05b 52bd
000000d0: cf1e d83c b8d7 14bd 9248 f0bc 3852 14bc
000000e0: 9055 393c 3e68 873b 030e 46bd 2554 a33c
000000f0: a9e0 233d b609 87bc af05 1c3c 5aaa 983c
00000100: 623d e9bc f948 493d a342 efbc b822 dc3c
00000110: 1d2f 9bbc f54b ebbc 20d4 21bb 1948 9e3c
00000120: 1fa7 3f39 da35 333c c5e6 e0bc 0d3c 683c
00000130: 28b6 a73c 0515 19bc 804b 51bc 4a7b 78bc
00000140: 822f 033d d514 12bd bccf 1b3d 4284 f0bc
00000150: e52a ddbc 2eff 383d be29 9dbc 92ec 273b
00000160: b357 2abd 4ea2 d9bc 0099 fd3c dd3e 92bc
00000170: 9e88 61bc 13e3 453d dd43 02bc 4d9f 06bd
00000180: 0a1c 4fbc b533 4abc f6f3 d3bb 55f4 14bd
00000190: 520e ed3c 8915 edbc a804 17bd a2ff acbc
000001a0: 7124 7ebc 0687 77bb 9e58 e8bb 429d 193d
000001b0: a7ee 063d cb86 083d 2d21 33bd 2a8a f0ba
000001c0: 2ea2 8d3c 68c6 38bd ed47 edba bd13 683a
000001d0: dd20 17bc f7d6 493c fa57 18bd 447f d43c
000001e0: c844 b8bc 1963 a13b f795 90bc 3515 bfbb
000001f0: 1394 d8bc abaf 86bc 81fb ff3b e9d3 0fbd
00000200: 7146 c23c 3d4a acbc b0e7 abbc 0674 bbbc
00000210: d373 343b 456b b53c 9d2b 443d 4a06 0d3c
00000220: e7b5 72ba 7779 ffbc adcb 403d 9bae e6bc
00000230: 2c3d 2d3d 4acb 95bb ddbd 32bb bf3e 4fbd
00000240: fb11 d23c 6403 d53c a695 173d dc6a 48bd
00000250: 3a83 423c 7a18 513d 42f7 1a3c 010b 3d3b
00000260: 240c 893a 6915 4fbd 4ade 803b 7339 13bd
00000270: a600 ee3c 52f0 26bc 9454 fa3c 7d88 e8ba
00000280: 298e 32bd ab3d 41bb 4fa8 91bc 3cf7 9c3c
00000290: 0401 1a3d a04f 17bc 89b8 e5bc 628f 923c
000002a0: efc8 11bc f01a e6bc 425b 473c 709c edbc
000002b0: 0e63 043b d574 3d3d d499 4dbb d563 d03c
000002c0: d62e febc 8875 1cbd 916f 85ba 50ee 72bc
000002d0: 0f8c bebc b054 023d c0e4 06bd 6f7e 19bb
000002e0: 6fa7 203d b54f 6bbc 3dda 36bd 2843 a33c
000002f0: 33c8 d4bc 863e 85bb acbe bebc 22f6 163c
00000300: cbab 463c 9a3e 58bc 0904 20bc d507 eabc
00000310: b08c 38bc 6090 93ba 8314 6d3c df7b 643c
00000320: 6ee7 d23b 61dc 553c ccbd e03a a332 1a3c
00000330: 4f47 92bc f609 a5bc 7d86 bb3b e566 95bc
00000340: e80f 28bd 835d 843c aba9 a13c 23cb 1e3c
00000350: b8f2 853c a0ca b1bc dc5c c93c 4b55 f0bc
00000360: 324d d6bc 23a1 133d 2747 46bd 8412 223c
00000370: d46c 8a3c 2743 09bd c5a5 01bb 53bc 6ebc
00000380: fa39 ae3c a57d 303c f0b7 8d3b 8dac 2dbc
00000390: 16b1 3a3d 4f25 1abd cca2 4a3d c1f0 a5bb
000003a0: eec1 253d e3ee 0dbd 71fd ab3c c7f2 05bd
000003b0: a553 a4bc 8e50 cb3c ef3d ad3c ddb5 cb3c
000003c0: 431f 9c3c a626 d73c 23ca ca3c b60e 0bba
000003d0: 52a9 a9bb ca9c 693c ef3c 30bc f7e9 6d3d
000003e0: 4115 d83c 0ade 07bc 4c85 a2bb 7e02 6cbb
000003f0: d72c 31bd 9d68 f7bc 1d34 abbc 3e89 8b3c
0.012042868 -0.030393254 -0.012064253 -0.01841718 -0.015710222 -0.041392814 0.03705765 -0.0025615646
0.003911762 -0.010934963 -0.006259462 0.01571879 0.023542661 -0.027489232 0.03603419 -0.047710776
0.0419254 0.04472866 0.028002381 -0.005555741 -0.04108006 -0.017618941 -0.026025282 0.024220308
0.03493029 0.026604293 -0.011678698 -0.0120178135 -0.04898725 -0.02272367 0.030621177 -0.013814339
-0.04086873 -0.039448768 0.028246915 -0.040427133 0.01218782 -0.025352092 0.008515198 0.01113238
-0.02022954 0.015265786 -0.029900836 0.014294307 -0.02487355 -0.040146813 -0.038279712 -0.024696836
-0.0034519034 -0.013072609 -0.024952967 -0.05135709 0.026381878 -0.036338538 -0.02933148 -0.009052806
0.011311904 0.0041322997 -0.048353206 0.019937584 0.040009174 -0.016484123 0.009522839 0.018635917
-0.028471652 0.049141858 -0.02920658 0.026872024 -0.018943364 -0.028722743 -0.0024693087 0.019321488
0.00018277437 0.010938132 -0.02745379 0.0141744735 0.020472601 -0.00934339 -0.012774348 -0.015166113
0.03202773 -0.0356644 0.038039908 -0.02935994 -0.026997993 0.045165233 -0.019184943 0.0025623185
-0.041587543 -0.02656665 0.030956745 -0.017852241 -0.013765482 0.048312258 -0.00795075 -0.032866765
-0.012640962 -0.0123414295 -0.0064682914 -0.036365826 0.028937493 -0.028940933 -0.036869675 -0.021117989
-0.015511618 -0.003776969 -0.007090642 0.03750349 0.03294244 0.033331674 -0.04373281 -0.0018351723
0.017289247 -0.04511109 -0.0018103101 0.0008853039 -0.009224144 0.012319318 -0.037193276 0.025939591
-0.022493735 0.0049251434 -0.017649634 -0.0058313855 -0.026437795 -0.016441187 0.007811964 -0.035114203
0.02371523 -0.021031493 -0.0209845 -0.022882473 0.0027534857 0.022145877 0.047893155 0.008607456
-0.0009258673 -0.031185849 0.04706924 -0.02815943 0.042294666 -0.004571353 -0.0027273812 -0.05059695
0.02564334 0.026002593 0.03700795 -0.048930034 0.011872107 0.051048733 0.009458365 0.002884567
0.0010455889 -0.050557528 0.003932749 -0.03594346 0.029053044 -0.010189133 0.030557908 -0.0017740872
-0.043592606 -0.002948622 -0.017780451 0.01916086 0.037598625 -0.009235293 -0.028042095 0.017890636
-0.008898004 -0.028089017 0.012167754 -0.02900526 0.0020200643 0.046253998 -0.0031372206 0.025438229
-0.031028192 -0.038198024 -0.0010180344 -0.014827326 -0.023260145 0.031819046 -0.032932997 -0.0023421308
0.039222177 -0.014362265 -0.044641722 0.019929484 -0.025974369 -0.0040662913 -0.023284279 0.009213956
0.01212592 -0.013198519 -0.009766587 -0.028568188 -0.011264011 -0.0011258237 0.014470222 0.013945549
0.00643628 0.013053031 0.0017146408 0.009411487 -0.017856268 -0.020146351 0.0057228194 -0.01823754
-0.041030794 0.016157871 0.019734224 0.009691986 0.016351089 -0.021703064 0.024580412 -0.029337546
-0.026159856 0.036042344 -0.0484077 0.00989211 0.016897596 -0.033511307 -0.0019782644 -0.014571267
0.02126788 0.0107721435 0.0043249056 -0.010600221 0.04557904 -0.037633236 0.04947166 -0.0050641005
0.04046815 -0.03465165 0.020994874 -0.032702234 -0.020059416 0.024818685 0.021147696 0.024866993
0.019057875 0.026263546 0.02475459 -0.00053046213 -0.0051776553 0.014258573 -0.010756715 0.058084454
0.026377322 -0.008292684 -0.004959738 -0.0036012228 -0.043255653 -0.03020125 -0.020898873 0.017033216

bias f4 [128]
00000000: a059 1a3d 40e6 673c 7fdf df3c 8946 69bb
00000010: 95ee b83c 0ad6 87bc 62c8 e3bc 1b9e 543c
00000020: 142f 883c 7623 8abb eca3 f2bc b744 413b
00000030: b706 adbc ca03 9b3c b3a8 3ebc 8881 f23c
00000040: 4155 bf3c 80c2 eabc e6f8 20bd f745 17bd
00000050: 604e 053b 017f f73c 65f7 d5bc ed38 373c
00000060: ae64 113d ab76 b73b bb2f cabc 076e 8b3c
00000070: 6bf1 71bc 2039 a2bc 860f 00bd 7e0d a43c
00000080: d16a e63c 0e4b 8d3c 402e cc3c ba33 2cba
00000090: 96b5 9ebc 9f43 60bc d6c5 2c3d 2abf 1bbd
000000a0: 9d7f 0d3d be13 d73c 065d b0bc c864 ca3c
000000b0: e5e7 1e3d 55d9 20bd 5530 823c 7949 b23c
000000c0: faf4 16bd a35b 133d 3e92 c63c 27c5 f9bc
000000d0: 0000 4bb8 cf0a 1c3c 1561 2cbc 1554 153a
000000e0: 435b f1bb 8ae3 7a3c 95c1 723c 6804 0b3d
000000f0: bc55 16bb 7fb4 043d 8f42 eebc 9e6c 913b
00000100: 2570 0e3d 8c22 0bbc a3ab 703c df32 3a3c
00000110: 191e 2cbc da38 953c 6051 ef3c b2a6 eebc
00000120: 9a4b 46bc 0c2f eeba 6d73 f9bb d534 2bbd
00000130: d54d 0bbc ae1b 45bc 7ae0 803b 96d1 26bc
00000140: 9ad4 13bc 9dc9 04b9 9e8a e6bc 8bcf 43bb
00000150: a3c6 13bd 8807 e3bc a093 493b c0cb dabb
00000160: ffcb 8f3c fc1a ebbc 5732 8dbc 0ed0 a4bb
00000170: aec3 9bbb abfd bfbc 586a d0bc 5f52 22bd
00000180: 75cc 21bc 6f6b c4bc a073 e53c 960f 3bbc
00000190: cb0f 21bc ad51 893c 7b5a dcbc 56e6 36bc
000001a0: 003e b6ba 51c9 e23c fb82 acbc 9b7d c7bb
000001b0: 96ac 623c f167 2a3d f6ce aebb 1fbe 16bd
000001c0: 1ede da3b a211 aab8 de3c 4dbd 280f efbc
000001d0: a0c4 24bb 201f b4bc 0035 f63c 200a 743c
000001e0: 06a9 9cbc 9889 50bc fc8d e9bc bde9 27bc
000001f0: 7c77 46bc 180c dcbc 9c61 e3bc 7134 733c
0.03768313 0.014154017 0.02732825 -0.003559502 0.022574702 -0.016581554 -0.02780551 0.012977148
0.016624011 -0.004215653 -0.02961918 0.002949042 -0.021121366 0.018922705 -0.011636901 0.029602781
0.023356082 -0.028657198 -0.039299868 -0.036931958 0.0020340905 0.030211927 -0.026118943 0.011183006
0.035496406 0.005598863 -0.024680963 0.017020239 -0.014767031 -0.01980263 -0.031264804 0.020025965
0.028127106 0.017247703 0.024924397 -0.0006568987 -0.019373696 -0.013687997 0.04218086 -0.038024105
0.03454553 0.026254531 -0.021528732 0.02470626 0.03879537 -0.039269764 0.015892187 0.02176355
-0.03685472 0.035976063 0.024239656 -0.030489517 -4.839897e-05 0.009524061 -0.010521193 0.0005696428
-0.0073656156 0.015313039 0.014816661 0.03393975 -0.0022939285 0.032398697 -0.029084472 0.004437997
0.034774918 -0.008492123 0.014689359 0.011364668 -0.010505223 0.018215586 0.029213607 -0.02913222
-0.012102986 -0.001817198 -0.007612637 -0.04179843 -0.008502443 -0.012030525 0.0039330097 -0.010181805
-0.009022856 -0.00012663608 -0.02814227 -0.0029878344 -0.036078107 -0.027713552 0.0030758157 -0.006677121
0.017553328 -0.02869939 -0.017235918 -0.005029685 -0.0047535514 -0.023436388 -0.025441334 -0.039629336
-0.0098754065 -0.02397701 0.028009236 -0.01141729 -0.0098304255 0.016762579 -0.026898613 -0.011163315
-0.0013903975 0.027683886 -0.02105855 -0.0060879714 0.013835093 0.041603032 -0.0053347303 -0.036802407
0.0066793105 -8.109516e-05 -0.050106876 -0.029182032 -0.0025141612 -0.021987498 0.03005457 0.014894992
-0.019123565 -0.012728117 -0.028510086 -0.010248599 -0.012113448 -0.026861235 -0.027756505 0.014844046

weight f4 [128, 128]
00000000: c735 903d 976c 8c3c 972a 01bd 1839 383d
00000010: e3fc 9d3d 6cf4 18bd 64ad 893d 5bcd 713c
00000020: b41a 0b3b 9840 363d 41ef 023d eea3 7a3d
00000030: 58f5 753c 514f c8bb 5dfd 5e3d 867e 2d3d
00000040: b87b 9abd 8610 8b3d a7c2 acbd 1d5b 6abd
00000050: 00b8 433a c2a8 c23c eea7 77bd 54b5 573c
00000060: 50e9 21bc d5f0 f5bb 2a4f 473c 60ec 38bd
00000070: ca41 153d 3f7d 22bd 80aa 94ba 087a 4bbd
00000080: a362 783d 8b10 1f3d da2e 93bd d3fb 9abb
00000090: 4846 4ebd 5dfb 883d 9c49 ab3d 611a 43bc
000000a0: c650 39bd 5d3f 8e3d 2ade 07bc 692e 7ebd
000000b0: d1f9 053d 64ec 2f3d 4a08 e23c 3a25 5a3d
000000c0: e7a8 b1bd e7a9 063c 3d63 0c3c 1b39 12bd
000000d0: 7107 38bd da52 24bd ea4c 0a3d bf51 a2bc
000000e0: a162 903d 94fd 263d 1977 f8bc a320 0c3d
000000f0: 9403 b03c f0dd 62bd 5521 77bd 2bca 47bd
00000100: a280 363d b848 a73d 553c a63d 8156 c93d
00000110: 500b 9a3d a0f4 3abd ab1b b23d e870 a2bc
00000120: 17b9 8dbd 1811 2fbb 7db1 93bc bc93 85bc
00000130: 0e77 60bd e569 77bc 2d2a 173d 38be 2dbd
00000140: 55dc 293d fd9c 8bbc 7d4b b03d 0bc3 4bbc
00000150: 676e 07bd 6220 773c e807 8abd a861 8d3c
00000160: 77d2 1b3d 14c8 ba3c dca7 a63d 372d a7bc
00000170: 9745 db3c f577 8abd 93ca 7a3d c855 f0bc
00000180: 3f3e 55bd 555a afbd 6547 61bd b7d1 82bc
00000190: 1dff 913d 32c7 fdbc 76cc 9fbd 5169 9bbd
000001a0: de7c 433d 7a70 62bd 3822 55ba e293 64bd
000001b0: 3ced 373c 9688 9ebd 22aa ccba ce38 b0bd
000001c0: 0e42 5bbd c915 b4bc cdb8 6d3d 80cd 723a
000001d0: c522 37bd 7ffa aebd bd4e 993d 4620 873d
000001e0: 3793 2abd adaf 9dbd 2a77 c93c 4b6b 9f3d
000001f0: 690a a8bd 438e a5bd c9dd 99bc 5d63 13bd
00000200: 6653 6cbd 4ad7 6bbd b5a0 b63c 07f4 98bd
00000210: d024 123d 67a1 fdbc b5dd 7e3b 5aae 923c
00000220: f469 973c 8a37 9abd 1f2a c8bb 13b8 d8bc
00000230: d57c a73d 54b0 6abd 70fd 203d 004c b63a
00000240: 8d69 9b3d 6719 b73b 8d6e 0b3d 7525 0bbc
00000250: da0e 6b3d 5dab b9bc e7d3 4cbb 0b97 87bd
00000260: a0bf cb3b b760 37bd 5d06 7b3d d50e 4e3d
00000270: 28e4 af3d 1494 b83c ffa7 9bbd 8509 553c
00000280: 8854 ed39 2240 683d a141 cf3a eabb 8ebd
00000290: f644 adbd 749f 93bd 946e 72bc 7fca cd3b
000002a0: fd49 9bbd 75c8 3abd ad3e d0bb a50e 673d
000002b0: 09f4 053d 31cb 9c3c 6eb0 7c3d 6d7d 653d
000002c0: 9ad1 583d c002 14bd 1cc4 19bd 7373 aa3c
000002d0: 6c38 92bd 06d0 12bd 46aa f23c b0eb 9cbd
000002e0: 0f74 97bb 4d33 9fbd f035 853d 77b8 aabc
000002f0: d8d4 833c 79ca b13d d1c1 143c 853e 67bd
00000300: 68ad a03c 6845 273d 475b e93c cc99 a93c
00000310: a1cc 1a3c 71a5 3c3d 47dc 6abd cf9a 08bd
00000320: 8b1a a53c 84d7 983c eacd 7c3d e032 9ebd
00000330: 19da 20bc 532f 2ebd dba3 343d 56c3 673d
00000340: 01f4 6abb f812 81bd df09 5c3d 40c7 593d
00000350: 6244 d43c 8446 96bd 12c7 133d 713a 883d
00000360: ce5a abbd a263 5abd 94de 48bd e4c6 7e3d
00000370: 9117 1a3d 0024 b4b8 e236 2a3d a24b 1b3d
00000380: 9581 52bd 109a 28bd f0ac aa3c 0503 a9bd
00000390: 02f8 24bd d732 89bc 107d 1abd 68d2 af3d
000003a0: d586 933d bd5a 60bc 2e91 453b b5fd 403d
000003b0: 726f a83d c29f 9abd 2ef9 b6bc 5f11 633d
000003c0: 06df 7c3d 1528 2abd 4964 2ebd 5e73 8fbd
000003d0: 240a ab3d bf10 453c f0d2 623c 1ca7 663d
000003e0: 50e8 46bd d0e4 babc 8255 81bb 9141 8f3d
000003f0: c8eb ce3c 3042 7ebc a69a 543c dadb 123d
0.07041507 0.017141623 -0.031534757 0.044976324 0.0771425 -0.037342474 0.06722525 0.014758433
0.0021225633 0.044495195 0.03196645 0.06119149 0.015012108 -0.006112971 0.054440845 0.04235699
-0.07543129 0.06790261 -0.084355645 -0.0572158 0.0007466078 0.02376211 -0.060462885 0.013165791
-0.009882286 -0.007505516 0.01216487 -0.0451473 0.036439694 -0.039670225 -0.0011342317 -0.049676925
0.060640942 0.038834136 -0.071866706 -0.004729727 -0.050359994 0.06688569 0.08363649 -0.011908145
-0.045243047 0.06945679 -0.008292714 -0.06205598 0.032708947 0.04295005 0.027591843 0.05325816
-0.08674794 0.008219219 0.008568582 -0.03569899 -0.04492897 -0.040118076 0.033764757 -0.01981437
0.07050062 0.040769175 -0.030330228 0.034210812 0.021486081 -0.055387437 -0.060334522 -0.048776787
0.044556268 0.08168167 0.08116976 0.098309524 0.07521689 -0.04564345 0.086966835 -0.019829229
-0.06920069 -0.002671307 -0.018028969 -0.016305797 -0.05480104 -0.015100931 0.036905456 -0.042417735
0.04146989 -0.017042631 0.08608148 -0.012436639 -0.033064272 0.015083404 -0.06739789 0.01725848
0.03804251 0.022800483 0.081374854 -0.020407302 0.026766581 -0.06761161 0.061228346 -0.029337779
-0.052061316 -0.08562151 -0.054999728 -0.01596914 0.07128737 -0.030978773 -0.0780267 -0.07588447
0.047726505 -0.055283047 -0.0008130404 -0.055805095 0.011225995 -0.077408955 -0.0015614668 -0.08604585
-0.05352979 -0.021983044 0.058037568 0.0009262189 -0.044710893 -0.08543872 0.07485721 0.065979525
-0.0416443 -0.07699523 0.024592955 0.077841364 -0.082051106 -0.08083775 -0.018782513 -0.035983432
-0.057696722 -0.057578363 0.022293428 -0.074684195 0.03567964 -0.030960752 0.0038889472 0.017905403
0.01848314 -0.075301245 -0.006108537 -0.02645496 0.08178107 -0.057297066 0.039304197 0.0013908148
0.075884916 0.005587745 0.034040976 -0.008492817 0.05738721 -0.02266472 -0.0031254233 -0.06620606
0.006217912 -0.04476997 0.061285365 0.050307114 0.08588439 0.022531547 -0.07600402 0.013002758
0.00045267143 0.056701787 0.0015812406 -0.069694355 -0.08460419 -0.07208148 -0.014796872 0.006280243
-0.075824715 -0.045601327 -0.006355128 0.05641045 0.032703433 0.019139858 0.061691694 0.05602782
0.052934267 -0.036135435 -0.03754054 0.020807004 -0.07139668 -0.035842918 0.029622208 -0.07662141
-0.0046219896 -0.07773457 0.065044284 -0.020839913 0.016092703 0.08681197 0.009079413 -0.056456108
0.019613937 0.040837675 0.028485907 0.020703219 0.009448201 0.046056215 -0.05733898 -0.033350762
0.020154258 0.018657453 0.061719812 -0.077245474 -0.0098176235 -0.0425256 0.044101577 0.05658277
-0.0035851004 -0.06302446 0.05372035 0.053168535 0.025911514 -0.073376685 0.03607852 0.06651772
-0.08366929 -0.053317674 -0.049040392 0.062201396 0.03762013 -8.5897744e-05 0.041556247 0.037913926
-0.05139311 -0.04116255 0.020834416 -0.08252529 -0.04027558 -0.016747875 -0.037716925 0.08585054
0.072034515 -0.013693509 0.0030146348 0.047116954 0.082243815 -0.07550003 -0.022335615 0.05543649
0.06173613 -0.04154213 -0.042576108 -0.070044264 0.083515435 0.012027918 0.013844237 0.05631171
-0.048561394 -0.022814184 -0.003946961 0.06994928 0.025258914 -0.01551871 0.012976324 0.035854198

bias f4 [128]
00000000: bff9 893d dacf e2bc a6ac dd3c d885 04bd
00000010: b59d d63c 25e9 c23d f008 273d 01bf 6d3d
00000020: 3bea 643c 6707 783b 3f6e 533d 06e1 49bd
00000030: 44e6 9e3d d9ea 9dbd 0f62 9abd d924 9c3d
00000040: 9a93 5abd b1dc 833d eecd f33c 39c6 a03d
00000050: 64fb 293d 7495 90bc 2867 563d 88a3 60bd
00000060: daec 723d 18f0 ee3c 35b0 393c 04eb ea3c
00000070: 8280 7cbd 4b78 f23c ab4a a13d 236d d03b
00000080: 2245 553d 54c8 683d 14cb eabc e61a c73d
00000090: 811a 8fbd 716d a03c a799 e8bc 2ec8 b1bd
000000a0: b266 c1bc dd9e 73bc fde9 91bc 282e bc3d
000000b0: 8132 5e3d 4b9f 8abd 6df0 0f3d c700 903d
000000c0: 6e57 893d 98b9 adbc 3e30 073c e26b 54bd
000000d0: afd3 1cbd d9a5 42bd ea16 95bd 803f 113d
000000e0: f7c2 04bd d691 92bd 7624 82bd e3c6 85bd
000000f0: 2a79 143b 0be9 7e3d 60ad 82bd 4285 9d3d
00000100: 9ac5 b6bc 62bb 93bd 3792 aebd a6bf a03c
00000110: d729 da3c 1ae2 783d ae4f efbc 568e 81bd
00000120: ba70 8cbd 101a 6ebc a2bf cc3c 2a5a ee3b
00000130: 2933 8a3d a5ab a43c 707f 5d3d 83b2 923d
00000140: 4480 043c 7dd1 8e3d 5afa c53c c2ad 1ebd
00000150: d3c8 9ebd b3a7 4b3d f81c b1bd 4686 e43c
00000160: 6e4b 093c 1528 e8bc 4d1a c83b 1576 c23c
00000170: 3bcf 5b3d 0e14 b1bc 73c0 56bd 5960 45bc
00000180: 2eac 923d 0a24 4ebd 1ec7 a6bd a11b 71bb
00000190: 2d11 7a3c 7274 a33c 3ecd 27bc 4248 50bd
000001a0: 5880 82bd cb2c a7bd 8a29 9b3d da5e 06bd
000001b0: c6d0 13bd b606 8d3d 996f f73c ab18 5dbd
000001c0: de30 9bbd 2df9 993c 404b b33b 8792 50bc
000001d0: 4609 463d b700 893b 700b 01bd 7e85 473c
000001e0: 6cab 3ebc d71f 5ebc 8ebd 6abd a857 14bc
000001f0: c550 bf3d 7bef adbc b175 1f3d a4e5 50bd
0.067370884 -0.027687002 0.027059864 -0.032354206 0.026198247 0.09517125 0.040780008 0.058043484
0.0139718605 0.003784621 0.05161881 -0.049286865 0.077587634 -0.07710809 -0.075382344 0.07624216
-0.05336342 0.06438578 0.02976128 0.07850308 0.04149951 -0.01764939 0.05234447 -0.054843456
0.05930791 0.02916722 0.011333515 0.028676517 -0.061645992 0.029598376 0.0787557 0.0063606664
0.052067883 0.056831673 -0.028661288 0.09721927 -0.06987477 0.019583436 -0.02839358 -0.08680759
-0.02360854 -0.014869419 -0.01781177 0.09188491 0.054247383 -0.06768664 0.035141397 0.07031398
0.06706129 -0.021206662 0.008251248 -0.051860698 -0.038287815 -0.047521446 -0.07279761 0.03546095
-0.032412495 -0.07156722 -0.063546106 -0.06532075 0.0022655227 0.062233966 -0.06380725 0.076914325
-0.02231102 -0.07213475 -0.08523982 0.019622635 0.026631279 0.060762502 -0.029212799 -0.063259766
-0.068574384 -0.014532581 0.024993721 0.007273932 0.06748039 0.020101378 0.054076612 0.07162955
0.0080872215 0.069735505 0.024167228 -0.038739927 -0.07753148 0.049720477 -0.086481035 0.027896058
0.0083798 -0.028339425 0.006106651 0.023737947 0.053664427 -0.021616008 -0.052429628 -0.012046897
0.07161747 -0.05032734 -0.08143447 -0.003679015 0.015262884 0.019952986 -0.010241805 -0.05085016
-0.06372136 -0.081628405 0.07576282 -0.0328053 -0.036087774 0.06886046 0.030204581 -0.053978603
-0.0757768 0.018795574 0.005471617 -0.012730247 0.048348688 0.0041809934 -0.03150505 0.012177823
-0.01163755 -0.013557396 -0.05730968 -0.009054102 0.093415774 -0.021232357 0.0389306 -0.051000252

weight f4 [2, 128]
00000000: 6846 913d e4e4 60bd b6fb 023e b722 173c
00000010: 4f5d aabd f1a3 6d3e 0ff3 1a3d a83c 16bd
00000020: 37ea 0f3d f6dd f1bc 7d71 6dbd 67e4 213d
00000030: d37b 6dbd a714 ea39 6d27 ad3d 1646 b4bd
00000040: 204d b93d 4dbd d0ba 4b30 f03d 1e2a 033d
00000050: de9b 0d3e d39c 883d 4774 093e b117 9bbd
00000060: f694 3d3d eae0 5e3c 5977 85bd 3f3b ee3d
00000070: c641 2dbd 7db8 013e f052 cdbb 4e9e ae3c
00000080: 003c af38 3ea8 89bd c6c5 6a3d 58c9 673e
00000090: b6cf 543d 3696 ecbd a6b0 8ebd 3c5e 233c
000000a0: a8a5 4d3d 04d5 b63c 8ab8 2e3c 515c 13bc
000000b0: c55f 273e 7a8e ffbb e89d e93d bbcb 2d3d
000000c0: 2247 d6bd ccaf 47bc 0eb1 5b3d 6bf7 373d
000000d0: 42d3 7a3d d9ef 143b 825e 6b3d 9552 073e
000000e0: 3066 1abd 6b76 abbc 4999 1c3b 1f62 013e
000000f0: 1d48 6e3c d8a0 803e fcf3 2c3d 4964 2bbd
00000100: a87d a5bd 3b63 86bd 6c3a 803d a2b9 063d
00000110: 9352 2d3d 6912 873b e7eb 6abc 788c 31ba
00000120: 3297 97bb 15c4 5fbe b4cd 023e 489c 87bd
00000130: abe7 d9bd bae2 a9bd bb29 35bc 0ddf 313e
00000140: 249d 8bbd 518d 86bd ae62 a0bc 0b93 673d
00000150: ebf8 9f3c e9d4 a8ba 1d9d 47be de36 fabb
00000160: 670c 413d e6f3 f6bd 8e5f 5f3d f855 9e3d
00000170: 5f1e 723d fa8f e33d 5c11 0ebe 70d3 66bd
00000180: 421d 2bbc 48ff edbd 8cf1 34be b78e bb3d
00000190: c655 26bd beba d339 245a d0bc db4b a1b8
000001a0: 598a 383d dea3 9c3d 1209 fdbd b28e ba3d
000001b0: 8bbd 3bbd 3244 f93c ad98 863d a5ba e6bd
000001c0: 3729 0abe 9f09 0f3e 7030 b63b 7e40 5fbd
000001d0: 930b 97bd 525f 463d db9e 1e3b 6c1f 1cbe
000001e0: 4a2d 673c 0f40 d63b 5c3d 2b3d 98d0 a9bd
000001f0: 2fc7 313e df8a 09be 1862 7dbd ac62 eebc
00000200: a94d 78bd ea60 69bd a67d d6bd 8662 9ebd
00000210: 08c4 da3c fb7b 65be c1e6 07be 8d84 9d3d
00000220: 0e17 853d 5d77 0abd 31cd a83c 516e 8b3b
00000230: 5fc8 97bd 9d73 13bd c664 90bd 20b5 b2bc
00000240: 327c 23be 5f13 adbd ec4d 2dbe 17f0 6c3c
00000250: 4966 63bc c26a 1e3d 1348 0abe e8dd a2bd
00000260: 626b 283d 8625 2dbd 877a 593d 9801 45bd
00000270: 6c14 7cbc 1125 fdbd ff53 823d d823 d33c
00000280: be23 163d edc5 0dbc 7860 0cbd f686 63be
00000290: b665 febd 39a5 263c 53f7 9a3c d82d 7e3d
000002a0: 3cce 8d3d aa03 cfbd 5024 0c3e 8e62 debd
000002b0: 03ea 10be 8614 7abd 6be1 023d 256a 623d
000002c0: 52f9 1b3e cfe6 27bd 2742 a53d 70f2 133d
000002d0: 6ff0 98bd fe92 e6bd 94cb 7f3d 059c debc
000002e0: 4eac 713d cb32 49bd d676 9a3d 6b37 31be
000002f0: e951 6abd 875a 85be 959f 353d 90e5 973d
00000300: 9a31 823b 8f1a 9cbd 905a c33c 1ec9 9e3d
00000310: 89cc 2cbe 9ec5 2bbd edb7 56bd 5bb8 d1bd
00000320: bb16 43bd 57a9 5c3e c83f d1bc 4ec3 b23d
00000330: 6a2e 0a3d 625f d5bb 2750 9d3d 7d96 debd
00000340: 0c83 bdbb 98fb c83d cbb4 673c 1d22 9c3b
00000350: 6c02 b6bc d52f 813d f527 393e a200 5c3d
00000360: 6669 27bd 6df7 6f3d 41fd f7bc 77c0 9dbc
00000370: 8053 803d b39c 78bd 3564 823d 37fd bc3a
00000380: 1fef 61bd 6362 88bc f120 223e 9b9c d9bd
00000390: 03ca 903d 3431 2a3c 0e8d 053d aa01 453d
000003a0: 8d0e 7f3d 0a36 24bd 99fa a53d e095 0c3c
000003b0: 5f8f 9fbd 8085 95bd 44f9 1bbc 4b05 a03c
000003c0: 977d 2e3e 142e 16be 5004 49bc 6c97 7b3d
000003d0: 880f f43c f521 92bd 2065 6bb9 536f 9cbc
000003e0: dcf5 bcbd c5fe 9c3d 4742 893d edce 8e3d
000003f0: c000 24be 318f 443d bb2e b7bc 734e 933d
0.07093507 -0.054905787 0.12791333 0.009224585 -0.083185785 0.2320707 0.037829455 -0.03667894
0.035135474 -0.029524785 -0.05796956 0.039524462 -0.057979416 0.00044647345 0.084547855 -0.0880243
0.090479136 -0.0015925557 0.11727961 0.032022588 0.1382899 0.06670537 0.13423263 -0.07572878
0.04628464 0.013603428 -0.065169044 0.11632394 -0.042299055 0.12668033 -0.0062659904 0.02131572
8.355826e-05 -0.06721543 0.057317518 0.226354 0.0519559 -0.11552088 -0.06967287 0.009971198
0.05020681 0.02231837 0.010664115 -0.008994178 0.16345127 -0.007798967 0.11407071 0.04243062
-0.10462786 -0.012187909 0.05363565 0.04491369 0.061236627 0.0022725968 0.057463177 0.13215096
-0.03769511 -0.02093049 0.0023895076 0.12635086 0.01454356 0.25122714 0.04222487 -0.041843686
-0.08080608 -0.065618955 0.06261143 0.032891877 0.042315077 0.0041220677 -0.01433847 -0.00067729456
-0.004626178 -0.21852143 0.12773782 -0.06621605 -0.1063989 -0.08295198 -0.011057313 0.17370243
-0.068170816 -0.06569923 -0.019578304 0.056536715 0.019527873 -0.0012880835 -0.19493528 -0.007635935
0.04713097 -0.12058239 0.054534487 0.07731241 0.059110995 0.11111446 -0.1387381 -0.056353986
-0.010443987 -0.11620957 -0.17670268 0.0915808 -0.040609144 0.0004038419 -0.025433607 -7.6912074e-05
0.045053814 0.07648443 -0.12355246 0.09109248 -0.04583506 0.030428026 0.06572089 -0.11266068
-0.13492285 0.13968514 0.0055599734 -0.054504864 -0.073752545 0.04843075 0.0024203572 -0.15246361
0.014109919 0.006538398 0.041806564 -0.08291739 0.17361139 -0.13431881 -0.061861128 -0.029099785
-0.060620937 -0.05697719 -0.10473184 -0.077336356 0.026704803 -0.22410576 -0.1327162 0.07691298
0.06498538 -0.03380524 0.020605655 0.004255094 -0.07411265 -0.03599893 -0.07050471 -0.021814883
-0.15965346 -0.0845096 -0.16924256 0.014461539 -0.013879367 0.03867603 -0.13504057 -0.079524815
0.041118033 -0.042272113 0.053095367 -0.048097223 -0.015385728 -0.123605855 0.06363677 0.025773928
0.03665518 -0.008653146 -0.034271687 -0.22219452 -0.124217436 0.010171228 0.018916762 0.06205544
0.06924102 -0.10108121 0.13685727 -0.108586416 -0.14151768 -0.06105473 0.031953257 0.05527701
0.15231827 -0.0409916 0.08069258 0.03611988 -0.07467734 -0.11258505 0.062450007 -0.027174005
0.059002213 -0.049120706 0.075421974 -0.17306297 -0.05720702 -0.2604563 0.044341642 0.074168324
0.003973198 -0.07622253 0.023846895 0.07753204 -0.16874899 -0.04193651 -0.0524215 -0.10240241
-0.0476291 0.21548973 -0.025543109 0.08728658 0.03373567 -0.0065116147 0.076813035 -0.10868547
-0.0057834443 0.09813613 0.0141422255 0.004764809 -0.022217952 0.06307951 0.18081649 0.05371154
-0.040872 0.058585573 -0.030272128 -0.019256813 0.06265926 -0.060696315 0.06366769 0.0014418726
-0.055159684 -0.016648477 0.15832879 -0.10625573 0.07069781 0.0103877075 0.032605223 0.04809729
0.062269736 -0.0400906 0.08104438 0.008580655 -0.07791018 -0.07300854 -0.009519879 0.019533774
0.17040096 -0.14666015 -0.012269095 0.061423704 0.029792562 -0.07135383 -0.00022449018 -0.019096052
-0.092265815 0.07665781 0.067020945 0.06973062 -0.16015911 0.04798812 -0.02236115 0.071926974

bias f4 [2]
00000000: f4d0 c73d c3d1 b6bd
0.097566515 -0.089267276
