graph2vec_optimization/model/10_mlp_graph2vec_opt_2.pt (torch_old, 382907 bytes, 6 tensors)

weight f4 [128, 600]
0.018001486 -0.028906068 -0.026923265 -0.0010692141 0.014160628 0.017555544 -0.01124724 -0.007358676
-0.02614623 0.025380269 0.027761035 -0.029727606 0.011884936 0.021409446 -0.00031906652 -0.003576695
-0.014851582 0.011784679 -0.029322308 0.03318256 -0.012108922 -0.00974336 -0.007871074 -0.008915703
-0.041243106 -0.030818108 0.019658638 -0.042136695 0.010242238 0.01856056 0.027362162 -0.0070273094
0.03783425 -0.018636782 -0.014702996 -0.014849722 -0.0006108488 0.03800029 0.032537725 -0.039854042
-0.0012828547 -0.0007681528 0.012556306 0.036507547 -0.005070871 -0.022505207 0.017347837 0.00484422
-0.025896939 -0.02516966 -0.009683286 0.0061949845 -0.0026348915 0.013808239 0.018873433 0.029395562
-0.02660216 0.012695168 -0.037103303 -0.0376347 0.036114875 0.029141525 -0.033939496 -0.02077691
-0.045721162 -0.023204194 -0.020369343 0.026154062 0.027837079 0.039097782 -0.013616506 -0.013132328
0.0099374335 0.009474919 0.0065265377 -0.027164267 7.4645686e-05 -0.032024287 -0.022277374 0.0025568546
0.03054478 -0.012793515 -0.018559763 -0.040585313 0.009984727 0.03680409 -0.01993593 0.048172884
0.005996856 -0.03419054 -0.009296334 0.016872657 -0.013950601 -0.027909001 0.018252455 -0.016788287
0.017443394 0.0013992916 -0.03554664 0.031658445 -0.015352435 0.025400901 -0.00044506948 0.002776653
-0.037616786 0.009916939 -0.043304246 0.018408732 0.028474739 -0.024282182 0.025964867 0.020646079
-0.005621112 -0.02306143 0.02498943 0.0046781343 0.014102316 7.837356e-05 0.006790797 0.016427053
0.026651189 -0.021984687 -0.036369603 -0.0047843955 -0.021415591 -0.031720992 -0.033652768 -0.011230821
-0.03585164 0.008882171 0.016463155 0.038583156 0.028823955 -0.009737271 -0.014036922 0.019549452
-0.007956563 0.0063981735 0.0014659081 0.028096281 -0.022024583 0.023274865 0.024208283 0.0129677495
-0.02152338 0.024320707 0.00021206643 0.04621127 -0.011358471 -0.004776043 0.005456122 -0.014286388
-0.023068652 0.042653903 -0.003357821 -0.0020010595 0.002461357 0.007626257 -0.033831913 -0.012056491
0.037944455 -0.02000137 0.0036562209 -0.03613228 0.021095267 0.023302848 -0.017329987 -0.034695867
0.033753853 0.022380125 0.0037872184 0.029414404 0.0415232 -0.008971366 -0.024653686 -0.010791274
-0.012926521 0.0038621586 0.03644848 0.041694395 0.024201987 0.0340895 0.0047022104 0.024905847
-0.006440526 -0.0021479002 0.019280529 -0.030797707 0.03901755 -0.016465971 0.04306097 0.0038363796
0.018285524 -0.03371077 0.03660493 0.044839505 -0.02442098 -0.04410978 0.033837877 -0.026251208
0.03194381 -0.027172543 0.021981271 0.040307082 -0.00016533791 -0.027329106 0.03422686 -0.028289426
-0.017369222 0.023497464 -0.016855113 -0.005374891 0.005757151 -0.012703928 -0.01773809 0.02002771
-0.030558258 -0.0025109851 -0.025707932 -0.03456085 -0.028097654 9.345868e-06 0.0011126362 0.024438882
0.027752943 -0.0335181 -0.017704625 -0.035271764 -0.00305297 -0.0076735397 0.028789774 -0.031706456
-0.026333869 0.024759222 -0.038085844 -0.008488986 -0.020115117 -0.014689828 0.009499771 0.036734752
-0.031139974 -0.025707617 -0.021823468 0.03788959 0.023305146 -0.009933641 0.014066795 0.010662252
0.010990631 -0.0069399523 -0.0062358114 -0.034517594 0.018586142 0.014467554 -0.03479505 -0.03534975
00000000: da77 933c 6bcc ecbc 2e8e dcbc df24 8cba
00000010: fb01 683c a5d0 8f3c 5846 38bc 0c21 f1bb
00000020: 9e30 d6bc 48ea cf3c 1c6b e33c 4f87 f3bc
00000030: 09b9 423c dd62 af3c 6248 a7b9 fc66 6abb
00000040: 0d54 73bc 8714 413c 5635 f0bc 70ea 073d
00000050: 8064 46bc 9da2 1fbc adf5 00bc 2b13 12bc
00000060: 88ee 28bd 4276 fcbc 270b a13c 8797 2cbd
00000070: 0fcf 273c 510c 983c 9d26 e03c 5845 e6bb
00000080: 16f8 1a3d 2aac 98bc d6e4 70bc 404c 73bc
00000090: 5e21 20ba 31a6 1b3d 4746 053d fe3d 23bd
000000a0: 7625 a8ba dd5d 49ba f7b8 4d3c f088 153d
000000b0: 8d29 a6bb d75c b8bc 0d1d 8e3c 43bc 9e3b
000000c0: d125 d4bc 9a30 cebc a5a6 1ebc 4cff ca3b
000000d0: 25ae 2cbb f43b 623c 759c 9a3c f6ce f03c
000000e0: c6ec d9bc 65ff 4f3c a2f9 17bd d826 1abd
000000f0: 31ed 133d 35ba ee3c 2404 0bbd 5734 aabc
00000100: 1d46 3bbd b916 bebc 9cdd a6bc 0b41 d63c
00000110: 960a e43c ff24 203d c417 5fbc fa28 57bc
00000120: 9ed0 223c b13c 1b3c 91dc d53b 9987 debc
00000130: 198b 9c38 e62b 03bd 0a7f b6bc e790 273b
00000140: 0c39 fa3c e49b 51bc a50a 98bc c93c 26bd
00000150: fb96 233c e3bf 163d ad50 a3bc ee50 453d
00000160: 4681 c43b 610b 0cbd a74f 18bc 8738 8a3c
00000170: 1091 64bc 6ba1 e4bc 2c86 953c 9787 89bc
00000180: 73e5 8e3c 6f68 b73a 5b99 11bd 49ac 013d
00000190: c888 7bbc 8d15 d03c 3758 e9b9 82f8 353b
000001a0: 0f14 1abd a87a 223c cb5f 31bd e9cd 963c
000001b0: db43 e93c 6deb c6bc 46b4 d43c f721 a93c
000001c0: 4e31 b8bb 53eb bcbc a2b6 cc3c 094b 993b
000001d0: 670d 673c 7c5c a438 5685 de3b 0792 863c
000001e0: 9853 da3c 3b19 b4bc 4bf8 14bd 6bc6 9cbb
000001f0: c06f afbc dfed 01bd 7cd7 09bd 7a01 38bc
00000200: 2bd9 12bd 8686 113c bddd 863c 5f09 1e3d
00000210: 3720 ec3c 1389 1fbc 1efb 65bc 2c26 a03c
00000220: 3e5c 02bc c5a7 d13b b723 c03a 2c2a e63c
00000230: e66c b4bc eeaa be3c 7350 c63c af76 543c
00000240: cd51 b0bc 383c c73c 265e 5e39 0748 3d3d
00000250: e118 3abc 5a80 9cbb 45c9 b23b 7411 6abc
00000260: 78fa bcbc dcb5 2e3d e30e 5cbb 3524 03bb
00000270: b84e 213b aee5 f93b 5593 0abd 9788 45bc
00000280: a56b 1b3d ead9 a3bc 359d 6f3b 71ff 13bd
00000290: fbcf ac3c 9de5 be3c 9ef7 8dbc 411d 0ebd
000002a0: 7b41 0a3d 8656 b73c fb32 783b 7af6 f03c
000002b0: 3b14 2a3d a3fc 12bc 87f6 c9bc e2cd 30bc
000002c0: c2c9 53bc 451c 7d3b 004b 153d bec7 2a3d
000002d0: 3f43 c63c 6ea1 0b3d 0015 9a3b 5907 cc3c
000002e0: 0c0b d3bb c9c3 0cbb 33f2 9d3c 794b fcbc
000002f0: ded0 1f3d a5e3 86bc b360 303d c56b 7b3b
00000300: 86cb 953c 4e14 0abd 0def 153d a1a9 373d
00000310: 820e c8bc 75ac 34bd 9699 0a3d c60c d7bc
00000320: 83d7 023d f498 debc 1112 b43c 0a19 253d
00000330: 8f5e 2db9 4ae1 dfbc 7731 0c3d 3abf e7bc
00000340: e649 8ebc c17d c03c bc13 8abc db1f b0bb
00000350: 7ca6 bc3b 2324 50bc 794f 91bc 2711 a43c
00000360: 5055 fabc 578f 24bb 7199 d2bc ae8f 0dbd
00000370: 0d2d e6bc 33cc 1c37 e0d5 913a 0d34 c83c
00000380: 245a e33c 464a 09bd 4a09 91bc 2079 10bd
00000390: 5614 48bb 5172 fbbb 88d8 eb3c a1de 01bd
000003a0: 20ba d7bc dad3 ca3c e7ff 1bbd 6315 0bbc
000003b0: 75c8 a4bc 9bad 70bc eda4 1b3c 2e77 163d
000003c0: 4219 ffbc c898 d2bc 21c7 b2bc 1d32 1b3d
000003d0: 6fea be3c b6c0 22bc 6a78 663c bab0 2e3c
000003e0: 0c12 343c 8a68 e3bb c755 ccbb 5262 0dbd
000003f0: f741 983c 5209 6d3c 4185 0ebd e6ca 10bd

bias f4 [128]
0.014983071 -0.03193649 0.02410297 0.019445471 -0.020652462 -0.014849551 0.044030882 -0.010733805
0.033713702 -0.017772498 0.032272354 0.027297938 0.011320791 0.020279104 0.022866642 0.010129359
0.03517299 0.037754457 -0.0036962302 0.020081267 0.0003943416 -0.02663322 -0.014716979 -0.00013611106
-0.03437187 -0.042223856 -0.01350409 -0.027852075 0.007860894 0.024974445 0.018257946 0.045988787
-0.05079065 0.012954269 -0.026747694 -0.031013213 0.00046222555 0.03761684 -0.032804765 -0.019612296
0.033744138 0.00037330107 0.040518556 0.011560858 -0.018384038 0.023663491 0.022863546 0.014150867
-0.00798554 0.03176201 -0.008255087 0.012446429 0.0027479338 -0.0003289184 0.032971572 0.024073498
0.015992992 0.025132984 0.0066682356 -0.027679326 0.0108114295 -0.021846721 -0.003503697 0.03055562
-0.037537668 0.02549884 0.006598696 -0.048682 0.005907934 -0.02409338 0.022519795 -0.031998884
0.023476189 -0.028377116 -0.024752442 0.0006082028 -0.0232731 -0.0338101 0.029750278 0.017424818
-0.0012519982 0.011622547 0.030048385 -0.026712326 0.018842958 0.02000708 -0.01846326 0.014172966
0.023289956 -0.047912728 0.010296553 0.023724386 -0.036399785 0.028696494 -0.04029644 -0.017524054
-0.012992773 0.0018006674 -0.029222256 -0.016280247 0.00026699304 0.027646111 -0.02462167 -0.018084042
-0.0008474771 -0.010889338 0.03793784 -0.015172369 -0.030337056 0.009900484 0.0075546233 -0.03885595
-0.012323359 0.027645675 -0.027904715 0.0058803335 -0.011954292 -0.03208453 0.03169669 0.004701541
-0.038907394 -0.02803725 0.024633253 -0.004767319 0.015028759 -0.022856442 0.024802007 -0.01973512
00000000: 8e7b 753c d6cf 02bd 9773 c53c 1c4c 9f3c
00000010: 5a2f a9bc 884b 73bc ba59 343d d7dc 2fbc
00000020: 6117 0a3d a197 91bc 0430 043d ed9f df3c
00000030: d77a 393c 5d20 a63c d352 bb3c 9cf5 253c
00000040: 8e11 103d 6ba4 1a3d 743c 72bb 7881 a43c
00000050: a2bf ce39 e92d dabc 7c1f 71bc 09b9 0eb9
00000060: 85c9 0cbd ecf2 2cbd 4240 5dbc 092a e4bc
00000070: fbca 003c 3597 cc3c b091 953c bd5e 3c3d
00000080: db09 50bd 243e 543c fb1d dbbc 6c0f febc
00000090: dd56 f239 1e14 1a3d 4a5e 06bd f7a9 a0bc
000000a0: 4b37 0a3d 9fb7 c339 c9f6 253d c169 3d3c
000000b0: 1f9a 96bc f0d9 c13c 554c bb3c 0ad9 673c
000000c0: c8d5 02bc e218 023d 5840 07bc 1bec 4b3c
000000d0: ae16 343b ae72 acb9 330d 073d c935 c53c
000000e0: bc03 833c b0e3 cd3c 3781 da3b c1bf e2bc
000000f0: 6c22 313c e5f7 b2bc 489e 65bb c84f fa3c
00000100: 19c1 19bd f1e2 d03c e039 d83b c766 47bd
00000110: 5897 c13b 7b5f c5bc 6f7b b83c 4311 03bd
00000120: 2351 c03c 2077 e8bc a2c5 cabc cd6f 1f3a
00000130: 3aa7 bebc 767c 0abd dbb6 f33c 7ebe 8e3c
00000140: 171a a4ba 7f6c 3e3c 0828 f63c cfd3 dabc
00000150: 8c5c 9a3c e3e5 a33c 4340 97bc ba35 683c
00000160: 94ca be3c 2340 44bd e0b2 283c a559 c23c
00000170: f117 15bd e914 eb3c e10d 25bd 9b8e 8fbc
00000180: a4df 54bc 5f04 ec3a 8363 efbc 275e 85bc
00000190: 33fb 8b39 197a e23c 62b3 c9bc fc24 94bc
000001a0: 3a29 5eba 3269 32bc b564 1b3d 8795 78bc
000001b0: 6b85 f8bc a435 223c c68c f73b 6b27 1fbd
000001c0: eae7 49bc 2f79 e23c 6e98 e4bc d0af c03b
000001d0: efdb 43bc 116b 03bd 63d4 013d 620f 9a3b
000001e0: 5c5d 1fbd 60ae e5bc adcb c93c 2c37 9cbb
000001f0: 2f3b 763c 6f3d bbbc 942d cb3c 8cab a1bc

weight f4 [128, 128]
0.07228772 0.061496448 0.0294931 -0.08634408 0.018755466 0.066453755 -0.05325466 -0.088292435
-0.075908504 0.027196137 0.08505571 -0.019005366 -0.09310185 -0.0024352323 0.055059414 0.06279148
-0.03242717 0.06525308 -0.018725067 -0.017610831 0.067951776 -0.026253646 -0.07062816 -0.052883286
0.072732426 -0.062516764 0.0667156 -0.0050794515 -0.0029987067 0.06914486 0.004864379 -0.06690015
-0.025487622 0.08439522 0.05526658 0.022592258 -0.061758988 -0.05484797 -0.05294095 -0.006744284
0.03676466 -0.055796012 -0.06399037 -0.0032040384 -0.0193176 0.06975765 -0.03919556 0.01761179
-0.020645497 -0.029805437 -0.00652376 0.01785772 -0.07297111 0.05344624 -0.08412515 0.05203851
0.057126895 -0.036350556 0.03076693 0.04398453 0.022730974 0.04786399 0.045158755 0.023361292
0.04944581 0.046156425 0.008963659 0.01331921 0.0169245 0.05812724 0.032101374 0.023568885
0.008452572 0.04368927 0.050924536 -0.06431696 -0.05948478 0.016976083 -0.06479751 0.026593586
-0.003105924 -0.0785785 0.029554153 -0.081426464 0.07563358 -0.004830374 0.038766064 0.0049358015
-0.06357163 -0.07356344 -0.048613667 0.08313745 -0.033049755 0.021950547 0.0066611236 -0.018778965
0.067948975 0.02485405 0.07944215 0.020421723 0.001844545 0.030419143 0.06869754 0.024001159
-0.038960896 -0.010126235 0.009249538 0.059388053 0.016531285 0.0019643584 -0.022074284 0.08642777
-0.087885015 -0.057231776 0.03391698 0.05405634 0.04556156 0.05196439 0.08553561 -0.04295446
0.05036263 0.006036965 -0.019482134 0.08028226 -0.019710414 0.06981429 -0.008051932 0.019917516
-0.012672906 0.0016773365 0.032799736 -0.035185494 0.06541536 0.025255123 -0.035933226 -0.044768594
0.027213763 -0.055891003 -0.024026249 0.008450867 -0.067412466 0.06855751 0.054823257 0.05515588
-0.0138012245 -0.021333816 -0.048043773 -0.047753666 -0.032974504 0.045915406 0.011647705 -0.050812226
-0.08004527 -0.035944846 -0.061800208 -0.041129466 -0.022569533 0.030110614 0.025579002 -0.08565026
0.058281045 -0.047596782 0.08114029 -0.048574056 0.05713462 0.08330606 0.025128001 -0.008016109
-0.07759807 0.0215267 0.039864365 -0.08821511 0.010465172 -0.07607323 -0.0033874756 0.030852566
-0.04911058 -0.026702866 -0.031176636 0.023695488 -0.023029745 -0.04597484 -0.028777653 -0.005532577
-0.073000304 -0.04495462 -0.08176438 -0.029246276 0.038513932 0.063630834 0.011595853 0.05424128
-0.02051582 -0.024273459 0.04952504 0.061149973 0.060494103 0.0397017 0.080811836 -0.05229487
0.082929954 0.0053778486 0.0868738 0.08235366 0.046081595 -0.017149197 -0.039433442 -0.030893039
0.08431521 -0.048005857 -0.025680257 0.02391616 -0.054606587 0.004036213 0.05074454 0.03836858
-0.07335741 -0.05137688 0.015658665 0.031860344 0.075990245 -0.069570296 -0.008774252 0.070696436
-0.029143661 -0.014450082 -0.081125386 -0.00024255416 0.0714343 -0.048979532 0.000909078 -0.062218342
0.068544574 -0.023997523 0.025639335 0.021254176 -0.00045051836 -0.0777588 -0.063157655 -0.018332412
0.022692239 -0.025344133 -0.055977814 -0.013404891 -0.016731253 -0.02235476 0.07351929 0.0012551408
0.0017182098 0.037445996 -0.025515854 -0.08647503 -0.043001916 -0.009833157 -0.030358125 -0.03313375
00000000: 960b 943d b3e3 7b3d 839b f13c 2ad5 b0bd
00000010: 10a5 993c e818 883d 8f21 5abd aad2 b4bd
00000020: eb75 9bbd 6fca de3c b031 ae3d 24b1 9bbc
00000030: 2fac bebd 6b98 1fbb fb85 613d d298 803d
00000040: 5ad2 04bd 68a3 853d 5065 99bc 9744 90bc
00000050: 4d2a 8b3d e311 d7bc 7fa5 90bd 259c 58bd
00000060: bdf4 943d ca08 80bd 30a2 883d 8771 a6bb
00000070: f385 44bb d29b 8d3d 5e65 9f3b f202 89bd
00000080: 6bcb d0bc 67d7 ac3d 365f 623d 6613 b93c
00000090: fef6 7cbd 44a8 60bd 9cd8 58bd 28ff dcbb
000000a0: 8a96 163d 5c8a 64bd 620d 83bd d8fa 51bb
000000b0: f23f 9ebc 19dd 8e3d 868b 20bd 9a46 903c
000000c0: bf20 a9bc 882a f4bc 44c5 d5bb 5a4a 923c
000000d0: e171 95bd 72ea 5a3d cf49 acbd 5526 553d
000000e0: e4fd 693d 52e4 14bd ee0a fc3c 1f29 343d
000000f0: 4f36 ba3c 080d 443d 63f8 383d 2e60 bf3c
00000100: b187 4a3d 850e 3d3d 50dc 123c d138 5a3c
00000110: 40a5 8a3c d416 6e3d bb7c 033d 8913 c13c
00000120: a87c 0a3c 85f3 323d 3f96 503d 9cb8 83bd
00000130: 50a6 73bd 6d11 8b3c 8fb4 84bd cbda d93c
00000140: c28c 4bbb c4ed a0bd 8d1b f23c ebc2 a6bd
00000150: c7e5 9a3d 1d48 9ebb 2ac9 1e3d 81bc a13b
00000160: d831 82bd 6ea8 96bd 201f 47bd f843 aa3d
00000170: 2e5f 07bd a2d1 b33c 8e45 da3b 58d6 99bc
00000180: d528 8b3d b89a cb3c 91b2 a23d 754b a73c
00000190: a9c4 f13a 9131 f93c 4cb1 8c3d 149e c43c
000001a0: 7695 1fbd 82e8 25bc 608b 173c e340 733d
000001b0: 9e6c 873c 77bc 003b 21d5 b4bc 0b01 b13d
000001c0: 0ffd b3bd de6b 6abd 88ec 0a3d 2e6a 5d3d
000001d0: c29e 3a3d 9dd8 543d 4b2d af3d 04f1 2fbd
000001e0: 0c49 4e3d bcd1 c53b ff98 9fbc 076b a43d
000001f0: bc77 a1bc cbfa 8e3d 40ec 03bc 0f2a a33c
00000200: 05a2 4fbc 13da db3a 0459 063d aa1e 10bd
00000210: 7df8 853d d5e3 ce3c b82e 13bd 465f 37bd
00000220: 66ef de3c f7ed 64bd b2d2 c4bc 8175 0a3c
00000230: 8c0f 8abd e167 8c3d 5a8e 603d 22eb 613d
00000240: 881e 62bc 41c4 aebc 8cc9 44bd 5999 43bd
00000250: 4610 07bd cb11 3c3d 04d6 3e3c 7b20 50bd
00000260: c6ee a3bd e73a 13bd 3722 7dbd 5f77 28bd
00000270: bee3 b8bc 89aa f63c 0e8b d13c 6769 afbd
00000280: 1bb8 6e3d d8f4 42bd e12c a63d 97f5 46bd
00000290: fe05 6a3d 5e9c aa3d 3dd9 cd3c ff55 03bc
000002a0: bdeb 9ebd c358 b03c d148 233d 20aa b4bd
000002b0: 1d76 2b3c 48cc 9bbd 6900 5ebb 85be fc3c
000002c0: 2d28 49bd f8bf dabc 2566 ffbc 0a1d c23c
000002d0: e0a8 bcbc 1d50 3cbd 1dbf ebbc 9f4a b5bb
000002e0: 2f81 95bd 5622 38bd 1574 a7bd e395 efbc
000002f0: c9c0 1d3d e250 823d 88fc 3d3c 1b2c 5e3d
00000300: cb10 a8bc 22d9 c6bc c5da 4a3d 6578 7a3d
00000310: aac8 773d 409e 223d ad80 a53d 2533 56bd
00000320: 2ed7 a93d aa38 b03b e4ea b13d 09a9 a83d
00000330: 0ec0 3c3d 797c 8cbc f684 21bd 6613 fdbc
00000340: 74ad ac3d caa1 44bd 675f d2bc d3eb c33c
00000350: 28ab 5fbd 3542 843b 82d9 4f3d 5f28 1d3d
00000360: 693c 96bd 9070 52bd 9a46 803c fe7f 023d
00000370: c6a0 9b3d df7a 8ebd e1c1 0fbc 4bc9 903d
00000380: b0be eebc 09c0 6cbc 1125 a6bd 2356 7eb9
00000390: 254c 923d c39e 48bd 314f 6e3a a9d8 7ebd
000003a0: 1961 8c3d 7496 c4bc 9509 d23c 3d1d ae3c
000003b0: 8d33 ecb9 0140 9fbd cd58 81bd db2d 96bc
000003c0: 13e5 b93c 809e cfbc fe48 65bd 30a0 5bbc
000003d0: fb0f 89bc 5421 b7bc 4891 963d 8983 a43a
000003e0: 8e35 e13a f960 193d a006 d1bc d219 b1bd
000003f0: c722 30bd 401b 21bc 9ab1 f8bc 41b7 07bd

bias f4 [128]
0.07911171 0.08174615 0.028639607 0.07896722 -0.047812123 0.02533948 0.08393223 0.07356251
0.029798044 -0.022117162 -0.017982153 0.0669474 0.06528995 0.06573789 0.02361689 0.07896869
-0.061255984 -0.073331796 -0.019898549 0.030024141 0.09024199 -0.00471595 -0.03607546 0.03048364
-0.07420541 0.018175047 0.09281264 -0.054208435 0.041523606 -0.05938899 0.058389787 -0.029165518
0.06915329 -0.08132458 0.0021648863 0.06324328 -0.071848854 0.002819294 -0.006718724 0.029937625
-0.035151236 0.07396785 0.0036227421 0.040345743 -0.0062216357 -0.07998486 -0.06206358 0.0829917
-0.021585282 0.06117234 -0.020614808 -0.049855713 0.05042819 0.0044138734 0.00438943 0.04788152
-0.07584221 -0.0051556877 0.030546013 -0.012055445 -0.032570302 -0.04048779 0.01828548 -0.08615437
0.07903175 -0.07262652 -0.06630783 0.051136263 -0.013906905 0.04136932 0.05434649 0.031243348
-0.021864925 -0.02865198 -0.078799754 0.028338043 0.061405167 -0.034244034 0.058738567 -0.03509117
-0.008697418 0.04758103 0.06520682 -0.014889775 0.014526834 -0.0026075437 -0.0127745215 -0.004327856
-0.021560036 0.05806133 0.06590039 -0.041190837 0.045769203 0.08024121 -0.09579414 0.06656881
0.009033434 -0.006692156 -0.012653633 0.054168276 0.04922314 -0.075456865 -0.07156747 -0.01850626
0.06285881 0.06399698 -0.06636126 0.07725948 0.020651978 -0.008184027 -0.031050961 -0.06258632
-0.055625293 0.020527037 0.076834284 -0.058175646 -0.05022856 -0.011262745 -0.009907619 0.012389918
-0.008235668 -0.0411312 -0.029133443 0.03281392 -0.03042617 -0.037503406 -0.086548835 -0.063182905
00000000: 5205 a23d 876a a73d 9c9d ea3c 91b9 a13d
00000010: a5d6 43bd be94 cf3c a9e4 ab3d f1a7 963d
00000020: 071b f43c 0d2f b5bc 4f4f 93bc b81b 893d
00000030: bdb6 853d 96a1 863d 3578 c13c 56ba a13d
00000040: 8ee7 7abd fb2e 96bd 4802 a3bc 30f5 f53c
00000050: cbd0 b83d 4288 9abb ddc3 13bd d4b8 f93c
00000060: 02f9 97bd d6e3 943c 8e14 be3d aa09 5ebd
00000070: a814 2a3d df41 73bd 212a 6f3d 86ec eebc
00000080: 3da0 8d3d 808d a6bd c4e0 0d3b b185 813d
00000090: 7e25 93bd e8c3 383b be28 dcbb c03f f53c
000000a0: befa 0fbd 757c 973d 876b 6d3b 9441 253d
000000b0: ddde cbbb 1acf a3bd 6136 7ebd 8df7 a93d
000000c0: 9ed3 b0bc d98f 7a3d 63e0 a8bc 8135 4cbd
000000d0: ca8d 4e3d 41a2 903b 35d5 8f3b 6a1f 443d
000000e0: 2953 9bbd 0bf1 a8bb a23b fa3c 3484 45bc
000000f0: 7068 05bd 86d6 25bd 6ecb 953c b471 b0bd
00000100: 66db a13d 37bd 94bd 66cc 87bd 4274 513d
00000110: cad9 63bc e072 293d 6d9a 5e3d 0df2 ff3c
00000120: 121e b3bc 8fb7 eabc c461 a1bd 2f25 e83c
00000130: fc83 7b3d 7943 0cbd da97 703d c2bb 0fbd
00000140: 9d7f 0ebc 53e4 423d 278b 853d 3ef4 73bc
00000150: f501 6e3c 53e3 2abb 3a4c 51bc b0d0 8dbb
00000160: ac9e b0bc b8d1 6d3d c9f6 863d b9b7 28bd
00000170: 7d78 3b3d 8155 a43d b82f c4bd 3a55 883d
00000180: f800 143c e049 dbbb 2f51 4fbc 8edf 5d3d
00000190: 349e 493d 2189 9abd f791 92bd 719a 97bc
000001a0: 1fbc 803d d910 833d 6ae8 87bd 383a 9e3d
000001b0: 562e a93c 4c16 06bc 965e febc 422d 80bd
000001c0: 59d7 63bd 5128 a83c 4b5b 9d3d 9649 6ebd
000001d0: 76bc 4dbd 6087 38bc 9153 22bc 15ff 4a3c
000001e0: e5ee 06bc 3079 28bd 42a9 eebc e467 063d
000001f0: 4e40 f9bc 2c9d 19bd 8440 b1bd 0a66 81bd

weight f4 [2, 128]
-0.03800801 -0.058708657 -0.1246674 0.060120374 -0.029994737 -0.03692306 -0.08182711 0.0647299
0.10906843 0.095598675 -0.07435454 -0.1250385 -0.051176917 0.07004064 -0.04320549 0.03611168
0.022471055 -0.042513017 0.025430689 0.064745165 0.08307539 0.106813736 0.05966504 0.086581275
-0.059621267 0.012248556 0.16813605 0.10059941 0.108993925 0.21541435 -0.11521977 -0.104360655
-0.012689598 -0.14179587 -0.013253464 0.05782514 0.056704577 0.054071367 -0.091262266 -0.04879782
-0.055176847 -0.08685533 0.13596281 0.03565216 -0.08852974 0.0067285723 0.02366111 -0.083634265
0.054240838 -0.07315256 0.0927528 0.09831102 0.09469796 0.0136553245 0.06671718 0.100521296
0.041046944 0.019854683 -0.22187705 -0.063738674 -0.052680556 -0.04298809 -0.06400698 -0.07746817
-0.08652151 -0.06878187 -0.08053996 -0.08957725 -0.035092555 0.13979189 -0.047377307 0.035327345
-0.09423479 0.03956551 -0.14485607 -0.040005796 -0.029917642 -0.15822338 0.09495498 0.2387376
0.0059155384 -0.043931752 -0.013758082 -0.06076848 0.02368278 -0.072134666 0.041933957 0.04743371
-0.011404043 -0.027653813 -0.06771853 -0.03532794 0.008937472 -0.006771588 -0.08445303 -0.026231922
0.115862764 -0.08533227 -0.012871276 -0.13078533 -0.0020399708 0.0027524333 -0.24823697 0.060852896
0.051342778 0.001579307 0.058459934 0.016029896 0.0054121464 0.028858647 0.07847301 -0.17982703
0.0514353 -0.06320114 -0.098178856 0.08014052 -0.086165465 -0.061196513 0.08341466 0.13590722
0.14096442 -0.022494182 0.09795368 -0.010822064 -0.16025174 -0.006405473 0.029356167 -0.1696632
0.027984738 0.007840844 0.13155589 -0.0637527 0.01471476 0.04787394 -0.04958748 -0.049558416
-0.10378583 -0.05975929 0.025160544 0.17044984 0.021993125 -0.03518995 0.0321635 -0.13288888
0.0690017 -0.06886241 -0.04255205 0.030128084 -0.06073971 -0.11288154 -0.07021803 0.01982327
0.11348374 -0.045644518 -0.034089 -0.0795737 -0.16165861 -0.23198546 -0.025128527 0.047451235
-0.05554763 0.14274263 -0.022222273 -0.13475595 0.047801927 -0.045283087 -0.05117888 0.02004467
0.046357464 0.005706337 -0.03370807 -0.045322534 -0.027341926 -0.04437328 0.019335415 -0.08827417
0.05854257 0.09538632 -0.11147775 -0.07085352 -0.14385664 -0.04598621 0.0834077 -0.08587076
-0.03721714 0.041272104 0.22040452 -0.04456671 0.046415262 -0.046987046 0.075804844 0.056458183
0.0055283806 -0.0058164774 0.12738292 0.027624067 0.049932424 -0.12588277 0.09159867 -0.060571127
0.027805235 -0.08097465 0.12935409 -0.04881428 0.050337423 0.15137857 -0.029379532 -0.19980972
0.012203347 0.04019553 -0.041252196 -0.07504921 -0.0003814498 -0.07400297 -0.014296846 0.0024983585
0.02138553 0.01817213 -0.011878012 0.00677208 -0.11576595 -0.11957725 0.16194858 0.031140255
-0.10346059 0.026950777 0.027644932 0.062374678 -0.10456618 -0.06476236 0.21912523 -0.021745596
0.022088706 -0.06868989 0.010719882 -0.0629691 0.000374931 -0.07824486 -0.14004649 0.20191227
-0.12496304 -0.05066834 0.071072586 -0.04139879 0.054059125 -0.04463154 -0.022299323 -0.15807636
-0.12548791 -0.083719365 -0.074033014 -0.12812434 0.1394601 -0.11066191 0.025136095 0.17947507
00000000: 49ae 1bbd 7d78 70bd 9f51 ffbd c840 763d
00000010: 86b7 f5bc a23c 17bd f994 a7bd 1c91 843d
00000020: 455f df3d 3dc9 c33d 3147 98bd 180a 00be
00000030: e39e 51bd 7871 8f3d 3df8 30bd d7e9 133d
00000040: 3815 b83c 2122 2ebd 0554 d03c 1d99 843d
00000050: 6e23 aa3d 29c1 da3d 5463 743d 8651 b13d
00000060: 6e35 74bd 2bae 483c db2b 2c3e 1007 ce3d
00000070: 3538 df3d 9495 5c3e 58f8 ebbd 0abb d5bd
00000080: 08e8 4fbc f032 11be 0f25 59bc 0eda 6c3d
00000090: 0f43 683d f079 5d3d b6e7 babd 39e0 47bd
000000a0: 1e01 62bd 35e1 b1bd d639 0b3e 0008 123d
000000b0: 154f b5bd 5b7b dc3b f2d4 c13c 7148 abbd
000000c0: a42b 5e3d 02d1 95bd 2ef5 bd3d 4a57 c93d
000000d0: 01f1 c13d 95ba 5f3c 04a3 883d 1cde cd3d
000000e0: d720 283d 4aa6 a23c bd33 63be 6c89 82bd
000000f0: 91c7 57bd 4814 30bd 1716 83bd a2a7 9ebd
00000100: 3032 b1bd 82dd 8cbd 22f2 a4bd 4774 b7bd
00000110: 36bd 0fbd 9b25 0f3e b50e 42bd 68b3 103d
00000120: 2bfe c0bd 720f 223d 2655 14be 1edd 23bd
00000130: d815 f5bc 4f05 22be c277 c23d a177 743e
00000140: 22d7 c13b c8f1 33bd 9469 61bc 5fe8 78bd
00000150: 6402 c23c 57bb 93bd f1c2 2b3d da49 423d
00000160: 06d8 3abc 408a e2bc 03b0 8abd 08b4 10bd
00000170: 796e 123c 33e4 ddbb b6f5 acbd 54e4 d6bc
00000180: 7549 ed3d afc2 aebd 0be2 52bc 97ec 05be
00000190: 08b1 05bb 2b62 343b d531 7ebe e340 793d
000001a0: ce4c 523d c000 cf3a af73 6f3d 2151 833c
000001b0: 6058 b13b f868 ec3c 75b6 a03d 9424 38be
000001c0: d2ad 523d 996f 81bd ff11 c9bd b720 a43d
000001d0: 8577 b0bd 32a9 7abd 4ed5 aa3d 432b 0b3e
000001e0: fa58 103e b845 b8bc f09b c83d 074f 31bc
000001f0: 0819 24be 01e5 d1bb 587c f03c 31bc 2dbe
00000200: 4040 e53c e276 003c 96b6 063e c790 82bd
00000210: 2d16 713c 7717 443d 3e1c 4bbd c4fd 4abd
00000220: aa8d d4bd 28c6 74bd 7c1d ce3c 678a 2e3e
00000230: ed2a b43c 5623 10bd e0bd 033d 0614 08be
00000240: c350 8d3d bc07 8dbd 0f4b 2ebd 2ccf f63c
00000250: 34ca 78bd 702e e7bd 78ce 8fbd 6964 a23c
00000260: 2a6a e83d bff5 3abd e8a0 0bbd 89f7 a2bd
00000270: d689 25be 998d 6dbe 57da cdbc 3a5c 423d
00000280: e985 63bd 202b 123e 7c0b b6bc 77fd 09be
00000290: f4cb 433d c27a 39bd f2a0 51bd b834 a43c
000002a0: 53e1 3d3d 39fc ba3b 7911 0abd 1fa4 39bd
000002b0: 2dfc dfbc c2c0 35bd 4e65 9e3c 17c9 b4bd
000002c0: 55ca 6f3d e759 c33d 724e e4bd a61b 91bd
000002d0: 284f 13be 095c 3cbd a8d1 aa3d 02dd afbd
000002e0: 0071 18bd f00c 293d b9b1 613e 958b 36bd
000002f0: ee1d 3e3d 7d75 40bd 923f 9b3d b240 673d
00000300: 6b27 b53b 2698 bebb ab70 023e de4b e23c
00000310: f185 4c3d 6ae7 00be 1598 bb3d 6e19 78bd
00000320: cec7 e33c 0ad6 a5bd 6675 043e 7cf1 47bd
00000330: 9d2e 4e3d fc02 1b3e 58ad f0bc eb9a 4cbe
00000340: 8cf0 473c 11a4 243d 10f8 28bd 66b3 99bd
00000350: 53fd c7b9 de8e 97bd 523d 6abc 80bb 233b
00000360: b530 af3c b8dd 943c fe9b 42bc 53e8 dd3b
00000370: b316 edbd ebe4 f4bd d9d5 253e d919 ff3c
00000380: 25e3 d3bd e0c7 dc3c a077 e23c 977c 7f3d
00000390: cb26 d6bd 21a2 84bd 5d62 603e d223 b2bc
000003a0: 60f3 b43c 49ad 8cbd 72a2 2f3c f2f5 80bd
000003b0: 6392 c439 d73e a0bd 5968 0fbe 17c2 4e3e
000003c0: 9fec ffbd 9b89 4fbd 818e 913d c791 29bd
000003d0: 1a6d 5d3d 90cf 36bd 12ad b6bc c5de 21be
000003e0: e77f 00be 0f75 abbd 9f9e 97bd 0733 03be
000003f0: a1ce 0e3e b6a2 e2bd 36ea cd3c 50c8 373e

bias f4 [2]
0.013585223 -0.13639905
00000000: 8e94 5e3c 31ac 0bbe
