graph2vec_optimization/model/10_mlp_graph2vec_opt_5.pt (torch_old, 382907 bytes, 6 tensors)

weight f4 [128, 600]
-0.0153795015 -0.039835926 0.0074706855 0.0024102766 -0.018024256 0.015198847 0.03042956 -0.028249448
0.017918246 0.015208031 -0.016890517 -0.03467117 -0.0003392903 0.0029796795 0.035033982 0.016350316
0.032977466 -0.020250853 0.02749576 0.0014307827 0.022252245 -0.0346135 -0.02042552 0.033697598
-0.03742507 -0.030125948 -0.008150606 0.035995867 0.0033856689 0.0295014 -0.028047694 0.02091734
-0.048023783 0.023981038 -0.016060686 -0.019807763 0.004010424 0.029448962 0.022693906 0.015109028
-0.017571026 -0.009446136 0.008164576 -0.025417801 0.0037286745 -0.00891438 -0.011778539 0.039389927
-0.022894248 -0.015727887 0.0042659366 -0.008695745 -0.016627561 0.014208818 0.0089907395 -0.0137103675
-0.022578139 -0.030534029 -0.017201614 0.047769457 0.009287471 -0.028153209 0.017163716 0.010951436
-0.009051888 0.030853556 -0.01569523 -0.049220584 0.031434856 0.0017531405 0.028384844 -0.033728138
0.006612237 -0.0032410792 -0.026440721 -0.04097617 -0.034573786 0.020866832 -0.03359327 0.016004179
-0.019693742 -0.03467327 -0.002495375 0.01077732 -0.009789347 -0.011633752 -0.016140554 -0.03628394
-0.03534227 0.038486354 -0.025528226 0.028654277 -0.033212855 0.0185705 0.03873925 -0.016794192
0.012429041 -0.036212325 0.0032189137 0.0057567963 -0.018680407 -0.010958648 0.029397083 -0.00838161
-0.03302536 -0.023974294 0.006484919 -0.025482664 -0.039026964 -0.04601776 -0.011634364 0.018420251
0.011624241 -0.018661052 -0.0015192073 0.012801576 0.012784242 -0.0233028 -0.034459095 0.026524926
-0.014574811 -0.0017682048 -0.016535912 0.017408878 -0.013279024 0.03991253 0.020779178 -0.023692096
-0.027772408 0.046119634 0.0052443705 -0.018068403 0.026507072 0.013654246 0.0032400966 -0.033746418
-0.03654676 0.01547658 0.018835519 0.009170339 0.008491848 0.032802556 0.005792595 0.0034031044
0.004643199 -0.038163174 0.017033571 -0.0017693235 -0.01268209 0.0059219305 -0.02318554 0.018348116
0.040630847 -0.031737205 -0.014624105 -0.0033476446 -0.031565502 -0.018518826 0.019593222 0.017725876
0.02691598 -0.03278897 -0.009834014 -0.022706378 -0.00070142804 -0.012423467 -0.023709677 0.026070673
0.022368586 0.0060892557 -0.02208469 -0.0051833857 -0.032521695 -0.014113794 0.0062752115 -0.03176673
0.029580805 -0.040996935 -0.026486991 0.03349723 -0.04077684 -0.009247308 0.036243092 -0.023591172
-0.029586952 0.04712818 0.004425677 -0.02404259 -0.018948866 -0.01772784 0.015332772 0.020688795
-0.028410623 -0.009313546 -0.023854943 -0.019629868 -0.012936478 0.00020737869 0.012646798 -0.02876292
0.011271221 0.007044364 0.022644846 -0.014216415 -0.021555988 0.02660055 -0.02597764 -0.014548414
-0.0339491 -0.031657696 0.017214593 -0.049340915 0.016215555 0.0128380405 0.030936234 0.013374956
-0.015013089 0.011689917 0.0041711545 -0.030580722 -0.0049241222 -0.004225123 -0.02129537 -0.008727819
0.026423076 0.025777154 0.0060736905 0.039394096 0.013233986 -0.0005521139 0.0038952644 0.041809514
0.009616251 -0.02796311 0.0009085406 -0.024803532 -0.008995105 -0.025979541 0.0042613894 0.024905032
0.03935941 0.04051415 0.037124783 0.015389123 -0.031186989 0.025263749 -0.020555107 0.034866955
-0.022442937 0.01838138 0.0040970305 0.031193996 0.024820402 0.025797788 0.015619652 0.0062452084
00000000: 4efa 7bbc ff2a 23bd a7cc f43b bbf5 1d3b
00000010: 9ba7 93bc 9604 793c 6a47 f93c 636b e7bc
00000020: 49c9 923c 1b2b 793c fb5d 8abc 5b03 0ebd
00000030: c6e2 b1b9 ba46 433b cb7f 0f3d 19f1 853c
00000040: 6113 073d 1ee5 a5bc ca3e e13c 1a89 bb3a
00000050: 574a b63c e3c6 0dbd 6c53 a7bc 7e06 0a3d
00000060: 084b 19bd b1ca f6bc 1f8a 05bc 6770 133d
00000070: 19e2 5d3b ecac f13c 47c4 e5bc d75a ab3c
00000080: 96b4 44bd e273 c43c b391 83bc e443 a2bc
00000090: e069 833b f33e f13c 92e8 b93c db8b 773c
000000a0: 1df1 8fbc f7c3 1abc b7c4 053c fe38 d0bc
000000b0: c75c 743b 9f0d 12bc c6fa 40bc 5557 213d
000000c0: b88c bbbc c5d7 80bc 45c9 8b3b 9978 0ebc
000000d0: 8636 88bc 1acc 683c e54d 133c 73a1 60bc
000000e0: caf5 b8bc 8022 fabc 66ea 8cbc e8a9 433d
000000f0: 7a2a 183c 8fa1 e6bc ec9a 8c3c a76d 333c
00000100: 5f4e 14bc 99c0 fc3c 4893 80bc 869b 49bd
00000110: d6c1 003d a2c9 e53a 5587 e83c 8426 0abd
00000120: 77ab d83b 4968 54bb 369a d8bc a1d6 27bd
00000130: 3e9d 0dbd ebf0 aa3c 1999 09bd 321b 833c
00000140: c554 a1bc 8f05 0ebd 7289 23bb 5b93 303c
00000150: 7f63 20bc 7e9b 3ebc 3239 84bc 789e 14bd
00000160: 0ec3 10bd dea3 1d3d 9220 d1bc 60bc ea3c
00000170: 340a 08bd 2921 983c 0cad 1e3d f993 89bc
00000180: 2da3 4b3c 6053 14bd 69f4 523b 82a3 bc3b
00000190: a707 99bc e78b 33bc 27d2 f03c 0553 09bc
000001a0: 9a45 07bd bd65 c4bc 727f d43b 05c1 d0bc
000001b0: bdda 1fbd 1e7d 3cbd 0f9e 3ebc 11e6 963c
000001c0: 9a73 3e3c 10df 98bc 2320 c7ba b4bd 513c
000001d0: ff74 513c 83e5 bebc fb24 0dbd cd4a d93c
000001e0: 30cb 6ebc 1cc3 e7ba 5276 87bc 109d 8e3c
000001f0: 4390 59bc 527b 233d 1839 aa3c ed15 c2bc
00000200: f682 e3bc f1e7 3c3d f8d8 ab3b 3004 94bc
00000210: 5c25 d93c 0fb6 5f3c cd57 543b af39 0abd
00000220: 0eb2 15bd 7b91 7d3c f24c 9a3c 313f 163c
00000230: 6421 0b3c f95b 063d cfcf bd3b 9e06 5f3b
00000240: fa25 983b fd50 1cbd fd89 8b3c a5e8 e7ba
00000250: 8ac8 4fbc c10c c23b 9aef bdbc ca4e 963c
00000260: 886c 263d dffe 01bd f199 6fbc 2864 5bbb
00000270: d44a 01bd cbb4 97bc f781 a03c db35 913c
00000280: e77e dc3c ba4d 06bd d81e 21bc ba02 babc
00000290: 0ae0 37ba cc8b 4bbc cc3a c2bc 2a92 d53c
000002a0: 533e b73c 6188 c73b f4ea b4bc 64d9 a9bb
000002b0: 7835 05bd 8b3d 67bc 4aa0 cd3b d51d 02bd
000002c0: 7253 f23c 67ec 27bd 3ffb d8bc 6434 093d
000002d0: 9e05 27bd 0582 17bc a373 143d 4642 c1bc
000002e0: 5660 f2bc 7a09 413d 4505 913b f7f4 c4bc
000002f0: a73a 9bbc fa39 91bc 4f36 7b3c 8c7b a93c
00000300: 65bd e8bc d897 18bc 716b c3bc d1ce a0bc
00000310: 85f3 53bc cb73 5939 8434 4f3c 37a0 ebbc
00000320: edaa 383c 69d4 e63b af81 b93c f7eb 68bc
00000330: 2f96 b0bc 66e9 d93c 0fcf d4bc 795c 6ebc
00000340: 360e 0bbd 80ab 01bd 9e05 8d3c b319 4abd
00000350: 7cd6 843c a556 523c fc6d fd3c a222 5b3c
00000360: 76f9 75bc 1187 3f3c 2eae 883b 6c84 fabc
00000370: 885a a1bb e772 8abb a173 aebc 20ff 0ebc
00000380: 3575 d83c 9c2a d33c cf05 c73b b45b 213d
00000390: 5cd3 583c bdbb 10ba b147 7f3b 7440 2b3d
000003a0: 7b8d 1d3c e412 e5bc 212b 6e3a c730 cbbc
000003b0: 3460 13bc 0cd3 d4bc 20a3 8b3b a305 cc3c
000003c0: 5537 213d 2af2 253d 2810 183d a922 7c3c
000003d0: db7b ffbc ecf5 ce3c 2f63 a8bc a7d0 0e3d
000003e0: 40da b7bc 8c94 963c 6240 863b 8d8a ff3c
000003f0: 2854 cb3c e255 d33c 92e9 7f3c 9ba4 cc3b

bias f4 [128]
-0.015870398 0.0344763 0.0272804 -0.03155061 -0.011555079 -0.028230255 -0.03050858 -0.0007723892
-0.013268592 -0.033895694 0.027288634 -0.012686004 0.01792652 -0.0018805905 0.059804663 0.017186243
0.017993832 -0.038711414 0.015571372 0.01681296 0.04116764 0.03740263 0.0120769255 -0.016606713
0.023663677 -0.023068842 0.015928667 -0.01260522 -0.026421819 -0.05623475 0.030104825 0.02532232
0.026356451 -0.027689304 -0.046967145 -0.020276891 -0.029009255 0.030961046 0.0352836 -0.019234726
0.02252584 -0.02989529 -0.0026204297 0.026153296 -0.0076598506 0.009268927 0.022948977 -0.024031105
0.017289381 -0.021818118 -0.02081695 0.023672782 0.009532557 -0.028956208 0.042232998 0.018508442
-0.0051601003 -0.005284212 0.039568014 -0.036171246 -0.009772729 -0.011889297 0.034202788 0.04324807
-0.004250836 0.0071539255 -0.0388588 -0.0064085843 -0.0430192 0.03435769 0.021417757 0.004692116
0.028900107 0.01592344 0.03588978 0.0024300434 -0.017611854 -0.03760563 0.03979284 0.02020418
0.016429737 -0.015949197 -0.033735774 0.0030904948 -0.034476668 0.036851015 -0.031535573 -0.012398323
-0.0047605657 -0.010683859 0.027047364 -0.014262174 -0.0012526624 -0.019011144 0.0077617476 0.014157445
-0.048656218 -0.02172356 0.0113500655 -0.020638393 -0.012860294 -0.036507353 0.0037525147 0.012085661
-0.017806374 0.026100196 0.031892773 0.015048886 0.027690178 0.041716192 0.023048062 0.0015729815
-0.038063042 -0.01902295 0.0012615288 0.036752548 -0.010781075 -0.018181453 -0.027284486 -0.013000133
-0.017163416 0.035843387 0.03500087 0.016589105 -0.0021591913 0.032668527 0.004519144 0.015917704
00000000: a302 82bc 0537 0d3d 257b df3c 363b 01bd
00000010: 8451 3dbc 2343 e7bc 21ed f9bc 297a 4aba
00000020: 8264 59bc 36d6 0abd 6a8c df3c f5d8 4fbc
00000030: a3da 923c 257e f6ba bcf5 743d 2aca 8c3c
00000040: cd67 933c dc8f 1ebd 111f 7f3c 55bb 893c
00000050: 669f 283d 8033 193d 4cde 453c cd0a 88bc
00000060: 54da c13c defa bcbc d67c 823c 2086 4ebc
00000070: 9272 d8bc 6956 66bd 659e f63c c170 cf3c
00000080: 7ce9 d73c aed4 e2bc 9f60 40bd b91b a6bc
00000090: d1a4 edbc 05a2 fd3c 8985 103d 2592 9dbc
000000a0: 1c88 b83c f8e6 f4bc 84bb 2bbb 703f d63c
000000b0: 7cff fabb b3dc 173c 7eff bb3c e1dc c4bc
000000c0: 76a2 8d3c e9bb b2bc 4f88 aabc 6ced c13c
000000d0: 712e 1c3c 9235 edbc 82fc 2c3d 049f 973c
000000e0: 0f16 a9bb 2f27 adbb 1212 223d 4d28 14bd
000000f0: cc1d 20bc 53cb 42bc 3918 0c3d e324 313d
00000100: 994a 8bbb 7a6b ea3b 682a 1fbd 1aff d1bb
00000110: e734 30bd a6ba 0c3d 4b74 af3c 52c0 993b
00000120: ebbf ec3c e071 823c 2901 133d 5d41 1f3b
00000130: bc46 90bc 5c08 1abd d1fd 223d 3d83 a53c
00000140: a897 863c e4a7 82bc 862e 0abd e689 4a3b
00000150: 6837 0dbd 17f1 163d 722b 01bd 5622 4bbc
00000160: 85fe 9bbb 5a0b 2fbc 6f92 dd3c e5ab 69bc
00000170: 6030 a4ba 42bd 9bbc 4256 fe3b a1f4 673c
00000180: be4b 47bd 9bf5 b1bc a0f5 393c d911 a9bc
00000190: fcb3 52bc bc88 15bd c0ec 753b f002 463c
000001a0: acde 91bc 14d0 d53c ffa1 023d 9a8f 763c
000001b0: 83d6 e23c 99de 2a3d 4acf bc3c 802c ce3a
000001c0: fee7 1bbd 05d6 9bbc e259 a53a d789 163d
000001d0: 1ba3 30bc 45f1 94bc b783 dfbc 83fe 54bc
000001e0: 4b9a 8cbc 84d0 123d 125d 0f3d e0e5 873c
000001f0: 3881 0dbb 6fcf 053d 5415 943b d865 823c

weight f4 [128, 128]
-0.029231425 -0.020583486 -0.06340514 0.05986135 0.08565158 0.057080746 0.085838586 -0.03272613
0.06499137 -0.033697538 -0.03513584 0.04177625 0.07590262 0.061917327 -0.0144769875 0.07610151
-0.043156374 -0.016984899 -0.08664767 -0.019569801 -0.011829376 0.035229806 -0.0343061 -0.0452475
0.04207293 -0.039261475 -0.053921252 -0.061314195 -0.034276143 0.057191793 -0.09397536 0.053960584
0.066270046 0.060562123 0.02654307 -0.042694382 0.0015422243 0.055731535 -0.015703766 -0.020726206
-0.008103528 0.059341367 -0.044431716 0.039357383 -0.026110612 0.04183577 0.053305425 0.05120471
-0.08467556 -0.034154806 -0.007710894 -0.09741715 0.012745489 -0.044062156 -0.07343428 0.017107256
0.036677 -0.00493438 -0.009381534 0.073171325 0.08717944 -0.08732553 0.0064098067 0.037168715
-0.057709973 0.08532694 -0.085521184 -0.04492299 0.024917701 -0.08469583 0.008481332 -0.08881408
-0.07772877 0.053830545 -0.025580648 0.036642402 0.07288797 0.030915271 0.029423479 0.0044870926
0.0992318 -0.054144286 -0.021270076 -0.06541855 -0.05552791 0.029160392 -0.00029623878 0.09537882
0.025270559 -0.0549116 -0.11783895 0.0053080227 -0.08762458 0.060417563 8.839154e-05 -0.032725118
0.070865594 -0.042833857 0.07791907 0.015288465 -0.004173914 0.06905715 -0.007829342 -0.08244749
-0.08785795 -0.07453348 -0.091769986 -0.08691563 -0.007437732 0.047384854 -0.028900223 -0.020902224
-0.06916294 0.08641857 0.04299375 -0.048526894 0.01159536 0.07689537 -0.0783785 0.07483006
-0.067571186 0.0658821 0.04725144 -0.08774195 0.04424094 0.05023317 0.08471634 -0.0034493464
-0.059923157 0.07484528 -0.03253818 -0.038053494 0.08107919 -0.022197522 0.05971331 -0.04271719
-0.05493281 -0.087914184 -0.041628506 -0.055923883 -0.0064975247 -0.022661865 0.0075237677 -0.08373802
0.029651538 -0.07455084 0.06517317 0.069569446 0.034922287 0.042027928 -0.043248937 0.053651668
-0.030514825 -0.00946974 -0.023760177 0.010074958 -0.037800528 -0.004262924 -0.08349299 -0.0095786825
-0.027341072 0.06714105 -0.03439087 -0.08157484 -0.06918824 -0.025326617 -0.053902585 0.086388074
-0.07089207 -0.04650163 -0.0045824796 0.057242177 -0.079832464 0.037927486 -0.05441472 0.08208502
-0.021387048 -0.08774864 -0.08326147 0.0045448095 -0.03608156 -0.034371946 -0.044095866 -0.016129643
0.06310747 0.072364904 -0.08310666 -0.004871294 -0.009937018 -0.049377047 0.08341672 -0.010137834
0.087161995 -0.05352064 -0.017372876 -0.058971882 0.03536763 -0.018179052 -0.08266979 -0.08320345
-0.07021713 0.079901285 -0.05614111 0.00703156 -0.017584361 0.076567926 0.08411311 0.046880893
0.06207245 -0.056961223 -0.08419824 -0.0061575994 0.07525552 0.03075841 -0.013548918 0.0715205
0.045115612 0.07246836 -0.03805379 0.0041247085 -0.06204755 -0.00876075 -0.054915056 0.062410824
0.070072584 0.06584676 -0.03407285 -0.048435643 0.038505055 -0.067050666 -0.05367258 -0.012699723
-0.03949913 -0.015323341 0.03861735 0.015296474 -0.012044124 0.07137702 -0.01555524 0.07819118
0.06904852 -7.298589e-05 0.024539381 0.07771426 0.056118123 -0.081540614 -0.030588422 -0.08317673
-0.006678045 -0.07070595 -0.064635344 -0.02758231 -0.0043703616 -0.020488396 -0.011955403 0.04523308
00000000: be76 efbc b39e a8bc 8eda 81bd 2d31 753d
00000010: 186a af3d 80cd 693d 24cc af3d d60b 06bd
00000020: 321a 853d 6e06 0abd 99ea 0fbd 931d 2b3d
00000030: d572 9b3d 069d 7d3d e330 6dbc 1cdb 9b3d
00000040: bdc4 30bd ea23 8bbc 5574 b1bd d950 a0bc
00000050: 00d0 41bc 214d 103d 8e84 0cbd 7155 39bd
00000060: aa54 2c3d a4d0 20bd 88dc 5cbd 9824 7bbd
00000070: 2465 0cbd f141 6a3d 2776 c0bd c605 5d3d
00000080: 97b8 873d fd0f 783d da70 d93c 4ee0 2ebd
00000090: 7624 ca3a c046 643d 2fa5 80bc 01ca a9bc
000000a0: a9c4 04bc ef0f 733d 08fe 35bd 3535 213d
000000b0: ece5 d5bc fc5b 2b3d ca56 5a3d 08bc 513d
000000c0: 616a adbd e9e5 0bbd abab fcbb a582 c7bd
000000d0: 75d2 503c 857a 34bd b664 96bd 8424 8c3c
000000e0: 9f3a 163d 94b0 a1bb 01b5 19bc d9da 953d
000000f0: 228b b23d bad7 b2bd 5b09 d23b 393e 183d
00000100: 4b61 6cbd e4bf ae3d bb25 afbd 2b01 38bd
00000110: 3520 cc3c 0275 adbd 49f5 0a3c 28e4 b5bd
00000120: 4330 9fbd 6b7d 5c3d 828e d1bc 5816 163d
00000130: 4a46 953d 0642 fd3c 8209 f13c 7608 933b
00000140: 0b3a cb3d 66c6 5dbd 953e aebc 29fa 85bd
00000150: 3c71 63bd c6e1 ee3c 7f50 9bb9 f955 c33d
00000160: 3404 cf3c fcea 60bd 8c55 f1bd ecee ad3b
00000170: 8474 b3bd 6878 773d d95e b938 c60a 06bd
00000180: fb21 913d 8e72 2fbd 0994 9f3d 787c 7a3c
00000190: 54c5 88bb d66d 8d3d a446 00bc 3bda a8bd
000001a0: deee b3bd 02a5 98bd e7f1 bbbd d200 b2bd
000001b0: 38b8 f3bb 9f16 423d 29c0 ecbc 243b abbc
000001c0: 4da5 8dbd 38fc b03d 371a 303d 23c4 46bd
000001d0: 77fa 3d3c 527b 9d3d e884 a0bd 8140 993d
000001e0: c362 8abd 32ed 863d ba8a 413d 0db2 b3bd
000001f0: fd35 353d 4cc1 4d3d c37f ad3d 6e0e 62bb
00000200: fc71 75bd 7b48 993d c146 05bd fbdd 1bbd
00000210: d90c a63d 94d7 b5bc f295 743d 38f8 2ebd
00000220: 3a01 61bd 5a0c b4bd a782 2abd 7110 65bd
00000230: 30e9 d4bb 60a5 b9bc f089 f63b d77e abbd
00000240: c8e7 f23c 1cae 98bd 8379 853d 6d7a 8e3d
00000250: ac0a 0f3d 7a25 2c3d cc25 31bd dac1 5b3d
00000260: 3afa f9bc f826 1bbc b4a4 c2bc 7011 253c
00000270: bad4 1abd 00b0 8bbb 5ffe aabd e8ef 1cbc
00000280: 62fa dfbc 3f81 893d 71dd 0cbd b610 a7bd
00000290: 90b2 8dbd c479 cfbc f5c8 5cbd 3bec b03d
000002a0: dd2f 91bd 7e78 3ebd a028 96bb c676 6a3d
000002b0: 347f a3bd da59 1b3d f8e1 5ebd 311c a83d
000002c0: e433 afbc 8fb5 b3bd fd84 aabd a0ec 943b
000002d0: 42ca 13bd 99c9 0cbd de9d 34bd 5022 84bc
000002e0: 7d3e 813d 0d34 943d d333 aabd 609f 9fbb
000002f0: e0ce 22bc 963f 4abd 63d6 aa3d 2819 26bc
00000300: fd81 b23d 7538 5bbd 9051 8ebc 808c 71bd
00000310: a6dd 103d 3cec 94bc c74e a9bd 9266 aabd
00000320: 00ce 8fbd 49a3 a33d 38f4 65bd 0069 e63b
00000330: 140d 90bc a5cf 9c3d 7f43 ac3d 2e06 403d
00000340: ae3f 7e3d 2c50 69bd 2070 acbd b0c5 c9bb
00000350: 911f 9a3d 10f9 fb3c 48fc 5dbc 5779 923d
00000360: 26cb 383d 4b6a 943d 4ade 1bbd 9028 873b
00000370: 9225 7ebd 4089 0fbc 9cee 60bd 7ea2 7f3d
00000380: 3782 8f3d abda 863d f98f 0bbd 7464 46bd
00000390: 7ab7 1d3d dc51 89bd c7d7 5bbd 8012 50bc
000003a0: d7c9 21bd c00e 7bbc 3a2d 1e3d 109e 7a3c
000003b0: b854 45bc 1d2e 923d 68db 7ebc b322 a03d
000003c0: 4f69 8d3d 0010 99b8 d006 c93c a728 9f3d
000003d0: 1edc 653d c4fe a6bd 9294 fabc 9058 aabd
000003e0: 80d3 dabb 48ce 90bd 895f 84bd 4cf4 e1bc
000003f0: 4035 8fbb 48d7 a7bc 98e0 43bc 5246 393d

bias f4 [128]
-0.045525525 -0.08331136 0.050214726 0.045670737 0.05201386 -0.063715644 0.07749783 0.05244603
0.08836643 0.055328432 -0.061151512 0.055169962 0.09379638 -0.0054645 0.067833714 0.05362307
-0.038974058 -0.07346306 0.07784126 0.0043796264 -0.003494866 0.086246446 0.06672957 -0.066102855
-0.054353133 -0.032042112 0.009255692 -0.021251991 0.0847654 -0.012312529 0.04011213 -0.02147914
0.027803935 0.015552409 -0.0014140651 -0.08365448 0.026515009 -0.07782362 0.015064182 0.0014224288
-0.0007098357 -0.063008495 -0.056164075 0.06966964 -0.08429509 -0.035792463 -0.052839987 0.04870942
0.05637833 -0.025023358 -0.004680803 -0.017054455 0.005669332 -0.0008604111 0.020652201 0.0093267895
0.020830883 -0.08820595 -0.106429614 0.06271849 -0.03540339 0.07555668 0.061751496 0.06291996
0.07646875 0.028234513 -0.04026926 0.08649387 0.001314394 0.09291646 0.044015698 0.02416873
0.04863082 -0.08161276 -0.05469266 -0.043147553 -0.0037365472 0.05158917 -0.015022514 -0.040799867
-0.0054204627 -0.04149018 -0.063665584 0.06610503 -0.0079811495 0.07208587 0.04908627 0.06983006
0.005577363 0.05744853 0.01768153 -0.024487875 -0.030409258 0.08018507 0.002992641 0.014074796
0.01036825 0.08820032 -0.050183136 -0.038591538 -0.021356897 -0.067430414 -0.04534358 -0.053033724
-0.049897876 0.067168996 0.036434114 0.025379013 0.09707915 0.0144372815 -0.033927772 -0.055708397
-0.059781052 -0.044274103 -0.05609643 0.021478627 -0.0028834187 0.06150565 0.02789472 -0.059491765
-0.047069058 0.08271712 -0.048029494 -0.084745765 9.572023e-05 -0.07519979 -0.04093282 0.075840704
00000000: f978 3abd 259f aabd f5ad 4d3d 3d11 3b3d
00000010: 7c0c 553d 597d 82bd 2fb7 9e3d a6d1 563d
00000020: 75f9 b43d 11a0 623d 027a 7abd e6f9 613d
00000030: 5118 c03d 8c0f b3bb 67ec 8a3d dda3 5b3d
00000040: 43a3 1fbd cd73 96bd 3d6b 9f3d f882 8f3b
00000050: 1f0a 65bb faa1 b03d 83a9 883d ef60 87bd
00000060: 64a1 5ebd 973e 03bd 30a5 173c a818 aebc
00000070: 7b99 ad3d 7dba 49bc 9e4c 243d 05f5 afbc
00000080: 14c5 e33c 88cf 7e3c 2758 b9ba 0a53 abbd
00000090: 0136 d93c fd61 9fbd c2cf 763c ca70 ba3a
000000a0: 4414 3aba 990a 81bd 4d0c 66bd f5ae 8e3d
000000b0: e7a2 acbd 1e9b 12bd be6e 58bd 8783 473d
000000c0: f7ec 663d c9fd ccbc 6c61 99bb c9b5 8bbc
000000d0: cec5 b93b 368d 61ba ce2e a93c 64cf 183c
000000e0: 87a5 aa3c 52a5 b4bd c5f7 d9bd 8d72 803d
000000f0: 2503 11bd 76bd 9a3d 23ef 7c3d 2edc 803d
00000100: a69b 9c3d 114c e73c 61f1 24bd b323 b13d
00000110: be47 ac3a fc4a be3d ce49 343d 80fd c53c
00000120: 1c31 473d 9724 a7bd 6905 60bd 7dbb 30bd
00000130: dce0 74bb 2a4f 533d fe20 76bc c31d 27bd
00000140: 239e b1bb 9bf1 29bd 1a63 82bd 1362 873d
00000150: 5ec3 02bc c2a1 933d af0e 493d 1003 8f3d
00000160: 50c2 b63b 264f 6b3d dbd8 903c cc9a c8bc
00000170: d61c f9bc 1238 a43d 2f20 443b f999 663c
00000180: 98df 293c 5fa2 b43d d58c 4dbd 2912 1ebd
00000190: a9f4 aebc f518 8abd 31ba 39bd e439 59bd
000001a0: b761 4cbd e68f 893d f03b 153d a6e7 cf3c
000001b0: 6fd1 c63d 598a 6c3c d9f7 0abd 7d2e 64bd
000001c0: fadc 74bd c358 35bd 5fc5 65bd f2f3 af3c
000001d0: bdf7 3cbb 59ed 7b3d 7883 e43c a3ad 73bd
000001e0: 7ccb 40bd 9867 a93d 93ba 44bd 308f adbd
000001f0: 68bd c838 5902 9abd 2ca9 27bd 5f52 9b3d

weight f4 [2, 128]
-0.14405222 0.06656135 0.18473916 -0.003171208 0.12287922 -0.010224752 0.033662554 0.01195241
0.08894502 -0.01729563 -0.03481651 0.03962802 0.14408632 -0.0891926 -0.0230815 -0.02295902
-0.129138 -0.11451755 0.22197342 0.025153765 -0.08175611 -0.068810456 0.10429048 -0.06928749
-0.09166123 0.04889957 0.07695571 -0.023495924 -0.06357253 -0.08499403 0.17356855 -0.068431884
0.1514256 0.0035895407 0.09391336 -0.14578298 0.029018875 0.023693357 -0.05388072 0.1143142
0.09627838 -0.12085096 0.025170978 -0.04951927 0.07198714 0.072679214 -0.023449764 -0.12504104
-0.087995104 0.0031129564 0.016181516 0.064179726 -0.016490623 0.12617812 0.014807965 0.13670227
-0.08617904 -0.07220482 -0.2226508 -0.07449431 -0.21937326 0.07128289 -0.032027572 0.04884912
0.019752834 0.133309 -0.06732756 -0.03264719 -0.04375136 0.032987528 -0.02515971 -0.03699602
-0.06840361 -0.0062294253 0.011715581 -0.024368891 -0.10497906 -0.2392892 -0.038297586 -0.030135196
0.23987588 -0.07398982 -0.030182116 -0.06961236 0.07881807 -0.12594439 0.010270402 -0.057607103
-0.003024429 0.26206863 -0.07399828 -0.059738055 0.047161803 0.055994038 0.11049015 0.01662588
0.07950511 0.05769772 -0.12839712 -0.081861794 -0.076710366 0.008027345 0.0049175816 0.013335198
0.033707574 0.08989948 -0.018153813 0.008840777 0.08495297 -0.052975465 0.018207733 -0.056888424
-0.012735709 -0.07828176 -0.033200853 0.00031316554 0.040772844 -0.097999565 0.0201618 0.0042815907
-0.07579015 -0.038490377 0.029329592 0.029246956 0.031459942 -0.05333954 0.12154954 -0.06797653
0.16654392 -0.05472386 -0.103047185 -0.00065266585 0.016259009 -0.046981238 0.018934226 0.055111006
-0.09778981 0.09252554 0.07320375 -0.036798667 -0.17424226 0.06855388 0.026276123 0.027880428
0.16613705 0.09947393 -0.14757265 -0.023404647 0.0006071739 0.0064126328 -0.101861484 0.08940348
0.017978184 0.08031284 0.057035513 -0.05349475 -0.029514488 0.054021902 -0.11650024 0.08212176
0.009917531 0.080030166 -0.1108664 0.034894217 -0.03463378 0.10196521 0.035544463 -0.04414341
-0.08699479 0.18326694 -0.0035903652 -0.060996264 0.025263118 -0.045094617 0.0290855 0.11951262
0.11164287 -0.031595066 -0.043392316 -0.029305924 -0.058430977 -0.09304879 -0.04764432 0.024634603
0.07439035 -0.0037812502 0.206442 -0.025582075 0.13345052 -0.076773815 -0.020739133 -0.024965769
-0.01731693 -0.08693163 0.079993494 0.022948876 0.12666875 -0.06373123 0.042922057 0.075900845
-0.015020068 -0.041791156 -0.12113064 -0.049001407 0.0037637772 0.22205986 -0.033193037 -0.066984005
-0.22430812 0.011084102 -0.07844786 0.16695221 -0.050669763 -0.011354748 0.07130761 -0.0534726
-0.008269146 -0.24867459 0.049771957 0.1365454 0.027760426 -0.01699937 -0.051424924 0.023295727
-0.050565932 -0.05589776 0.16145486 0.03734447 -0.003874748 -0.08152307 -0.08478842 -0.036005463
0.064464904 -0.112028085 -0.03376726 -0.0038582499 -0.16246079 0.08623849 -0.09594815 0.01755118
-0.029282117 -0.058357906 0.06340722 0.0468248 0.062698774 0.005096354 -0.06614732 -0.088577226
0.051298175 0.066097625 -0.0504981 0.06018705 -0.06478772 0.049127884 -0.1342639 0.040225938
00000000: 6d82 13be 5151 883d 432c 3d3e 0bd4 4fbb
00000010: 1aa8 fb3d b885 27bc bfe1 093d 0bd4 433c
00000020: cf28 b63d 91af 8dbc c29b 0ebd fe50 223d
00000030: 5d8b 133e 9caa b6bd 6a15 bdbc 8e14 bcbc
00000040: c03c 04be 2d88 eabd 004d 633e 450f ce3c
00000050: bf6f a7bd 7fec 8cbd 3f96 d53d 99e6 8dbd
00000060: e2b8 bbbd ea4a 483d f59a 9d3d 867a c0bc
00000070: 5132 82bd 5a11 aebd f4bb 313e 0426 8cbd
00000080: 500f 1b3e 803e 6b3b a655 c03d 2248 15be
00000090: feb8 ed3c 9218 c23c 08b2 5cbd 901d ea3d
000000a0: 992d c53d b580 f7bd 5e33 ce3c b8d4 4abd
000000b0: fe6d 933d d7d8 943d b819 c0bc c20a 00be
000000c0: c736 b4bd be02 4c3b 198f 843c a970 833d
000000d0: 5817 87bc d634 013e 1b9d 723c aefb 0b3e
000000e0: a37e b0bd 1fe0 93bd 92fe 63be 7990 98bd
000000f0: 62a3 60be c4fc 913d 582f 03bd 0416 483d
00000100: b2d0 a13c 2882 083e 08e3 89bd 0fb9 05bd
00000110: a034 33bd ee1d 073d bc1b cebc 2389 17bd
00000120: 3117 8cbd 3520 ccbb b5f2 3f3c 45a1 c7bc
00000130: 43ff d6bd 3a08 75be eedd 1cbd 16de f6bc
00000140: 06a2 753e fa87 97bd 7c40 f7bc ed90 8ebd
00000150: 5e6b a13d 91f7 00be 3045 283c 6df5 6bbd
00000160: 8035 46bb dc2d 863e 698c 97bd e4af 74bd
00000170: bc2c 413d 015a 653d a948 e23d ff32 883c
00000180: 93d3 a23d 7254 6c3d 897a 03be 28a7 a7bd
00000190: 531a 9dbd 2085 033c aa23 a13b e07b 5a3c
000001a0: f410 0a3d 381d b83d 4eb7 94bc e8d8 103c
000001b0: d3fb ad3d cdfc 58bd 6228 953c d603 69bd
000001c0: 6fa9 50bc 3052 a0bd 9efd 07bd 5e30 a439
000001d0: 6d01 273d ffb3 c8bd 5c2a a53c 964c 8c3b
000001e0: de37 9bbd 16a8 1dbd 9d44 f03c 5097 ef3c
000001f0: 24dc 003d 907a 5abd f7ee f83d 4737 8bbd
00000200: 7d8a 2a3e 2026 60bd 670a d3bd aa17 2bba
00000210: 9d31 853c 666f 40bd f31b 9b3c 14bc 613d
00000220: 0646 c8bd 087e bd3d d9eb 953d 33ba 16bd
00000230: 906c 32be fa65 8c3d 0641 d73c 7f65 e43c
00000240: d51f 2a3e fdb8 cb3d 491d 17be 1abb bfbc
00000250: c02a 1f3a 1021 d23b c19c d0bd 2c19 b73d
00000260: fc46 933c 0f7b a43d 129e 693d 501d 5bbd
00000270: 5ec8 f1bc 1246 5d3d ae97 eebd 742f a83d
00000280: 247d 223c dbe6 a33d ec0d e3bd 3ded 0e3d
00000290: 27dc 0dbd 23d3 d03d 1297 113d b8cf 34bd
000002a0: 532a b2bd 54aa 3b3e 554c 6bbb 38d7 79bd
000002b0: 99f4 ce3c 22b5 38bd b744 ee3c 08c3 f43d
000002c0: 04a5 e43d d469 01bd 24bc 31bd fa12 f0bc
000002d0: 5255 6fbd 5d90 bebd b126 43bd 82ce c93c
000002e0: f859 983d dace 77bb 8865 533e 8091 d1bc
000002f0: 41a7 083e 973b 9dbd 1de5 a9bc 0385 ccbc
00000300: 3cdc 8dbc 3609 b2bd a1d3 a33d 48ff bb3c
00000310: 74b5 013e 8585 82bd 0acf 2f3d e771 9b3d
00000320: bb16 76bc 342d 2bbd 5713 f8bd b3b5 48bd
00000330: b4a9 763b a963 633e 6cf5 07bd e92e 89bd
00000340: 07b1 65be 189a 353c 46a9 a0bd 85f5 2a3e
00000350: 198b 4fbd 4409 3abc b909 923d 1606 5bbd
00000360: 507b 07bc 8da4 7ebe aedd 4b3d 8fd2 0b3e
00000370: d569 e33c 4342 8bbc f1a2 52bd aed6 be3c
00000380: 391e 4fbd 0df5 64bd 6c54 253e 84f6 183d
00000390: 7cef 7dbb 91f5 a6bd 8da5 adbd 777a 13bd
000003a0: 2d06 843d fb6e e5bd 8a4f 0abd b1da 7cbb
000003b0: 1f5c 26be ce9d b03d 7780 c4bd 7ec7 8f3c
000003c0: 0de1 efbc b308 6fbd a5db 813d 5dcb 3f3d
000003d0: 3768 803d 51ff a63b 3f78 87bd fa67 b5bd
000003e0: 091e 523d 315e 873d 19d7 4ebd b286 763d
000003f0: 6daf 84bd 523a 493d 7a7c 09be f4c3 243d

bias f4 [2]
0.09128872 -0.09696402
00000000: 95f5 ba3d 1295 c6bd
