graph2vec_optimization/model/20_mlp_graph2vec_opt_1.pt (torch_old, 382907 bytes, 6 tensors)

weight f4 [128, 600]
0	0xbb757d41	-0.003745869
1	0xba693f29	-0.0008897656
2	0xbc6022dd	-0.013680187
3	0x3b9a1cd4	0.0047031436
4	0xbb04f6c5	-0.0020288688
5	0x3cb3478d	0.021884704
6	0xb64dc894	-3.0664132e-06
7	0x3cfab35b	0.030603101
8	0x3ce2a945	0.027668605
9	0x3cdeff4b	0.027221343
10	0xbc8dfbf6	-0.017332058
11	0xb9c9e225	-0.00038506198
12	0xbcd9cadd	-0.02658599
13	0xbcf7d424	-0.030252524
14	0xbcefbc86	-0.0292647
15	0xbc2de3ef	-0.010613426
16	0x3ca12365	0.019670198
17	0xbc8aa651	-0.016925009
18	0xbcc29d24	-0.023756571
19	0x3c42d510	0.011891618
20	0xbcedabce	-0.029012587
21	0x3c8f2be1	0.017476978
22	0x3d0cc64d	0.0343688
23	0xbcce852a	-0.025209982
24	0xbce50955	-0.027958551
25	0x3c40d574	0.011769641
26	0xbc00f3cb	-0.007870625
27	0xbcff5a1f	-0.031170903
28	0x3c5645eb	0.013078193
29	0x3ca58859	0.020206617
30	0x3d08c136	0.033387385
31	0xbd381e47	-0.04495075
32	0x3ca9016c	0.02063056
33	0x3ba5c2b3	0.0050586103
34	0x3ce653b1	0.028116079
35	0xbcb9a031	-0.022659393
36	0xbd2dad35	-0.04240151
37	0xbc1127ae	-0.008859558
38	0x3cf9e149	0.030502932
39	0xbd106934	-0.03525658
40	0xbbbf5501	-0.0058389907
41	0xbd2b3344	-0.041796938
42	0x3ba31d67	0.0049778703
43	0xbc50902f	-0.012729689
44	0xbb8aab88	-0.004231874
45	0x3c32041e	0.010865239
46	0x3c9efd55	0.019407908
47	0xbc0c6f1a	-0.008571411
48	0x3c9abc02	0.018888477
49	0xbc3dc955	-0.011583646
50	0xbcb4eed3	-0.022086537
51	0x3d2c924f	0.04213172
52	0xbc34c0ec	-0.011032324
53	0x3d062623	0.032751214
54	0xbd3656fd	-0.044516552
55	0xbd10d200	-0.03535652
56	0x3d09aa94	0.03360994
57	0x3cadd316	0.021218818
58	0x3d2f8ff0	0.04286188
59	0x3ca8a94b	0.020588538
60	0x3c631466	0.013859844
61	0xbd01f38e	-0.031726412
62	0xbcddb661	-0.027064504
63	0x3c4a5aa5	0.012350713
64	0x3c1df13c	0.009640034
65	0x3c3efec4	0.011657421
66	0xbcbed32b	-0.023294052
67	0xbb5b82c5	-0.0033494693
68	0x3ca19e2d	0.019728744
69	0xbc5e330f	-0.013561978
70	0x3cbd7477	0.023126824
71	0x3cb09b89	0.02155854
72	0xbceaaba8	-0.028646305
73	0xbb48b4cd	-0.0030625344
74	0xbccf3636	-0.025294404
75	0x3cefa12e	0.029251661
76	0xbbd1be06	-0.0064008264
77	0xbc2911b0	-0.010319158
78	0xbc2c54f4	-0.010518301
79	0x3c2da369	0.010598042
80	0xbd0365fd	-0.032079685
81	0x3b61462d	0.0034374103
82	0x3d043a90	0.032282412
83	0xbca05cef	-0.019575564
84	0xbbd6fb0c	-0.006560689
85	0xbd0ec489	-0.0348554
86	0x3d053c49	0.032528196
87	0x3cd8e1de	0.02647489
88	0x3cdf40ee	0.02725264
89	0xbcac9036	-0.021064859
90	0xbcd17e70	-0.025572985
91	0x3b89abb0	0.004201375
92	0xbcfb8816	-0.03070454
93	0x3c0388ba	0.008028204
94	0xbcfd0f24	-0.030891009
95	0xbbad774e	-0.0052937632
96	0xbd0b8eec	-0.034071848
97	0x3b8886b1	0.004166447
98	0x3cd5be7e	0.02609181
99	0xbbc4598e	-0.005992121
100	0xbd2c7d82	-0.04211188
101	0x3ca119de	0.019665655
102	0xbc0a0221	-0.008423359
103	0xbc2f8ba1	-0.0107144425
104	0xbbbba820	-0.005726829
105	0x3c0b9002	0.008518221
106	0x3c720d79	0.01477372
107	0x3cc6f631	0.024287315
108	0x3ccedb41	0.025251033
109	0x3cf97563	0.030451482
110	0x3d173317	0.036913957
111	0x3c7095c0	0.014684141
112	0xbcfa9316	-0.030587714
113	0xbcdc704a	-0.026909012
114	0x3cf4f5a8	0.029902294
115	0x3c808ddb	0.015692642
116	0xba67b692	-0.0008839156
117	0xbab93914	-0.001413139
118	0x3d29b1c0	0.04142928
119	0x3c42f429	0.011899033
120	0x3d01f12f	0.03172415
121	0x3cddeddc	0.02709096
122	0xbd0d3d1d	-0.03448211
123	0xbd2b02ea	-0.041750826
124	0xbcb38f49	-0.02191891
125	0x3cb03f82	0.021514658
126	0x3cc577e2	0.024105016
127	0x3c13bde2	0.00901744
128	0x3d0d449a	0.03448925
129	0xbcd49d2d	-0.025953854
130	0x3b941845	0.0045194947
131	0xbb88d749	-0.0041760546
132	0xbcbd839e	-0.023134049
133	0xbc0ba9cf	-0.008524372
134	0x3cf74c24	0.030187674
135	0x3d363b49	0.044490132
136	0xbc86f3dc	-0.016473703
137	0xbb9a76ca	-0.004713868
138	0xbc4407d0	-0.011964753
139	0xbcfba5b5	-0.030718664
140	0x3afb7729	0.0019185293
141	0xbcf42865	-0.029804418
142	0xbcc72837	-0.024311168
143	0xbd010231	-0.03149623
144	0xbcbc6719	-0.02299838
145	0xbc91f225	-0.017815659
146	0xbd32ed92	-0.043683596
147	0x3c96ec22	0.018423144
148	0xbc9fa7b2	-0.019489143
149	0x3ca4bbe3	0.020109123
150	0xbcb6472a	-0.02225073
151	0xbcd94ed1	-0.02652684
152	0x3d061918	0.032738775
153	0x3cb9a375	0.02266095
154	0x3c29bec1	0.010360421
155	0x3d3e093e	0.046395533
156	0xbc2eb39d	-0.01066294
157	0x3c38397a	0.011244172
158	0x3c4f68a6	0.0126592275
159	0x3b1fc90e	0.0024381313
160	0x3c84eb65	0.016225526
161	0xbcebbd85	-0.028776893
162	0x3cc1c870	0.023655146
163	0xbcc5337f	-0.024072407
164	0xbc8efe24	-0.017455168
165	0xbbfc1c7a	-0.0076938244
166	0xbc443d45	-0.011977498
167	0xbc29be73	-0.010360348
168	0x39aeef82	0.00033366313
169	0x3be31e44	0.006931098
170	0xbcac82cd	-0.021058464
171	0xbcf44f0e	-0.029822852
172	0x3d258be9	0.04041663
173	0x3b88149b	0.004152847
174	0xbd221668	-0.03957215
175	0xbca7ef46	-0.020499837
176	0x3d0fcb9b	0.035106283
177	0xba3335c9	-0.0006836323
178	0xbc91a086	-0.017776739
179	0xbc3c519e	-0.011494068
180	0xbc45044c	-0.01202495
181	0x3d252147	0.04031494
182	0xbc01cb0c	-0.007921945
183	0x3ca1f4d3	0.019770062
184	0xbc1de1cd	-0.009636355
185	0xbca6116c	-0.02027198
186	0xbc841532	-0.016123388
187	0x3a12fb10	0.0005606869
188	0xbcb98cd6	-0.022650164
189	0xbc93b5ae	-0.018030968
190	0x3cabc2e3	0.020966953
191	0x3c3f7d07	0.011687524
192	0x3d13db90	0.036098063
193	0xbc2f4914	-0.0106985755
194	0x3c852b82	0.016256098
195	0x3c52d044	0.012867037
196	0x3ce69c0d	0.028150583
197	0xbab9740c	-0.0014148965
198	0xbc89dfc3	-0.01683033
199	0x3c856d42	0.01628745
200	0x3ca10435	0.019655326
201	0xbc475ecb	-0.0121685965
202	0x3d1b5c8a	0.03793005
203	0x3ce3dc9c	0.027815156
204	0xbbfa83f8	-0.0076451264
205	0x3c6ceef0	0.014461264
206	0x3c4a66d3	0.012353617
207	0xbcfb4fe4	-0.030677743
208	0x3d1089cb	0.03528766
209	0x3ccbc22c	0.024872862
210	0x3c044734	0.008073617
211	0x3cdd2551	0.026995333
212	0xbc1bb7f6	-0.009504309
213	0xbce5006f	-0.027954308
214	0x3d2bed6d	0.041974474
215	0xbcb17ce8	-0.021666005
216	0x3d095f3f	0.0335381
217	0x3cee1a1e	0.029065188
218	0xbc5bee0b	-0.013423453
219	0x3c22a62a	0.009927312
220	0xbc341be0	-0.010992974
221	0xbd1cdc7e	-0.038296215
222	0x3cd5dc77	0.026106102
223	0x3d0636f1	0.03276724
224	0xbc2c9fea	-0.010536173
225	0x3cf88d44	0.030340798
226	0x3d17d747	0.03707054
227	0x3d21a9f1	0.03946871
228	0xbd3899bc	-0.045068488
229	0x3d2a788a	0.04161886
230	0x3c0c832f	0.0085761985
231	0xbcbe43fb	-0.023225775
232	0xbb9613d2	-0.0045799995
233	0xbcecec31	-0.028921219
234	0x3d037b04	0.03209974
235	0x3cc1a1aa	0.023636658
236	0xbd133346	-0.03593757
237	0xbbb76668	-0.0055969246
238	0xbc9839ca	-0.018582243
239	0x3cb4af8a	0.02205636
240	0xbc8e43a5	-0.01736624
241	0xbd36d259	-0.044634197
242	0x3c8b239a	0.01698475
243	0x3b3da3f6	0.002893684
244	0x3cab7e86	0.020934355
245	0x3d1dde0f	0.03854185
246	0xbc8a283f	-0.016864894
247	0xbd2932bf	-0.04130816
248	0x3d13b0f1	0.036057416
249	0x3d44a35e	0.04800736
250	0xbbaee6a1	-0.0053375517
251	0xbd06bbf6	-0.032894097
252	0x3c19cf94	0.009387869
253	0xbc8060ce	-0.01567116
254	0x3bd6a768	0.006550718
255	0xbc2dc640	-0.0106063485

bias f4 [128]
0	0xbba4f7eb	-0.005034437
1	0x3d34712a	0.044053234
2	0x3b3c1b13	0.002870266
3	0x3c8cf029	0.017204361
4	0xbd1d5177	-0.03840777
5	0xbcc3c390	-0.023896962
6	0x3d0114b9	0.031513903
7	0xbcc624c1	-0.024187448
8	0xbd069338	-0.032855242
9	0xbcef2ba2	-0.02919561
10	0xbcdba1cd	-0.026810551
11	0x3d0d4b7a	0.03449581
12	0x3d0f7349	0.035022054
13	0xbcc28c36	-0.023748498
14	0xbbb5d2b3	-0.005548799
15	0xbba1b08c	-0.004934376
16	0xbc8370b6	-0.016044956
17	0x3c6f6d8a	0.0146135185
18	0xbbe30b96	-0.0069288714
19	0xbd0110e4	-0.03151025
20	0xbbd9e41c	-0.006649507
21	0x3bf5e0aa	0.0075035887
22	0x3c0bfea8	0.0085446015
23	0x3ae95aeb	0.0017803585
24	0xba74ed34	-0.00093432073
25	0x3cbfb9fb	0.023404112
26	0xbbfe48b2	-0.007760131
27	0x3ce02725	0.027362416
28	0x3cb1bb04	0.021695621
29	0xbd174a88	-0.036936313
30	0xbcd95b30	-0.02653274
31	0x3d2cf928	0.0422298
32	0xbcd06b2a	-0.025441725
33	0xbc4b0a15	-0.01239254
34	0x3c32a46c	0.010903459
35	0xbcf90d78	-0.03040193
36	0x3c6dbbd4	0.014510114
37	0xbd02f3e3	-0.03197087
38	0xbc34d8d4	-0.011038024
39	0x3cdebd5e	0.027189907
40	0x3d263bf9	0.040584538
41	0xbd01b767	-0.031669047
42	0xbc5b4072	-0.013382064
43	0x3c4af03a	0.012386376
44	0x3c2513bf	0.010075509
45	0x3d0847cc	0.033271596
46	0x3d1ab661	0.037771586
47	0xbd208899	-0.03919277
48	0x3cdf16ef	0.027232615
49	0xbc73031d	-0.014832285
50	0x3be319d9	0.0069305715
51	0x3b72cb4f	0.003704745
52	0x3c40c865	0.011766528
53	0xbc875cfd	-0.016523832
54	0x3c943ec0	0.018096328
55	0x38fbcf34	0.00012007207
56	0xbc7dad13	-0.015483159
57	0x3c70995c	0.014685001
58	0xbc901515	-0.017588178
59	0x3cccb16f	0.02498695
60	0x3bf96a49	0.007611547
61	0xbc78a10f	-0.015175118
62	0xbc829ca0	-0.015943825
63	0x3d1a6bf6	0.037700616
64	0x3c8b9a15	0.017041245
65	0xbbf29ca8	-0.007403929
66	0xbbecfcac	-0.0072322693
67	0x3ccafdb8	0.024779186
68	0xbcb7bf97	-0.022430224
69	0x3bb29316	0.005449663
70	0xbd25b437	-0.04045507
71	0xbce148a3	-0.027500456
72	0x3bbc5988	0.0057479776
73	0xbcfa9f51	-0.030593546
74	0x3cacb997	0.02108459
75	0x3d18ae56	0.037275635
76	0xbc8054ea	-0.01566549
77	0x3ccee36e	0.025254931
78	0x3d23cc62	0.039989837
79	0x3caa921f	0.02082163
80	0x3d0d8478	0.03455016
81	0x3ceea529	0.029131489
82	0xbb94ee77	-0.004545029
83	0x3d300c5b	0.042980533
84	0xbd1d6d1d	-0.038434137
85	0xbce57082	-0.02800775
86	0x3b7c1230	0.003846299
87	0x3cb29be0	0.021802843
88	0xbcc5b544	-0.024134286
89	0x3c3c0c67	0.011477566
90	0xbcd40af3	-0.025884127
91	0xbd0eef83	-0.034896385
92	0x3d0a45b2	0.033757873
93	0xbc644498	-0.01393237
94	0xbbea7e05	-0.007156136
95	0xbb9a9884	-0.0047178883
96	0x3c930481	0.017946484
97	0xbbf4a43f	-0.0074658687
98	0xbc68cbb0	-0.014208719
99	0xbcacfa1f	-0.02111536
100	0xbc4c9a3f	-0.012487947
101	0xbcca88cd	-0.024723435
102	0xbc9c6f70	-0.019096106
103	0x3cba5c5f	0.022749124
104	0x3c3101de	0.010803668
105	0xbce0bf24	-0.027434893
106	0x3cfe7c23	0.031065052
107	0xbcab69a1	-0.020924391
108	0xbca2599d	-0.019818122
109	0xbc206f97	-0.00979223
110	0x3c755b28	0.014975347
111	0xbc1481ec	-0.009064179
112	0x3c059b1c	0.008154657
113	0xbc8a3b3e	-0.016873952
114	0x3cb71d08	0.02235271
115	0xbcb8e6b0	-0.022570938
116	0x3d25500a	0.040359534
117	0x3d082185	0.03323509
118	0x3c3966b0	0.0113159865
119	0x3cde58c5	0.027141938
120	0x3b2aaec0	0.00260441
121	0x3c7011fb	0.014652724
122	0x3cc6575d	0.02421158
123	0xbae14a71	-0.0017188323
124	0xbd153e79	-0.03643653
125	0xbd2235b8	-0.03960201
126	0x3d1c7838	0.038200587
127	0xbd340447	-0.04394939

weight f4 [128, 128]
0	0x3c45b809	0.012067803
1	0xbc7afe27	-0.015319384
2	0xbd5a4f32	-0.053298183
3	0xbc0792da	-0.008274758
4	0x3d75fc5c	0.06005512
5	0x3d747955	0.059686024
6	0xbda62d45	-0.08114103
7	0xbdc4d34f	-0.096106164
8	0xbc53e0bc	-0.012931999
9	0xbd1e4ba6	-0.038646363
10	0x3d3c6715	0.045996744
11	0x3d7922dc	0.06082426
12	0x3cd83d1b	0.026396325
13	0x3d8bdc7c	0.068291634
14	0x3d606546	0.054784082
15	0xbd0abd1e	-0.033871762
16	0x3d5d3a2d	0.05401056
17	0x3d69abda	0.057048656
18	0xbd46f767	-0.048575785
19	0x3c62b9a6	0.013838207
20	0xbcf9a7d3	-0.030475533
21	0x3d56a2c7	0.05240133
22	0x3d1c4517	0.038151827
23	0x3db79749	0.08964402
24	0xbd47dccf	-0.048794564
25	0xbd4d7d69	-0.05016843
26	0x3d838f72	0.064238444
27	0xbd63b39e	-0.05559122
28	0xbcc92374	-0.024553038
29	0x3d83abe2	0.064292684
30	0x3d17da21	0.03707326
31	0x3b203fdc	0.0024452126
32	0xbd70f2de	-0.058825366
33	0x3cee5c3c	0.029096715
34	0xbdb8c754	-0.09022394
35	0xbc3cb7e7	-0.011518455
36	0xbc626403	-0.01381779
37	0x3b6cd52e	0.0036137807
38	0x3d321058	0.043472618
39	0x3d6c0188	0.057618648
40	0x3ca054b3	0.019571638
41	0xbc482a33	-0.012217092
42	0xbd1aeb25	-0.037821908
43	0xbc447597	-0.011990926
44	0x3d9a6a60	0.07539821
45	0xbd48e51f	-0.049046632
46	0xbd01a054	-0.03164704
47	0xbd8aa048	-0.067688525
48	0xbc85be48	-0.016326085
49	0xbc59a404	-0.013283733
50	0x3d670e6c	0.05641024
51	0x3d2836f8	0.041068047
52	0x3ca1bc9d	0.019743258
53	0xbd8da2ee	-0.06915842
54	0xbcd6c0b0	-0.026214927
55	0xbd040453	-0.032230686
56	0xbcf3421c	-0.02969461
57	0xbc19ace6	-0.009379601
58	0xbd0d8150	-0.03454715
59	0x3d896ee1	0.067106016
60	0x3d58a25e	0.05288922
61	0xbb842a2b	-0.004033347
62	0x3ce6d804	0.028179176
63	0x3dadad84	0.08480361
64	0x3b90b267	0.0044157985
65	0xbcb276a4	-0.021785088
66	0x3cd198a4	0.02558548
67	0x3daa082d	0.08302341
68	0x3d432e83	0.04765178
69	0x3d2b9538	0.041890353
70	0x3d923ad1	0.071401246
71	0x3d3c57cb	0.045982163
72	0xbd195f4e	-0.037444405
73	0x3c6c3fb4	0.014419485
74	0x3cf528fc	0.02992677
75	0x3c01d7c6	0.00792498
76	0xbd97f938	-0.074205816
77	0x3c7e15b1	0.015508101
78	0x3d8a5b1f	0.06755661
79	0xbd76cb29	-0.060252342
80	0x3b3e98ec	0.0029082848
81	0xbdaa087a	-0.08302398
82	0xbd58e9a1	-0.05295718
83	0xbd9dc48e	-0.077035055
84	0x3d8008d7	0.06251686
85	0xbc21a6f5	-0.009866466
86	0xbd989c2b	-0.07451662
87	0x3db43d7b	0.08800789
88	0xbd9fab55	-0.07796351
89	0xba03388e	-0.0005005681
90	0x3d4869cf	0.048929032
91	0xbcd8b193	-0.026451861
92	0x3dad4b60	0.08461642
93	0xbb40f81b	-0.0029444757
94	0xbd3cc47c	-0.04608582
95	0x3d6416c2	0.055685766
96	0xbcc2e165	-0.023789117
97	0x3d6439d0	0.055719197
98	0x3c123b59	0.008925282
99	0xbcd18a44	-0.025578626
100	0xbdb200db	-0.086915694
101	0xbbfa5292	-0.0076392377
102	0xbd9a32dc	-0.07529232
103	0x3d065267	0.03279343
104	0xbdbb53ba	-0.09146829
105	0xbcb6e4f2	-0.022325967
106	0x3cccc99f	0.024998484
107	0x3d8c498f	0.06849968
108	0x3da7d430	0.081947684
109	0xbc315820	-0.010824233
110	0xbd54f936	-0.05199548
111	0xbc9a2363	-0.018815702
112	0x39fa9ffb	0.0004780291
113	0xbde2cecf	-0.11074602
114	0xbcb9e5bb	-0.022692552
115	0xbd60993f	-0.054833647
116	0xbd0bcd9b	-0.034131628
117	0xbd487102	-0.048935898
118	0x3da5e7de	0.08100866
119	0x3cf2eded	0.029654467
120	0x3d32da8e	0.04366546
121	0x3c0f8ea8	0.008762039
122	0xbd80d378	-0.062903345
123	0x3d7c5514	0.061604574
124	0xbd55c117	-0.052186098
125	0xbd06d90b	-0.032921832
126	0xbbb52260	-0.0055277795
127	0x3cb6783e	0.022274133
128	0xbc6ea285	-0.014565115
129	0x3d8c395f	0.0684688
130	0xbd93b383	-0.072119735
131	0xbd96a9f6	-0.07356636
132	0x3cee2a71	0.029072972
133	0x3d8fb517	0.07016962
134	0x3bc9934e	0.0061515933
135	0x3dd54b8f	0.10414802
136	0x3d77c165	0.06048717
137	0x3db0adbd	0.08626888
138	0xbcb8b11a	-0.022545386
139	0xbbcc126d	-0.0062277825
140	0x3cd22a7b	0.025655022
141	0x3bed8d44	0.007249506
142	0xbda3d39a	-0.07999344
143	0xbd9ef694	-0.07761875
144	0x3d50de8a	0.05099348
145	0xbd130832	-0.035896488
146	0xbc83ec8f	-0.01610401
147	0xbde4142f	-0.11136662
148	0xbda30447	-0.079598
149	0x3c829c68	0.015943721
150	0xbb8e4bf7	-0.004342552
151	0xbd155af7	-0.036463704
152	0x3d4fd093	0.05073602
153	0xbd8dd8ac	-0.069260925
154	0xbd1b0399	-0.037845228
155	0x3db73189	0.08944995
156	0x3daa7fc1	0.083251484
157	0x3be7fe68	0.007079888
158	0x3d1efee2	0.038817294
159	0x3d56a270	0.052401006
160	0xbda76e3c	-0.081753224
161	0xbd67b11e	-0.056565396
162	0x3ddb0ad6	0.10695426
163	0x3d7cf8a0	0.061760545
164	0x3d99d032	0.07510413
165	0xbc81691f	-0.015797196
166	0x3d9cf148	0.07663208
167	0x3dd4bd4d	0.10387669
168	0x3d93c715	0.07215706
169	0x3d880ef2	0.066434756
170	0x3c694be0	0.014239281
171	0xbc7ba7b1	-0.015359805
172	0xbcc18f37	-0.02362786
173	0xbbeeaf85	-0.007284107
174	0x3d25ef66	0.04051151
175	0x3bc79d60	0.0060917586
176	0x3c0e6879	0.0086919
177	0x3dd4a792	0.10383524
178	0x3d377c3e	0.04479622
179	0x3c970e19	0.01843934
180	0xbce1242b	-0.027483067
181	0xbc8b55b2	-0.017008636
182	0x3d4092a6	0.047014855
183	0x3dec3d0a	0.1153508
184	0xbcfc4668	-0.030795291
185	0xbc176a90	-0.009241715
186	0x3c438436	0.011933377
187	0x3ce90ecf	0.028449444
188	0x3d9eaede	0.07748197
189	0x3d710b8e	0.05884891
190	0x3cb06df5	0.021536807
191	0x3c43cb97	0.011950395
192	0x3ce78dbd	0.028265828
193	0x3d63a9e1	0.05558193
194	0xbd98a363	-0.074530385
195	0x3c576780	0.013147235
196	0xbd16f1b5	-0.036851604
197	0x3d7e35df	0.062063094
198	0x3abd9ba1	0.0014465937
199	0x3cf52ab1	0.029927583
200	0x3d8d5a10	0.06901944
201	0x3d2a06bf	0.04151034
202	0xbdb025ea	-0.086009815
203	0x3da52f98	0.080657184
204	0xbd2b0bbd	-0.04175924
205	0x3d919a86	0.07109551
206	0x3d393624	0.04521765
207	0xbca51639	-0.020152198
208	0x3da3150d	0.079629995
209	0x3dc959e1	0.09831596
210	0x3c2ed717	0.010671399
211	0x3dab7d66	0.08373527
212	0xbd973999	-0.07384033
213	0xbc60c697	-0.0137192225
214	0x3beab4a0	0.0071626455
215	0x3cf15640	0.029460073
216	0x3cb4e5c7	0.022082223
217	0xbd8212b5	-0.06351224
218	0x3dc21ba1	0.09477926
219	0x3d6caf82	0.057784565
220	0x3b063fdb	0.0020484838
221	0x3bfba898	0.00768001
222	0xbd982086	-0.07428078
223	0x3d85d61b	0.06534978
224	0xbbd95586	-0.0066325096
225	0xbcfa4938	-0.030552492
226	0xbd6df09c	-0.05809079
227	0xbd69e8b4	-0.05710669
228	0x3c913ac1	0.017728211
229	0x3db4e2d6	0.08832328
230	0x3d2cc0db	0.04217611
231	0x3c72bb3b	0.014815147
232	0xbd234f03	-0.039870273
233	0x3d6547e3	0.05597676
234	0xbcf3ea83	-0.02977491
235	0xbceee156	-0.029160183
236	0xbdb055ba	-0.08610101
237	0xbd8e82dc	-0.06958553
238	0x3dbecbf1	0.093162425
239	0xbd1ad9f0	-0.037805498
240	0xbd7b3e41	-0.061338667
241	0xbc85615f	-0.016281782
242	0x3cc6925b	0.02423971
243	0x3ccf14c4	0.025278457
244	0x3d526e45	0.051374692
245	0x3c49bd98	0.012313269
246	0xbcd98083	-0.026550537
247	0x3d984320	0.07434678
248	0xbd9069b3	-0.070514105
249	0xbd4a767b	-0.049429398
250	0x3d6e0de4	0.058118716
251	0xbd54c62c	-0.051946804
252	0xbca9782a	-0.020687182
253	0x3d324e19	0.04353151
254	0x367e8000	3.7923455e-06
255	0xbcb5eb17	-0.022206826

bias f4 [128]
0	0xbdb806f0	-0.08985698
1	0xbd692ada	-0.056925632
2	0x3c97f5ce	0.018549826
3	0x3d5dba8e	0.05413299
4	0x3d2c8ec6	0.042128347
5	0x3d87622f	0.06610524
6	0xbc9c75e2	-0.01909918
7	0x3d940ecf	0.07229387
8	0x3d8d2963	0.068926595
9	0xbc995f1f	-0.018722115
10	0xbd0b83c6	-0.034061216
11	0x3c7e4dd1	0.015521483
12	0xbcccc9ff	-0.024998663
13	0x3d14d104	0.036332145
14	0x3d13d5ea	0.036092676
15	0xbd96fa58	-0.07371968
16	0xbd830165	-0.0639675
17	0xbd8fe987	-0.07026964
18	0x3cc16973	0.023609852
19	0xbc6fec05	-0.014643674
20	0x3db99c02	0.09062959
21	0x3d7b36af	0.061331447
22	0xbd9a4b83	-0.07533934
23	0xbd78a472	-0.060703702
24	0xbc810241	-0.015748145
25	0xbd4f30f0	-0.05058378
26	0x3ddf2021	0.108948
27	0xbc94848a	-0.018129606
28	0xbc4eb0e0	-0.0126154125
29	0x3d1fabda	0.03898225
30	0x3b789320	0.003792949
31	0x3d3686e1	0.044562224
32	0x3d791dc9	0.06081942
33	0x3d7c18ac	0.061546966
34	0xbd1b68b9	-0.03794167
35	0xbc70c651	-0.01469572
36	0x3daee2b1	0.08539332
37	0xbcca9217	-0.024727864
38	0x3da725f4	0.08161536
39	0xbcc14487	-0.023592247
40	0xbd1d2222	-0.03836263
41	0x3da8ff62	0.082518354
42	0xbc5b99c6	-0.013403362
43	0x3d87c549	0.06629426
44	0x3b9a7d1e	0.004714622
45	0xbd850f93	-0.06497111
46	0x3d12c303	0.03583051
47	0xbd5e6098	-0.054291338
48	0x3ccbaf88	0.024863973
49	0x3d971ff0	0.073791385
50	0x3d95916b	0.07303127
51	0x3daf8aed	0.0857142
52	0x3dafa05f	0.0857551
53	0xbd56fb0d	-0.052485514
54	0xb9a4d244	-0.00031437178
55	0x3da1377b	0.0787191
56	0x3da3740f	0.07981121
57	0x3ccbb308	0.024865642
58	0xbd6c98bc	-0.057762846
59	0x3cdfa1fd	0.027298922
60	0xbaaa54ce	-0.0012995244
61	0xbbba307e	-0.0056820503
62	0x3d952ff3	0.07284536
63	0xbcdcd6ef	-0.026957957
64	0xbb0e29bc	-0.0021692356
65	0x3c025eea	0.0079572
66	0x3db9174c	0.09037647
67	0x3da1f023	0.079071306
68	0xbdace4e7	-0.08442097
69	0xbd684834	-0.056709483
70	0xbd0b3455	-0.033985455
71	0xbd735586	-0.059407733
72	0x3d638de3	0.055555236
73	0x3d8519a0	0.06499028
74	0x3c7ccf28	0.015430249
75	0xbdb181d4	-0.08667341
76	0x3bcf8268	0.0063326843
77	0x3da7e1f5	0.08197395
78	0xbdb13ab9	-0.086537786
79	0x3db182ff	0.08667564
80	0x3d9db323	0.07700183
81	0xbddfb443	-0.10923054
82	0x3bd04b5a	0.006356639
83	0xbd8db016	-0.06918351
84	0x3b6d3880	0.0036197007
85	0xbda3d9c7	-0.08000522
86	0xbc5a7ec4	-0.013335887
87	0xbd8b08cc	-0.06788787
88	0x3cbbe7b8	0.02293764
89	0xbdb02368	-0.08600503
90	0x3da5b879	0.08091826
91	0xbd346736	-0.044043742
92	0x3c650180	0.013977408
93	0xbd7835b6	-0.060598098
94	0xbdadc548	-0.08484894
95	0x3da16d04	0.07882121
96	0x3d321690	0.04347855
97	0x3d92b645	0.071636714
98	0xbced01b2	-0.028931472
99	0x3d615168	0.055009276
100	0xbd816c6b	-0.06319507
101	0xbd4dde72	-0.05026097
102	0xbcbb1949	-0.022839205
103	0x3d9844d0	0.07435
104	0x3d88864b	0.06666239
105	0xbd2e13f4	-0.042499498
106	0x3d650afa	0.05591867
107	0x3d01fe25	0.03173651
108	0xbdb229b8	-0.086993635
109	0xbd1bdbfa	-0.038051583
110	0x3bdad223	0.0066778823
111	0x3d8b207f	0.067933075
112	0xbc67dd03	-0.014151814
113	0x3ce45c40	0.02787602
114	0x3cecb46c	0.028894626
115	0x3dab1e68	0.08355409
116	0xbd473bd8	-0.048641056
117	0x3d961d06	0.073297545
118	0xbdab4b84	-0.08364013
119	0x3db148e1	0.08656479
120	0x3cb0caa4	0.021581002
121	0xbb9ff90e	-0.0048819846
122	0x3bbec2d3	0.0058215647
123	0x3c297ab7	0.010344199
124	0x3d59f12f	0.053208526
125	0xbd9c7732	-0.07639922
126	0x3ceb7218	0.028740928
127	0x3c8caffc	0.01717376

weight f4 [2, 128]
0	0xbda291e3	-0.07937982
1	0x3e31d045	0.17364605
2	0x3cf3096d	0.02966758
3	0xbe224271	-0.15845658
4	0xbd4f8715	-0.050665934
5	0x3d8c26c5	0.06843332
6	0xbd851281	-0.0649767
7	0x3db56d0b	0.08858689
8	0xbcc1d9aa	-0.02366336
9	0xbdb63111	-0.088960774
10	0x3cea0f5c	0.028571777
11	0x3b485c7f	0.003057271
12	0xbd267155	-0.040635426
13	0x3d6ba2a6	0.05752816
14	0x3da5b561	0.08091236
15	0x3c13eff8	0.009029381
16	0x3cc80ccc	0.024420165
17	0xbc27238d	-0.010201347
18	0x3cd80e89	0.026374118
19	0xbe4bfecd	-0.19921418
20	0x3d88deca	0.06683119
21	0x3e2ca124	0.16858345
22	0xbd8f1da6	-0.06988077
23	0x3e1ad970	0.15122008
24	0xbd37014a	-0.044678964
25	0xbc895f25	-0.016769001
26	0x3e4c8614	0.19973022
27	0x3d9a6e6f	0.07540595
28	0xbcba3134	-0.02272854
29	0x3e449e7b	0.1920108
30	0x3d5105ca	0.05103091
31	0xbe196203	-0.14978795
32	0x3d3ebd5a	0.0465673
33	0xbd2dba6c	-0.042414114
34	0x3cc38cdf	0.023870884
35	0x3e2d77a0	0.16940165
36	0x3d914e77	0.07095044
37	0xbd5082bb	-0.050905924
38	0x3caaa809	0.020832079
39	0xbd7b7757	-0.06139311
40	0xbd8552c9	-0.06509931
41	0x3e4fe379	0.20301618
42	0xbc0e53e7	-0.008686996
43	0x3c8caf48	0.017173424
44	0x3cbcd702	0.023051742
45	0x3e38df0b	0.18053834
46	0xbbb3b12c	-0.005483767
47	0x3c1f9e66	0.009742355
48	0xbd9eb2b8	-0.07748932
49	0x3e225000	0.1585083
50	0xbc5cd3f5	-0.013478269
51	0xbd828d52	-0.06374611
52	0x3c8e2f5d	0.017356569
53	0x3d7541dd	0.059877265
54	0x3d1b7c10	0.037960112
55	0xbc59feca	-0.013305375
56	0x3d9e1cbd	0.07720325
57	0xbd87d341	-0.0663209
58	0xbd5d5e2f	-0.0540449
59	0x3dcec622	0.100963846
60	0xbca5f710	-0.02025941
61	0x3d81aace	0.063314065
62	0xbde5ec6e	-0.11226736
63	0x3d7bfecf	0.0615223
64	0xbe3eb44a	-0.18623462
65	0x3cd362eb	0.025804004
66	0x3de3b436	0.11118357
67	0x3d643b4a	0.055720605
68	0xbdb026f7	-0.08601182
69	0x3dd241d6	0.102664635
70	0xbdf62338	-0.12018436
71	0x3da32897	0.07966726
72	0x3e116826	0.14199886
73	0xbc940d93	-0.018072879
74	0x3dfae7c5	0.12251238
75	0xbd47e873	-0.048805665
76	0x3d7386e7	0.059454825
77	0x3e11c0ad	0.14233656
78	0xbdfb712e	-0.12277447
79	0xbda835ab	-0.08213361
80	0xbd0c132a	-0.034197964
81	0xbe40ffc1	-0.18847562
82	0xbdb7aa9e	-0.089680895
83	0xbb533d80	-0.0032232702
84	0x3c3051b8	0.010761671
85	0xbe09ac11	-0.13444544
86	0x3a36782c	0.0006960656
87	0x3d98cc32	0.07460822
88	0x3cb83494	0.022486009
89	0xbca9736f	-0.020684926
90	0xbdb8b121	-0.0901816
91	0xbe462751	-0.19350936
92	0x3d638c4e	0.055553727
93	0xbbf9555d	-0.007609053
94	0x3bb459ae	0.0055038547
95	0xbd1202c8	-0.035647184
96	0xbd82e57d	-0.06391428
97	0x3d35b4c2	0.044361837
98	0xbcc398b1	-0.02387652
99	0x3c0bbcdc	0.008528914
100	0xbd3eefbb	-0.046615344
101	0x3d22a8d6	0.039711796
102	0x3dc55b07	0.09636503
103	0x3d68a28f	0.056795653
104	0xbc2a81e0	-0.010406941
105	0x3d5abe3f	0.05340409
106	0xbdcafdc8	-0.09911686
107	0xbac6b690	-0.0015160609
108	0xbd360773	-0.044440698
109	0xbcda0964	-0.026615806
110	0xbd8f1ffb	-0.06988522
111	0xbdd77a11	-0.10521329
112	0xbd00520d	-0.03132825
113	0xbd013288	-0.03154233
114	0x3dac230d	0.08405123
115	0xbc38432a	-0.011246482
116	0x3cba4b54	0.022740997
117	0x3d1decea	0.038556017
118	0xbd92215d	-0.0713527
119	0xbd5fdcea	-0.05465404
120	0xbcd1b2c4	-0.025597937
121	0xbc34ff42	-0.011047186
122	0x3c9ab611	0.018885644
123	0x3e75116a	0.23932424
124	0x3dcb59c8	0.09929234
125	0x3daf484c	0.085587114
126	0x3cb75964	0.022381492
127	0xbd1ab30a	-0.0377684
128	0x3e01355b	0.1261801
129	0xbe544914	-0.20731002
130	0xbd36acf0	-0.04459852
131	0x3e177531	0.14790799
132	0xbd3d4c70	-0.046215475
133	0xbb8c9b7d	-0.0042909966
134	0x3e232bd5	0.1593469
135	0xbcc4c7b6	-0.02402101
136	0x3cf8881f	0.030338345
137	0xbd75a131	-0.059968177
138	0x3cfc7ce0	0.030821264
139	0xbd963c11	-0.073356755
140	0xbd92fdd1	-0.07177318
141	0x3d3d608a	0.046234645
142	0xbd4cc6e3	-0.04999436
143	0x3da602d5	0.08106009
144	0x3a2ab900	0.00065125525
145	0xbcdc22df	-0.026872097
146	0xbd7ed258	-0.06221232
147	0x3e2e8041	0.17041112
148	0xbdb91313	-0.09036841
149	0xbe28e9ca	-0.16495433
150	0x3d2e9f13	0.042632174
151	0xbc8977a8	-0.01678069
152	0x3ddb3e0e	0.10705195
153	0x3db38540	0.0876565
154	0xbe4ce2c7	-0.20008384
155	0xbdf2c62c	-0.118542045
156	0x3b81ae48	0.0039575435
157	0xbe232402	-0.15931705
158	0x3db42fbe	0.087981686
159	0x3dc83b7a	0.09776969
160	0xbdb48f07	-0.08816343
161	0x3da710f1	0.08157528
162	0xbcd0327c	-0.025414698
163	0xbe141d4b	-0.144643
164	0x3b1309ce	0.0022436264
165	0x3d6347c7	0.055488374
166	0x3cc352b5	0.023843149
167	0x3d019891	0.03163964
168	0xbcc2861c	-0.023745589
169	0xbe64a444	-0.22328287
170	0x3b858813	0.004075059
171	0xbd32d221	-0.043657426
172	0x3d1b8a0d	0.037973452
173	0xbe3b7044	-0.18304545
174	0xbd2e9ccc	-0.042630002
175	0x3d4a336a	0.04936544
176	0xbcb20044	-0.021728642
177	0xbdb0580f	-0.08610546
178	0x3d82d44c	0.06388149
179	0x3c07c980	0.008287787
180	0x3cddb036	0.027061563
181	0xbda1e1a4	-0.07904366
182	0x3c914735	0.01773415
183	0xbdb452b3	-0.08804836
184	0x3cce40bd	0.025177354
185	0x3d1d5fea	0.03842155
186	0x3ccb5413	0.024820363
187	0xbdd0120c	-0.10159692
188	0x3ca2e9b9	0.019886838
189	0x3d23f67f	0.04003
190	0x3dc95d3b	0.098322354
191	0xbc2e315c	-0.010631885
192	0x3d8b7515	0.06809441
193	0x3ce59549	0.028025286
194	0xbe00802f	-0.12548898
195	0xbda62c62	-0.08113934
196	0xbc27846b	-0.010224442
197	0xbd174939	-0.036935065
198	0x3d644769	0.055732165
199	0xbd3fd41d	-0.046833146
200	0xbcacf7b9	-0.021114217
201	0x3d991781	0.07475186
202	0xbdd5d13c	-0.10440299
203	0x3d4dc050	0.05023223
204	0x3cfdd29b	0.030984214
205	0xbe430f70	-0.19048858
206	0x3e0bed46	0.13664731
207	0xbdb19f56	-0.08672969
208	0x3d911451	0.07083953
209	0x3e3aa491	0.1822684
210	0x3e0cd05e	0.13751361
211	0xbd57cfc4	-0.052688375
212	0x3b6c2840	0.0036034733
213	0x3d72a1cd	0.059236336
214	0xbd9054ba	-0.0704741
215	0xbd850553	-0.06495156
216	0x3d965533	0.07340469
217	0x3d4ad6ae	0.04952114
218	0xbc30fd0b	-0.010802518
219	0x3e534e20	0.20635271
220	0x3d80a49b	0.06281396
221	0xbbc5590f	-0.0060225795
222	0x3dbd34f4	0.09238616
223	0xbc6d493b	-0.014482792
224	0x3d74e711	0.059790675
225	0x3ab29909	0.001362593
226	0xbcefb6eb	-0.029262027
227	0x3d16a8be	0.03678202
228	0x3d17eea9	0.03709284
229	0x3d90098c	0.07033071
230	0x3d6a2a5d	0.057169307
231	0x3d3446ce	0.044012837
232	0xbc2d9404	-0.010594372
233	0xbd0ec850	-0.034859
234	0x3dde8497	0.10865133
235	0xbd129b5b	-0.03579269
236	0xbc4527b8	-0.0120333955
237	0x3c5cfe79	0.013488405
238	0xbc8105ec	-0.015749894
239	0x3c56ce87	0.013110763
240	0x3d6612af	0.05617016
241	0x3d97212b	0.07379373
242	0x3d348772	0.044074483
243	0xbcdd6507	-0.027025713
244	0xbcc41f08	-0.023940578
245	0xbb56deac	-0.0032786531
246	0x3d55edfb	0.05222891
247	0xbcae1dfc	-0.021254532
248	0xbda2b06c	-0.07943806
249	0x3d17759e	0.036977403
250	0xbda121c9	-0.07867772
251	0xbe40e674	-0.18837911
252	0xbd17a02b	-0.037017982
253	0x3c3a9bd0	0.011389688
254	0x3d006b96	0.031352602
255	0xbd577bc1	-0.052608255

bias f4 [2]
0	0x3d8d9d98	0.06914824
1	0xbd846c5e	-0.06465982
