graph2vec_optimization/model/20_mlp_graph2vec_opt_4.pt (torch_old, 382907 bytes, 6 tensors)

weight f4 [128, 600]
00000000: 8241 cbbc 9f39 113d 4a91 92bc 1935 fc3c
00000010: 7c13 d13c f220 303d f619 de3c 3523 21bd
00000020: 82c8 86bc ca76 09bd e4dc 4dbc 6523 c0bc
00000030: dbda d0bb 7a17 aebc 70a7 fcbb 0808 1fbc
00000040: 874d 71bc 2c35 98bc 8687 393d 8673 f0bb
00000050: f2c8 9dbc e39e 993c afe1 64bc 4ce8 853c
00000060: 0603 f0bc 4d6c a03c da9d 95bc 5165 edbc
00000070: 0293 463b f503 38bd f06e f13c c8d2 6a3c
00000080: bb01 053d f65d d63c 7604 123c 2a4e 6d3c
00000090: 7e7b 8dbc a5a7 273c c03d 233b 66e4 f7bc
000000a0: 83c0 253d e774 f73c 4604 c03c 8e05 26bc
000000b0: e3be 11bc 7d56 f83c 22fa 74ba acb2 403c
000000c0: c454 06bd fb02 79bc 5a26 c53c 5933 073d
000000d0: 4bce f2bc 2cc8 43bc 3300 633c 75e6 d73c
000000e0: aabf cdbc b35f 993c 9c5f 2e3d 296b 08bd
000000f0: cde9 0dbd b002 903c 3551 443c 86bf 3fbc
00000100: 8a30 8b3c 607c 74bc 4f85 ef3c 9c87 1c3d
00000110: 482a ec3c ef3a 1f3c e397 89bb 86ef 18b9
00000120: 6f20 96bc f176 853c 6cb8 8f3c ec9e ec3c
00000130: cac8 31bc e011 843c b8e0 753c 0d7f 77bc
00000140: 3163 85bc 861d 453c db78 0abd 237d babc
00000150: 340f 1d3c f475 2cbd e679 c239 985b 043d
00000160: c075 6e3c cb59 223d e3b6 063d de15 db3c
00000170: d0b4 9d3b 3c33 2dbd 41e5 04bd 234d 03bd
00000180: 2ad5 52bd ce6f 04bb f008 09bd c178 913c
00000190: 56c3 95bc 4488 3bbd a0ba dcbc 6b74 d43c
000001a0: 87f5 123d 16b3 aa3c 86f9 083c d002 a23b
000001b0: 5a2d c5bc 77c8 c2bc fbb8 96bc 82f8 453c
000001c0: 473f 383c 5eb8 b2bc 9e69 3fbd 1f81 1b3d
000001d0: 47c1 513b 6080 133d 75f0 033c fb78 a4bc
000001e0: b8e1 293d 7bd2 97bc d28e a0bc a54a 21bc
000001f0: cb62 013d 2b95 2fbd 777d 613c 83e4 503d
00000200: 1a3b 3f3d 225f ddbc 1a00 35bd fd67 44bc
00000210: 6cdc ea3c 9229 83ba 89c3 d6bc f8e2 edbc
00000220: ccd2 0a3d 723c f03c 8e08 f03c 0354 883c
00000230: 8cb9 e3bb d842 fbbc 498d 17bd be99 cf3c
00000240: f96a 81bc 3276 59ba 0205 1cbd a294 9e3a
00000250: ce74 d2bc fb2a f73c 4650 3a3d 8634 a1bc
00000260: 11e0 ffbb 8d56 ff3c 1787 073c 152e c7bc
00000270: 70bc a53c 12f6 9abc 6406 cebb ac78 533c
00000280: dda0 463b d522 6d3c 42e3 b5bc 714e 5c3c
00000290: 194e 12bc 5c95 aa3b b56b 403d 3615 d33c
000002a0: c638 2d3d bdd3 533d e3e4 0bbd 82da 91bc
000002b0: 6959 77bc a8eb 1fbc d025 82bd 99fa 3339
000002c0: 58aa db3c 0c97 853d 5c1c 79bc a94b 033d
000002d0: 8e47 00bc 63b0 b33c 0fcb e23c cc55 c13c
000002e0: 50a9 f43c 3d64 b83c 8c18 133d ee5a 623c
000002f0: 5dec e63c 3ae5 ce3c 8821 523c a0d7 163d
00000300: 7a66 e63c 3075 95bc 77be 0e3d 3ec2 da3c
00000310: 3c92 913c 36ae 07bd 6743 c8bc ff3c 043d
00000320: 306d 28bd aae7 13bc 59d2 95bc 79db 02bd
00000330: 61f1 1dbd 0471 3cbb 9e73 353c bf80 e5bc
00000340: 2e33 5d3d 2540 153c cbeb fd3c ea47 b53c
00000350: 0902 0c3d a597 dcbc 2666 c0bc e710 7cbc
00000360: cca6 0fbd aca7 65bc c090 253d 931c 843c
00000370: 68f9 f23c 876f c1bc 1782 89bc 54c4 b43c
00000380: fceb fbbb 68a8 c43c 3e99 423c 5034 ab3c
00000390: 2dc3 cdbc 85be f73c a307 b5bc 8fd8 1fbd
000003a0: fc6c 4b3c 7abe a33c ae7a d3ba 3a95 debc
000003b0: 6312 60bd c293 96bc 7636 a03c b776 bd3c
000003c0: d9e8 13bd 21ca 453c d376 1bbd 5b59 243d
000003d0: e9bc 93bb 395a ed3c db1b 203d ee7a 5abd
000003e0: db99 163d 7f58 c2ba 495b cbbc 0e13 263b
000003f0: e153 ef3c 687f 43bd 9a8c eabb 9d8e 8a3c
-0.02481151 0.035455342 -0.017891545 0.030787038 0.025521986 0.04300017 0.027111989 -0.039340217
-0.016453031 -0.03356055 -0.012564871 -0.023454377 -0.006373746 -0.021251429 -0.00771039 -0.009706505
-0.014727957 -0.018580042 0.04529526 -0.00733799 -0.019260857 0.01875252 -0.013969823 0.01634612
-0.029298317 0.019582892 -0.018263746 -0.028978975 0.0030300026 -0.04492565 0.029471844 0.014332481
0.032472353 0.026167851 0.008912196 0.014483968 -0.0172708 0.010232841 0.0024908632 -0.030260276
0.040466797 0.03020711 0.023439538 -0.01013316 -0.008895609 0.030314678 -0.0009345134 0.011761349
-0.032795683 -0.0151984645 0.024066139 0.033007953 -0.029639384 -0.01194958 0.013855028 0.026355008
-0.025115807 0.01872239 0.04257165 -0.03330532 -0.034646798 0.017579406 0.011982252 -0.011703378
0.016990919 -0.014922231 0.029238371 0.038215265 0.028828755 0.009718641 -0.0041990145 -0.00014585079
-0.018326012 0.016292067 0.017543994 0.028884374 -0.0108510945 0.016121805 0.01500719 -0.015105975
-0.01628265 0.012030965 -0.033806663 -0.022764748 0.009586144 -0.042104676 0.00037093385 0.032313913
0.014554441 0.039636414 0.032889258 0.026743826 0.0048128143 -0.04228519 -0.032445196 -0.032055985
-0.05147282 -0.0020208242 -0.03345579 0.017757775 -0.01828162 -0.04578425 -0.026944458 0.025934419
0.035878684 0.020837348 0.008360272 0.004944183 -0.024069477 -0.02377723 -0.018398752 0.012083175
0.011245555 -0.021816429 -0.046731584 0.037964936 0.0032006071 0.0360111 0.008052935 -0.02007722
0.041475028 -0.018532982 -0.019599352 -0.009844457 0.031588357 -0.042866867 0.013762823 0.050999176
0.046687223 -0.027022902 -0.04418955 -0.011987683 0.028669558 -0.0010006896 -0.026216285 -0.029038891
0.033892438 0.029325698 0.029300954 0.016641622 -0.006949609 -0.030671522 -0.036999974 0.025341865
-0.015798079 -0.00082955055 -0.038090713 0.0012098739 -0.025690462 0.030171862 0.04548671 -0.019678365
-0.007808693 0.0311692 0.008271954 -0.024313966 0.020231456 -0.018916164 -0.006287383 0.012907188
0.0030308284 0.014473637 -0.022203092 0.013446436 -0.008929753 0.0052057933 0.046977717 0.02576695
0.04229047 0.0517156 -0.03415383 -0.017804388 -0.015097001 -0.009760775 -0.063548684 0.00017164125
0.026814625 0.065229505 -0.015204515 0.032054577 -0.00782956 0.021934694 0.027684717 0.023600481
0.02986589 0.022508735 0.03591208 0.013815625 0.028188879 0.025255788 0.012825377 0.03682673
0.028125037 -0.018244356 0.03484961 0.02670395 0.017769925 -0.033125125 -0.024446202 0.032284733
-0.041119754 -0.009027401 -0.018288778 -0.031947587 -0.038560275 -0.0028753886 0.011074929 -0.028015492
0.054003887 0.0091095315 0.030996224 0.022129018 0.03418163 -0.026927778 -0.023486208 -0.015384889
-0.03507118 -0.014017027 0.040421247 0.016126906 0.029659942 -0.02361275 -0.016785664 0.022066273
-0.0076880436 0.024006084 0.011877356 0.020898968 -0.025117481 0.030242214 -0.022098368 -0.039024886
0.012416121 0.019988287 -0.0016134584 -0.027170766 -0.054705035 -0.018381003 0.019557219 0.023127897
-0.036110733 0.012072117 -0.037955116 0.04012428 -0.004508604 0.028973686 0.039089065 -0.05333989
0.03676782 -0.0014827399 -0.024823802 0.0025340947 0.029214801 -0.047728926 -0.0071578743 0.016913706

bias f4 [128]
00000000: 2449 a33a 89b8 863c d902 ad3c 5a18 f43c
00000010: 6f2c 20bd e051 8abc ad09 1d3c b460 96bc
00000020: 62fd 493c d556 7ebc d841 3bbc 783b b93c
00000030: c718 a7bb db79 813c 6b53 97bc cde5 ffbb
00000040: 6f70 1a3d 7b93 93bc 3c27 ef3a 2bde bbbb
00000050: abf7 2c3a 6e35 7c3c 1a6f bc3c 01ff e43c
00000060: 50e1 113d 79e0 be3c b0cf f73a 66d9 9b3a
00000070: eedb 823c 8878 a53c 6119 99bc 8adc 6abc
00000080: dbcf 063d b0ea 1b3d 15e0 1ebd 38fc 24bd
00000090: 944d baba 0ae2 33bc 234d 893b ae29 28bc
000000a0: 248c c1bc d6e9 cf3c 952d 1e3d 5e74 e2bb
000000b0: 4c0a 24bd d4fd b83c 8526 573b b412 b83b
000000c0: 94c2 c33c f248 1e3d 56c2 c7ba 607d cfbc
000000d0: b6be d3bc 415a bd3b 236d c8bc da94 1cbd
000000e0: 347b 0f3d 0486 2d38 dea9 cc3c a10d 023d
000000f0: 6572 5dbb 2548 8cbc 2044 e33c ea5e b2bc
00000100: 6c1d 24bd e463 29bd 49e7 afba ea61 073d
00000110: 574f 09bd 88e0 4bbc 5983 393b 5d50 073d
00000120: fa50 62bc bfa7 e2bc 9f26 e5bc 5d22 a7bc
00000130: 3040 4e3d 7919 f7bc 0040 69b6 8d5c 763c
00000140: cc80 17bc fba7 cb3c 9c82 263d de53 a03a
00000150: ec2f edbc e3e6 ee3a 52ad 9d3c 95f6 a3bc
00000160: 1e76 c03c b052 0c3d d482 10bb be4d 303c
00000170: 72d0 05bd 0a66 08bd 08de b13c 9e1f f3ba
00000180: 7269 f73b 3064 d43c 4d62 6e3c 5a51 6fbc
00000190: 7433 8fbc f2dd 7d3c 3f3e aa3c 4d78 a4bc
000001a0: 28d8 983b ee37 1fbb 3458 443c b54b aa3c
000001b0: 286a e53b 42e9 fe3a 6685 053d e0d1 9e3c
000001c0: fe82 243d 62bb 4ebc d051 3bbc eef4 0bbd
000001d0: c59f 663c 9da4 843c b4ed 7e3b f2c0 f7bc
000001e0: c917 873c 803b 00bd 8154 03bd 5f4e 9bbc
000001f0: ebeb 9dbc 99e3 0f3d 51a9 10bb 1a6f 173d
0.0012457711 0.016445415 0.021119522 0.029796768 -0.039104875 -0.016884744 0.009584826 -0.018356659
0.012328478 -0.015523632 -0.011429273 0.022611365 -0.0050993892 0.015805176 -0.018472394 -0.007809377
0.03770488 -0.01801466 0.0018245946 -0.0057332716 0.00065981847 0.015393598 0.023002196 0.027953627
0.035615265 0.023300396 0.00189065 0.0011890351 0.015974011 0.020199075 -0.01868886 -0.014334807
0.03291307 0.038065612 -0.03878792 -0.040279597 -0.0014213794 -0.010979185 0.0041901036 -0.010263843
-0.023626395 0.025380056 0.03861769 -0.0069108447 -0.040048882 0.022581972 0.0032829356 0.005617464
0.023896493 0.038643785 -0.0015240412 -0.025328338 -0.025847774 0.0057785814 -0.024466103 -0.038227893
0.035029605 4.1371226e-05 0.024983343 0.03175128 -0.0033790108 -0.017124245 0.027742445 -0.021773774
-0.04006712 -0.04135503 -0.0013420369 0.033052363 -0.03352293 -0.012443669 0.002830705 0.033035625
-0.013813252 -0.027667878 -0.027972518 -0.020402128 0.050354183 -0.030163513 -3.4756958e-06 0.015036714
-0.009247016 0.024860373 0.040651903 0.0012232026 -0.028953515 0.0018226769 0.019247685 -0.02001504
0.023493823 0.034258544 -0.0022050636 0.010760723 -0.032669492 -0.033300437 0.021712318 -0.0018548851
0.007550412 0.02592668 0.014549804 -0.014606798 -0.01748059 0.01549481 0.020781634 -0.020076895
0.0046644397 -0.0024294811 0.01198392 0.020788053 0.00700118 0.0019448178 0.03259792 0.019387186
0.040163986 -0.012617918 -0.01143308 -0.03416913 0.014076178 0.016191775 0.0038899006 -0.03024337
0.016490834 -0.031306744 -0.03206301 -0.018958269 -0.019277534 0.035129163 -0.0022073577 0.03697119

weight f4 [128, 128]
00000000: 1df8 3ebd 3201 8f3d bfb1 a83d c2da 283d
00000010: d958 48bd fa5b a6bc 5826 93bd a478 443d
00000020: b4ec 193d 97d8 8dbd a3de 18bb c8ca d0bc
00000030: a8d7 ddbc 4c32 9bbd 36bc 78bd 0837 5b3d
00000040: ab78 17bd b46b 1bbd 448f f2bc 82c7 6ebc
00000050: 3760 323d c828 9abc 645b e1bc 2636 96ba
00000060: d17a 8fbd 7855 1cbd d303 d53c c8a7 e13c
00000070: 7264 673d 94c5 4dbd 7ff8 22bd 87cf 123d
00000080: f5bd 833d 308b d03c 6809 88bd 20ee cc3c
00000090: 2c53 c7bc e483 32bd 61d0 953d 9263 28bd
000000a0: 7364 973d 948a bf3c fca4 ca3c d826 42bd
000000b0: 999e a1bd 7eaf dbbc ebbe abbd 201a 363b
000000c0: b1e6 46bd 94a8 ef3c 1431 88bd 675c 7b3c
000000d0: 05af 353c 40c2 443d aeb5 223d 6bc3 e3bc
000000e0: 6512 1d3d 3eeb b13c 4bda 3dbd b793 3abb
000000f0: 1b40 54bd ef64 ddba c756 8a3d 1cb4 2bbc
00000100: 0233 433d a9b7 793d d167 913d 02f9 5f3d
00000110: 19ec 88bd 2920 9c3d 851b 81bd 24eb 82bd
00000120: 56f3 f33c 62ac f7bc d042 a9bc 882a 42bb
00000130: acdd 843d 6838 a73c 8010 9c3a acbd 11bd
00000140: 84cd 883c 9e91 74bd fedd 843d 26ff d7bc
00000150: 303d 50bd 9bb1 3dbd 1802 b13c e0db fb3b
00000160: c66d 6d3d 91c6 803d c8c8 86bd 8f0b 95bd
00000170: 18d1 8ebc eaa2 83bd 24b7 95bc 0d41 adbd
00000180: c2e5 763c d0af ffbb dc4c 87bc 910a 2ebd
00000190: bc2c e53c 3d3a 8bbd 87c1 ebbc d875 3bbc
000001a0: 38ab ddbc eda8 82bd 62a9 6abd 76ed a2bd
000001b0: 1279 6a3d ed3c b93c 231a b03d 608b 833d
000001c0: 6576 68bd bd5f 96bd 65ce 573d e0f5 09bb
000001d0: 7422 a0bd 8458 563d 7a47 473d 36e4 96bd
000001e0: da49 e5bc 11b6 813d 721e 053d a713 8cbd
000001f0: 7d0c bbbc 39fd b33d 3c70 593b 7582 5cbd
00000200: c39b 9cbc 2e06 843d a203 6ebc 1c33 a5bc
00000210: f0ca 71bd c295 a63c 93ae ebbc e328 02bd
00000220: 9c39 a9bc 4b92 a7ba f021 3fbd 6c9e de3c
00000230: bc5a 823c 4bd8 3c3d f825 fe3c 833f 96bd
00000240: 1dd3 babc e6fc c43b b61b a33b 24ab c93c
00000250: 4f16 a2bd 618a 8c3d e32d 7dbd 17ea 0abd
00000260: 4687 783d 671b 943d dda0 9f3d 21fc 5c3d
00000270: 5679 9c3d 2b84 19bd 52a5 a1bd aa77 a73b
00000280: a425 143c 73db 9a3b f0b1 aa3c 45c3 ad3d
00000290: 3015 703d 18d9 aa3c 1845 a9bd e36b 9cbd
000002a0: 5a96 3ebd c85e 4c3c e4c7 27bd 838a abbd
000002b0: 20df 2f3d eeab 6d3d 513b 673d 381a b53b
000002c0: e7c3 873d a0ec c2bc 82da f83b eeab 2d3d
000002d0: 4973 b2bb 1650 a93d 3015 feba 7555 83bb
000002e0: 647f deba 711d 0abc 69ab 683c d582 d2bc
000002f0: 285f cc3c 1111 6b3d da70 b03d 6b09 863c
00000300: 566a 1a3d e4a6 813d c422 38bd f8d1 a33d
00000310: e4b0 edbb 6a13 96bc a8f8 30bd 41af 5abd
00000320: 378c 23bc 409b 7f3d e07f 2c3b 1fda 8bbc
00000330: 6451 c13a 2f07 fb3c 880b 143d 1775 74bd
00000340: 4cc4 89bc 3b3a 463c 8134 4b3c 1764 a73d
00000350: b196 203c 9572 1c3d 0c15 253d a885 ac3d
00000360: 152a 993d ddd2 93bd ba20 983d cbb7 4e3d
00000370: 569d 62bd f766 5cbd 22ed fe3c a589 533d
00000380: 95ac 8dbc 9aa2 83bd be86 94bd 06a2 6b3d
00000390: a527 9b3d 6784 ca3c 8c81 333d 2962 9a3d
000003a0: 7245 593d 7dc5 3f3c 8d09 7a3d d49c a83c
000003b0: 7426 9c3c 38d6 2cbd 030a 883d 65f8 af3d
000003c0: 68b9 98bb 3cb0 b33d 6382 623d e511 2abd
000003d0: b44e 35bd 23c0 abbd 42aa 2f3d cbc8 9fbd
000003e0: 5996 e73c 3ac3 2e3d 07da 53bd 9b2b b73b
000003f0: 1058 8d3d 8b5a 44bd 8bc2 cd3c df4d 3dbd
-0.046623338 0.0698265 0.082370274 0.04122425 -0.048912857 -0.02030753 -0.07185048 0.047966614
0.037579253 -0.06926077 -0.0023326061 -0.025487319 -0.027080372 -0.07577953 -0.060726367 0.05351928
-0.036980312 -0.03794451 -0.02960933 -0.014573934 0.04354879 -0.018818274 -0.027509399 -0.0011460229
-0.07005847 -0.038167447 0.0260028 0.027545825 0.056492276 -0.050237253 -0.039787766 0.035842445
0.06432716 0.025456995 -0.06642419 0.02501589 -0.024331652 -0.043582812 0.07315136 -0.041110583
0.07392206 0.023381509 0.024736874 -0.047400326 -0.07891578 -0.02681708 -0.08386024 0.0027786568
-0.04855985 0.029255189 -0.06649986 0.015341855 0.011089091 0.048036814 0.039724045 -0.027803143
0.03834762 0.021718618 -0.04635076 -0.0028469393 -0.05181895 -0.0016891042 0.06754833 -0.010479953
0.047656067 0.060966168 0.070998795 0.05468083 -0.06685657 0.076233216 -0.06304077 -0.06392506
0.029779118 -0.030233566 -0.020661741 -0.0029627401 0.06487593 0.020412639 0.0011906773 -0.035581276
0.01669956 -0.059709184 0.06487654 -0.026366781 -0.050839603 -0.046311956 0.021607444 0.0076861233
0.057966016 0.062878735 -0.06581265 -0.07277595 -0.017433688 -0.06427558 -0.018275805 -0.08459673
0.015069427 -0.007802941 -0.016516142 -0.042490546 0.027975433 -0.067982174 -0.028778804 -0.01144167
-0.027059183 -0.06379876 -0.057290442 -0.07955448 0.057244368 0.02261206 0.08598735 0.06423068
-0.056753535 -0.073424794 0.052687068 -0.0021051094 -0.078190714 0.05233051 0.04865215 -0.073677465
-0.027989317 0.063335545 0.032499738 -0.06839686 -0.022833103 0.08788533 0.003317847 -0.05383535
-0.019117242 0.06446491 -0.014527233 -0.020165972 -0.059031427 0.020335082 -0.028769767 -0.031777274
-0.020657353 -0.0012784688 -0.046663225 0.02717515 0.015912406 0.04610471 0.031023964 -0.07336333
-0.022805745 0.006011593 0.0049776686 0.024617739 -0.07914411 0.06862331 -0.06181134 -0.03391465
0.06067588 0.07231789 0.07794354 0.053951386 0.076403305 -0.03747956 -0.078928605 0.0051107006
0.009042177 0.0047258674 0.0208368 0.0848451 0.058613956 0.020855471 -0.08265132 -0.07637765
-0.046530105 0.0124737695 -0.040962115 -0.083760284 0.042937398 0.058025293 0.056453053 0.005526807
0.06629162 -0.023794472 0.0075944075 0.042400293 -0.005445872 0.08267228 -0.0019384976 -0.00400799
-0.0016975221 -0.008429871 0.014201024 -0.025697151 0.024947718 0.057389323 0.08615275 0.016361913
0.037699066 0.0633066 -0.04495503 0.07999033 -0.007253753 -0.018319804 -0.043205887 -0.05338979
-0.00998216 0.062403917 0.0026321337 -0.017071782 0.0014748988 0.030643074 0.03614381 -0.059681978
-0.016817234 0.012098844 0.012402655 0.081733875 0.009801553 0.03819521 0.040303275 0.084239304
0.0747873 -0.07217953 0.07428117 0.050468247 -0.05532583 -0.053809132 0.031118933 0.05164494
-0.017294208 -0.06427498 -0.072522625 0.057527564 0.07575921 0.024721337 0.043824717 0.07538254
0.053044744 0.0117048 0.061044265 0.020582594 0.019061305 -0.042196482 0.066425346 0.08592299
-0.004660774 0.087738484 0.055300128 -0.04152097 -0.04426451 -0.083862565 0.04288698 -0.0780197
0.028269934 0.04266665 -0.0517216 0.005589915 0.06901562 -0.04793791 0.02511718 -0.04621684

bias f4 [128]
00000000: e419 2abd 073f a2ba 4569 853c de58 32bd
00000010: f45d 4ebc 9609 05bd b4a5 c73d 1082 ce3b
00000020: c984 6dbd 785b 34bc 30ba 92bd fe51 84bd
00000030: f025 48bd 0358 553d bfeb 30bd af4c 20bd
00000040: 5e5d 573d 17ae 483d 13e3 d2bc f7c4 9b3d
00000050: b60e a23d 2a59 973d 7cbf 713d 51a6 3fbc
00000060: 672f 25bc efc7 6a3d 9877 f3bc 7b23 643c
00000070: 2330 863d e396 a5bd 6ae6 31bd a49e b0bd
00000080: de5c c53b 0024 4b3c fe10 aa3d 228d 6abd
00000090: 8b71 493d 548e 1abc 0750 3c3c 706a 59bd
000000a0: 17ec 123d f3c8 b53c 2405 f03a daaa 923c
000000b0: c3ab b2bc 6606 87bd f979 873d 0676 84bd
000000c0: 7de6 0cbd dde5 81bd b4ab ce3c c31a a23c
000000d0: a104 283d a9d0 0a3d d959 2bbc ba19 c23c
000000e0: 9c44 36bb fe82 07bd 43c7 463c 7c01 78ba
000000f0: 7fd9 b23d edbe 82bd 559c 4bbd 1851 62bc
00000100: 659c 3b3c b372 083d c923 6a3c 3beb 94bc
00000110: 8093 ae3d 61bf 43bd 3667 9dbd f921 4b3d
00000120: bfd2 693d 352a b63c 2a08 b73c d0ec d43b
00000130: cc0c 2abd 433c 56bb 03e5 a43c 4da1 9c3d
00000140: 4e9c 3cbc 58cd 103d d9cb adbd 0676 bdbb
00000150: 10d8 4abc 8581 223c 6432 2e3d 9501 5a3d
00000160: 7ec9 80bd 15b1 c03c cdbb 2abd 62e7 44bc
00000170: 807a c6bc c194 ec3c 3104 88bd 6ca1 07bd
00000180: 9ae9 5a3c fe06 de3c 588b 07bd 71a7 93bc
00000190: 879f 87bd 227c be3c 27e0 9fbd b8b8 d63c
000001a0: d724 a43d 65e3 86bc fc48 8c3c cae3 a83d
000001b0: 9036 0e3d dae0 9c3d 8244 84bd 9468 8cbd
000001c0: ab69 123d 00a3 0cbd 89f3 ac3d 35a9 9d3d
000001d0: 61ac 86bd 5052 98bd e715 99bd 5926 b73d
000001e0: ff0f 903d 59e4 0b3d 8517 b43c ec74 4ebc
000001f0: ffe6 6f3d bb74 adbb d0ec eb3c 78b3 a9bd
-0.041528597 -0.0012378403 0.016285548 -0.04354178 -0.012595642 -0.032479845 0.09748402 0.0063021258
-0.057987962 -0.011008136 -0.07164419 -0.06460951 -0.048864305 0.052085888 -0.043193575 -0.03913563
0.052579276 0.04899415 -0.025743043 0.076059274 0.07912962 0.073900536 0.059020504 -0.011697368
-0.010082102 0.057319578 -0.029720113 0.013924475 0.0655215 -0.0808542 -0.04343263 -0.08624008
0.0060230335 0.01239872 0.08304022 -0.0572635 0.04918055 -0.009433348 0.011493689 -0.053080022
0.035869684 0.022190547 0.0018312079 0.017903734 -0.021810418 -0.06593017 0.06615061 -0.06467824
-0.0343995 -0.06342671 0.025228359 0.019788152 0.04102004 0.0338904 -0.010458433 0.023693908
-0.002781189 -0.03308391 0.012132469 -0.00094606704 0.0873289 -0.063840725 -0.049709637 -0.01381328
0.011450862 0.03331251 0.014290758 -0.018178573 0.08524227 -0.047789935 -0.076857015 0.049592946
0.05708575 0.022236923 0.02234276 0.006497957 -0.04151611 -0.0032689727 0.020128733 0.07647953
-0.011511875 0.03535208 -0.084861465 -0.0057818918 -0.012380615 0.009918575 0.042528525 0.053224165
-0.062884316 0.02352194 -0.041683007 -0.012018057 -0.024228334 0.028879525 -0.066414244 -0.03311293
0.013361359 0.027102944 -0.033091873 -0.018024178 -0.06622224 0.02325255 -0.078064255 0.026211128
0.08014839 -0.016465852 0.017124645 0.08246572 0.034720004 0.076600745 -0.06458379 -0.06855884
0.035745304 -0.034335136 0.08444888 0.07698289 -0.065758474 -0.07437575 -0.07474881 0.08942861
0.07034301 0.034153316 0.021983871 -0.012601119 0.058569904 -0.0052934564 0.028799444 -0.08286184

weight f4 [2, 128]
00000000: d137 2f3c ed5b 913d 37f1 d3bc 7f1e a8bd
00000010: f367 ae3d 5ab6 2fbd 32cc 3b3d 49ea 8a3d
00000020: 3fad 123d 0c3b c13c 7614 053d e9ac e13d
00000030: cc44 aebd 2e91 1bbd 14b3 573c 34e2 08bd
00000040: 9b2c b3bd 22ce 8d3d b4bb f43b 263d 1f3d
00000050: 8b63 963d 7fa8 053d 97ea fd3c eb76 df3d
00000060: 83b9 3ebb 1e93 f43c 3f4f 943d 894a bbbc
00000070: 0b9d 9a3d 7706 aa3d a187 db3d dcc3 873d
00000080: 415c abbd 0a16 79bd 8d57 073e 1b89 e83d
00000090: e48c 12be 9e9e 263d 9162 ac3c 11e5 d53c
000000a0: 9541 1ebc d9e8 2e3d 396a 163c 6fab 7d3d
000000b0: afda 82bd 5cb0 36be 7010 e33c 1192 cd3d
000000c0: 6466 cb3c 4a34 123e ad83 523d aceb 17be
000000d0: 7895 ef3b 4dc4 e93d 4610 35be 44a3 aabd
000000e0: 9b0a a13d e5e0 7abe d3d1 92bd b347 69bd
000000f0: 94b6 f53c e01d 69bc 7636 01be e415 993c
00000100: 5993 2abd b7ff 81bd f405 973c 1fb6 a63d
00000110: 8556 9a3b 8cfd a03d d9ec b1bd 2e30 113e
00000120: 1277 d8bb 1322 883d cd73 14be 29a8 283e
00000130: 87cc e0bc ad04 99bc b557 0cbe c360 f33d
00000140: c482 4ab8 b12d 903d 7eb0 dbbd 79c9 84bc
00000150: 7344 8e3d 254f 52bd 5a1e 81bd b986 fcbc
00000160: 8509 a1bc 65d8 4f3d 64d5 7a3d 5923 4ebd
00000170: fb3c 913d 22d1 a6bd 8078 92bd 1820 ccbc
00000180: 07e3 47bd 3443 b93d f791 a6bd 7823 fd3d
00000190: cb9b d3bd c189 283d 62c0 803b 65bd 39be
000001a0: b958 0e3d dcec b6bc 3ad1 3b3d 567e 7d3d
000001b0: 18ca f3bd 78cc e7bd 881b f9bc 487d 703d
000001c0: 0c7c 013e fbfb 333e 05bb 4abd 4241 0dbe
000001d0: 44b6 ef3d 1427 e53d 73b1 843d 3f71 123e
000001e0: 8efb f03d ecb1 2a3e 511d 0b3d 5352 e53d
000001f0: b6a6 3bbd 9d56 09be 0231 893c 54ef 67bd
00000200: 7d66 bc3c accd 6d3d d3c9 dc3d a1c1 9bba
00000210: ce10 9abb 5e46 753d dcec 20be 40c5 553c
00000220: b570 abbc 00dc 94bc 3359 bdba 7f11 5abd
00000230: 706b 483d 285e acbd dfd4 a5bd be8e 90bd
00000240: 9add 563d ab9a 08be 8f7d a7bd ab04 d8bd
00000250: e6af 4c3c f7f1 9a3d b8d2 7fbd 3879 56bd
00000260: 52ea 3f3d f2ff b6bd f2e1 923d 4f92 0f3d
00000270: 33da 1bbe d6db a33d fa3b cebd b5be d73c
00000280: 19e0 9a3d bf13 ac3d ea5d f6bd f923 e2bd
00000290: 2ab0 483c 15fc f5bd 9050 c1bd 7255 ce3d
000002a0: 7ff4 db3d fc05 d3bd fc05 3dbd 18ef 96bd
000002b0: 84c2 8fbc c19c 0c3e c016 73bc 8304 333d
000002c0: dac7 203d 2754 6dbe 9476 883d 9066 e83d
000002d0: a80c 603d 9e2f 54bd 703b ff3d c21f 343e
000002e0: e1e0 8cbd a320 4e3e 7f61 d7bb 2295 49bc
000002f0: 448e d4bd e71b 55bd 1b70 1d3e 7008 c33b
00000300: 6585 2fbd 3461 943d fdd1 b5bc ea2f c73c
00000310: d825 5fbd 005f a03d 6555 073d 0cd6 30be
00000320: 5433 903d 90f2 d73c f44e e23d 2b1a 24be
00000330: 344b c6bb c29a 153c 6456 023e a6c3 01be
00000340: a350 fb3c 1879 56bc 4bb5 873d b338 9ebb
00000350: 676b 1ebd bcec fcbc be40 b73d 2e9a d83b
00000360: cabc 24bd 865f 9d3d b040 63bd 72ad c43c
00000370: 8577 9bbd 9ea3 093e 5219 88bd ddf7 373d
00000380: a29f fbbb 61dc 53bb 5c12 d63d 7b80 c63c
00000390: 3ed0 ee3d 5e38 51b9 8f40 4c3d 2bb4 483e
000003a0: ca3f 1f3c d13d 073e fa00 81bd 2c86 8ebd
000003b0: 8eb9 ce3d b3df 2c3d c0b6 063d 96a8 ac3c
000003c0: 8033 e4bc f13f d3bd 1d03 20bd d74e 0d3e
000003d0: f684 c1bd 535d 23be be57 513b 6694 27be
000003e0: 1dd9 2b3b fc5e 1dbe 1d8f 82bd a9d7 adbc
000003f0: 13c9 c8bb 135d 503e 0362 25bd 1d0a 563d
0.01069446 0.070976116 -0.025871856 -0.08208942 0.085159205 -0.042898513 0.045849033 0.067829676
0.03580975 0.023587726 0.032490216 0.11019308 -0.08509216 -0.03798025 0.013165254 -0.03341885
-0.08748742 0.06924082 0.007468665 0.038876675 0.07343205 0.032631394 0.03099565 0.10911354
-0.0029102273 0.029855307 0.072416775 -0.02286269 0.07549485 0.08302014 0.107192285 0.06629154
-0.083672054 -0.060812034 0.13216992 0.11354276 -0.14311558 0.040678613 0.021043094 0.026110204
-0.009659191 0.04270253 0.009180599 0.06193107 -0.06389367 -0.17840713 0.027717799 0.100376256
0.024829097 0.14277759 0.051395107 -0.14835995 0.0073115192 0.114143945 -0.17681989 -0.08331922
0.07863351 -0.24499853 -0.07168927 -0.056953143 0.029994287 -0.014228314 -0.12618431 0.018687196
-0.041644428 -0.06347602 0.018435456 0.081402056 0.004710021 0.0786086 -0.08687753 0.14178535
-0.006605991 0.06647124 -0.144973 0.16470398 -0.027441276 -0.018678987 -0.13705333 0.1188369
-4.8282338e-05 0.07039965 -0.107270226 -0.01620935 0.069466494 -0.05134501 -0.06304617 -0.03082596
-0.01965786 0.05074348 0.06123866 -0.05032668 0.07091709 -0.08145358 -0.0715189 -0.024917647
-0.048800495 0.09046021 -0.08133309 0.12360281 -0.103324495 0.041146997 0.003929184 -0.18138655
0.03475258 -0.02232974 0.04585383 0.06188806 -0.11903781 -0.11318296 -0.030408636 0.058713228
0.12644976 0.17576592 -0.049494762 -0.13794425 0.11704686 0.11189094 0.06479158 0.14301012
0.1176673 0.16669434 0.033963505 0.11197343 -0.045813285 -0.13411947 0.016747002 -0.056624725
0.022998089 0.058057472 0.107806824 -0.0011883267 -0.0047017103 0.05988156 -0.15715355 0.013047516
-0.020927766 -0.01817131 -0.0014446139 -0.05323934 0.048930585 -0.084163964 -0.080972426 -0.07058476
0.05245743 -0.13340251 -0.08178245 -0.10547765 0.012493109 0.075656824 -0.062456816 -0.052361697
0.046854325 -0.089355364 0.07172002 0.03505164 -0.15219955 0.08000915 -0.10070033 0.026336053
0.075622745 0.08402204 -0.120296314 -0.110420175 0.012249032 -0.120109715 -0.09439194 0.10074891
0.10739993 -0.10303876 -0.046148285 -0.07369822 -0.017548807 0.13731672 -0.014836967 0.043705475
0.039253093 -0.23176633 0.06663242 0.11347687 0.05469957 -0.051803224 0.12462509 0.1759024
-0.0687883 0.20129637 -0.0065729017 -0.012303622 -0.103786975 -0.052028563 0.15374796 0.0059519336
-0.042851824 0.072451025 -0.022194857 0.02431484 -0.05447945 0.0783062 0.033040423 -0.17269152
0.0704104 0.02636078 0.11050215 -0.16025607 -0.0060514454 0.009131135 0.12728268 -0.1267229
0.030678099 -0.013090394 0.06626376 -0.0048285364 -0.038676646 -0.030874602 0.089478955 0.0066101765
-0.040219106 0.07684235 -0.055481613 0.024008486 -0.07591156 0.13441321 -0.066454545 0.044914115
-0.007678942 -0.00323274 0.104527205 0.024231186 0.11660813 -0.00019952792 0.049866255 0.19599979
0.009719798 0.13207175 -0.062990144 -0.06959185 0.100939855 0.042205524 0.032889128 0.021076482
-0.027856588 -0.1031493 -0.03906547 0.13799606 -0.094491884 -0.15953569 0.0031943168 -0.16365203
0.002622194 -0.15368265 -0.06374953 -0.021220999 -0.0061274855 0.20348005 -0.040376674 0.05225574

bias f4 [2]
00000000: a589 a93c 4a87 3fbd
0.020695517 -0.04675988
