graph2vec_optimization/model/20_mlp_graph2vec_opt_2.pt (torch_old, 382907 bytes, 6 tensors)

weight f4 [128, 600]
000000 50 08 e8 bc fa 96 1b 3d d3 49 0e bd e0 96 70 3c
       -0.028324276 0.03798578 -0.034738373 0.014684409
000010 12 16 04 bd 82 43 28 bd 97 b6 1a bd 29 f6 d9 bc
       -0.03224761 -0.041080005 -0.037771787 -0.026606636
000020 03 64 19 3d d3 3a d4 3c b6 87 cb 3c 8a 60 00 bd
       0.037448894 0.025906956 0.024844985 -0.031342067
000030 a0 bd d5 3c a1 4b 52 3c 79 54 70 bc a3 99 ee 3c
       0.026091397 0.012835414 -0.014668577 0.029125994
000040 85 2a e6 3c a7 65 ae 3c c7 5b 21 bc a2 ca 3e ba
       0.028096447 0.021288706 -0.009848542 -0.00072781194
000050 88 d4 08 3b c6 97 cd bc f9 4a 1f 3d 64 b8 f6 bc
       0.0020878632 -0.025096785 0.03888986 -0.030117221
000060 ba fe 2b bc e2 77 16 3d ed 80 85 ba e1 48 b6 bc
       -0.010497743 0.036735423 -0.0010185518 -0.022251548
000070 33 2e c2 3c 18 92 b9 bc 1d 38 2e 3c 99 08 12 3d
       0.02370367 -0.02265267 0.010633496 0.03565273
000080 d5 58 fa 3b 76 33 9d bb 6c 63 61 bc 28 f6 19 ba
       0.007639984 -0.0047973944 -0.013756614 -0.0005873167
000090 6c 6a 49 3b d5 d5 a3 bc 36 6e 18 3d 40 7a a6 bb
       0.0030733598 -0.019999424 0.03721448 -0.0050804913
0000a0 3f b7 31 bd a5 a9 94 bc 9e a0 8f 3c 11 39 f5 3c
       -0.043387648 -0.018147299 0.017532643 0.029934438
0000b0 a3 79 1c bc 96 ad 7b bc 54 30 f7 3c 2f f8 67 3c
       -0.009550485 -0.01536121 0.030174412 0.014158293
0000c0 a0 f7 ec 3c eb 7a 8c 3b 5c a6 5f ba c5 5a e9 3c
       0.02892667 0.004287114 -0.00085315644 0.028485665
0000d0 c8 f2 f5 bc ee 65 d8 bc 84 c6 b2 bb b3 60 1c 3d
       -0.030022994 -0.026415791 -0.005455794 0.038178157
0000e0 5d be db bb ca eb d9 bc 89 45 6f bb 87 73 32 3d
       -0.0067060427 -0.02660169 -0.0036509952 0.043567207
0000f0 1f 26 08 3d 3d e0 e3 bb 09 2c 0e bd 56 39 a3 bb
       0.03323948 -0.0069542215 -0.034709964 -0.0049812
000100 6c 7f c4 bb 4d 5c bd 3a dc 83 b5 bc 2d d0 00 3d
       -0.005996635 0.0014447063 -0.022157602 0.031448532
000110 23 f4 ce 3b a7 b8 e5 bc 9d 98 15 bd dc 70 2c bc
       0.0063157245 -0.02804215 -0.036522496 -0.010524955
000120 b0 f7 d6 3b 8d 92 ec bb 86 ff a6 bc e4 2a eb bc
       0.0065602884 -0.0072196187 -0.020385515 -0.028706975
000130 4e b2 9c 3c 10 3b 1d bd 8a 35 1a bd 74 8f 17 bb
       0.019127991 -0.038386405 -0.037648715 -0.0023126276
000140 8e 18 e0 bc e0 81 2b bd 07 3b cd 3c 1d 29 0d bd
       -0.027355459 -0.041871905 0.02505256 -0.034463037
000150 0a 06 39 bd c5 40 cf ba e3 b4 11 bc fb 9d 4f 3c
       -0.045171775 -0.001581215 -0.008893224 0.012671943
000160 d4 a3 c7 3c 58 e4 c5 3c 1b 4e 24 bd 65 54 19 3d
       0.024370112 0.024156734 -0.04011355 0.037434
000170 2f b5 ef bc 4f fa 0c bd 72 b4 57 3b ea fd 29 bd
       -0.0292612 -0.0344184 0.003291395 -0.041501917
000180 71 a0 87 bc eb 78 0e bd 7f 98 14 bd bf fb 93 bc
       -0.016555997 -0.034783285 -0.036278244 -0.018064378
000190 f6 55 03 3d 91 91 f3 bc 7a 9a 8f 3c 1a 14 aa 3c
       0.0320644 -0.029732497 0.017529715 0.020761538
0001a0 82 ac e1 bc bf 51 fc bc 3e 3c d2 3c 64 09 b6 bc
       -0.027548078 -0.030800698 0.025663491 -0.022221275
0001b0 4a 67 b4 bc 4e 18 37 bc ab e4 26 bd c9 1c 1b 3d
       -0.022021908 -0.011175228 -0.04074542 0.03786925
0001c0 4a 47 a3 bc 71 dc ad bc dc 10 ba 3c 0e 7a 86 bc
       -0.019931454 -0.021223279 0.022713117 -0.016415622
0001d0 cc 19 a5 bc b8 a4 77 bc 7d 19 9a bc fc d8 06 bd
       -0.020153902 -0.015114956 -0.018810982 -0.032921776
0001e0 d2 ec 49 b8 05 cd 0e bd ca 34 8b bc 94 77 ba bc
       -4.814269e-05 -0.03486349 -0.016992945 -0.022762097
0001f0 a8 ad 1d 3c bc 28 f6 bc a1 f3 a8 bc 4c be b0 3b
       0.009623922 -0.03004872 -0.020623984 0.005393779
000200 a1 63 ad bc 6d 01 da 3c 17 22 9c bb 93 13 15 3d
       -0.02116567 0.026612008 -0.004764806 0.03639562
000210 89 e8 ea 3c c3 df 9e 3a 9f ef 25 3d a7 2e e6 3c
       0.028675335 0.001212113 0.040511724 0.028098417
000220 c0 ba 0e bc 40 21 bf bc d5 b1 19 3d 8a c4 89 3c
       -0.008711517 -0.023331285 0.03752311 0.01681735
000230 ee 29 1b 3c a3 fb 29 3c d0 11 6c bb 3b 68 f8 3b
       0.009470446 0.010374936 -0.003602136 0.0075807846
000240 dd e2 99 3c 06 c0 94 bc e7 27 4d bc 26 eb fe bc
       0.018784935 -0.01815797 -0.0125217205 -0.031117987
000250 2f cf ac 3c c4 8f 11 3d d0 d0 1c 3d b9 eb fc ba
       0.021094887 0.035537496 0.038285077 -0.0019296325
000260 e2 6d 49 3c 63 e8 d0 bc 63 04 50 3b 36 70 0e bd
       0.0122942645 -0.025501436 0.0031740896 -0.03477498
000270 44 ac 2e bc 17 5b 1a bd 37 3b 0e 3c dd 8c 53 3c
       -0.0106611885 -0.037684526 0.00868111 0.012912002
000280 21 df 74 3b 29 4b e8 bc 64 a5 e8 bb fd b4 8e 3c
       0.003736444 -0.028356152 -0.007099794 0.017420286
000290 f2 9b da bc 6e 1d 19 bd 25 94 b7 bc ae 9e c7 3c
       -0.026685689 -0.037381582 -0.022409508 0.024367657
0002a0 a0 5d 85 3c 7a 05 b5 bb 9c f6 e3 bc 53 8d b7 3b
       0.016279995 -0.0055243345 -0.027827553 0.005601564
0002b0 5b 9b 76 bc 88 e6 32 3d fb 59 18 3d b6 b7 6a 3c
       -0.015051688 0.043676883 0.037195187 0.014326027
0002c0 22 fd 89 3c 92 91 87 bc 38 94 23 bb 20 a6 01 3d
       0.016844336 -0.016548906 -0.0024960171 0.03165257
0002d0 85 cc 3e bd e9 1c 16 bd 27 f6 06 bd 5d ff eb bc
       -0.046581764 -0.036648665 -0.032949593 -0.02880829
0002e0 dd 66 ea bc 2b 7a 0f bd c4 57 f4 3b 4d 9f 10 bd
       -0.028613502 -0.035028618 0.0074567515 -0.03530817
0002f0 eb 7d 91 ba b8 f8 14 3a 49 b5 3c bc 43 81 d2 bc
       -0.0011100149 0.0005682814 -0.011517831 -0.025696402
000300 44 89 00 3c 86 63 f6 3c ae f1 0c 3c 65 f0 56 3c
       0.007845227 0.030076753 0.008602543 0.013118838
000310 a7 01 3f 3c b1 5d e0 3c a5 99 e9 bc 5b 9a 00 bd
       0.011658109 0.027388426 -0.028515646 -0.031397205
000320 c5 c2 c2 bc 49 e6 01 bd cd 42 ba 3b 92 e8 cc 3b
       -0.023774514 -0.031713758 0.005684233 0.0062533105
000330 15 5a 37 bb be eb 22 3d e4 59 f2 3c 3f e2 9f 3c
       -0.0027977277 0.039775603 0.029583879 0.019517062
000340 65 fd 3a bd 2f bc cb bc 59 43 3f 3d 26 22 ec 3b
       -0.045651812 -0.024870006 0.046695087 0.0072062192
000350 16 cc 10 3b 0f 84 10 3d ea 7e 4a 3c e2 a0 02 bd
       0.00220943 0.03528219 0.01235936 -0.03189171
000360 8c 03 e1 3b 27 cf e1 b8 c4 f3 b9 bc 43 17 e1 bc
       0.006866878 -0.00010767421 -0.022699244 -0.027476912
000370 01 2b 1d 3d 25 9e 38 bc fb 52 08 bc 9c f8 e4 bc
       0.03837109 -0.011268173 -0.008320565 -0.027950577
000380 e7 84 2f 3c 7a f2 38 bd 4b 13 23 bd f8 e0 9c 3b
       0.010712839 -0.04515312 -0.03981332 0.0047875606
000390 a0 65 01 3d 15 70 77 3c 16 6e c5 3c 2f 3f 7d 3b
       0.031591058 0.015102406 0.024100345 0.0038642397
0003a0 c7 ae a0 3c 3d be cd ba 30 37 20 3d 4a d3 a6 3c
       0.01961459 -0.0015696954 0.03911513 0.020364422
0003b0 a3 95 97 bc aa 75 ac bc ad d0 da bc a8 dd 41 3d
       -0.01850397 -0.0210522 -0.026710832 0.04733053
0003c0 f9 ce cd bb 0c d9 e1 bb 74 9b 92 bc c2 44 7e bc
       -0.0062807766 -0.006892329 -0.017896391 -0.015519323
0003d0 f0 9c 32 bc 9a 68 d0 bc 21 0f 66 3c a4 c1 db 3c
       -0.010901675 -0.025440503 0.014041693 0.026825733
0003e0 e9 06 2e bb df 20 28 bd 0b 12 52 3c 51 14 fa bc
       -0.0026554412 -0.041046973 0.012821685 -0.030527266
0003f0 eb 98 b1 3c 0c 65 68 bb eb 02 c8 3c 1f 92 a8 3c
       0.021679362 -0.003546062 0.024415454 0.020577488

bias f4 [128]
000000 2f a8 04 3c eb 64 00 bd c2 58 ec bc 15 be 02 3d
       0.008096739 -0.031346243 -0.028850917 0.031919558
000010 e2 12 2c bd 20 d6 5a bb e8 36 98 bc 05 80 ed 3c
       -0.042010196 -0.0033391789 -0.018580869 0.028991709
000020 09 b6 45 bc f2 b3 f1 3c 07 03 76 bc 8a 1a 20 bd
       -0.012067326 0.02950475 -0.01501537 -0.03908781
000030 2b f3 77 bc 64 96 31 3c 8c aa 22 bd 6f 3d b6 bb
       -0.015133659 0.010839079 -0.039713427 -0.0055615227
000040 d4 b3 f0 3c 28 26 db bc af 75 e6 bb f0 47 1a bd
       0.029382624 -0.026751593 -0.007033072 -0.03766626
000050 8f 5d 91 3a 4d e2 eb 3c 45 fa 1e 3d 6b 62 5d bc
       0.0011090505 0.028794432 0.038812894 -0.013512234
000060 24 c2 82 bc 77 f8 28 bb 83 fd a9 bc 06 e9 44 bc
       -0.015961714 -0.0025782862 -0.020750767 -0.012018448
000070 b3 05 5e bc 70 50 b2 3c 6e b2 14 bd 6c a4 e6 3c
       -0.0135511635 0.021766871 -0.036302976 0.028154574
000080 2f 65 8c bc c3 ed c5 bc 00 80 14 3d 82 3b f1 3b
       -0.017138092 -0.024161225 0.036254883 0.00736183
000090 5c ab 29 bc c0 4d a1 bc 38 6b e0 bb 68 80 0d bd
       -0.010355797 -0.019690394 -0.006848719 -0.034546286
0000a0 e9 b3 8e 3c 4c 6d ab bc 7a 53 ec 3a 6a 34 c3 3c
       0.017419772 -0.02092614 0.0018030249 0.023828704
0000b0 d4 6d 2c bc 80 fc 0b bc 2e 37 a3 3c 47 28 75 3c
       -0.010524232 -0.008544087 0.019923773 0.014963216
0000c0 51 ee e1 bc a7 8b 22 3d 21 d5 1b 3d 3d d3 17 bd
       -0.027579458 0.039683964 0.038045052 -0.037066687
0000d0 4f 13 38 3c ab 8e ef 3c 37 e5 98 3c d6 46 6a 3c
       0.011235072 0.029242834 0.018663986 0.014299115
0000e0 a5 de e4 bc e9 52 45 bc 5c 75 51 bb 4b b6 3f bc
       -0.027938196 -0.012043693 -0.003196082 -0.011701177
0000f0 19 7d c1 bc 43 90 72 bc 04 a5 c9 3c 15 a4 8f 3c
       -0.023619222 -0.0148049025 0.024614818 0.017534295
000100 b2 4c 37 3c de 66 91 bc 9d 24 dc 3c b3 2d e9 3b
       0.011187719 -0.017749246 0.026872927 0.0071160435
000110 9e c6 0a bd 37 25 05 3c 0c 63 75 bc 72 c3 47 3d
       -0.033880822 0.0081265485 -0.014977228 0.048770376
000120 72 e3 16 3c 23 c2 76 bc 58 dd f4 bb 35 75 b2 ba
       0.009209501 -0.015060934 -0.0074726753 -0.0013615253
000130 d5 94 5e 3c dd 01 f4 bc d0 a9 fc 3c db 01 ce bc
       0.013585289 -0.029786045 0.030842692 -0.02514737
000140 65 af 4b 3d 78 12 79 3c 25 27 2d 3b 49 2d b1 bb
       0.049727816 0.015202157 0.0026421037 -0.0054070097
000150 14 d1 be 3c c2 2a 10 3c 70 70 cf 3b 24 4e d6 3c
       0.023293056 0.008799257 0.0063305423 0.026160307
000160 38 fa 88 3b 17 f7 f9 3b b4 e5 53 3d 75 a1 4c 3c
       0.004180219 0.0076283324 0.051732734 0.012489666
000170 52 6a b1 bc a5 b9 21 bd 9d 83 88 3c 6c 64 da bc
       -0.021657143 -0.039483685 0.01666432 -0.026659213
000180 33 9b 46 bc e8 11 39 bc 7e 44 fb bc 64 ac 17 bd
       -0.012121963 -0.011295773 -0.030672308 -0.03702964
000190 0a d9 7a 3c e6 3e 00 bd 60 ad 00 3c ff cb bf bc
       0.015310535 -0.031309985 0.007853836 -0.023412703
0001a0 14 50 15 3c ab af 05 bd 1a 7e 29 3b f6 81 9e 3b
       0.00911333 -0.032638233 0.0025862516 0.00483727
0001b0 c7 e4 16 bd 20 54 77 3c e7 2d b1 bc 6a 10 fd 3c
       -0.036839273 0.015095741 -0.021628333 0.030891616
0001c0 c7 6b 08 bb e3 35 dd 3c 7f b7 16 3d 68 2e a0 bc
       -0.0020816193 0.027003234 0.03679609 -0.019553378
0001d0 2e 40 12 bb 69 ad d5 3c b8 03 1a bd 59 f2 82 bc
       -0.0022316086 0.026083665 -0.037601203 -0.015984701
0001e0 dc f1 ea 3c 6e 1b 0b 3d 7c 02 2e bc 81 23 2b bd
       0.02867978 0.033961706 -0.0106207095 -0.041781906
0001f0 08 7a 04 3d 70 bd 89 3c 08 85 00 3c 2b 8f 5b 3c
       0.03234294 0.016813964 0.007844217 0.013400833

weight f4 [128, 128]
000000 8e f9 06 3d bd 64 13 3d 1d 02 88 bd 34 07 02 3d
       0.032952838 0.035984743 -0.06641028 0.03174515
000010 86 83 c9 3d 08 c3 89 bc fc 61 e6 ba 86 0d 6e 3c
       0.09839539 -0.016816631 -0.0017576809 0.014529591
000020 b8 ab 36 bd 61 03 23 3c f4 ce 5b 3d fb 28 8e 3c
       -0.044597358 0.009949536 0.053664163 0.017353525
000030 fd 0a 12 3c ce 7d 25 3d 30 67 90 3d 5b 32 59 bd
       0.008913753 0.04040318 0.070509315 -0.05302654
000040 a0 c2 dd bb be 5e 51 3c 54 e6 16 3d 52 09 a5 3d
       -0.006767586 0.012778936 0.03684075 0.08058418
000050 54 12 92 bd 05 64 63 3d c2 ae 8e 3d a9 ec 35 3d
       -0.07132402 0.055515308 0.06966926 0.04441515
000060 ff 26 22 bd 07 eb 3f 3d 5c f3 d5 3b 52 f7 d8 bb
       -0.03958797 0.046855 0.006529255 -0.0066212798
000070 33 1a 88 3d 6e 61 26 3d cc 08 08 3b 7b 1c 63 bd
       0.06645622 0.04062026 0.0020757196 -0.055447083
000080 5d 14 30 bd 6b f0 87 3d 6d 37 91 bd 92 3f 78 bd
       -0.04298817 0.06637653 -0.0709065 -0.0606075
000090 b4 32 89 bd 15 69 fb 3c a8 69 60 bc 9d f9 9b 3d
       -0.06699124 0.030689755 -0.013697065 0.07615969
0000a0 ad 84 70 bd 8d 13 ba 3d 0c be 5a 3d 6b d3 fc 3c
       -0.05872028 0.0908576 0.0534039 0.03086253
0000b0 c1 b1 5a bd ed ca 89 bd cd 7e ef bc 1c cd 43 3c
       -0.053392176 -0.06728158 -0.029235268 0.011950757
0000c0 1d bf 3b 3d 31 c2 0f bd 24 5a 58 3d 8b 33 e0 3c
       0.045836557 -0.035097305 0.05282034 0.027368328
0000d0 90 61 38 bd 0e 09 1f bc 68 b0 12 bd 18 5d 6b 3d
       -0.045014918 -0.009706749 -0.035812765 0.057461828
0000e0 42 e5 79 3d d7 c1 c0 3a 91 9d 74 bc 54 41 60 3d
       0.061009653 0.0014706206 -0.014930145 0.0547498
0000f0 9e 43 0a 3c 77 6b cf ba 35 67 95 bd 1e 5c ab bd
       0.008438973 -0.0015824874 -0.07295076 -0.08367179
000100 c6 80 46 bd 39 c6 45 3d e7 47 b1 3d f9 79 a8 3d
       -0.04846265 0.048284743 0.086562924 0.082263894
000110 f6 9e 2e bd 8f 5b 00 bd b5 8b 57 3d 76 af d2 bd
       -0.042632066 -0.031337317 0.05262347 -0.10287373
000120 54 3d 92 3c ec 92 9c bd a3 51 24 bd 51 6a 1a 3d
       0.01785151 -0.076452106 -0.040116917 0.037699047
000130 c1 21 9f bd d2 5f 58 bc 95 29 2b bd 7b 4b fc bc
       -0.0777011 -0.013206439 -0.041787703 -0.03079771
000140 d0 00 eb bd 5a cf b3 bd 3f e4 f8 b9 e5 63 7c bd
       -0.11474764 -0.087797835 -0.00047472303 -0.061618704
000150 41 7c da bc e6 56 94 bd 75 ff f8 3c 24 f5 96 3d
       -0.026670577 -0.07243137 0.030395249 0.073709756
000160 64 05 50 bd ce 31 12 bc 2a d3 29 bd 6e c6 e3 3c
       -0.05078639 -0.008923007 -0.041461147 0.02780458
000170 ac bc 13 bc 52 77 4e 3d 7d e2 30 bd 54 96 2d 3d
       -0.009017151 0.05040676 -0.043184746 0.042379692
000180 3e 25 46 bc 8a 1d 47 3d 84 ae 39 3d 50 be 80 3d
       -0.01209384 0.048612155 0.045332447 0.06286299
000190 9d e6 5e bd 0c 6a 13 3c d9 23 b1 bc af 8f 86 3d
       -0.05441915 0.0089974515 -0.021623539 0.06570374
0001a0 40 97 84 3b 6c 5d 6f bd 08 83 ee 3c 6d d3 18 bc
       0.0040463507 -0.058438703 0.029115215 -0.009327752
0001b0 94 f9 c5 3c 69 e8 8d 3d ba f1 f6 bc f1 03 45 bd
       0.02416686 0.06929094 -0.030144561 -0.048099462
0001c0 3f 1c e5 3d 8f 27 fa 3b e9 a1 26 bc f7 ba a2 3d
       0.11187028 0.0076341103 -0.010170438 0.07945817
0001d0 ff e1 11 3d 48 20 a1 3d 94 d3 a5 3d 72 50 8b bd
       0.035615917 0.07867485 0.08096996 -0.06802453
0001e0 39 a2 12 bd ef 53 8a bd 00 0c 4c bc 36 9d 55 bd
       -0.03579924 -0.0675429 -0.012454033 -0.05215188
0001f0 e5 34 a6 bc 3e 2e df bc d8 01 20 bc 78 0b 1c 3c
       -0.020288894 -0.02724373 -0.009766065 0.009524219
000200 9e 68 93 bd e0 a2 a8 bd cc 5a 29 3d e9 cf 91 3d
       -0.071976885 -0.08234191 0.041346356 0.07119734
000210 c5 26 92 bc a5 61 1c bd ed 72 b2 3c bf da 75 bd
       -0.017840752 -0.03817906 0.021783317 -0.060023066
000220 62 bd 55 3d d8 08 c6 bc b0 e9 a3 bd 82 4a 0c 3b
       0.052182563 -0.024174139 -0.08003557 0.0021406715
000230 19 1d a9 3d b9 cc 5c bd 78 fc cd bc 98 98 b2 bc
       0.08257503 -0.053906176 -0.0251448 -0.021801278
000240 00 f7 20 bc ba 1b 40 3d bf 3f 63 bd 3e 44 65 3d
       -0.009824514 0.046901442 -0.055480715 0.055973284
000250 48 16 69 3d 80 46 a7 ba 1d 9c a2 3c ab b0 92 3c
       0.056906015 -0.00127621 0.019849831 0.017906507
000260 82 35 aa bd 54 da 85 bd 2b aa 99 3d c0 82 13 bd
       -0.08310987 -0.065357834 0.0750316 -0.036013365
000270 e7 b3 b3 3d 24 4b af 3c f9 e8 62 3d 88 98 30 bc
       0.08774548 0.021398135 0.05539796 -0.010778554
000280 f2 14 d3 3c 4e fb 63 3d 29 5c 90 3d e9 a0 0a 3c
       0.025766823 0.055659585 0.07048828 0.0084612155
000290 24 99 4d 3d 6e 14 22 3c e6 91 18 3d 1a 9f 8b bd
       0.050194874 0.009892566 0.037248515 -0.068174556
0002a0 43 83 b1 bd 46 a5 a9 3d 42 9c 13 bd 75 b7 5c bc
       -0.08667614 0.082834765 -0.03603769 -0.013471474
0002b0 0f 75 a9 bd f0 2b 9f 3c 7d 9f 94 bc 4e be 98 bd
       -0.0827428 0.01943013 -0.018142456 -0.07458173
0002c0 ad 5d b1 3d c3 3a 82 3d 9f 58 8d 3d 56 8b 19 bd
       0.08660445 0.06358864 0.06901669 -0.037486397
0002d0 c0 15 3e 3d 83 ba b1 3d 8c 56 87 3c 3c 0a 81 bd
       0.04640746 0.086781524 0.016520761 -0.0630078
0002e0 48 b3 30 3b 91 22 3d bb 5c 91 b0 3c 18 92 7b bd
       0.0026962329 -0.0028859715 0.021553688 -0.061418623
0002f0 1a c4 4d 3d 5e e7 97 bd a0 d9 06 bc 97 fa 81 bd
       0.050235845 -0.07417177 -0.008230597 -0.06346624
000300 7d e8 9e bd 6a 84 9f bb 4e b4 ee bc 70 ee 5c bd
       -0.07759187 -0.00486808 -0.02913871 -0.05393833
000310 56 9b 88 3c a9 73 37 bb 04 6c 6a 3d 69 ed 1b bd
       0.016675632 -0.0027992523 0.057231918 -0.03806821
000320 da bf 49 bd 34 2a 0c 3d a4 65 cb bc 8f cf a3 3d
       -0.04925523 0.034219936 -0.02482874 0.07998573
000330 9d 1e 87 bd ae b0 3a 3c 48 99 e4 3c dd a6 7d bd
       -0.06597636 0.011394663 0.027905121 -0.06192671
000340 de 12 98 3c e0 7e af bd a6 db 19 bd 3e dd 27 bd
       0.018563684 -0.08569121 -0.03756299 -0.040982477
000350 7b 81 8a 3d 69 e1 82 3c 38 1a 8a 3b d0 d6 23 bc
       0.06762978 0.015976625 0.0042145513 -0.009999946
000360 65 91 81 bd ae 54 17 3d f2 38 87 3d 3f c6 c5 ba
       -0.0632656 0.03694599 0.06602658 -0.0015088989
000370 ce 7d e6 bc d1 09 99 3d 56 50 18 3c cb d7 46 3d
       -0.02813616 0.074725755 0.009296497 0.04854564
000380 36 2b 2b 3c c1 a0 2b bd b0 8a 23 3c 57 a3 88 bd
       0.010447314 -0.041901354 0.009981796 -0.066717796
000390 6e 2c 58 bd b9 a0 16 3d 5c fe 00 bd e4 4c 0a bd
       -0.052776746 0.03677437 -0.031492576 -0.033764735
0003a0 80 aa 89 3a d0 ef 45 3c ae 4b 35 bd ad 89 8c bd
       0.0010503083 0.012081102 -0.044261627 -0.06862197
0003b0 b4 70 92 bd 99 c5 07 bc a7 f8 f6 bb 15 aa a8 3d
       -0.07150403 -0.008286857 -0.007536966 0.082355656
0003c0 f1 31 c6 bc df 81 35 bd 46 07 88 3c 18 e4 76 3d
       -0.024193736 -0.044313308 0.01660503 0.06027612
0003d0 28 50 25 3d 08 60 0c 3d 68 af 55 3c e4 dc ab bd
       0.040359646 0.03427127 0.013042308 -0.08391741
0003e0 b1 79 85 bd d3 e3 83 bc 68 5e 9a bd 71 25 d4 bc
       -0.065173514 -0.016099846 -0.07537538 -0.02589676
0003f0 2e 61 8b bb 91 33 43 bd 65 3d 95 3d f5 4a 87 bd
       -0.004253528 -0.0476566 0.07287101 -0.06606094

bias f4 [128]
000000 53 3d a6 bd af c9 9c bd 26 d2 02 3d b9 f0 28 bd
       -0.081171654 -0.076556556 0.031938694 -0.041245196
000010 a0 18 18 bd 53 25 2e bc 29 9d 54 bd 55 08 d3 bc
       -0.03713286 -0.010629016 -0.051907692 -0.025760809
000020 f9 b5 02 bc ba ab 2c bd 12 e4 16 3d 9c 24 b1 3d
       -0.007977956 -0.04215596 0.0368386 0.08649561
000030 99 5b 5f 3d 06 7c 95 bd 95 de ca bd bb 56 92 bd
       0.054530714 -0.07299046 -0.099057354 -0.07145449
000040 a4 c1 94 3d 7b 50 8b 3d 70 65 d3 3b db 7d 52 bd
       0.072634965 0.0680246 0.0064513013 -0.051389556
000050 e2 8d e2 3c c7 18 01 3d 26 c1 af 3d 29 2d 8d bd
       0.027655546 0.03151777 0.08581762 -0.06893379
000060 a8 8e 83 3d c6 c6 c9 3c 49 99 53 3d 79 22 ce bc
       0.06423694 0.024630915 0.051659856 -0.025162922
000070 11 ee 45 bd 27 8a a1 bc 3f 09 1d bb 9d 63 80 3d
       -0.04832274 -0.019719196 -0.002396181 0.06269
000080 4a a2 4e 3d a6 24 b1 3d 2c 01 75 3c 58 7e cc 3c
       0.05044774 0.08649568 0.014953893 0.02496259
000090 e8 c3 57 3d 30 0e 77 bc 05 7b 2d bd 8a 3a 7f 3d
       0.052677065 -0.015079066 -0.04235365 0.062311687
0000a0 6a 0b a4 bd fc e8 5c bd e7 be d1 bd 6f 88 89 3d
       -0.080099896 -0.05393313 -0.1024149 0.06715476
0000b0 5c 04 a5 3d 42 a1 17 3d 48 88 30 bc 62 b0 4a 3d
       0.08057472 0.03701902 -0.0107746795 0.049484618
0000c0 13 2c a7 bd 5a 86 90 3d 40 d7 25 3d c5 3d 43 bd
       -0.08162703 0.070568755 0.04048848 -0.04766633
0000d0 d6 4d 9e bd e3 a2 97 3d 2b f8 bd 3b 53 0f 03 bd
       -0.0772969 0.07404115 0.005797406 -0.031997036
0000e0 7b 5b 4f bd 40 03 ab 3b 8e 16 84 bd f7 49 94 3d
       -0.050624352 0.0052188933 -0.064496145 0.0724067
0000f0 c9 7a a1 3d bf eb b7 3c 21 59 8c bc c4 e2 01 3d
       0.078847475 0.02245128 -0.017132344 0.0317104
000100 86 0e 99 3d f4 01 b3 bd a1 91 46 bd a1 21 8c bd
       0.07473473 -0.08740607 -0.048478726 -0.06842352
000110 f6 b5 17 bd 40 7b 8a 3d 0b e9 6c 3d 23 9b 76 bd
       -0.037038766 0.06761789 0.057839435 -0.060206544
000120 c1 7b 07 3c 68 f5 36 bd 9f a3 48 3d 12 74 22 bd
       0.008269251 -0.04466763 0.048984166 -0.039661475
000130 31 61 7b b9 88 f0 a4 3d e1 9b 89 bd 3e 71 8a 3d
       -0.00023973432 0.0805369 -0.06719185 0.067598805
000140 39 1c a0 bd 3b 63 7e 3d ed 8d b1 3d 0e f3 a8 bd
       -0.07817883 0.062106352 0.08669648 -0.08249484
000150 d0 fd 00 3d 86 7e 4f 3d 2d 20 9d 3d 2b 9c 88 bd
       0.031492054 0.05065777 0.07672153 -0.06670412
000160 ed b4 9f bb 2d 7b 91 bc c0 6e 45 bd e2 ac 9a bd
       -0.004873863 -0.01775893 -0.048201323 -0.07552506
000170 e1 1f 92 3d 53 33 a0 bd 5c 49 b2 3c 44 02 2e bd
       0.07134987 -0.07822289 0.021763496 -0.04248263
000180 66 ef 22 3d 23 f0 f6 bc f1 d0 ab bc a4 59 2a 3d
       0.03977909 -0.030143803 -0.020973654 0.041589394
000190 56 ba 85 3d c5 bc 6d bd 70 c3 26 3d e8 ee b7 bd
       0.065296814 -0.058041353 0.040713727 -0.089811146
0001a0 23 c7 4c bd 7e e0 93 3d 21 30 fd bc 27 16 89 3d
       -0.0499946 0.07220553 -0.030906739 0.06693678
0001b0 3f b7 80 bd ce e5 2b 3d 75 d5 a0 bd 2c 68 75 3c
       -0.062849514 0.041967206 -0.07853214 0.01497845
0001c0 32 c4 41 3d 46 5a 19 bd 9e 5a 3e 3d d9 1a 1b bd
       0.047306247 -0.037439607 0.046473138 -0.0378674
0001d0 64 50 3b bd c6 7a 78 3d 5c c5 87 bc b3 5a 29 bd
       -0.045730963 0.06066396 -0.0165736 -0.041346263
0001e0 c1 9b 03 3d 18 c9 57 3d 5d cd 92 3d 29 44 5a 3d
       0.03213096 0.052682012 0.07168076 0.05328766
0001f0 65 ce a7 bc a4 ea 70 3c 9c 21 ba 3d f4 92 7a 3c
       -0.020484159 0.01470438 0.09088442 0.015293825

weight f4 [2, 128]
000000 d5 82 1c be 01 41 73 bc 20 ce f0 bb e2 af ed 3b
       -0.15284283 -0.014847041 -0.0073487908 0.007253633
000010 6b 40 b0 bd 59 a5 e2 bd f2 d1 ef bd 6b 8c 27 be
       -0.08606037 -0.11066694 -0.11709966 -0.16362159
000020 b6 98 12 3e d9 17 4f 3e bc 44 bc bc 33 4a 99 bd
       0.14316067 0.20223941 -0.022981994 -0.074848555
000030 32 9d 1d 3e c0 e4 d5 bd bf 19 3c be 5d f7 a4 bd
       0.15391997 -0.10444021 -0.18369196 -0.08054993
000040 d3 8d 19 3e da ca 78 bd d8 5a 29 bc 04 e4 d9 3c
       0.14995508 -0.06074033 -0.0103366 0.026597984
000050 d6 c9 a8 3c b9 25 14 bd a9 ee 28 3d c9 05 b2 3d
       0.020604055 -0.036168788 0.04124323 0.0869251
000060 ed 47 92 3d 4c 01 ea bd 6b 56 31 3d b6 60 07 3c
       0.07142625 -0.114260286 0.043295305 0.008262804
000070 c3 1e 14 3e 68 af be bd f0 db ad 3d 88 ef 33 3c
       0.1446486 -0.093108 0.084892154 0.010982402
000080 c2 89 11 3e 24 22 4e 3d cc a0 9a bd 5a 51 a5 bd
       0.14212707 0.050325528 -0.07550201 -0.08072157
000090 22 3b 44 3d b8 c1 1a 3c 1d 15 2a bd 1a 87 f3 3d
       0.047907956 0.0094456 -0.04152404 0.11891003
0000a0 4c d8 c7 bd 7a a8 c9 3d 0a f3 27 be d8 d1 0b 3d
       -0.09758052 0.098465875 -0.16401306 0.03413567
0000b0 d1 78 a3 3c 6d 76 85 3d aa 3b 87 3d 3d af a0 3d
       0.01995507 0.065167286 0.06603177 0.07845924
0000c0 3e a3 8d bd 86 4d ce 3c 34 ab 8e 3d 3f 1a 08 be
       -0.069159016 0.02518345 0.06966248 -0.13291262
0000d0 01 02 7e 3d c4 96 11 3e c7 c6 2a 3c aa 4b 50 bd
       0.06201363 0.14217669 0.010423369 -0.05085341
0000e0 ab 92 9f 3c d5 93 90 3d 8d a5 26 be 78 a7 6c 3d
       0.019479116 0.07059447 -0.1627409 0.0577769
0000f0 61 b5 f4 3c fc 65 e9 bd a6 38 a1 3b 42 36 7b 3d
       0.029871644 -0.11396405 0.004920083 0.06133104
000100 53 18 69 3a 94 37 c9 3c 76 f4 b6 bb a9 d7 23 bd
       0.0008891869 0.024562635 -0.0055833412 -0.04000059
000110 c3 f1 2f bd c8 df 81 bd 6f cf 82 3d e4 b9 12 3e
       -0.04295517 -0.06341511 0.06387221 0.14328724
000120 29 32 11 3e 2d c1 41 3d cd c1 f1 bc 42 60 e9 3d
       0.14179291 0.047303367 -0.029511357 0.11395313
000130 93 c9 02 3e 72 c9 82 bd 46 db cf 3c 87 62 c6 bc
       0.12772207 -0.06386079 0.025373112 -0.024216903
000140 c6 91 f3 bc 10 cb ed 3c e7 01 00 bd b6 ad 73 bd
       -0.029732596 0.029027492 -0.031251814 -0.059491836
000150 f2 4d 73 be 03 91 ed 3d 39 31 a5 3d 22 1b 5b 3d
       -0.23760203 0.115999244 0.08066029 0.053492673
000160 b2 1f 30 3e 44 01 de bc c1 07 a9 bd c0 9f 18 bb
       0.17199591 -0.027100213 -0.08253432 -0.0023288578
000170 14 68 64 3c 19 61 f9 3d a9 78 e7 3d b5 e8 94 3d
       0.01394083 0.12176723 0.11302311 0.07270948
000180 93 ae 8c bd e5 67 55 3d 45 2c 8b bc 88 b1 ad 3c
       -0.06869235 0.052101035 -0.016988883 0.021202818
000190 db ee 31 3d f5 94 b2 3d 70 00 2c 3e 01 b0 13 be
       0.04344068 0.087198175 0.16797042 -0.14422609
0001a0 b2 f9 26 3d 1d ce 92 bd ca 83 fa 3c d8 6a ad 3d
       0.04076547 -0.07168219 0.03058042 0.084676445
0001b0 ef d5 7e bd e4 c9 17 bd 45 3f 81 bc 2d cf 08 3e
       -0.06221574 -0.037057772 -0.01577724 0.13360281
0001c0 fd 36 26 bd cc 1e fd bd 6f e3 a6 3b f8 b0 83 3d
       -0.040579785 -0.1235939 0.00509303 0.064302385
0001d0 69 fc 89 bd 80 a3 89 3c 81 7f c7 3d a1 1b 0f bd
       -0.067375965 0.016801596 0.09741116 -0.03493846
0001e0 61 e2 d6 3d dc 92 31 3d da f7 a5 3d f6 2d f6 bd
       0.10492397 0.043352947 0.081039146 -0.12020485
0001f0 d6 c3 09 3a e3 e9 92 3d 98 b8 03 3e 16 40 a1 bd
       0.0005255317 0.071735166 0.12863386 -0.078735515
000200 8c 4e 38 3e da a2 9b bc 52 3e 8d bd 45 c6 93 3c
       0.17998713 -0.018998552 -0.06896652 0.018038878
000210 37 92 5b bd 62 1a f5 3d 8c c8 1f 3e 4b 79 b6 3d
       -0.05360624 0.11967923 0.15603846 0.089098535
000220 36 1e 06 be 51 3f 50 be 0c 94 55 bd f2 4d 3a 3d
       -0.13097462 -0.20336653 -0.05214314 0.04548449
000230 0f 59 15 be 13 31 d4 3d 53 d2 1e 3e 76 c3 cc bb
       -0.14584754 0.10360923 0.1550992 -0.0062488867
000240 03 a3 2a be dd 94 eb 3d 61 b5 9b 3d c5 ec 11 3d
       -0.16663747 0.11503003 0.07602955 0.03562619
000250 00 89 cd 3c a9 f9 15 3d a4 53 bb bc 18 cc 26 3c
       0.02508974 0.036615048 -0.022867031 0.010180496
000260 45 d7 fe bc 59 b3 11 3e f0 86 a9 3d df 80 1a bd
       -0.031108508 0.14228572 0.082776904 -0.037720557
000270 3e a7 00 be c8 aa 1a 3d 3f 7f 06 be 98 ef 8b bc
       -0.12563798 0.037760526 -0.13134478 -0.01708202
000280 2f 57 b7 bd 89 e9 a1 bd 91 58 be 3b 19 ed 5e bd
       -0.08952176 -0.079058714 0.005808898 -0.054425333
000290 98 62 cc bc 30 ac 01 bc 24 c4 03 3e cb b3 6e bd
       -0.024949357 -0.007914588 0.1286779 -0.058276933
0002a0 af 5b a2 3c ff f4 f7 bd 5f 11 fc 3d c2 56 6f 3d
       0.019819109 -0.12107276 0.12308001 0.058432348
0002b0 1c 93 a4 3c fc f5 e3 bc 36 e6 02 be 35 44 2e bd
       0.020089678 -0.027827255 -0.12783131 -0.042545516
0002c0 a5 3c 68 3d 77 55 86 3d 05 e9 06 be fc 6f 28 3c
       0.05669846 0.0655927 -0.13174827 0.010280605
0002d0 cb e0 91 bd f0 ca 0c be 8c 7a 89 3d 58 8b 90 bc
       -0.07122954 -0.1374929 0.06712827 -0.01764457
0002e0 0a b9 b6 bd 37 4c 81 3d 61 7a 39 3e 62 86 a8 3d
       -0.08922012 0.06313365 0.1811309 0.082287565
0002f0 aa e5 9d bd 63 b1 24 3e e7 3d 42 3d 0c 77 f5 bc
       -0.077098206 0.16083293 0.047422316 -0.029963993
000300 ac d6 e8 bd 8a c5 93 bd 18 15 1a 3c 50 35 9e bd
       -0.113690704 -0.07215412 0.009404443 -0.07725012
000310 03 92 62 bd 83 16 f7 3c 51 2e 8a bd 09 e7 0d be
       -0.05531503 0.030162102 -0.067471154 -0.13857664
000320 78 11 f1 bd b4 d4 d9 bd 59 92 93 3d 1c e1 fd bd
       -0.1177091 -0.10636273 0.07205648 -0.12396452
000330 a2 1d a3 3c 17 6f e2 3b c9 f2 36 bd a0 a3 0a be
       0.019911591 0.0069102156 -0.04466513 -0.1353898
000340 a7 de a9 3d 4a d1 8c 3d 7a 1e c8 bd 30 e5 93 bc
       0.08294421 0.06875856 -0.09771438 -0.018053621
000350 3e 0f 76 3e 09 4e 13 be 71 ed 18 3c 41 ed b9 ba
       0.24029252 -0.14385237 0.009333954 -0.0014185087
000360 42 e8 28 be 90 e2 83 bc 40 ef d4 bc 7d 0f 28 3b
       -0.1649485 -0.016099244 -0.02599299 0.0025643997
000370 10 e2 f5 bd 50 99 6f bd 14 46 91 bc fb c2 cf bd
       -0.120060086 -0.05849582 -0.017733611 -0.101446114
000380 ae f9 89 3d d4 7a 7c bd 6e 47 bf bc 48 24 e9 3d
       0.06737076 -0.061640576 -0.02334949 0.11383873
000390 98 d5 e4 3c 4d 9d a0 bd a1 d9 d9 bd a6 45 09 3d
       0.02793388 -0.07842503 -0.106372125 0.033513688
0003a0 26 c6 27 bd 0e b1 42 3d 81 01 94 bd a0 cc 83 3d
       -0.040960453 0.047532134 -0.07226849 0.064355135
0003b0 5f af d3 3d b6 64 79 3c d1 78 1b 3c 38 15 6d bd
       0.10336184 0.015221765 0.009489254 -0.057881564
0003c0 75 9a c3 3d 42 30 eb 3d 3f 97 c3 bd 8a 03 32 bd
       0.09550945 0.11483814 -0.09550332 -0.043460406
0003d0 44 b5 2f 3d e8 4e 35 bc d5 59 58 3c c4 6a 92 3b
       0.042897478 -0.011066176 0.013205011 0.004468294
0003e0 a1 86 2e bd 4a f1 03 bd b3 1e f7 bb f0 44 9d bc
       -0.04260886 -0.032212533 -0.0075415014 -0.019197911
0003f0 50 48 65 bd bd 03 10 be 2e 65 26 bd 61 f3 df bc
       -0.055977166 -0.14063926 -0.040623836 -0.027337732

bias f4 [2]
000000 61 73 8e 3c ae ac 34 be
       0.017389001 -0.17643997
