graph2vec_optimization/model/20_mlp_graph2vec_opt_3.pt (torch_old, 382907 bytes, 6 tensors)

weight f4 [128, 600]
000000 16 6c a4 3c 9d 58 be bc 44 94 97 bc 95 64 06 3b
       0.02007107 -0.023235613 -0.018503316 0.002050673
000010 e4 cc 91 3b 31 4a ca 3b 3d 81 bd bc 59 07 1d bd
       0.0044494737 0.006173395 -0.023132915 -0.038337085
000020 bd 7e 4f 3c c9 54 e7 bb bc 6f 88 bc fb f2 38 bc
       0.012664494 -0.0070596677 -0.016654842 -0.0112884
000030 f0 fa e0 bc 3d 5b d4 bc 71 ed 97 3c 9b 6e 5d bc
       -0.027463406 -0.025922412 0.018545838 -0.01351514
000040 f6 86 64 3b 68 49 95 bc f6 c0 da bb c5 21 c2 bc
       0.0034870482 -0.01822348 -0.006675835 -0.023697743
000050 6e e4 88 3b 7e 5b 08 3c e4 03 8f bc 38 f9 05 3d
       0.0041776216 0.008322595 -0.01745791 0.032708377
000060 b6 d0 bc 3c 54 c2 a9 3b e5 be be bc 83 a5 1e 3d
       0.02304874 0.0051806364 -0.023284385 0.038732063
000070 19 15 b0 3c d9 53 42 3c 42 f7 26 3c 31 66 d1 3c
       0.021494435 0.011860811 0.010190787 0.025561424
000080 45 3d 9f bc 0d f9 49 bb b9 6c d2 3c cb 04 7d 3c
       -0.019438395 -0.0030818612 0.025686609 0.015443037
000090 8d 47 97 3c 89 b1 14 bc d7 b1 98 3c 95 e7 e6 3c
       0.018466735 -0.009075531 0.018639488 0.028186599
0000a0 c9 7b 0d 3d 1f a6 1c bd 54 28 65 bc d2 f2 ad bc
       0.03454188 -0.038244363 -0.013986666 -0.02123395
0000b0 67 68 b0 bc 0c 60 4b bc 52 61 ed bc b2 d1 45 bc
       -0.021534158 -0.012413036 -0.02897707 -0.012073921
0000c0 ed f4 a8 3b 28 3e 20 3d 03 d9 12 bd 6d fa 92 bc
       0.0051561506 0.039121777 -0.03585149 -0.017941678
0000d0 88 b2 12 3d 77 0a e5 3b 38 3d 82 bc 8f 8a 86 bc
       0.035814792 0.006989773 -0.015898332 -0.016423492
0000e0 cd 3e 06 3d 29 ef 42 bb 8c 95 d7 3c f7 e5 90 bc
       0.032774735 -0.0029744601 0.026316427 -0.01768778
0000f0 90 30 20 3a 4c 2c b3 bc 8e 4c 11 3d 1e 69 0c bd
       0.0006110752 -0.021871708 0.0354734 -0.034279935
000100 b4 70 bb ba da 6c 05 3d 82 5e df 3c 10 ea 06 3d
       -0.0014300556 0.032574512 0.027266745 0.032938063
000110 48 ad 99 3b 4f 4d dd bc 54 ad 6a 3b a9 44 b4 bc
       0.004689846 -0.027014403 0.0035808878 -0.022005396
000120 57 8a f3 bb 90 b7 06 3c 24 c3 90 3c d8 f9 aa 3c
       -0.007432263 0.008222476 0.017671175 0.020871088
000130 09 74 14 bd 08 38 16 3c 06 4b 3f bc a7 83 a0 3c
       -0.036243472 0.009168632 -0.011675602 0.019594027
000140 c5 0f 0b 3c 8c aa 0a bc dd da 0a 3d cb a7 d2 bc
       0.0084876465 -0.008463513 0.03390013 -0.025714776
000150 8f 47 81 3c 56 de 9c 3c 18 01 02 bd a6 0a 89 3c
       0.015781192 0.019148987 -0.031739324 0.01672871
000160 85 6a eb bb 8c 36 a3 bc 59 ce 93 bc 94 39 1c bc
       -0.007184329 -0.01992347 -0.01804273 -0.009535212
000170 d6 a1 18 bd b1 63 83 3b 1c 31 fc 3c b9 13 42 3c
       -0.037263714 0.004009687 0.030785136 0.011845523
000180 35 cb e8 bb 1b cf f9 3b be 72 b0 b8 38 ed f3 bb
       -0.0071043023 0.007623566 -8.4137064e-05 -0.00744405
000190 e9 95 d8 3b 9f 66 bd bc 4e a2 89 3c d1 63 f0 ba
       0.0066096676 -0.023120223 0.016801026 -0.0018340294
0001a0 1f 63 dd bc 11 d5 3d 3c ac 31 bc 3c dd 89 1e bd
       -0.027024804 0.0115864435 0.022972904 -0.038705695
0001b0 4d 19 e2 bc e0 ff ff 3c 08 e9 0f 3d 99 95 79 3c
       -0.027599955 0.03124994 0.035134345 0.015233421
0001c0 5f 2f 5c 3c 0e cb 9b bc 36 13 92 bc 1d 5c b7 bb
       0.0134390285 -0.019017722 -0.017831426 -0.0055956976
0001d0 9c 0a a3 bc 1b ca c0 bc 51 17 0e bd e4 0d fe bc
       -0.01990252 -0.023533871 -0.034690205 -0.031012483
0001e0 34 6e 03 3d 3d 48 d4 bb 32 3c 06 bd 68 0a 85 bc
       0.03208752 -0.006478338 -0.03277225 -0.016240314
0001f0 1d 22 b6 bc 8c 7d 2c bb 59 ee 41 3c 80 38 3b 3c
       -0.022233063 -0.002631995 0.011836612 0.011427045
000200 c9 df 1d 3c c8 7a 6d bc 1d f3 1a 3d 2f f8 49 bb
       0.009635874 -0.014494605 0.037829507 -0.0030818095
000210 64 54 19 3d b7 1a c1 3b 44 d6 8e 3c b4 93 ce bc
       0.037433997 0.0058930772 0.017436154 -0.025216915
000220 4b 79 aa bc b9 4a 18 3d f6 7c 35 3c 0c 38 39 3c
       -0.02080979 0.037180636 0.011077156 0.0113048665
000230 3b 79 a3 3c b1 33 19 3d de cf ed bc 94 35 0e 3d
       0.019955268 0.037402812 -0.029029783 0.034719065
000240 25 b9 bc bc b3 82 ba b9 0c 94 f2 bc 3e 8d e4 3c
       -0.023037503 -0.00035574063 -0.02961161 0.02789938
000250 47 92 5e 3c 0f 09 f5 bc 66 3b 08 bd 9e 2d af bc
       0.01358468 -0.029911546 -0.03325977 -0.021384057
000260 7e ca c6 bb 03 eb 05 3b f8 37 03 3d 87 e4 87 bc
       -0.0060666194 0.0020434267 0.032035798 -0.016588463
000270 5d c1 68 3c e4 5b 50 3c 95 a3 ad 3b 39 bd af bc
       0.014206258 0.012717221 0.0052990415 -0.021452533
000280 1f d7 09 3d 01 2d 55 bc f5 06 15 bd 7d ad 19 bc
       0.03365242 -0.013011218 -0.036383588 -0.009379742
000290 e4 cc 05 3d 79 3d f7 3c 66 63 1b bd 96 70 28 3b
       0.032666102 0.03018068 -0.03793659 0.0025701872
0002a0 97 0a 21 bd 2e 95 42 3c a7 18 ab 3c 7a 01 1e 3d
       -0.03931674 0.0118763875 0.020885779 0.038575627
0002b0 cd 23 93 3c f6 63 10 bd 69 c3 1b bd 4c c9 10 bc
       0.017961407 -0.03525158 -0.038028155 -0.008837055
0002c0 b9 dc 41 bb 77 23 dd 3c b7 ea b1 bc 59 08 50 3a
       -0.0029581024 0.02699445 -0.021718366 0.0007935814
0002d0 46 3a 16 3d 51 f4 55 bc 84 b5 13 3c 0d 2b fe bb
       0.036676668 -0.013058738 0.009015445 -0.007756597
0002e0 c5 6a 1e bd 48 4d b8 3c ff 7f cc 3b f0 c0 f7 bc
       -0.038676042 0.022497788 0.0062408443 -0.030243367
0002f0 43 56 c9 3c 01 05 91 3c 91 1d 97 bb de 0f 38 ba
       0.024577266 0.017702581 -0.004611679 -0.00070214074
000300 96 cc a6 3c 05 17 92 3c f7 2f 16 3d af dd b0 bb
       0.020361226 0.017833242 0.036666837 -0.0053975205
000310 34 80 f9 bc 11 73 27 3c 02 c5 fd 3b 14 73 48 3c
       -0.03045664 0.010220305 0.0077444324 0.012234468
000320 2a ce ee bc b1 bb a5 3c 4b d7 a5 3b 1d 05 6e bc
       -0.029151041 0.0202311 0.0050610653 -0.014527586
000330 1c f8 8c bc e7 3f 0c bd c4 f1 3d 3c 94 86 4c bc
       -0.017208152 -0.03424063 0.011593286 -0.012483258
000340 83 7f 0f 3d af 50 b4 3c 57 08 cc bc 14 38 1c 3d
       0.035033714 0.02201113 -0.02490632 0.038139418
000350 fc c9 cc 3c 4a 2f ae 3c 78 19 76 bc 34 58 fb 3b
       0.024998657 0.021262784 -0.015020721 0.0076704267
000360 85 bd dc 3c db ba 78 bb bb 38 24 3d 86 e2 16 3d
       0.026945839 -0.0037953171 0.040093165 0.036837123
000370 a8 a3 9d bb 46 b4 d7 3c b2 38 56 3b 24 d3 fa 3c
       -0.004810769 0.026331078 0.0032687602 0.030618258
000380 7d 0b 29 bc ae d7 ec bc af e4 a3 bc 2c f1 13 3d
       -0.01031768 -0.028911438 -0.020006506 0.03611867
000390 34 ca 0b 3b d4 b3 32 bc a9 e8 d9 3c a6 99 5e 3c
       0.002133024 -0.010907132 0.026600199 0.013586437
0003a0 c8 80 ea bc 8c a3 e9 3c 2c d3 24 bc 7f b6 ba bc
       -0.02862586 0.028520368 -0.010060113 -0.022792099
0003b0 5a 55 32 bc b0 79 fe 3c 83 93 16 bd ed 78 20 bc
       -0.010884607 0.031063884 -0.036761772 -0.009794456
0003c0 58 66 13 3d b2 2c 06 3b 6c 7a 06 bd 95 84 24 3d
       0.035986274 0.0020473418 -0.032831594 0.040165503
0003d0 bf 07 26 bd a2 60 0d bb f0 6d aa bc 8b de 8a bb
       -0.04053473 -0.002157249 -0.020804375 -0.004237955
0003e0 da cf 0b 3c 32 20 91 3a 1c eb 3a 3c 0e f5 0a 3d
       0.008533442 0.0011072217 0.0114085935 0.03392511
0003f0 8e 40 ba bc fd f0 a3 bc f7 90 24 3d 2c e2 4f 3c
       -0.02273586 -0.020012373 0.04017731 0.012688201

bias f4 [128]
000000 70 46 17 3c 47 28 91 3b d1 80 71 3c e4 f3 ff 3c
       0.009233102 0.0044298503 0.014740185 0.031244226
000010 83 2f ce bb 2c 66 b9 3c 4f 01 7a bc d1 2f 09 bc
       -0.006292285 0.022631727 -0.015259101 -0.008373217
000020 f8 97 a3 3c 88 7c 20 bd 35 d8 ea 3c 53 8e f2 3b
       0.019969925 -0.039181262 0.028667549 0.0074022203
000030 f3 94 95 3b 68 2f 0a bd f7 43 9e bc de 5c d0 3c
       0.0045648753 -0.033736616 -0.019319518 0.025434908
000040 e1 0e 96 3c 36 28 fc 3b e1 dd f1 3c 1c 89 cb bc
       0.018317642 0.007695223 0.029524745 -0.024845652
000050 39 62 87 3b 19 70 08 bd 0f 98 0a bc 7e 3a 08 bd
       0.004131582 -0.03331003 -0.008459105 -0.033258907
000060 77 5e b4 ba 8e cc cc 3b e2 64 9d bc 3c d6 eb 3c
       -0.0013761063 0.0062499708 -0.019213144 0.028788678
000070 0c 0f a5 bc 14 1e c2 3c 4f a6 92 3b 7e 7c 5d bd
       -0.020148776 0.023695983 0.004475392 -0.054073803
000080 11 59 63 3c da c2 b5 3b 09 de 9d 3c 97 7f 11 bd
       0.013876216 0.0055469098 0.019270914 -0.03552207
000090 ee 6b c0 3c 23 5b 4c 3c a3 bf b1 3c 0e 5a ad 3c
       0.023488965 0.012472901 0.021697825 0.021161105
0000a0 9e 7f 19 3d 74 d0 a0 3c c6 8a fd 3c e8 f2 b9 3c
       0.03747522 0.019630648 0.030949961 0.022698835
0000b0 a1 cd 1a 3d 21 8f a0 bc 66 da 37 bc 67 72 05 3d
       0.03779376 -0.0195995 -0.011221504 0.032579806
0000c0 84 1d 8d 3b e9 d1 8c bc 7f 2e cb 3c bf bc a7 bc
       0.004306497 -0.017189937 0.024802445 -0.020475743
0000d0 24 00 e3 3c ba 69 89 bb 31 b4 e5 bc 24 92 c8 3c
       0.027710028 -0.004193512 -0.028040024 0.024483748
0000e0 5d 0a c1 bc 48 ad 12 bc 66 c2 42 bd 91 0c 25 3d
       -0.023564512 -0.008952446 -0.047548674 0.040295187
0000f0 dc 29 23 3d ba 05 17 3b dc 84 8a bc e2 15 f8 3c
       0.039834842 0.0023044185 -0.016909055 0.030283872
000100 38 c6 0f 3d 31 09 4d bc 35 55 69 bb e5 fb 53 3b
       0.035101146 -0.012514398 -0.0035603766 0.0032346186
000110 25 ab 83 bc fa 4a c1 bc 65 94 5c ba 2f b5 a4 bc
       -0.016072819 -0.023595322 -0.00084144465 -0.020105926
000120 f8 22 c7 3c 44 95 b5 bc d6 6b 61 3c c8 7b d5 3c
       0.024308667 -0.022165902 0.01375862 0.02606
000130 2c 0d f4 3c d1 2e dc 3b b7 18 f0 3c 9c 4f 34 3d
       0.029791437 0.006719448 0.02930866 0.044021234
000140 a2 31 15 3d 89 31 de bc 16 a1 0b bd cd 73 9f bc
       0.036424287 -0.02712323 -0.03408917 -0.019464398
000150 44 ad b3 3c 3c d1 03 bc 39 fa ee 3c f9 30 1d 3d
       0.021933205 -0.008045491 0.02917205 0.038376782
000160 b7 ee f1 3b 97 dd a3 bb 0a 13 95 bc d4 ae 0c 3c
       0.0073831934 -0.005000781 -0.018197555 0.008586604
000170 c7 f9 13 bd f3 93 1e b9 b8 6d b3 3b 74 d8 30 3d
       -0.036126878 -0.0001512317 0.005475726 0.043175176
000180 6a 0a 0f 3d 72 5a b7 3c 5d f8 01 3d 08 59 93 bc
       0.03492204 0.022381995 0.031731 -0.01798679
000190 30 57 25 3c 7a bd 58 3c e3 fd f8 3c a9 77 18 bd
       0.010091588 0.0132287685 0.0303945 -0.03722349
0001a0 d4 ca 27 bc 7c 80 9a 3b 68 30 04 bd 95 b5 e0 3c
       -0.010241229 0.0047150236 -0.032272726 0.027430335
0001b0 8b 3a ee 3c b2 97 dc bc 08 22 66 bc f2 8e 80 bc
       0.02908065 -0.026927803 -0.0140462 -0.015693162
0001c0 31 5d e0 3b 1b 67 77 bc 8c 5a 56 3c af 63 d1 3c
       0.006847047 -0.015100266 0.0130831115 0.025560228
0001d0 55 67 c2 3c 8b cc fa bb 56 3d c6 3c 9b 10 56 3c
       0.023730913 -0.007653778 0.02419917 0.0130654825
0001e0 66 ed 41 3d ac 7d d7 3c dc 27 06 bd 3e 8d 9e 3c
       0.04734554 0.026305042 -0.032752857 0.019354459
0001f0 f0 2b 35 3b 5c 2f 14 3d 62 b5 d7 bc 39 61 d8 3c
       0.0027644597 0.036177978 -0.026331607 0.026413547

weight f4 [128, 128]
000000 60 a5 87 bc 04 0b 8d bd 73 56 7c 3d b2 b3 8b 3d
       -0.01655835 -0.06886867 0.061605882 0.068213835
000010 9e 20 45 3c 3d a3 92 bd b2 2f 96 bd 79 67 87 3d
       0.012031702 -0.071600415 -0.07333316 0.06611533
000020 07 3c 8b 3d e4 b8 b1 bc 18 36 c2 3c 04 50 ba bc
       0.06798559 -0.021694608 0.023707435 -0.022743233
000030 5d 04 db bc 1b 89 10 bd 6d 91 1d bd d3 3e 7f bd
       -0.026735479 -0.035287004 -0.038468767 -0.062315773
000040 3c 85 9c 3d ff f0 09 bb c8 2c ef bb 29 e6 a5 3c
       0.076426 -0.0021048186 -0.0072990395 0.02025135
000050 7f 8a ae bd 26 3e aa bd b6 e4 36 3d 78 2e a9 3c
       -0.0852251 -0.08312635 0.04465171 0.02065204
000060 39 69 90 3d fe 05 08 bc ab fd 85 3d 9b da 15 3c
       0.0705132 -0.00830221 0.06542524 0.009146358
000070 7d 9f 8b 3d 15 81 98 3c 9d e3 2d 3d ff bc 93 bd
       0.06817529 0.018616239 0.042453397 -0.072137825
000080 26 3d 1c bc 40 c7 9e bb 11 82 6e bd 90 cb ad 3d
       -0.009536063 -0.00484553 -0.05822951 0.08486092
000090 fd a4 97 3d a6 4d 42 bc 93 c5 8a 3d 10 8c 0c 3d
       0.07404516 -0.011859333 0.067759655 0.03431326
0000a0 46 79 45 3d e3 6c 9d bd 3a 8c 90 bd 4c f4 cf 3c
       0.04821136 -0.07686784 -0.07057996 0.025385045
0000b0 2a 79 9d 3d 81 3f a3 3c 02 7d 34 3d b2 c8 ef b9
       0.07689126 0.019927742 0.04406453 -0.00045735162
0000c0 22 ef 02 bd a0 14 8f bd 01 b7 73 bd b0 4e b0 bd
       -0.031966336 -0.06986356 -0.059500698 -0.086087584
0000d0 b1 93 58 3d ec 87 55 3d 94 61 9a 3d 10 d8 d2 3c
       0.052875225 0.05213158 0.07538143 0.025737792
0000e0 a7 7d cd 3c 8d ee 3b 3d 97 90 77 bd a6 40 50 3d
       0.02508433 0.045881797 -0.060440626 0.050842904
0000f0 3a c9 0f 3d e8 54 09 bd f5 31 89 bd d9 b4 4e bd
       0.035104014 -0.03352824 -0.06698982 -0.05046544
000100 ac 20 8e 3d b2 2f 88 bd 17 39 e3 3c 5b 9b af bd
       0.069398254 -0.06649722 0.027737183 -0.085745536
000110 6f 67 4f 3d 20 55 c7 bb 87 1d 99 3d 04 1e 99 3d
       0.05063575 -0.0060831457 0.07476335 0.07476428
000120 c4 6e 04 bd 52 7b 77 3d 53 01 3e bd 03 2b 3d bb
       -0.032332197 0.06042034 -0.04638798 -0.0028864748
000130 00 78 c6 b8 44 8e bc bc c2 dc a7 bc c9 f3 ad 3d
       -9.4637275e-05 -0.023017056 -0.020491008 0.08493764
000140 78 ee 8b 3c fb 1f a8 3d 93 e9 f3 bc ec 0f c7 3c
       0.017081484 0.08209225 -0.029774463 0.024299584
000150 9b 6f 19 3d 1d 3f a3 bd 56 6d 88 3c 1e 18 ba bc
       0.03745995 -0.07971022 0.016653698 -0.022716578
000160 68 45 85 ba e7 88 56 bc d1 4b 07 bd 35 96 85 3d
       -0.0010167779 -0.0130941635 -0.03303129 0.0652279
000170 19 65 49 3d 03 9e cf 3a 26 19 9e bd cc c3 26 bd
       0.04916868 0.0015839938 -0.077196404 -0.04071407
000180 5e 7e 17 3d 39 a0 20 bd c6 7b 21 3d 66 90 7e 3d
       0.036985748 -0.0392153 0.03942468 0.062149428
000190 47 ad b2 bd b8 db f0 3c ae 71 9a bc c5 41 96 3c
       -0.08724456 0.029401645 -0.018853035 0.018341908
0001a0 f8 93 36 bd 48 c2 20 3d 73 19 1b 3d 2d 1d c2 3c
       -0.044574708 0.03924778 0.037866067 0.023695553
0001b0 0a af 4f bd 71 c0 0d bd 6e 36 9b bd a2 68 68 3d
       -0.05070404 -0.034607355 -0.07578741 0.05674041
0001c0 e9 0f 0c bc 3d b4 b4 3b 40 50 07 3d 48 cc 32 bc
       -0.008548715 0.00551465 0.033035517 -0.010912962
0001d0 75 3d 62 bd 7f a0 20 bd 3f 15 8a bd 3b e6 7b 3d
       -0.05523439 -0.03921556 -0.067423336 0.06149886
0001e0 f9 4f 92 bd 50 a7 e8 3b fc ea a9 bd e6 1f 75 3d
       -0.0714416 0.0071000233 -0.08296773 0.059844874
0001f0 48 79 88 3c 3d 7c a5 3d c5 20 f5 bb 14 d5 b7 bc
       0.016659394 0.08080337 -0.007480713 -0.02244047
000200 f0 95 16 bd dc 14 df bc 7a 62 8d bd d0 56 e9 bc
       -0.036764085 -0.027231626 -0.069035485 -0.028483778
000210 d0 f0 4a bc 05 6a 8d 3d 0b 1d 03 bd a8 a6 0d bc
       -0.012386516 0.06904987 -0.03201012 -0.008645691
000220 bf 4d 96 bd 28 49 45 bc 48 0f 66 3c c8 e6 f0 3c
       -0.07339048 -0.012041368 0.014041729 0.02940692
000230 2e 9c 66 bd 41 41 b2 3d b4 48 c0 bc 96 e9 53 bd
       -0.05630129 0.087038524 -0.023472168 -0.051736437
000240 71 44 25 bd e0 66 56 bc c0 e6 34 3c 00 f7 e8 3c
       -0.040348474 -0.013086051 0.011041343 0.028438091
000250 b8 39 15 bc f0 f4 ba bc c4 5e b2 bc 1d 71 91 3d
       -0.0091079995 -0.022821873 -0.021773703 0.07101653
000260 08 0e 70 bc e0 dd 46 3b f0 3c 64 bd 2e c8 74 bd
       -0.014651783 0.003034465 -0.055722177 -0.05976122
000270 c3 7d 27 bd 88 f4 79 bd 3a 5b 4b 3d bf 53 42 bd
       -0.04089142 -0.06102422 0.049647547 -0.047443148
000280 0e aa 66 bd 5c e1 e2 3c 20 a7 2c bb 90 4e 4c 3c
       -0.05631452 0.02769535 -0.0026344731 0.012469903
000290 58 c9 32 bc b6 d4 4d 3d d0 59 83 bd 48 ce 07 bc
       -0.010912262 0.050251685 -0.06413615 -0.008288927
0002a0 fa e1 52 bd 5d 48 23 bd 70 00 ff bb e0 88 f6 bb
       -0.05148504 -0.039863933 -0.0077820346 -0.007523641
0002b0 b6 47 9d bd d0 36 6b bd d2 3f 29 3d ff 68 7e bd
       -0.076796934 -0.05742532 0.04132063 -0.06211185
0002c0 f0 29 aa bb 6d fc 1e bd 3c 39 a7 bd 00 a6 31 3c
       -0.0051929876 -0.03881495 -0.081652135 0.0108428
0002d0 c4 b7 c5 bc 0d dd ad 3d 30 2b c9 bb e9 93 90 3d
       -0.024135478 0.08489428 -0.0061391816 0.070594616
0002e0 28 b5 5a bd ff 7f 9a 3d 94 f3 d7 3c 20 7e cb 3b
       -0.05339542 0.075439446 0.026361264 0.0062101036
0002f0 d1 dc b1 3d f2 64 b3 bd 4a 35 66 3d 5f a9 2f bd
       0.086846955 -0.08759488 0.056203164 -0.042886134
000300 14 c2 86 3c 14 50 ac bc 55 55 a8 3d 30 11 aa bd
       0.016449966 -0.021034278 0.08219401 -0.083040595
000310 68 1a e3 bc 08 24 ec 3c 9a 17 50 3d b8 33 6b bc
       -0.027722552 0.028825775 0.05080376 -0.014355592
000320 c6 2f e4 bc d9 e1 9b 3d bc 04 b8 bc a0 37 0b bc
       -0.027854811 0.076114364 -0.022463195 -0.008497149
000330 88 4e 7c bc 41 2f 8a bd 16 61 00 bd 22 33 15 bd
       -0.015399583 -0.06747294 -0.03134259 -0.036425717
000340 b6 bb 91 bd e8 71 34 bc ab d8 8e 3d 48 39 65 bc
       -0.07115881 -0.0110134855 0.0697492 -0.013990708
000350 0f cb 64 bd 43 54 a9 3d 5a c6 2f 3d d0 05 a9 bb
       -0.055857714 0.08268025 0.042913772 -0.0051581636
000360 9c 94 b5 bc 99 83 a7 3d e6 a1 a0 bd 08 5a cd bc
       -0.022165589 0.08179397 -0.0784338 -0.025067344
000370 00 59 8e ba 94 ed 04 3d 70 43 09 bd b0 cb 7c bc
       -0.0010860264 0.032453135 -0.03351158 -0.015429422
000380 98 b7 a2 3c ec d5 8d bd 48 27 c8 bc a5 94 42 bd
       0.019862935 -0.06925568 -0.024432793 -0.04750504
000390 29 46 41 bd 40 05 35 bc ca c3 01 3d 23 c3 57 bd
       -0.04718605 -0.011048615 0.03168086 -0.05267633
0003a0 78 fb 84 bd ff c0 9f bd e0 80 02 3b 90 03 6c bc
       -0.06493276 -0.07800483 0.0019913241 -0.014405146
0003b0 ee 26 77 3d 25 14 9c bd c4 7d 8d bc f9 4a a4 3d
       0.06033986 -0.0762103 -0.017271884 0.080221124
0003c0 c0 42 07 3d 96 0e 1c 3d a0 b2 52 bd 41 08 af 3d
       0.033022642 0.038099848 -0.05143988 0.08546496
0003d0 43 e8 97 3d d0 f7 c8 3c 9e 9c 39 3d d0 14 6c bc
       0.07417347 0.024532229 0.045315377 -0.014409259
0003e0 d4 c9 dc 3c 42 b5 86 bd b0 99 83 bb b3 2b aa 3d
       0.026951708 -0.06577541 -0.0040161237 0.08309116
0003f0 70 ad 3b bc 5a b7 42 3d 1e 3b 51 3d b7 ed 84 3d
       -0.011454925 0.04753814 0.05108177 0.06490653

bias f4 [128]
000000 8f 55 15 3d 53 c7 b3 bd d6 db 7c bd 81 8f 70 bd
       0.03645855 -0.087782525 -0.06173309 -0.058730606
000010 7d 4b b9 3d d7 75 c8 bd 68 01 82 3c db d0 a9 bc
       0.09047601 -0.09788101 0.015869811 -0.020729473
000020 30 6b 34 bc 93 fa 84 3c 60 f1 96 bd a4 19 9f bd
       -0.011011884 0.016232764 -0.073702574 -0.077685624
000030 78 dd 40 3c 01 e8 ab 3b c0 61 41 3d 65 5f 25 bd
       0.011771552 0.005246163 0.047212362 -0.04037418
000040 96 0d 48 3d 0e f8 24 bd dd a8 a4 bb 8a 0b dd 3c
       0.04884108 -0.040275626 -0.005025013 0.026983041
000050 5a 1b 36 bc 3c 89 3e b9 74 ab c5 3c c0 1e 43 bd
       -0.01111492 -0.00018170936 0.024129607 -0.047636747
000060 7d c9 b2 bc 78 c0 61 bc 43 6b 4b bd 5c bd 84 bd
       -0.021824593 -0.013778798 -0.04966284 -0.0648143
000070 8d 3f a3 3d c6 5c c8 bd 8d 98 68 bd 14 f4 c5 bc
       0.07971106 -0.0978332 -0.05678611 -0.024164237
000080 bc 88 59 bc d5 17 8c 3d 4e a9 42 3d 8d 80 c9 3d
       -0.013277229 0.06840483 0.047524743 0.09838972
000090 0d 90 36 bb 59 6f 4a bd 21 af 36 3b 4a e5 0d bd
       -0.0027856857 -0.049422596 0.002787538 -0.034642495
0000a0 df 07 a0 bd 44 51 89 bd fa 63 1b 3d fd 79 91 bd
       -0.07814001 -0.06704953 0.037937142 -0.071033455
0000b0 12 b5 fe 3c a1 a5 24 3c 94 f4 45 bd 77 e5 fb bc
       0.0310922 0.010049255 -0.04832895 -0.030749066
0000c0 1b f1 d6 bc b2 fd ba bd 5f de 92 3d 52 71 ad 3c
       -0.026238015 -0.0913042 0.0717132 0.0211722
0000d0 20 66 18 bc e3 1b 73 3d 82 13 08 3d 67 28 7e 3d
       -0.009301692 0.059352767 0.03322173 0.06205025
0000e0 c8 01 aa bd b0 d7 50 3c f5 be 6c 3d 75 68 2d bc
       -0.08301121 0.012746736 0.0577993 -0.0105839865
0000f0 bf 67 b2 bd a0 ae 80 bd 5a 26 94 bd bf d3 ae 3d
       -0.08711194 -0.06283307 -0.072338775 0.08536481
000100 96 c9 33 bd 45 f3 8d 3c 9f e5 62 3d 1f f5 a0 bd
       -0.04389342 0.017327914 0.055394765 -0.07859253
000110 cf 3f bf 3d 70 81 90 3d c1 31 0e 3d ff cb 14 bc
       0.093383424 0.07055938 0.034715418 -0.00908184
000120 20 3a ee 3b ed 25 a7 bd 11 b3 b6 3a 64 70 93 3d
       0.0072701126 -0.08161531 0.0013938864 0.07199171
000130 fa b3 9b bc 2e 4c 3b 3d 93 07 a1 3d 78 21 48 3d
       -0.019006718 0.045726947 0.07862773 0.048860043
000140 7a eb 59 bd 9a 30 34 bc fe 22 45 3d dd e8 98 bd
       -0.053203084 -0.010997916 0.048129074 -0.0746629
000150 83 17 c0 3d 2c 2d c0 3d 85 b7 b0 3d c6 4c 5c bc
       0.093794845 0.09383616 0.086287536 -0.013446039
000160 b4 f4 f0 bc 3c ee 1b 3d b9 de a2 bd 19 90 a7 3d
       -0.029413559 0.038068995 -0.07952637 0.08181781
000170 37 e8 e4 bc d0 fb 4f bd 65 6d 99 bd 5b 2e e0 3c
       -0.02794276 -0.050777256 -0.074915685 0.027365854
000180 16 f8 ad bc 7a f9 5e bd 3d e9 c3 3d 0b 6f 95 3d
       -0.02123646 -0.05443714 0.09565971 0.072965704
000190 6c b9 32 bd a7 4b 2f 3d 80 e9 1b 3d 00 3e bd 3a
       -0.043633863 0.042796757 0.03806448 0.0014438033
0001a0 81 f9 9c 3d c6 9d 38 3c 22 6f a4 bd b6 4d a1 bd
       0.076647766 0.011268085 -0.080290094 -0.0787615
0001b0 75 eb d0 bc 8e d8 27 3d a1 58 35 bc 90 24 b3 3c
       -0.0255029 0.040978007 -0.011068494 0.02186802
0001c0 70 44 11 bc 31 63 98 3c 2c 2e 80 bd 48 1d 71 bd
       -0.008866414 0.018601986 -0.062588066 -0.058865815
0001d0 a6 17 a0 bd 7e 2c ad bd 6a c5 d7 3c aa 88 8f bd
       -0.078170106 -0.08455752 0.026339252 -0.070084885
0001e0 60 0a 6e bd bb ed 19 bd 61 17 0b 3c cd 2f 91 bd
       -0.058115363 -0.037580233 0.008489461 -0.070891954
0001f0 ba 2d 8d bd f6 6a 9e 3d f7 87 eb bc ad 22 92 bd
       -0.06893487 0.07735245 -0.028751357 -0.0713552

weight f4 [2, 128]
000000 b8 b0 18 bd b0 23 0c bc 79 23 02 be 5b e3 2d bc
       -0.037277907 -0.00855343 -0.12708844 -0.010613288
000010 5b eb 16 3e 5e 3f 75 be 50 4b fe bd 1b 25 cb bc
       0.14738218 -0.23949954 -0.124167085 -0.024797967
000020 d9 aa c4 bd 56 e9 14 3d 28 0a 8d bc b4 b6 5c 3d
       -0.09602899 0.03635534 -0.017216757 0.053885177
000030 7d d5 01 bd 0a 02 9b bd 59 32 95 bd 73 b8 13 be
       -0.03169774 -0.07568748 -0.07284994 -0.1442583
000040 3e 61 a9 3d 19 ad a9 bd b5 a8 bd 3d 21 04 5f 3e
       0.082705006 -0.08284969 0.09260694 0.21778919
000050 20 20 94 bc ee cb 07 3d 54 2c ff 3d 75 a8 19 be
       -0.018081725 0.033153467 0.12459627 -0.15005668
000060 5c ed f6 3d dc 57 09 bd 7c 23 a1 3d d0 0f f7 bc
       0.120569915 -0.033531055 0.07868096 -0.030158907
000070 ee d4 3f bd 85 a8 34 be 42 64 ac 3c cf 73 72 bd
       -0.046833925 -0.1764241 0.0210439 -0.059192475
000080 27 9c f3 bd 11 25 c8 3d f5 fb 1d be d0 03 2a 3e
       -0.11895018 0.09772695 -0.15428145 0.16603017
000090 f5 82 94 3d 33 4e ac bd df 2a bb ba f8 b8 58 3d
       0.072515406 -0.08413353 -0.0014279744 0.052910775
0000a0 54 dd e1 bb f4 fc cd bc 36 ac 6e 3d 1d 6c a6 3c
       -0.0068928394 -0.025145032 0.058269702 0.020315224
0000b0 ce 0f 10 3e 29 2d d0 3d e4 67 af bc 57 22 a2 3d
       0.14068529 0.101648636 -0.021411844 0.07916706
0000c0 7b 45 b1 3d b2 07 76 3c d8 67 99 bd d3 b2 fd 3c
       0.086558305 0.015016483 -0.0749051 0.03096906
0000d0 28 be 6f bc 96 f9 64 bc 83 9f 89 bd af d5 a2 bd
       -0.014632739 -0.013975522 -0.067198776 -0.07950913
0000e0 76 7a 6d bd d1 3f 4c bd fd de 3a be b7 87 05 3e
       -0.057978116 -0.049865548 -0.18249126 0.13040052
0000f0 ad c7 b0 3b fe 89 ae bd 3a a6 05 bd 27 b9 c8 3c
       0.005394897 -0.08522414 -0.03262923 0.02450235
000100 2e 16 d6 3d bd 05 b2 3d e2 d8 8c bd f0 f3 30 bd
       0.10453449 0.08692501 -0.068773046 -0.043201387
000110 a4 dc 45 3d 0b 20 be 3d 50 5e 82 bd 0f 7e ae bc
       0.048306122 0.092834555 -0.06365645 -0.021300344
000120 62 66 a9 bd 15 6c 93 3d 3c c0 0f 3c fa e4 aa 3d
       -0.08271481 0.071983494 0.00877386 0.08344455
000130 15 d7 cc bd 7b d5 a8 bd 75 c4 6c 3e 14 53 20 3d
       -0.10001961 -0.08243843 0.23121817 0.03914173
000140 e0 2c d2 bb 10 58 b0 bd cc a8 a2 bc d9 db 8c bd
       -0.006414041 -0.086105466 -0.01985588 -0.0687787
000150 94 e7 7b 3d 32 8c 06 3e b1 90 1b 3e c1 97 ca bd
       0.061500147 0.13139418 0.15191914 -0.09892226
000160 80 11 09 ba b1 4b 8a 3d cf 67 df bc c5 71 03 be
       -0.0005228743 0.06752718 -0.02727118 -0.12836368
000170 b8 31 39 3d 01 5a 7e bc 8c 89 ef bc 78 26 8b bc
       0.04521343 -0.015524388 -0.029240392 -0.016986117
000180 a3 b1 b7 3d 74 db 76 bb ad cc 05 3e e4 16 b9 3d
       0.089694284 -0.0037667425 0.13066359 0.09037569
000190 40 4f 8b bd 03 cf 37 3d c5 82 63 bc 00 24 a5 3b
       -0.06802225 0.044875156 -0.013886158 0.005039692
0001a0 35 91 21 bd 7c f6 f9 3d af 32 63 bd 56 03 a0 3c
       -0.03944512 0.12205216 -0.055468258 0.01953284
0001b0 12 7d 25 bd f2 c4 f4 3d c5 38 88 bd a3 5d 55 3d
       -0.04040248 0.11951627 -0.06651453 0.052091252
0001c0 29 6d 94 bd a7 73 81 3c b4 88 59 bc d3 7b 18 3c
       -0.07247383 0.015802218 -0.0132772215 0.009306866
0001d0 4e d4 4d 3d c2 78 b8 bd 70 fd 6a bd dc 6e 11 3d
       0.050251298 -0.09007408 -0.057370603 0.035506114
0001e0 d0 23 7a bd 88 ee 52 3d 97 18 fb bc 50 09 a8 bd
       -0.06106931 0.051497012 -0.030651374 -0.08204901
0001f0 23 18 bf bc e5 71 20 bd 75 e0 2b 3d 0a fa fa 3b
       -0.023326939 -0.03917112 0.041962106 0.0076592015
000200 3d 78 10 3c 78 f6 37 bc 01 f6 51 3e 1e 25 d9 3a
       0.00881773 -0.011228196 0.20504 0.0016566848
000210 a0 8c ac bd 3d 29 74 3e 9f 28 2e 3e 64 2f 0d 3d
       -0.084252596 0.23843856 0.17007683 0.034469023
000220 ea fa c2 3d 4f 1b 71 bd d0 0e 39 bc 44 2f 60 3d
       0.09520514 -0.058863934 -0.0112950355 0.054732576
000230 51 ee 61 bd 9b 3d 89 bd 33 09 c2 bc 4d 01 55 3d
       -0.055158917 -0.067012034 -0.023686027 0.052003194
000240 5c 3a 27 be 7b a1 0a bd 68 a3 01 be 15 9b 64 be
       -0.16330856 -0.033845406 -0.12659991 -0.22324784
000250 70 5a cb ba 7d fc 2e 3d 95 d5 af bd 1c ad cc 3d
       -0.0015514623 0.04272126 -0.085856594 0.099939555
000260 17 bf e8 bd 64 61 85 3d c9 2c fb bd e3 52 a0 3d
       -0.113645725 0.065127164 -0.122644015 0.078283094
000270 ef 49 87 3d ad 69 5d 3e 0f 87 db bd 0e 21 15 bc
       0.066058986 0.21622343 -0.1071912 -0.009102119
000280 e6 eb a4 3d 37 af 22 be 7b 00 39 3e e2 3e 90 bd
       0.080528066 -0.15887152 0.1806659 -0.07043244
000290 0f d9 fe bc 0b 48 3b 3d 98 d1 5d 3d 72 77 b4 3c
       -0.031109361 0.045723002 0.054154962 0.022029612
0002a0 77 70 4c 3c 00 96 62 bc 33 fd 98 3d 5f a0 a5 3d
       0.012477986 -0.013829708 0.07470169 0.08087229
0002b0 ec 58 a5 bd 2f 5d e1 bd 3f 81 79 3d 0d c5 9b bd
       -0.08073601 -0.110041015 0.060914274 -0.07605944
0002c0 cb 09 a0 bd 6f 88 2a 3d aa bd 17 3d b4 c2 be 3d
       -0.07814368 0.04163402 0.037046112 0.093144804
0002d0 c0 0f c9 3a 4f ab 90 bd a9 b3 bf 3b 62 f4 a8 3d
       0.0015339777 -0.070639245 0.0058502746 0.08249737
0002e0 66 61 1e bd 40 43 17 3b 65 c2 8c 3d bd 83 9d bd
       -0.038667105 0.0023080856 0.06873015 -0.07691143
0002f0 17 38 93 3d 82 76 5e 3a c0 e9 11 3e 9a 54 ca bd
       0.07188433 0.0008486287 0.14249325 -0.09879418
000300 2a 2c 0b bd 60 ad 08 bd cf 81 db bc 23 c1 8b 3d
       -0.033977665 -0.03336847 -0.026795296 0.06823947
000310 f3 8e 9c bd 22 8b af 3b 5e fd 8a 3d 2c 03 c1 bc
       -0.07644453 0.005357162 0.06786607 -0.023561083
000320 0d 0a 51 bd ab 05 77 bc c1 0d 22 3c 37 1b 83 bd
       -0.051034976 -0.015077035 0.0098909745 -0.06401675
000330 43 6a 47 3e a5 c9 a5 3d 0b b6 60 be c2 bb 6b 3d
       0.1947413 0.08095101 -0.21944444 0.057552107
000340 3a 40 67 3d 1e a9 8d 3d a9 83 ea bd 76 81 58 3d
       0.056457736 0.06917022 -0.114508934 0.05285784
000350 45 1b b6 bd 50 8f 6c be e4 08 47 bd c1 82 74 3b
       -0.0889192 -0.23101544 -0.048592463 0.003730938
000360 e6 04 74 3d f0 6b 90 bd b4 37 c8 3c dd e6 1d bc
       0.059574984 -0.070518374 0.024440624 -0.009637562
000370 20 58 83 bd 4d d2 4b bd f1 be 43 3d fd 8a ea bc
       -0.06413293 -0.049761105 0.047789518 -0.028630728
000380 8c 5a 05 be d0 05 8d 3d ac 3b 45 bd 11 99 86 3d
       -0.13022822 0.06885874 -0.04815261 0.06572164
000390 3a ff 27 3d b5 b9 25 3d 95 ac 56 bc d0 31 2b 3c
       0.041014887 0.040460307 -0.01310267 0.010448888
0003a0 8c 82 71 3d 4e 33 24 be 48 51 96 bd 33 2f 05 3e
       0.05896239 -0.16035196 -0.07339722 0.13006286
0003b0 0d 6e 61 bc cb b0 1c be 23 d2 12 bd 16 5c 26 bd
       -0.013759148 -0.15301816 -0.035844933 -0.040615164
0003c0 a2 7b 4f 3d c3 00 30 bd 19 0e fb ba e0 59 3c 3d
       0.050655015 -0.042969476 -0.0019153982 0.04598415
0003d0 26 1b 1f 3d 8d b0 87 3d 86 00 2e bd dd 2c 12 bd
       0.03884425 0.06625471 -0.042480968 -0.035687316
0003e0 94 dc f0 3c 8d 7d b5 3d aa 07 3d bd bd a3 23 3d
       0.029402055 0.088618375 -0.046149887 0.039951075
0003f0 aa 17 10 3e 52 fa 8f bd c9 7c a3 bd 7e 39 96 bd
       0.14071527 -0.07030167 -0.07982785 -0.073351845

bias f4 [2]
000000 7e 8e d3 3d 02 eb 21 be
       0.103299126 -0.15812305
