graph2vec_optimization/model/30_mlp_graph2vec_opt_3.pt (torch_old, 382907 bytes, 6 tensors)

weight f4 [128, 600]
0	0x3cc7e53d	0.024401302
1	0xbc485f59	-0.012229764
2	0x3c603d9b	0.013686563
3	0xbbe22922	-0.006901876
4	0xbd325145	-0.043534536
5	0x3c80aef0	0.015708417
6	0xbcc74570	-0.024325103
7	0xbd147cc6	-0.036251806
8	0xbc345411	-0.011006371
9	0xbcb58b88	-0.02216126
10	0x3b832202	0.004001857
11	0x3bdb38f4	0.006690139
12	0x39a2e8f8	0.00031072623
13	0xbcc01074	-0.023445345
14	0xbd108781	-0.035285477
15	0xbc96aaf9	-0.018392073
16	0x3d01191d	0.03151809
17	0xbc94c9aa	-0.018162567
18	0xbc6cd3dc	-0.014454808
19	0x3d0878b7	0.033318248
20	0x3d23b8f8	0.03997132
21	0x3d0a41cd	0.03375416
22	0xbc9b7c04	-0.018980034
23	0x3cc593a8	0.02411826
24	0xbd1d26dd	-0.03836714
25	0x3d1ad5a4	0.0378014
26	0x3d110620	0.035406232
27	0x3baed99b	0.005335999
28	0x3c6e698f	0.014551534
29	0x3a6c7b07	0.0009021018
30	0x3afe7a97	0.0019415197
31	0x3c9b97e5	0.018993327
32	0xbc492f15	-0.012279292
33	0xbcf8b341	-0.030358912
34	0xbcf67761	-0.030086221
35	0x3c409767	0.011754847
36	0xbcbac650	-0.02279964
37	0xbcc0681b	-0.023487141
38	0xbca6527a	-0.020303
39	0xbc7781d0	-0.015106633
40	0xbd14035f	-0.036136027
41	0xbbee0035	-0.0072632083
42	0x3cf67e13	0.030089414
43	0xbb09c926	-0.0021024435
44	0xbc81782f	-0.015804378
45	0x3d1b0608	0.03784755
46	0xbcec58e7	-0.028850986
47	0xbd18e8ef	-0.037331518
48	0xbcff052e	-0.0311304
49	0xbb633bff	-0.0034673212
50	0xbb4f796b	-0.0031658064
51	0x3d3a4e12	0.04548461
52	0x3cd0a755	0.025470415
53	0xbc951f34	-0.018203355
54	0x3bb519e1	0.0055267666
55	0xbcba2b75	-0.0227258
56	0x3c90baae	0.01766714
57	0x3ac4bbb2	0.0015009551
58	0xbcf57ed3	-0.029967701
59	0xbcbcebf6	-0.023061734
60	0xbd2347da	-0.039863445
61	0xbbc844c9	-0.0061117155
62	0xbc1cb1e9	-0.009563901
63	0x3d322de5	0.0435008
64	0xbb1f2921	-0.002428599
65	0xbd336773	-0.04379983
66	0xbd07e3a9	-0.033176098
67	0x3d07b484	0.033131137
68	0x3c8652eb	0.01639696
69	0xbcd383db	-0.02581971
70	0x3c52be26	0.012862718
71	0xbd07f0da	-0.03318868
72	0xbc52dfd1	-0.012870745
73	0xbd0afc72	-0.033932157
74	0x3c74fb8b	0.014952551
75	0x3d245ec5	0.04012944
76	0xbd04f24f	-0.032457646
77	0xbbc0e6b6	-0.005886878
78	0xbcd46978	-0.025929198
79	0x3d06eceb	0.032940786
80	0xbd2d250e	-0.042271666
81	0x3bf9cd5d	0.007623358
82	0x3b94bf90	0.0045394376
83	0xbca35fa7	-0.019943072
84	0x3d0752ea	0.033038057
85	0xbce3d71d	-0.027812535
86	0xbc76f50e	-0.015073074
87	0x3c414103	0.011795285
88	0xbcab93a6	-0.020944428
89	0x3c9b727e	0.018975493
90	0x3d26ea4d	0.04075079
91	0x3cc7ec9b	0.024404814
92	0xbcf52508	-0.029924884
93	0xb96bddfd	-0.00022494044
94	0xbd126e42	-0.03574968
95	0xbd085115	-0.03328045
96	0x3ce2b784	0.027675398
97	0xbbc1c2bb	-0.0059131063
98	0xbcfdb127	-0.030968262
99	0x3c8deacd	0.017323876
100	0x3cadc4bb	0.021211972
101	0xba64f3d8	-0.00087338453
102	0x3c6b47b3	0.014360356
103	0x3d1297ed	0.03578942
104	0x3c154972	0.009111749
105	0x3ca3caea	0.019994218
106	0xbcc0e2ff	-0.02354574
107	0xbcf34afc	-0.029698841
108	0x3c45fea7	0.01208464
109	0x3ce8fcfa	0.028440941
110	0x3d077d62	0.03307856
111	0x3bd6615a	0.006542367
112	0xbd0f93bc	-0.035053
113	0x3c662204	0.014046196
114	0xbce6f010	-0.028190643
115	0xbd03a73c	-0.03214191
116	0xbc70deb9	-0.014701539
117	0xbcba3d45	-0.022734294
118	0x3d0315d3	0.032003235
119	0xbd061e7e	-0.032743923
120	0x3d0fa877	0.03507277
121	0x3d38422e	0.04498499
122	0xbc9bfaae	-0.019040432
123	0x3d069e6b	0.032865923
124	0xbc3b6a3d	-0.011438903
125	0x3d055213	0.032548975
126	0xbc8398aa	-0.016064007
127	0xbcfd5749	-0.03092541
128	0x3cf77f6d	0.030212129
129	0xbc8a7f37	-0.016906364
130	0x3cf080c0	0.029358268
131	0x3bab8190	0.005233951
132	0x3d3aea30	0.045633495
133	0x3d024b0d	0.031809855
134	0xbb173918	-0.0023074802
135	0x3d3cc109	0.04608253
136	0x3d25af55	0.040450413
137	0xbc5c56ca	-0.0134484265
138	0xbcc77931	-0.02434978
139	0xbb5e2b44	-0.00339003
140	0x3d07a60c	0.03311734
141	0xbcc3b73d	-0.023891086
142	0xbb94853c	-0.0045324843
143	0xbd129451	-0.035785977
144	0x3cc8a99d	0.02449494
145	0x3bea9f6f	0.0071601192
146	0x3c55c8db	0.013048376
147	0xbc32aeae	-0.010905905
148	0x3c224c9a	0.009905959
149	0xbd02bdd6	-0.031919323
150	0xbb531bd8	-0.003221264
151	0xbcfdeb03	-0.030995851
152	0x3c32268d	0.010873449
153	0x3cd042c7	0.025422467
154	0xbcf68fcc	-0.030097865
155	0xbad74e23	-0.0016426485
156	0xbcc41522	-0.023935858
157	0x3c11e66b	0.008905034
158	0x3d2576ef	0.040396627
159	0xbc344124	-0.011001859
160	0xbca4ff56	-0.020141285
161	0xbc2dd612	-0.01061012
162	0xbd110331	-0.035403434
163	0x3cb6e146	0.022324216
164	0x3bb5e715	0.0055512288
165	0xbcfdab69	-0.030965524
166	0xbb930901	-0.0044871573
167	0x3bd8fa00	0.006621599
168	0x3c15393d	0.009107885
169	0x3d318202	0.043336876
170	0xbd3994e1	-0.045307998
171	0xbd1e8614	-0.038702086
172	0xbc788cfe	-0.015170334
173	0xbc0f497c	-0.008745547
174	0xbc0dc9c8	-0.008654065
175	0x3c729a65	0.014807318
176	0xbd16fa34	-0.036859706
177	0x3b9f4522	0.004860536
178	0x3cad786f	0.021175591
179	0x3c8ff70e	0.01757386
180	0xbd0cddb1	-0.03439111
181	0xbc4eb2a9	-0.012615838
182	0xbc07f9e7	-0.008299327
183	0xbcbfa6dd	-0.023394996
184	0x3c8563d6	0.016282957
185	0xbcd5a6ff	-0.026080607
186	0x3d2788ce	0.04090195
187	0x3c960c51	0.01831642
188	0x3d0acb30	0.03388518
189	0xbcc31c80	-0.0238173
190	0x3d1809cd	0.03711872
191	0x3cf71766	0.030162524
192	0x3d441674	0.047872975
193	0xbccc0bdb	-0.024907997
194	0xbb2acefe	-0.0026063318
195	0xbcd08cf0	-0.02545783
196	0xbcb92a54	-0.022603191
197	0x3c625fcf	0.013816788
198	0x3cbbcc3e	0.022924539
199	0x3cf13921	0.029446186
200	0xbb04a518	-0.0020240005
201	0x3bf650d4	0.0075169597
202	0x3b936c0b	0.0044989637
203	0x3bf831f0	0.0075743124
204	0xbc9e4f24	-0.019324847
205	0x3d1842c0	0.037173033
206	0x3c2ca8bb	0.010538275
207	0x3cfe7cdc	0.031065397
208	0x3d038c31	0.03211612
209	0x3c899889	0.016796367
210	0xbca7237a	-0.020402659
211	0x3d3b404b	0.04571561
212	0xbcd59911	-0.026073964
213	0xbc3aa823	-0.011392626
214	0x3ca94383	0.020662075
215	0x3caab030	0.020835966
216	0xbc0e8611	-0.008698956
217	0x3d09d4b9	0.033650134
218	0xbb2ef30d	-0.0026695163
219	0xbb777408	-0.003775837
220	0xbcbf432b	-0.023347458
221	0xbbb5ef11	-0.0055521806
222	0xbd334ce5	-0.043774504
223	0xbc6571f1	-0.0140042165
224	0xbc5ff15a	-0.013668383
225	0x3d083ccf	0.033261117
226	0xbd134f87	-0.035964515
227	0xba7e8f8f	-0.0009710723
228	0xbb437e2b	-0.002982984
229	0x3d37eeb2	0.044905372
230	0x3d024731	0.031806175
231	0x3abb0049	0.0014267053
232	0xbbb8a111	-0.005634435
233	0xbca55b1b	-0.020185044
234	0xbad8d789	-0.0016543727
235	0xbd0752fe	-0.033038132
236	0xbcb4d346	-0.0220734
237	0x3d24e92b	0.04026143
238	0x3cdcc125	0.026947567
239	0xbcba904c	-0.022773884
240	0x3ca5d664	0.020243831
241	0x3c0d9023	0.008640322
242	0x3b9f29c4	0.004857274
243	0xbcc14334	-0.023591615
244	0x3c530cfb	0.012881513
245	0xbbfa28b3	-0.0076342463
246	0xbcae6ea8	-0.021293
247	0xbd324505	-0.043522853
248	0x3d2eb7f5	0.042655904
249	0xbca89440	-0.020578504
250	0xbc20081c	-0.009767558
251	0x3cf752ec	0.030190907
252	0x3d1a45ef	0.03766435
253	0xbcefcadb	-0.029271534
254	0xbb3669d9	-0.0027834086
255	0x3d17c238	0.037050456

bias f4 [128]
0	0xbd058dd2	-0.032605954
1	0xbc920e0f	-0.01782897
2	0xbb911637	-0.004427697
3	0x3c9c24ee	0.019060578
4	0xbc1af1b1	-0.009457038
5	0xbca7fe95	-0.020507136
6	0x3c04ae7c	0.008098241
7	0xbc75aa3a	-0.014994198
8	0x3c98ee34	0.018668272
9	0xbccd7073	-0.025078034
10	0x3c9be72e	0.019031134
11	0x3c53b74f	0.012922122
12	0xbc27936e	-0.010228021
13	0x3cb7b840	0.022426724
14	0xbc77c3e2	-0.015122386
15	0xbc029874	-0.007970918
16	0xbd09d394	-0.033649042
17	0xbd19a23f	-0.037508246
18	0xbcff965c	-0.031199627
19	0x3c97ad72	0.018515322
20	0xbc009799	-0.007848644
21	0x3d10b5bc	0.035329565
22	0xbcc8f095	-0.024528781
23	0x3bfb4b58	0.007668894
24	0x3d0d8111	0.034546915
25	0x3b8b13d6	0.004244308
26	0xbb5b3c30	-0.0033452623
27	0x3c9eaaa0	0.01936847
28	0xbcf2aeb0	-0.029624313
29	0x3d1a1bf5	0.03762432
30	0x3c7c9cb4	0.01541822
31	0x3cb3fc94	0.021971025
32	0xbcbceb33	-0.02306137
33	0xbc77506d	-0.015094859
34	0xbd1d2842	-0.03836847
35	0xbc364fa0	-0.0111273825
36	0xb9fcd28e	-0.0004822206
37	0x3cfb3859	0.030666517
38	0xbd0ac0b6	-0.03387519
39	0xbc1ab44c	-0.0094424
40	0x3d1a4bff	0.03767013
41	0xbd17f01c	-0.03709422
42	0x3c8fa282	0.017533544
43	0x3cbf3805	0.023342142
44	0x3c82e534	0.015978433
45	0x3c89b9d4	0.016812243
46	0xbc18f965	-0.009336804
47	0xbc88077b	-0.01660513
48	0x3ce61cc5	0.02808989
49	0xbcee3597	-0.029078288
50	0x3bd6dcb0	0.0065570697
51	0x3d1e4948	0.038644105
52	0xbd05f37e	-0.032702915
53	0x3cf0925f	0.02936667
54	0xbd1f76d5	-0.038931686
55	0xbd0fd460	-0.035114646
56	0xbc5f6466	-0.013634777
57	0xbb601be9	-0.0034196323
58	0xbcca71de	-0.0247125
59	0xbba72289	-0.0051005525
60	0xbb7f341f	-0.0038940979
61	0xbd0ab41a	-0.033863164
62	0x3a0635a7	0.0005119689
63	0xbc847ed9	-0.016173767
64	0x3c38f928	0.011289872
65	0xbd0d8085	-0.034546394
66	0xbd0cab88	-0.034343272
67	0xbc252fce	-0.010082198
68	0x3ca48f8b	0.020087978
69	0xbbe1fe6a	-0.0068967836
70	0x3bd7c57b	0.006584821
71	0x3b6db89b	0.0036273364
72	0xbc461e61	-0.012092204
73	0xbc4168cd	-0.011804772
74	0xba42e517	-0.000743465
75	0xbb5d07c5	-0.0033726555
76	0xbd089deb	-0.033353727
77	0x3bfd6c66	0.0077338694
78	0xbd1a8b3a	-0.037730433
79	0x3bd11fb0	0.0063819513
80	0xbd1c88d8	-0.038216442
81	0x3cdd7b1c	0.027036242
82	0x3d145f01	0.036223415
83	0xbd1b0662	-0.037847884
84	0xbd06bade	-0.032893054
85	0x3cec5c67	0.028852655
86	0x3cd99e94	0.026564874
87	0x3c89ebd2	0.01683608
88	0x3c889704	0.016673572
89	0x3d266a00	0.040628433
90	0xbd383008	-0.04496768
91	0x3d1a0912	0.037606306
92	0x3c950b8d	0.018193984
93	0xbb8e9eba	-0.004352418
94	0x3d008a85	0.031382103
95	0x3ca9e204	0.020737655
96	0x3be5bd04	0.007011058
97	0x3cde6810	0.02714923
98	0xbd3cd610	-0.046102583
99	0x3c32f6f7	0.010923139
100	0xbca59083	-0.02021051
101	0x3cab357f	0.020899532
102	0x3bd1e94c	0.006405985
103	0x3cd4728d	0.025933528
104	0xbcd00fa8	-0.02539809
105	0xbc82bdca	-0.01595964
106	0xbd6ad3e4	-0.05733098
107	0xbc702f88	-0.01465977
108	0xbc604b60	-0.013689846
109	0x3d16c82a	0.036811985
110	0xbb9fba7d	-0.004874526
111	0xbd321ab6	-0.043482505
112	0x3cff21ff	0.03114414
113	0x3c36af20	0.0111501515
114	0x3d3c6b56	0.0460008
115	0x3d223acb	0.03960685
116	0xbcd33cf2	-0.025785897
117	0x3c31df39	0.010856443
118	0x3ce6c85f	0.028171716
119	0x3cf2471c	0.029574923
120	0x3d13a1b0	0.03604287
121	0xbc5fdb79	-0.013663166
122	0xbd22ab0b	-0.0397139
123	0x3cd38a41	0.02582276
124	0xbcff7b4e	-0.031186726
125	0x3cf3eacf	0.029775051
126	0x3cb2ccd5	0.021826187
127	0x3bb96a97	0.0056584585

weight f4 [128, 128]
0	0x3cceed08	0.02525951
1	0xbb6f24f4	-0.0036490532
2	0xbcc87dea	-0.024474103
3	0x3dc90593	0.09815516
4	0xbda05f1c	-0.07830641
5	0xbd5d33a0	-0.05400431
6	0xbd8c0d8d	-0.06838522
7	0xbdb0260c	-0.08601007
8	0xbda00e4a	-0.078152254
9	0x3d59ad35	0.0531437
10	0xbd0f5a3c	-0.034998164
11	0x3d86c10c	0.065797895
12	0xbbabc29c	-0.005241705
13	0x3d95656d	0.07294736
14	0x3cf3bc4d	0.029752875
15	0x3d345d42	0.04403425
16	0xbcd16f94	-0.0255659
17	0xbc8eeb97	-0.017446322
18	0x3d4c213f	0.049836393
19	0x3c75e143	0.01500732
20	0x3c1d01db	0.009582962
21	0x3d326904	0.043557182
22	0xbd276c7e	-0.04087495
23	0xbd2f4d70	-0.04279846
24	0xbc905734	-0.017619707
25	0xbb3f18cd	-0.002915907
26	0x3d578396	0.052615725
27	0x3d4d26ba	0.05008576
28	0xbd7de715	-0.061987955
29	0x3d88004e	0.06640683
30	0xbcd6094a	-0.026127476
31	0x3db0ac4d	0.08626614
32	0x3d2d50da	0.042313434
33	0x39f1956b	0.00046078427
34	0x3db0fa50	0.08641493
35	0xbd8af217	-0.06784456
36	0xbd2a4f6a	-0.04157964
37	0xbc8096e4	-0.01569695
38	0xbd418c1d	-0.047252763
39	0x3d12ebdf	0.035869475
40	0x3cd5592f	0.026043503
41	0x3d8a643f	0.06757402
42	0x3d070f64	0.032973662
43	0x3c87f658	0.016596958
44	0xbd223826	-0.03960433
45	0x3d100cb0	0.03516835
46	0x3c9a3706	0.018825065
47	0x3db25ef2	0.08709516
48	0xbd403b0d	-0.046931315
49	0x3d96afd9	0.07357759
50	0x3c318798	0.010835551
51	0x3ce1ed8b	0.02757909
52	0xbc9bff0f	-0.01904252
53	0x3cf1748a	0.029474515
54	0x3d509d28	0.050931126
55	0xbc88094c	-0.016605996
56	0x3d83135f	0.06400179
57	0x3c838d06	0.016058456
58	0x3d47586f	0.04866832
59	0xbce84e7e	-0.02835774
60	0xbccbf76a	-0.02489825
61	0x3ca13e18	0.019682929
62	0x3d94f18f	0.07272636
63	0xbc42dbc8	-0.01189322
64	0x3d2d0844	0.04224421
65	0x3cdbe01c	0.026840262
66	0xbd8c3fd6	-0.06848113
67	0xbd1c80ac	-0.03820865
68	0xbbbab3d4	-0.0056977067
69	0xbd29a186	-0.041413806
70	0xbc9aad54	-0.018881477
71	0xbc95a1a6	-0.018265557
72	0xbd823d4e	-0.06359349
73	0x3d6a064b	0.057134908
74	0xbdaa08eb	-0.08302482
75	0x3d4dc4a9	0.050236378
76	0xbc758c5f	-0.01498708
77	0x3a8e2115	0.00108436
78	0xbd2ac45f	-0.04169118
79	0x3d880adb	0.066426955
80	0xbd65d7e8	-0.056114107
81	0xbda5b963	-0.08092
82	0x3d8fe1db	0.070255004
83	0xbc3d8fca	-0.0115699265
84	0xbcced236	-0.02524672
85	0x3d671980	0.056420803
86	0x3d3eeb3a	0.04661105
87	0xbd25ccbd	-0.040478457
88	0xbcdee1ec	-0.027207337
89	0x3d99177e	0.07475184
90	0x3dc11c27	0.09429198
91	0x3cc0672f	0.023486702
92	0xbcbc9e37	-0.023024661
93	0x3d3ca079	0.046051476
94	0xbd9fa42f	-0.077949874
95	0x3dc5ec9a	0.09664269
96	0x3c91a8cb	0.017780682
97	0x3c838c18	0.016058013
98	0x3d27bba1	0.04095042
99	0xbc99861b	-0.018740704
100	0x38635125	5.419659e-05
101	0xbb538e28	-0.0032280777
102	0xbdb07929	-0.086168595
103	0xbd75ca54	-0.06000741
104	0x3d8e21c4	0.06940034
105	0x3d81e05e	0.06341623
106	0x3d9f1124	0.07766941
107	0xbd38462a	-0.04498879
108	0x3d89e138	0.0673241
109	0xbd46b718	-0.048514456
110	0xbd6da53a	-0.0580189
111	0x3ca537bf	0.020168183
112	0x3cb7c84a	0.022434372
113	0xbc900e84	-0.017585047
114	0x3c9ec95f	0.01938313
115	0xbd9cbef9	-0.07653613
116	0xbd44dc4e	-0.04806166
117	0xbca7e641	-0.020495536
118	0x3db119d6	0.08647506
119	0xbd18a3fe	-0.03726577
120	0x3d175460	0.0369457
121	0x3bf80211	0.0075686057
122	0x3d11db28	0.035609394
123	0xbd343098	-0.043991655
124	0x3c751170	0.014957771
125	0xbc87d5d5	-0.016581455
126	0x3d6a16d3	0.057150673
127	0x3d91581d	0.070968844
128	0xbd932a3c	-0.0718579
129	0x3daff040	0.08590746
130	0x3d9acb16	0.07558267
131	0xbd9f9b95	-0.07793347
132	0xbb09ec01	-0.002104521
133	0x3d905433	0.0704731
134	0xbd4efc57	-0.05053362
135	0x3dada36e	0.08478437
136	0x3d787492	0.060658045
137	0x3bb1a27e	0.005420982
138	0xbad34da8	-0.0016121166
139	0xbcf3ccf4	-0.029760815
140	0x3d2b6c2b	0.041851204
141	0x3bb704a0	0.005585268
142	0xbd595d5b	-0.053067546
143	0xbd8ca4c4	-0.06867364
144	0x3d9fdd66	0.078059
145	0x3c8b3340	0.016992211
146	0xbd7a09e0	-0.061044574
147	0x3d65bd1b	0.05608855
148	0x3c7db71c	0.015485551
149	0x3caca212	0.021073375
150	0x3d611f02	0.054961212
151	0xbd325683	-0.043539535
152	0x3c4e92b5	0.01260822
153	0x3d2cd47b	0.042194825
154	0x3ca1a138	0.019730195
155	0xbc6ef321	-0.014584334
156	0x3da60deb	0.081081234
157	0xbd2b7171	-0.041856233
158	0xbccba570	-0.02485916
159	0x3d04737b	0.032336693
160	0xbd1f277c	-0.038856015
161	0x3da06f9e	0.07833789
162	0xbad00ea2	-0.0015873502
163	0xbd8acfcc	-0.06777915
164	0x3ce0e008	0.027450576
165	0x3ccd7d50	0.025084168
166	0x3d5e9c15	0.05434807
167	0x3c88c7f3	0.016696906
168	0xbd2d0331	-0.04223937
169	0xbcc10ef0	-0.023566693
170	0x3b81357d	0.003943144
171	0x3cb761c0	0.022385478
172	0x3ab75416	0.0013986852
173	0x3cc0c57d	0.02353167
174	0xbc983d5b	-0.018583944
175	0x3dbcc38c	0.09216985
176	0x3daa8d0d	0.083276846
177	0xbda21fd4	-0.07916227
178	0xbd893cf3	-0.06701078
179	0xbd7ef0d5	-0.062241394
180	0x3d500ff0	0.05079645
181	0xbda5dd17	-0.0809881
182	0xbced4e91	-0.028968127
183	0xbd98cb45	-0.074606456
184	0xbcb305d6	-0.021853369
185	0xbd8676f7	-0.065656595
186	0xbd87cb7a	-0.06630607
187	0x3d4264db	0.047459465
188	0xbce2cf13	-0.027686631
189	0x3da3ab01	0.07991601
190	0xbd592fc5	-0.053024072
191	0x3da76b9a	0.0817482
192	0xbc223bb8	-0.009901933
193	0xbdb33dcb	-0.087520204
194	0x3d64d5ff	0.055868145
195	0x3c2ae388	0.010430224
196	0xbda92ecd	-0.0826088
197	0x3c8bccfa	0.017065514
198	0x3d3c7a86	0.046015285
199	0xbd98daae	-0.07463585
200	0xbc827fcc	-0.015930079
201	0x3d1fca7d	0.039011467
202	0xbbf86325	-0.0075801783
203	0x3d62bb65	0.055354495
204	0x3d88beb9	0.066770025
205	0x3d69cc85	0.05707981
206	0x3ce69f58	0.028152153
207	0x3923ea00	0.00015632063
208	0x3d43b2ee	0.047778063
209	0xbdaf6d48	-0.085657656
210	0xbbe21d3c	-0.0069004577
211	0xbd8ef24d	-0.06979809
212	0xbcbe32c9	-0.023217576
213	0xbd2f1444	-0.042743936
214	0xbce47419	-0.02788739
215	0xbd318113	-0.043335985
216	0xbd34026a	-0.043947615
217	0xbc269af4	-0.01016878
218	0x3d93c280	0.07214832
219	0x3da4b304	0.08041957
220	0xbd8edd86	-0.06975846
221	0xbd86f236	-0.06589167
222	0x3d732d84	0.05936958
223	0xbbf65b03	-0.0075181737
224	0x3ceb2d40	0.0287081
225	0x3d342c5e	0.043987624
226	0xbd58d346	-0.05293586
227	0x3dabd4f4	0.08390227
228	0xbc18eca1	-0.0093337605
229	0xbd5c661b	-0.053808313
230	0xbcd8e23a	-0.02647506
231	0x3d72296c	0.059121534
232	0x3d8b33f9	0.06797022
233	0x3d09a276	0.0336022
234	0xbca3d2e6	-0.019998025
235	0xbd4428f6	-0.047890626
236	0xbcd2bc82	-0.025724653
237	0xbda285ca	-0.079356745
238	0x3d860613	0.06544127
239	0x3ca40659	0.020022558
240	0x3ccff702	0.025386337
241	0xbd711f86	-0.058867954
242	0xbd658307	-0.05603316
243	0x3c73005a	0.014831627
244	0x3d79ce29	0.060987625
245	0x3d01b4ed	0.031666685
246	0x3d3ed6b6	0.046591483
247	0x3b7e6f20	0.003882356
248	0x3cee0579	0.029055344
249	0xbd083d4e	-0.03326159
250	0x3cdb9c35	0.026807884
251	0x3d27ac56	0.040935837
252	0x3d907b03	0.070547126
253	0xbd69d839	-0.05709097
254	0x3d253795	0.04033621
255	0x3d754816	0.0598832

bias f4 [128]
0	0xbcbe024b	-0.023194453
1	0xbd023f80	-0.03179884
2	0xbd1538fb	-0.036431294
3	0xbda24882	-0.07923986
4	0xbcf43dfb	-0.02981471
5	0xbd882bac	-0.06648955
6	0xbd7b3a58	-0.061334938
7	0xbd64980b	-0.055809062
8	0x3c0187d1	0.007905916
9	0x3d851a4d	0.06499157
10	0xbd858392	-0.06519236
11	0x3ce70f12	0.028205428
12	0xbd5b9be2	-0.05361546
13	0x3da8dcf3	0.08245268
14	0x3c19f5d6	0.009396991
15	0x3d260f7e	0.04054212
16	0x3d75eb07	0.060038593
17	0xbd99fee4	-0.0751932
18	0xbd7bbbbf	-0.061458346
19	0xbd0bd2d9	-0.034136627
20	0x3d4c6e1d	0.0499097
21	0xbd528f61	-0.051406268
22	0x3c90c008	0.017669693
23	0x3d52c70a	0.05145935
24	0xbd53fc91	-0.051754538
25	0xbcd94b52	-0.026525173
26	0xbcbb29c0	-0.022847056
27	0xbcabf8dd	-0.02099269
28	0xbbbdee22	-0.00579621
29	0x3d57a13c	0.052644
30	0xbc9117b9	-0.017711507
31	0x3d81076a	0.06300242
32	0x3d3b870c	0.045783088
33	0x3d96792e	0.07347332
34	0x3daf6f0c	0.085661024
35	0xbd609172	-0.054826207
36	0xbd805706	-0.062665984
37	0x3cda7c7a	0.026670683
38	0xb917bc83	-0.00014470708
39	0xbb239ff1	-0.0024967159
40	0xbca7b382	-0.020471338
41	0x3c8b977c	0.017040007
42	0x3cb98b17	0.022649331
43	0x3dd1cccd	0.10244141
44	0xbc490d80	-0.012271285
45	0xbd044e08	-0.03230098
46	0xbd2e99e1	-0.04262722
47	0x3cf3d52a	0.02976473
48	0xbd8d66d2	-0.06904377
49	0xbcbbbb6c	-0.022916518
50	0x3d8d6004	0.06903079
51	0x3d460081	0.048340324
52	0xbc1fd11a	-0.009754444
53	0xbcc502dc	-0.024049215
54	0xbd4de735	-0.050269324
55	0x3d62dac8	0.055384427
56	0xbc0c5df5	-0.008567323
57	0xbd0cb429	-0.0343515
58	0xbb974f23	-0.004617588
59	0xbd965390	-0.07340157
60	0xbcd81e9e	-0.026381787
61	0xbdc6f957	-0.097155266
62	0x3cc941c1	0.024567487
63	0xbbc050f8	-0.005869027
64	0xbcd7e9fa	-0.026356686
65	0xbd61640c	-0.055027053
66	0xbd65b726	-0.056082867
67	0x3d21063c	0.039312586
68	0x3d37ab75	0.04484125
69	0x3d7e6bfe	0.062114708
70	0x3d66b1c5	0.056321878
71	0xbd913966	-0.07091026
72	0xbc881ad0	-0.016614348
73	0xbd25cf4b	-0.040480893
74	0xbd7b9cfe	-0.061429016
75	0x3d8dc432	0.06922187
76	0xbcb952d0	-0.022622496
77	0x3d94ae8a	0.07259853
78	0x3d24ebc3	0.040263902
79	0xbd6da9d8	-0.058023304
80	0xbcab59a1	-0.020916762
81	0xbd92627b	-0.0714769
82	0xbc229af0	-0.009924635
83	0xbd8e0cee	-0.0693606
84	0xbd5e5d68	-0.054288298
85	0x3cc1f940	0.023678422
86	0x3d6859d5	0.056726296
87	0xbcb97e12	-0.022643123
88	0xbcd10ef6	-0.02551983
89	0x3d0499dc	0.032373294
90	0xbd5772e1	-0.05259979
91	0xbcc80fa8	-0.024421528
92	0xbcf57904	-0.029964931
93	0xb995ebd2	-0.00028595194
94	0x3d9836d4	0.07432333
95	0xbcf2fee9	-0.029662566
96	0xbc3a12d0	-0.011357024
97	0x3ce7495b	0.02823322
98	0xbcd98464	-0.026552387
99	0x3cccd4f0	0.02500388
100	0x3c10b6b3	0.008832621
101	0x3d3d4dca	0.046216764
102	0xbd1f4d4f	-0.038892087
103	0xbc106b20	-0.008814603
104	0xbd796c10	-0.060894072
105	0x3da5cf3f	0.0809617
106	0x3d49083a	0.04908011
107	0xbcd80871	-0.026371213
108	0xbd9dffe2	-0.077148214
109	0xbcb9331d	-0.02260738
110	0xbc90bbb1	-0.017667623
111	0x3d831683	0.06400778
112	0x3d5bc136	0.053651057
113	0xbb578c6d	-0.0032890097
114	0xbcb87d3f	-0.02252066
115	0xbd190556	-0.037358604
116	0xbdc2173a	-0.09477086
117	0xbd0951ce	-0.03352528
118	0xbd201dbc	-0.039090857
119	0xbc96ec19	-0.018423127
120	0xbbd06e45	-0.0063608014
121	0xbccbd11d	-0.024879986
122	0x3c93c96f	0.018040387
123	0xbbc12ab3	-0.0058949827
124	0x3ca18c16	0.019720118
125	0xbd97505c	-0.07388374
126	0xbd494791	-0.049140517
127	0x3ca85e0b	0.020552656

weight f4 [2, 128]
0	0xbe122853	-0.14273195
1	0x3c3f6e96	0.011684081
2	0x3e489cde	0.1959109
3	0xbd827fd1	-0.06372035
4	0xbdec5d3f	-0.11541223
5	0x3d87117c	0.06595132
6	0x3e0886e5	0.13332708
7	0xbdaf511d	-0.08560393
8	0x3c2fa658	0.010720812
9	0x3c7cc06b	0.015426735
10	0xbdd96d35	-0.10616533
11	0xbd6b789a	-0.05748806
12	0x3d95a552	0.07306923
13	0x3d96eb29	0.07369072
14	0x3dafdf43	0.08587506
15	0x3c07b568	0.008282997
16	0x3c299a04	0.010351662
17	0xbd3d1bfd	-0.04616927
18	0xbe09f7ed	-0.13473482
19	0x3cd251a3	0.025673693
20	0x3e097297	0.13422619
21	0x3d8ba566	0.068186566
22	0xbddfc92b	-0.109270416
23	0x3d7e7c36	0.062130176
24	0x3c409448	0.011754103
25	0xbe5a8a11	-0.2134173
26	0xbbe04e3e	-0.0068452647
27	0x3c8be55b	0.017077139
28	0xbdd9396c	-0.106066555
29	0xbdef6591	-0.11689294
30	0x3d0154c9	0.031574998
31	0xbd7b8a36	-0.061411105
32	0xbda887b6	-0.0822901
33	0x3d6277a8	0.055289894
34	0xbd987e40	-0.07445955
35	0xbd720cb8	-0.05909416
36	0x3d93ead5	0.07222525
37	0x3ab8626a	0.0014067416
38	0x3dbac5e2	0.091197744
39	0x3d878d5a	0.066187575
40	0x3ce55092	0.02799252
41	0x3da4f542	0.08054592
42	0x3e09bcb8	0.13450897
43	0x3e086de4	0.1332317
44	0x3da3919b	0.079867564
45	0x3da5f779	0.08103842
46	0xbd886e0d	-0.066616155
47	0xbda03670	-0.07822883
48	0x3c701937	0.014654449
49	0xbd2c9da7	-0.042142536
50	0x3e31437d	0.17310901
51	0x3ce34e60	0.027747333
52	0x3da1f041	0.07907153
53	0x3cbfec04	0.02342797
54	0x3cc9bcac	0.024626099
55	0xbc031a72	-0.0080019105
56	0xbd172acf	-0.03690606
57	0x3d199498	0.037495226
58	0x3cbe6bb8	0.023244724
59	0xbe56b9fb	-0.20969383
60	0x3c9ca013	0.019119298
61	0xbdc603c2	-0.096686855
62	0xbd923c45	-0.07140402
63	0xbd8ad326	-0.067785546
64	0x3c26135f	0.010136454
65	0x3d0de16c	0.034638807
66	0xbd8340ef	-0.064088695
67	0xbd81ad0a	-0.06331833
68	0x3ccd2555	0.025042215
69	0xbd7a0e74	-0.06104894
70	0xbcc81ef8	-0.02442883
71	0xbe0c23ef	-0.13685583
72	0x3d615c92	0.055019923
73	0xbdcb80e5	-0.09936694
74	0xbdad9228	-0.08475143
75	0xbdaa98ee	-0.0832995
76	0x3dc9cce8	0.09853536
77	0x3e290fb4	0.16509897
78	0x3e4a6556	0.19765219
79	0xbd80ef82	-0.062956825
80	0xbd9ed57f	-0.07755565
81	0xbe68ee76	-0.22747216
82	0xbd441a29	-0.04787651
83	0x3cfc7456	0.030817192
84	0x3db8df4a	0.09026964
85	0x3e3835d0	0.17989278
86	0xbd0e42fa	-0.034731843
87	0xbd6d090d	-0.05786996
88	0x3cb590b1	0.02216372
89	0x3c90cdbd	0.017676229
90	0x3d5451a5	0.051835675
91	0xbd078500	-0.033085823
92	0xbcfaf254	-0.03063313
93	0xbc3f23b0	-0.011666223
94	0x3d6524d8	0.05594334
95	0x3c9d75b1	0.019221159
96	0x3cf36af0	0.029714078
97	0x3c742694	0.014901776
98	0x3db64a76	0.08900921
99	0xbd703f37	-0.058654036
100	0xbc0c6f25	-0.008571421
101	0xbd170141	-0.03686643
102	0xbd2cfd57	-0.04223379
103	0x3c754500	0.014970064
104	0x3dcc843d	0.0998616
105	0xbbd4ed82	-0.0064980397
106	0xbd5bc19f	-0.05365145
107	0x3da36f02	0.079801574
108	0x3c8f2bec	0.017476998
109	0x3ce991d8	0.028511927
110	0x3dcde707	0.100538306
111	0x3c6c45b3	0.014420914
112	0x3d212bbd	0.039348353
113	0xbe0ebf15	-0.1394008
114	0x3d7c98e7	0.061669257
115	0x3d1687f6	0.036750756
116	0xbdd11eb9	-0.10210938
117	0xbd2d527f	-0.042315003
118	0xbb5d55a9	-0.0033772981
119	0x3d8175b8	0.06321281
120	0x3dc4012b	0.09570535
121	0x3dac5a7e	0.084156975
122	0x3c7b3419	0.015332245
123	0x3dcdbf7b	0.100462876
124	0x3e16876d	0.14700098
125	0x3d123b02	0.035700805
126	0x3e11966a	0.14217535
127	0xbce57bb8	-0.028013095
128	0x3ce621b1	0.028092237
129	0x3d96bae1	0.07359863
130	0xbe5ca0f5	-0.21545775
131	0xbdc181b5	-0.09448568
132	0x3e11bbc0	0.14231777
133	0x3d56afe4	0.052413836
134	0x3c253db9	0.010085517
135	0x3d69fe3f	0.057127234
136	0xbbc356a2	-0.005961255
137	0x3d07f63b	0.033193808
138	0x3de9d042	0.11416675
139	0xbd224679	-0.03961799
140	0xbd50eab7	-0.05100509
141	0x3d74ea87	0.059793975
142	0xbd4bf64e	-0.04979544
143	0x3da172ff	0.07883262
144	0xbd9819e5	-0.07426814
145	0x3dc02724	0.093824655
146	0x3e00d5e5	0.12581594
147	0xbc4d3f8d	-0.012527359
148	0xbe4989f0	-0.19681525
149	0x3c9cf820	0.019161284
150	0x3dd63f76	0.10461323
151	0x3d5b9408	0.05360797
152	0xbd28658c	-0.041112468
153	0x3e387cf2	0.18016413
154	0x3d33afe8	0.04386893
155	0xbd5c49c1	-0.053781275
156	0x3d298cc3	0.041394006
157	0x3c74e5a5	0.01494733
158	0xbe1f5471	-0.15559556
159	0xbd443f5c	-0.047911987
160	0x3cde17a1	0.027110877
161	0xbd7df322	-0.061999448
162	0xbcfb4451	-0.030672224
163	0x3d48e2ae	0.049044304
164	0x3c4f06ae	0.01263587
165	0xbd6e1537	-0.0581257
166	0x3d39012d	0.045167137
167	0xbdd4a029	-0.103821106
168	0x3c21043d	0.009827671
169	0xbd633d05	-0.055478115
170	0xbcd3dd13	-0.025862252
171	0xbe615380	-0.22004509
172	0x3d0024f2	0.031285234
173	0x3d26a39c	0.040683374
174	0x3d1ed206	0.038774513
175	0x3dfa2622	0.122143045
176	0xbd326733	-0.04355545
177	0x3d8d0f7f	0.06887721
178	0xbdefe4d5	-0.11713568
179	0xbc666812	-0.014062898
180	0xbd3838de	-0.044976108
181	0xbbef4340	-0.007301718
182	0xbd828552	-0.06373085
183	0x3d6502b1	0.05591077
184	0x3d9992c3	0.07498696
185	0xbc751c00	-0.014960289
186	0xbe073386	-0.13203248
187	0x3e3578ee	0.17721912
188	0xbd0f1a8f	-0.034937438
189	0x3db7e3b5	0.089789785
190	0x3da8a01d	0.08233664
191	0xbc809ada	-0.015698839
192	0xbc2932cf	-0.010327055
193	0xbdac88f7	-0.084245615
194	0x3ca612d8	0.020272657
195	0x3e0949df	0.13407086
196	0x3da49f3c	0.08038184
197	0xbd3dee31	-0.046369735
198	0xbcfd8355	-0.030946413
199	0x3e10aae2	0.14127687
200	0xbceb391a	-0.028713752
201	0x3e0f67e6	0.14004478
202	0xbbc93ae8	-0.0061410554
203	0xbd41100e	-0.04713445
204	0xbc5fe584	-0.013665561
205	0xbe426db7	-0.18987165
206	0xbe5a6957	-0.21329246
207	0x3e23337f	0.15937613
208	0x3d48f679	0.04906318
209	0x3e2cbaec	0.1686818
210	0x3d11572a	0.035483517
211	0x3ce7268e	0.028216626
212	0xbe092e62	-0.133966
213	0xbe761565	-0.24031599
214	0xbcdc8eba	-0.026923526
215	0x3d921e9c	0.071347445
216	0xbd915af5	-0.07097427
217	0x3bba0852	0.0056772614
218	0xbd2b674c	-0.04184656
219	0xbd45cfba	-0.048293807
220	0xbda05d91	-0.078303464
221	0xbdf766b5	-0.12080137
222	0xbce101a6	-0.027466606
223	0x3ca45451	0.020059736
224	0x3d89e0d3	0.06732335
225	0x3d8819d5	0.06645552
226	0xbc857b95	-0.01629428
227	0x3d4573f7	0.048206296
228	0x3b953e01	0.0045545106
229	0x3c3c9eaa	0.011512438
230	0xbccd07dd	-0.025028164
231	0xbcca9aac	-0.024731956
232	0xbd790dbc	-0.060804114
233	0xbcdb6f12	-0.02678636
234	0xbd8b4518	-0.06800288
235	0x3d2904bf	0.04126429
236	0x3d9e5875	0.077317156
237	0x3d0d1422	0.03444303
238	0xbc5d4d8f	-0.013507261
239	0x3dd9962a	0.10624345
240	0xbdafd310	-0.08585179
241	0x3d2a86d0	0.041632473
242	0xbd81e2fe	-0.063421234
243	0xbdb80848	-0.089859545
244	0x3cd5837a	0.02606367
245	0x39a182ef	0.00030805866
246	0x3e0110e2	0.12604097
247	0x3d98d768	0.074629605
248	0xbe3392d6	-0.17536482
249	0x3c8f410c	0.017487071
250	0x3d7bade4	0.061445132
251	0xbe1482a5	-0.14502962
252	0xbe4dbb65	-0.20091017
253	0xba12d5a0	-0.00056012906
254	0xbd89c7a6	-0.06727533
255	0xbcb791b5	-0.022408346

bias f4 [2]
0	0x3d2253a4	0.039630547
1	0xbdb6a6f5	-0.08918563
