graph2vec_optimization/model/30_mlp_graph2vec_opt_4.pt (torch_old, 382907 bytes, 6 tensors)

weight f4 [128, 600]
00000000: 1a54 89bb cf29 b5bc 91e2 96bc ae2c c6bc
00000010: 46b2 1c3d e60e a23c 4813 1dbc b2b2 83bc
00000020: f61e ab3c 580d 24bd 03be 873c 00ba 6fbb
00000030: ca86 2b3c bf72 e13b 3bc1 003d 826b 113d
00000040: aa44 63bc e3cc 0fbd ff1a 043d e4c4 bebc
00000050: 821b 26bd 0e75 23bd fa93 81bc 2b01 493c
00000060: dda3 e4ba e432 133d ba4e dd3c 7723 bb3b
00000070: ba0b 963c 5736 133b 76fb c7bb 5ced 203d
00000080: d386 9abc 980a 043d 49d9 a2bc be85 db3c
00000090: 8c9c 9c3c 984c eb3c 7443 bd3c 2c01 273d
000000a0: c0eb 06ba f41b 8b3c fe2e 8c3b cf0d 133d
000000b0: 9866 183d 5ccf dbbc 4bbb ae3c dbca 0f3d
000000c0: 9364 ba3c 01ad 24ba 6777 953b 12e5 79bb
000000d0: 0a10 a739 a6cc aabc a56b bb3b 0cf1 143d
000000e0: 022f e8bc ab39 893c 0f0f b5bc 7ffa 12bd
000000f0: 401b 033c 29d7 183d e02e d33c 6f78 02bd
00000100: b3f8 acba 22d5 1d3d 7c73 193c 9acc 463c
00000110: 558d c3bc 3763 c43b f1f6 103d 0b10 f93c
00000120: 43e7 e13c 944d c83c 824a 20bd c8f5 c63c
00000130: abaf bfbc 0287 113c 2106 b13c 51f7 c63c
00000140: 990b 9ebc 79ec 63bc d8fe 5a3b a960 01bd
00000150: 25fb 8eba 7350 ce3b eb6c 96bc da9d d6bb
00000160: 995f 5e3c 3604 15bc aec9 57bb 31b2 19bd
00000170: 8826 03bd 2816 01bd 3e5f b8bc 17a2 303c
00000180: 42c4 0e3d 424d b6bc 8e9d 093b 1e6f 053d
00000190: 5339 b23b 6e5b 2b3c 0c92 913c a7be aebc
000001a0: f036 393b 7bd9 bcbc 5f69 1bbd 8339 95bc
000001b0: 47ab 003d 2af4 17bd 9e08 223b 0b5e e7bb
000001c0: 1259 263d a6e7 80bc a28d 033d 84f4 9ebc
000001d0: 662f 93bc e7e5 f1bc 9312 cabc 9676 d6bc
000001e0: 79fd 18bd 292d 5d3c 0727 13bd b44f db3c
000001f0: 4ba3 933c 74d9 f13c 47fe 963c 351f 8dbb
00000200: d41f 0a3d ca9a cb3a 04b8 21bd 5c22 0c3d
00000210: f382 183d 40b5 bd3c 7f4b 15bd 2bce 1f3d
00000220: c8f1 8c3b 8312 10bd c585 c3bc 58dc c3bc
00000230: 6b8f 6d3c 1ced 0f3d 48c7 123d 51ff adbc
00000240: 8fde 123b eebb 88bc 51b0 903b bb0b 82bb
00000250: d059 b8bc f95a 223d d593 233d 69ed 09bd
00000260: cf75 ecbc 37f5 df3c ba90 d63c d5d1 4f3c
00000270: 14ab 573b ed91 09bc bec4 743c f483 95bc
00000280: c16a 203d ae30 ce3c 558a b1bc 0e66 bebc
00000290: 6e4e 563b 78ed bfbc 821c 0c3d 0885 103c
000002a0: 8324 8f3b 6650 b7bc b760 5bb9 33fb efbc
000002b0: 8bb7 66bc 6109 f2bc 4094 0b3c c464 fdbb
000002c0: 1e87 bb3b c128 abbc c74d 003d 5335 74bc
000002d0: a7e7 24bd 6959 1f3d 163d 8cbb a08c 0abd
000002e0: 41f6 a8bc 5a1c fcbc c74c 9fbc ad3f 3fbc
000002f0: 9807 1a3d d7dd d13c 075c a63c 3fbf 5c3c
00000300: 9839 05bb 4b46 05bd 371d 1c3d f7fb 18bd
00000310: 5ebd ea3b 91c6 4aba 3f40 c4bc b146 663c
00000320: c0c7 edbc 0381 f73c 69e0 d03c d7a1 abbc
00000330: 762a 183d 736f 68bc f9df b3bc 6504 193c
00000340: 048f b83c be4e f83c b3a8 2dbb 3e25 02bd
00000350: e1a8 ed3b 83a0 963b 6f95 88bc 3400 b8ba
00000360: a319 bcbc 4b3a a2bc eadd a3bc 3267 efbc
00000370: 98c6 a13c 78be db3c 26f5 febb eaad 073d
00000380: c88a ff3b 1217 d23c 631d dcbc 1753 b6bc
00000390: 2414 183b a00e a8bc 151f f0bc 42c5 123a
000003a0: 325e 95bb 0928 143d deb3 a2bc e105 b5bc
000003b0: aef4 183d f6c6 aebb 6fc7 1b3d 0198 1fbd
000003c0: 6d0a f73c 31de 463c fe57 28bc ae31 f83c
000003d0: 5c46 f13c 5e62 903c 3bde fc3b 4cd7 68bc
000003e0: c3b1 243c 1976 aabc 600d dc3c 53ac 153c
000003f0: 47d0 57bc 4925 d33c 6bcf 0a3d dc03 0ebd
-0.004190934 -0.022114662 -0.018418582 -0.024191227 0.038255952 0.019782495 -0.009587117 -0.01607642
0.020888787 -0.040051788 0.016570097 -0.003657937 0.010469148 0.006880134 0.03143428 0.035502918
-0.013871351 -0.035107505 0.032252308 -0.023287244 -0.040553577 -0.039906554 -0.015817631 0.012268345
-0.0017443855 0.035937205 0.027015079 0.005711015 0.018316139 0.002246281 -0.0061029745 0.039288864
-0.018863117 0.032236665 -0.019879 0.026797172 0.019117616 0.028723046 0.023103453 0.040772602
-0.0005146824 0.016981103 0.004278063 0.03590184 0.037207216 -0.026832275 0.021329543 0.035105567
0.022753036 -0.0006281883 0.004561353 -0.0038130921 0.00031864672 -0.020849537 0.0057196193 0.036362693
-0.028342728 0.016751131 -0.022101907 -0.035883423 0.008002102 0.037314568 0.025779188 -0.031853136
-0.0013196677 0.038533337 0.0093659125 0.012133742 -0.023871103 0.0059932726 0.03539175 0.030403158
0.027576094 0.024451055 -0.039133556 0.02428712 -0.023399195 0.008882286 0.021609368 0.024287852
-0.01929264 -0.01391136 0.003341606 -0.031586323 -0.0010908587 0.0062962114 -0.018362483 -0.006549579
0.013572597 -0.009095242 -0.0032926607 -0.037523452 -0.03201917 -0.03151527 -0.022506353 0.010780833
0.034855135 -0.022253636 0.002099845 0.032576673 0.0054389625 0.01045881 0.017769836 -0.021331144
0.0028261505 -0.023052922 -0.037942287 -0.0182159 0.031413343 -0.037098087 0.0024724375 -0.0070607713
0.040612288 -0.015735459 0.032117493 -0.019403704 -0.017966937 -0.029528571 -0.02466706 -0.026179593
-0.037351105 0.013499537 -0.03592589 0.026771404 0.0180222 0.029522635 0.018431796 -0.0043066987
0.03372176 0.0015533802 -0.03948213 0.034212455 0.037234258 0.023157716 -0.03644895 0.039014976
0.0043012835 -0.035173904 -0.023867497 -0.023908779 0.014499526 0.035138234 0.03583458 -0.021239908
0.0022410487 -0.016691174 0.00441555 -0.0039686835 -0.022503763 0.03963754 0.039935905 -0.033673678
-0.02886477 0.027338607 0.026192058 0.012684305 0.0032908367 -0.008396608 0.014939485 -0.018251397
0.03916431 0.025169697 -0.021672407 -0.023242023 0.0032700556 -0.023428664 0.034206875 0.00882078
0.004368366 -0.022377204 -0.00020921497 -0.029294586 -0.014081846 -0.029545488 0.008519232 -0.0077329595
0.0057228943 -0.020893456 0.031324174 -0.014905292 -0.040259983 0.038903628 -0.004279743 -0.033825517
-0.020625236 -0.030775238 -0.01944579 -0.011672896 0.0376049 0.025618477 0.020307554 0.013473331
-0.0020328518 -0.03253774 0.0381138 -0.037349667 0.0071636876 -0.0007735277 -0.023956416 0.01405494
-0.029025912 0.030212885 0.025497632 -0.020951195 0.03714987 -0.014186728 -0.021957384 0.009339427
0.022529133 0.030310985 -0.0026498258 -0.0317738 0.007252798 0.004596771 -0.016672818 -0.0014038146
-0.022961443 -0.019803187 -0.020003278 -0.029224012 0.019748017 0.026824221 -0.007780689 0.03312484
0.0077985264 0.025645766 -0.026869481 -0.022256417 0.0023205364 -0.020514786 -0.029311696 0.0005598852
-0.004558348 0.036170993 -0.019861158 -0.02209753 0.03734272 -0.0053337766 0.03803199 -0.03896332
0.030156339 0.0121379355 -0.010274885 0.030297127 0.029452495 0.01762503 0.0077169216 -0.014211487
0.010052147 -0.020808266 0.026861846 0.009135324 -0.013172216 0.025774615 0.033889215 -0.03467165

bias f4 [128]
00000000: 90d4 11bd ced7 30bb e2d2 04bd c406 b03a
00000010: 8996 bcbb 848c 913b 44ea 933c b408 20bd
00000020: 31c6 bdbb 141b 8f3c 2c99 983b f0a1 d23b
00000030: 6f67 283d 55bc 8fbc 46d7 163d fabb 6fbc
00000040: 94cd 24bc 27d3 093d 4bb0 ca3a 28d9 163d
00000050: f0d6 2ebd 768b 6a3c c4c0 f0ba bc0b 6ebb
00000060: 3139 403c 110e babb b2bb f0bc 3659 c5bc
00000070: 3e11 233d cc4f 64ba 3d9c ceba 1898 47bc
00000080: 9efe ac3c 2de6 3b3d 3ec3 22bc 4ce4 533c
00000090: 5023 e83b 3857 12bd 82b5 6ebc 8db1 723c
000000a0: 6b1e 62bc d2d0 d73c f271 a1bc c61c 773c
000000b0: 5f31 cd3a 62a0 d1bc 9326 00bb 30da 87bc
000000c0: 849b 15bd 8d42 57bc 8897 1abc 384d bd3a
000000d0: f823 96bc 8041 a83c 5d6e af3a 76b6 e83b
000000e0: e6c9 483c c898 3abc 0103 05bd 4e0b c23c
000000f0: f8f9 10bd 4c1e ad3c 4a66 05bd ae35 8e3c
00000100: 81ab 64bc c0b2 243d cda3 ffbc 43b0 a43c
00000110: ef76 f1bc fca8 963a 1580 e7bb 3a0b f039
00000120: 362c a53c 2986 e0bc 8aa5 8fbc 9f08 9abb
00000130: 735d c0bc b16f 963c f08c 1d3d e456 bb3c
00000140: 1cf0 453c c466 073c adef f8bb 9950 8239
00000150: f655 e13c 9f81 6bbc 23d6 bc3c 0b7f 583c
00000160: b1ef 4dbd b5ee 873c 5675 dc3c ca1d 243d
00000170: 783c aa3b 847a edbc 2a25 4cbc 60d1 68bc
00000180: 87c8 233d 7ffa 8bbc 2434 dc3c d683 8a3c
00000190: 2024 8abb 3adf 703c 1775 88bc 44fb 113d
000001a0: 09ba 623c 07e1 603a 6a46 f53c e851 613c
000001b0: a230 9d3c 7a2a 87bb e3ff 3f3c 26e9 113d
000001c0: 34b2 133d f7d3 e83a e0b5 b83c b8bd e0bc
000001d0: 4eb0 c6bc f936 7a3c 041a cbbc c787 19bb
000001e0: 1839 26bd fe44 f3bc 6107 cbbc 5a00 a7bc
000001f0: d6f8 d1bc b8c6 a8b9 1ea9 00bd ebe9 203c
-0.035603106 -0.0026984098 -0.032427676 0.0013429751 -0.00575525 0.0044417996 0.018056042 -0.0390708
-0.0057914485 0.017468967 0.0046569314 0.006427996 0.041114267 -0.017545858 0.036826394 -0.014632219
-0.010058779 0.033648636 0.0015463916 0.03682819 -0.04268545 0.014315477 -0.0018367996 -0.0036322912
0.0117323855 -0.0056779464 -0.029386375 -0.02409039 0.039811365 -0.00087094004 -0.0015763115 -0.012182258
0.021117505 0.04587381 -0.009934245 0.012932848 0.0070842877 -0.03572771 -0.014569642 0.014812839
-0.0138011975 0.02634469 -0.019707654 0.015082544 0.0015654973 -0.025589172 -0.0019554242 -0.016583532
-0.036525264 -0.013138426 -0.009435542 0.0014442569 -0.018327698 0.020539045 0.0013384331 0.007101829
0.012255168 -0.011388965 -0.032473568 0.023687031 -0.03539464 0.02113261 -0.032568254 0.01735958
-0.013956905 0.04020953 -0.031206036 0.02010358 -0.029475657 0.0011494453 -0.007064829 0.00045784732
0.020162683 -0.027407723 -0.01753499 -0.0047007347 -0.02348206 0.018363805 0.038464487 0.022868581
0.012081172 0.008264247 -0.007596931 0.00024855582 0.02750681 -0.014374166 0.023051327 0.013213883
-0.050277416 0.016593317 0.026911419 0.04006747 0.0051951967 -0.028989084 -0.0124600325 -0.014210075
0.03998616 -0.01708722 0.026880331 0.016908567 -0.004215732 0.014701659 -0.016657395 0.035640016
0.0138383 0.00085784536 0.029940803 0.013752438 0.019188229 -0.0041249366 0.011718723 0.03562274
0.03605862 0.0017763366 0.022547662 -0.027434215 -0.02425399 0.015271896 -0.024792679 -0.0023426877
-0.040581793 -0.029695984 -0.024783792 -0.02038591 -0.02563135 -0.00032191514 -0.031411283 0.009821395

weight f4 [128, 128]
00000000: 413e 103c 5019 c8ba 7112 d93a f732 873c
00000010: 561f e9bb 72b1 903d baca 4c3d 5804 a9bc
00000020: 6527 12bd 20db 5abb c42f 1f3a 055d 533b
00000030: 1f41 1fbd 5084 a43d bbc9 153d 3d02 59bd
00000040: 9a94 b43d 5924 b5bd 865f ebbb 99b9 823d
00000050: 26c4 653d e7a6 963d 5478 09bd 5e12 8ebd
00000060: 9971 29bd fd04 a7bd 3bb6 3abd 305c 65bd
00000070: 0d8b 493d e6de b23d 15ad 83bd 6516 853d
00000080: a798 8bbd 3fa1 c23c 74cf 733c 5c48 85bc
00000090: 43b4 18bc 6a34 583d a863 5bbd 4e92 693d
000000a0: 4e28 61bd f191 893d 2cf0 98bd 885f 92bd
000000b0: c37e 143d e0fe ccbb 2bca 7bbc 2840 643d
000000c0: f474 283c 383a 51bd 2ec0 fb3b 10ec c23c
000000d0: fb6c 693a e733 42bd e000 9bbd ff79 8cbd
000000e0: eba3 b23c d60d c63b 70a6 27bd eef6 ffbc
000000f0: f090 75bc 36c2 f9ba fa5a 35bd b61d a9bd
00000100: 16a0 183c b80d b0bd ab90 a9bd 9764 1f3d
00000110: c78c 38bd 47ab 8fbd 94ba a03d a118 94bd
00000120: f4f0 073d 80c9 f9bc 66c6 9fbd a7e5 e03c
00000130: a14d 973d e179 a8bd e23c 373d 54a7 a3bc
00000140: 0961 933d 311b 8cbd ede9 4b3c 4024 25bd
00000150: 0c85 40bd 8190 063d 937c 283b 61e1 90bc
00000160: 7e46 923d 1990 95bd 616b 0ebc b845 853c
00000170: 392f 193c d524 92bd 0d63 87bc d6b2 5f3d
00000180: 0144 923d 818d c9bc 7c0a 803d d735 933d
00000190: b3b8 803d 5d73 793d 38fe 77bc 5673 803d
000001a0: 46f4 b3bd e9e9 32bc 4e0d 283d c721 9dbc
000001b0: 4fdf 683c d4d6 babc 10b6 09bd 1675 143d
000001c0: 89c7 3ebd 2b8d 0ebd e386 8dbd 51a8 b8bc
000001d0: 294a fe3c 3fba 94bb c3cc 06bc cee7 a03d
000001e0: 5fcb f9bc 252c 3f3d 8440 d4bc c67c 11bc
000001f0: aec2 003b bf88 8bbd 8b3a 29bd fed1 883d
00000200: 31ce 383c 3302 abbd 9630 a3bd c79c 97bd
00000210: ef33 9abc 7968 5fbc d885 83bc a0ad 463b
00000220: c6a5 85bd b5bf a0bd 988a 8b3c 9b0d 5d3d
00000230: 23f4 bf3d e2e3 11bd 7c2b 393c 9178 a6bd
00000240: d75e 69bd 02e2 903d 3fe6 41bc b2ce b0bd
00000250: 05de c8bd 99b9 bdbd 3899 f1bc 1646 14bd
00000260: 1596 9b3c 3045 a43b b1c3 e93c fa81 eabb
00000270: 36f5 9b3d 6b40 3e3d 0a8d 80bd f4ed f0bc
00000280: 6720 03bd 2c22 4a3d 1a70 8f3d b54c 4dbd
00000290: d8a3 af3c 8123 9f3d 3f10 65bd 9842 673d
000002a0: 20f3 a43d 9bbe 7fbd 5768 2fbd 36d6 a23c
000002b0: cd6f 0b3d 9f00 72bd c4af 533d f414 273d
000002c0: 1281 e7bd dae8 81bd 92ef 84bd dbdc 693c
000002d0: 04a9 35bd eea6 2a3c 28ed 163d 0a01 84bc
000002e0: 41bb 08bc 2fb2 ed3c fff6 9bbc 4fd8 9fbd
000002f0: 09bc 213d 4594 a13d fa89 dfbd 2054 073c
00000300: b699 23bd ba02 1abd a64d 7f3d d089 37bc
00000310: b58e 2d3d 08f7 4dbd 7656 62bd 62a9 84bd
00000320: 1016 afbb 16f4 a6bd c352 823c 59a0 06bd
00000330: 86b3 403d ed9d dc3d 27d9 ac3d 8054 a9bc
00000340: b15b be3d eb5b 9e3d a3b3 99bd ada5 88bd
00000350: 367c b1bd ba22 1139 e1d2 6bbd f50f d33c
00000360: 239c 393d cb70 4dbd 9756 babd 54e8 cebc
00000370: 9765 b23d 1998 3d3c bdd7 04bd 691d 873d
00000380: 27ec 133d 9561 9b3d 3ae1 503d 7545 273d
00000390: 188f 303d 1194 b7bd 1b81 e3bc 3ce1 1abd
000003a0: f867 ae3b 6b71 dfbc 207c 2e3d ca58 dcbc
000003b0: e4f0 9b3d 98aa 3c3d 082d 15bc 0ec5 613d
000003c0: 4f2a 603d fc5a 28bd cf1f b1bd 5a32 a33d
000003d0: a0da 263d 40cf 883d d98b 6bbc c536 a13d
000003e0: 3e6e 1ebd 7fca bc3d b820 53bc 8baa d1bc
000003f0: 23d3 ad3d ebd9 9bbd 15f1 ac3b fe2d c73d
0.008803905 -0.0015266333 0.0016561282 0.016503794 -0.0071143312 0.07065095 0.049998023 -0.020631954
-0.0356821 -0.0033394769 0.0006072486 0.003225149 -0.038880464 0.08033049 0.03656934 -0.05298065
0.08817406 -0.088448234 -0.007183018 0.06383056 0.056095265 0.07356053 -0.03356202 -0.06937097
-0.0413681 -0.08155248 -0.045583945 -0.05599612 0.049204875 0.08733921 -0.06429497 0.06498412
-0.068162255 0.023758529 0.014881004 -0.016269855 -0.0093203215 0.05278436 -0.053561836 0.057024293
-0.05497008 0.06717289 -0.07467684 -0.071471274 0.036253702 -0.0062559694 -0.015368025 0.055725247
0.01028179 -0.051080912 0.0076828217 0.023794204 0.0008904484 -0.04741278 -0.07568526 -0.068592064
0.021806678 0.00604413 -0.04093021 -0.031245675 -0.014988169 -0.0019055072 -0.044276215 -0.0825762
0.009315511 -0.08596367 -0.08279546 0.03891429 -0.04505613 -0.070150904 0.07848087 -0.0723126
0.033188775 -0.03049159 -0.078015134 0.027453257 0.073878534 -0.082263716 0.044735797 -0.01997725
0.07196242 -0.06841124 0.012445909 -0.040317774 -0.047001883 0.032852653 0.0025709018 -0.017685594
0.071423516 -0.07302875 -0.008692593 0.016268596 0.009349638 -0.071359314 -0.016526723 0.05461391
0.07141877 -0.024603607 0.06252 0.071880035 0.062852286 0.060901035 -0.015136294 0.062719986
-0.08786826 -0.010920026 0.041028313 -0.019181145 0.014213397 -0.022807516 -0.033620894 0.036244474
-0.04657701 -0.034802597 -0.06910493 -0.022541197 0.031041222 -0.004538804 -0.00822753 0.07856713
-0.030492483 0.04667296 -0.02590967 -0.008879846 0.0019647288 -0.068131916 -0.041315597 0.06680678
0.011279629 -0.08350029 -0.079682514 -0.0740295 -0.018823592 -0.013635748 -0.016055033 0.003031589
-0.065257594 -0.07849065 0.01703386 0.053968053 0.09372737 -0.035617717 0.011301871 -0.08128465
-0.056975212 0.070743576 -0.01183468 -0.08633174 -0.09807972 -0.092639156 -0.029492006 -0.03619965
0.018992463 0.0050131306 0.028535696 -0.0071566077 0.0761513 0.046448153 -0.06276901 -0.02941034
-0.032013323 0.049348995 0.070038036 -0.05012198 0.021440431 0.07770444 -0.055923697 0.056459993
0.08054185 -0.062437635 -0.042824116 0.019877534 0.03404217 -0.059082624 0.051681295 0.040791467
-0.11303915 -0.06343241 -0.06491007 0.014273847 -0.04435064 0.010415776 0.036847264 -0.016113777
-0.008345426 0.029015629 -0.019038675 -0.078049295 0.039485965 0.07889608 -0.10914989 0.008259803
-0.039941512 -0.037600257 0.06232991 -0.011202291 0.042372424 -0.050284415 -0.055258237 -0.0647762
-0.005343206 -0.081520244 0.015908604 -0.032867763 0.047046207 0.107723095 0.08439856 -0.020670176
0.092948325 0.07732376 -0.07504966 -0.06672225 -0.086662695 0.00013841214 -0.057574157 0.025764445
0.04531492 -0.050156396 -0.09098547 -0.025257267 0.08710783 0.011571907 -0.032432307 0.065974064
0.036113884 0.07586972 0.050996043 0.040837724 0.043105215 -0.08963788 -0.027771523 -0.037812456
0.0053224526 -0.027275762 0.042598844 -0.026897807 0.076143056 0.04606113 -0.009104975 0.055119567
0.05472785 -0.041102394 -0.08648645 0.07968588 0.04073584 0.06680155 -0.014376604 0.078717746
-0.038679354 0.092183106 -0.012886219 -0.025594017 0.08487537 -0.07609924 0.0052777627 0.09725569

bias f4 [128]
00000000: e313 0fbd 1b74 793d 78fc dabc 84cd 9dbd
00000010: ed77 a4bd 3f7e ddbc b8ae 1ebd e392 9bbd
00000020: e653 953c bbc6 8bbd 9488 653c cd09 a03d
00000030: c014 b0bd 1ffc 133d 58f8 61bd f64d 063d
00000040: ad29 adbd b36c 4b3d d1e9 8f3c 8bb9 af3d
00000050: 9cdb 7b3d cde6 a5bd 7ff5 76bc e09e e43c
00000060: bc09 413d 16d6 74bd a731 7e3d 9866 293c
00000070: 9392 8a3d 024c 5b3d 2198 5ebd ceb0 963d
00000080: cfe0 5b3d 7608 903d af25 79bd 72ae ad3d
00000090: 8521 4bbd 897f b33c cde5 7e3d ac7f 823d
000000a0: 0fdb 19bc 3acb c6bc b853 78bd ce42 163d
000000b0: 7aea 323d e94b 36bd be78 143d 4dde 703d
000000c0: 77e6 403c 768b 1ebd 7617 323d 0b96 ed3c
000000d0: 3554 d63b a881 65bc cb52 dfbc 3e2c 733d
000000e0: e9cc 243c d839 4e3c 793d ab3d c920 223c
000000f0: 71a8 6fbd 5d84 693d 2479 a63d af0b 29bd
00000100: 3d01 9d3d 1eee 9fbd 17d7 a1bd 5c72 42bd
00000110: 907b c2ba b688 a83d 376b 9cbc 1552 aebd
00000120: f87d d8bc 01a9 3abd c96e 9c3d e5d9 7cbd
00000130: b69a 58bd 3a80 c7bd e9b6 903d 649e e7bb
00000140: e97c a43d 82f2 d83c f8e5 a2bd 3feb 533d
00000150: 6520 3abd 5062 9fbd a8e1 953c 0dd1 83bc
00000160: f194 8cbd ea25 bbbc 9173 743c b4f5 f3bc
00000170: 9df4 82bd d25c 8ebd c65e 4c3d 2b31 1f3d
00000180: 2838 abbd df46 803d 7d89 5fbd a00e a43b
00000190: e555 873d 8321 5cbd 142c 003c 3862 c73d
000001a0: ca5f c13c ab66 72bd c06b 3a3d 65f5 32bd
000001b0: f835 b73d 3bc4 133c 6863 5abc 8e40 a8bd
000001c0: 783b 2dbd ca89 1c3d a204 0e3d 762c d4bc
000001d0: f6b3 05bc 2526 a83d 71c0 b23d 8474 323c
000001e0: 503a 2abb c614 5b3d 2e81 4dbc 4829 afbd
000001f0: 9798 14bd 9061 61bd 7a18 c7bb dd33 f1bb
-0.034931075 0.060901742 -0.026731715 -0.077052146 -0.080306865 -0.027037738 -0.038740844 -0.07596376
0.018228482 -0.06825014 0.014009614 0.07814369 -0.08597708 0.036129113 -0.05516848 0.032789193
-0.08455215 0.04966421 0.017567547 0.085803114 0.061488733 -0.081006624 -0.015073179 0.027907789
0.047128424 -0.05977448 0.06205907 0.010339402 0.06766238 0.053539284 -0.0543443 0.073579416
0.05368119 0.07032864 -0.060826954 0.084805384 -0.049592514 0.0219114 0.062230874 0.06372008
-0.009390607 -0.024266828 -0.060626715 0.036684804 0.043680646 -0.044505987 0.03624796 0.058805753
0.011773697 -0.03870722 0.043479405 0.02900221 0.0065408 -0.014007963 -0.027261158 0.059368365
0.01005862 0.012587033 0.08361334 0.009895512 -0.058510248 0.057010997 0.081285745 -0.041270908
0.07666252 -0.07809089 -0.07902353 -0.047472343 -0.001483785 0.082292005 -0.019094093 -0.0851175
-0.026427254 -0.04557133 0.07638318 -0.061731238 -0.05288192 -0.09741254 0.07066137 -0.007068442
0.08031637 0.026482824 -0.07954019 0.05173802 -0.04544105 -0.077824235 0.018296078 -0.016090894
-0.06864346 -0.022845227 0.014920131 -0.029780246 -0.063943125 -0.06951298 0.04989507 0.03886525
-0.0836032 0.062635176 -0.05457448 0.0050066262 0.0660818 -0.053742897 0.007823009 0.097355306
0.023605246 -0.059179943 0.045512915 -0.043691058 0.089458406 0.009018953 -0.013329364 -0.08215438
-0.042293042 0.038217343 0.034672387 -0.025900107 -0.008160582 0.082104005 0.087281115 0.010892037
-0.0025974698 0.053486608 -0.012543006 -0.08552796 -0.036278334 -0.055024683 -0.006075916 -0.007360919

weight f4 [2, 128]
00000000: 89ea 963d 576d 593e 8224 81bd 427d df3d
00000010: eeaa 643d b541 b1bd 80fb 15be 85e7 37be
00000020: 6fc5 ea3d c7db b93d 0aca bd39 9aa7 493d
00000030: 3136 8d3c 0753 21bc f48b cebc 08f1 27bd
00000040: d34a c7bd 30d4 43be f926 d4bd 61e1 be3d
00000050: f31c 2b3e ad27 99bd e8e3 efbc 59d2 d43c
00000060: 81c0 5abd 3812 063d de43 233e 046c 1e3d
00000070: 2670 163d 6ef2 dcbd f64f a1bd dbd5 f9bb
00000080: 8748 a63d 5dbf bf3d 1838 9e3d 9f1e a3bd
00000090: dd08 b03d 85b5 a93c 5aa8 db3c d923 8dbd
000000a0: 1472 bc3d 39cf aabd 8312 80bc 9192 9abd
000000b0: 8d17 17bd 03d8 133c 3913 01bd 48b5 15be
000000c0: f502 3e3d a0e1 8c3d 7082 a4bd 5b4e f3bc
000000d0: 4fa9 57bd f69f d2bc 4836 afbd abc1 6dbc
000000e0: cf9b 52bd 2b21 ad3c 515e 07bd 8fcf 793d
000000f0: 207e 8f3d 7de8 c4bd f572 033e 08e3 16bd
00000100: 0651 203d b1bf e83d 3066 e6bd c0e0 16bc
00000110: cd28 233e d14d 063e cb0e ddbc d730 4c3d
00000120: b615 7d3d 00a9 903c 8c07 88bd 8233 293e
00000130: 5538 2fbd bbfa 75be d765 573d 4781 6b3d
00000140: 6f2f 45bd 81a8 5e3d 9e04 8abd 91e2 763d
00000150: aaf8 5e3d cfee 1dbd 7243 b2bc 3d25 5ebc
00000160: c9e9 153e 981a bebd d08c 993e a01b a0bc
00000170: dbbf 583d b8c2 923c e743 11bd 3634 423d
00000180: 1c48 663d 35e7 953d 69ba c93a 022d 15be
00000190: 9e47 0ebd b513 193c e2c3 a13d 0800 f83d
000001a0: 10ef 3abd a437 7fbd 40cc 0d3d f426 5fbd
000001b0: 1daf 463e a2fa 91bd 4606 f7bb e7d8 023d
000001c0: 4853 a93d cca0 82bc 4136 96bd 61c2 353b
000001d0: 910b 08be b5c7 04bd af42 b43d f09c d4bc
000001e0: cf92 44bd fb2e 28bb e80e ec3c 400d 64bc
000001f0: b1fd 00bd c82e c83d 77e4 363d 0cd9 1ebb
00000200: d164 363d 7d5f e7bd 856c 24bd 8d00 87bd
00000210: 92b3 7e3d 7572 ea3d 4ca7 d23d d97e 583e
00000220: 18c0 beba 1ff4 2bbd 4f1a 6b3d 78ee 7e3d
00000230: a472 19bd 47e7 323c f464 9b3d 70e7 2a3d
00000240: 684b 203d cbaf 5b3e ddab cb3d da7a c6bd
00000250: 09ab d4bd 64c7 0c3c 1cd5 aa3b 486e 9f3c
00000260: 0e1d 223d c55e e7bc e8d8 d7bd f233 dfbc
00000270: 123c b2bd fa30 bf3d 0a4f 7dbd fb94 86bd
00000280: 623a 3fbb 8544 1a3d 3684 8fbd 7453 0bbd
00000290: c97f 2a3b 819e ce3c e7b6 5bbd 9293 663d
000002a0: 0141 333d 9878 5d3d bfb8 293c ac22 8c3d
000002b0: 5798 e1bc 0551 8f3d 721a 1b3d d2cd 303e
000002c0: 9924 e3bc 97a9 e5bc dc81 93ba 9b62 293d
000002d0: 0731 833d 356f c8bc b61f 613a 8264 b6bd
000002e0: af14 8d3d 55e5 9bbd a23c d3bd 9e8a 4b3d
000002f0: e1a6 acbc 2752 07bc 3af9 08be 34db 283b
00000300: 2ca0 76bd ef4b dcbd 06f0 463e ce3e 633d
00000310: ff87 1dbe 16c5 17bd d685 40bc f868 74bd
00000320: 8e7d 5a3d 1fa7 963d 4cc0 90bd 0744 44be
00000330: 2246 4b3d ce81 833e 5848 793b 7884 abbc
00000340: 7ab0 97bb e91e bdbd d59b 023d 95c7 05bd
00000350: 49be 93bd ecd0 48bd 1bdd f0bc 0e93 a93d
00000360: 41b8 38be 045e 73bc 6e96 93be f994 b33d
00000370: 74bc 28bd 148f 33bd cfd8 f33b e868 ce3b
00000380: 891f b4bd 9c1f e53c 1f64 56bd 2a46 e03d
00000390: 11e2 95bd 59a3 003e d2e6 ae3c 3df9 14be
000003a0: 7daf 9a3d 426f 97bc 71dc 8c3d b094 b03d
000003b0: 58d8 38be 2114 f33d dbc6 a43d 09e1 a53d
000003c0: 5a57 2c3d 752a 87bd 5bfe 39bd 8cd8 8bbd
000003d0: a10e fd3d 819f 9e3d 0754 80bc 090f c6bc
000003e0: 7940 743d 643d cebc c7a6 49bd 7dea aa3d
000003f0: 5738 db3c b5fc f4bd 4e7c 3c3d 4714 7abd
0.07368953 0.21233116 -0.063057914 0.10912563 0.055827074 -0.08655111 -0.14646721 -0.17959411
0.11463439 0.09075122 0.0003619942 0.049232103 0.017237755 -0.009846455 -0.02521322 -0.04100135
-0.097310685 -0.19123912 -0.10358996 0.09320331 0.16710262 -0.07478271 -0.029283479 0.025979208
-0.053406242 0.03273222 0.15943858 0.03867723 0.036728047 -0.10788427 -0.078765795 -0.0076243705
0.08119302 0.093626715 0.07725543 -0.07964825 0.085954405 0.020716438 0.026813675 -0.06891603
0.09201446 -0.08340306 -0.015633827 -0.075474866 -0.036887694 0.009023669 -0.031512473 -0.14619935
0.04638954 0.06878972 -0.080326915 -0.029700449 -0.0526517 -0.025711041 -0.08555275 -0.014511506
-0.051418122 0.02113398 -0.03304893 0.06098896 0.07006478 -0.09614656 0.12836821 -0.036837608
0.03913977 0.11364687 -0.112499595 -0.009208858 0.15933533 0.13115622 -0.026984593 0.049851265
0.061788283 0.01765871 -0.066420645 0.16523555 -0.04277833 -0.24021427 0.052587356 0.057496335
-0.04814094 0.054359917 -0.06739162 0.060274664 0.054436363 -0.038557824 -0.021760676 -0.013558683
0.14639963 -0.09282416 0.29990244 -0.019544423 0.052917343 0.017915115 -0.035465147 0.047413073
0.056221113 0.0731949 0.0015390638 -0.1456795 -0.03473627 0.009343077 0.0789869 0.12109381
-0.045638144 -0.062308922 0.034618616 -0.054480508 0.19402738 -0.071278825 -0.0075385896 0.031945135
0.08267838 -0.015945815 -0.07334567 0.0027734267 -0.13285662 -0.032417018 0.088017814 -0.02595374
-0.04799157 -0.0025662768 0.028815702 -0.013919175 -0.03149194 0.09774548 0.044651475 -0.0024238257
0.04452974 -0.1129751 -0.040142555 -0.06591902 0.06218297 0.11447612 0.102858156 0.21142139
-0.0014553098 -0.04198086 0.057398137 0.06223914 -0.037462845 0.010919399 0.07587615 0.041724622
0.039134413 0.21453778 0.0994489 -0.09691401 -0.10384185 0.00859246 0.005213393 0.019461766
0.03957849 -0.028243432 -0.105394185 -0.02724645 -0.08702864 0.093355134 -0.061842956 -0.065713845
-0.0029179086 0.037663 -0.07007639 -0.034015134 0.0026016107 0.025222065 -0.053641226 0.056293078
0.043763164 0.054070085 0.010358988 0.06842551 -0.027538462 0.06997875 0.037867017 0.17266014
-0.027727412 -0.028034968 -0.0011253911 0.041353803 0.064058356 -0.02446709 0.0008587794 -0.08905889
0.06888711 -0.07612101 -0.10314299 0.049692743 -0.021075668 -0.008259333 -0.13376322 0.002576542
-0.060211346 -0.10756671 0.19427499 0.055479817 -0.1538391 -0.03705319 -0.011750659 -0.05967042
0.053342395 0.073560946 -0.07067928 -0.19166575 0.04962743 0.2568497 0.0038037505 -0.02093719
-0.004629192 -0.09234411 0.031886894 -0.03266104 -0.072140284 -0.04902737 -0.029402306 0.082800016
-0.18039037 -0.014853958 -0.28825706 0.08768649 -0.041195348 -0.04383762 0.007441617 0.006299127
-0.08795077 0.027969174 -0.052341577 0.10950883 -0.07318509 0.12562312 0.021350298 -0.14548202
0.07553003 -0.018485669 0.06877983 0.0862211 -0.18051279 0.11869074 0.08045741 0.08099563
0.042075492 -0.06599895 -0.045408588 -0.068284124 0.12356306 0.07745267 -0.015665067 -0.024177091
0.0596318 -0.025175758 -0.049231317 0.08345506 0.026760263 -0.119622625 0.046016984 -0.061054494

bias f4 [2]
00000000: ad3c 253e 228a 9bbd
0.16136427 -0.07594706
