graph2vec_optimization/model/30_mlp_graph2vec_opt_1.pt (torch_old, 382907 bytes, 6 tensors)

weight f4 [128, 600]
-0.012240885 0.008325038 -0.023550147 -0.015264656 0.0037460325 -0.014406838 -0.02496839 -0.023242826
-0.028851083 -0.03660182 -0.037555836 0.03982867 0.026210874 0.0113432985 -0.024835804 0.03311471
-0.02128379 -0.03509252 0.010592235 -0.0030209972 -0.02108193 -0.010403422 0.013293346 -0.00028866818
-0.02402577 0.029663404 0.016365845 0.02193171 0.002536695 0.0020028655 -0.024978595 0.011225408
-0.038952563 0.020456897 0.014532508 0.03702205 0.006111084 0.03943608 -0.028390449 0.033980235
-0.013107889 -0.034053482 0.008530772 -0.02422089 -0.0067571066 -0.025664369 0.027726267 -0.035967585
0.030362567 0.022973215 -0.03204975 -0.015074931 -0.019952683 -0.016196981 0.000825167 -0.04177683
0.009802018 -0.013865769 -0.036078572 -0.0012468435 -0.012772191 -0.013752378 -0.017621107 -0.018818062
-0.0127655165 -0.034773737 -0.029455878 0.017028963 0.026921974 -0.02570451 -0.007072595 -0.016483903
-0.020562775 -0.03571401 0.012958606 0.02657419 0.022139153 -0.0031388346 -0.0032645538 -0.01101046
-0.024024745 -0.017414533 0.031726383 -0.03165301 -0.021788655 -0.0033581995 -0.034391988 0.0226311
-0.016220799 0.0078919865 0.0016686558 0.007344702 0.0028587163 0.008396409 0.018831663 -0.007877927
0.037789598 -0.025132412 0.0053163012 0.030654408 -0.015242061 -0.024491629 -0.0116138505 0.029660756
-0.01953746 -0.014008487 -0.020357272 0.017309133 0.038323663 0.030618798 -0.025132563 -0.0084447125
0.03869815 0.009707732 0.019857617 0.0008238237 0.041298866 -0.0059501985 0.013784843 -0.028451461
0.022421533 0.014606515 -0.029600395 -0.016131494 0.03461637 -0.012740003 -0.035856664 0.0322111
0.013684025 -0.00805342 -0.023397807 -0.017482894 0.033859406 -0.008073778 0.036101032 0.016672313
0.03126721 -0.040435173 0.0021036312 -0.012502024 -0.019776989 -0.026606413 -0.0015201385 -0.019853944
0.040142465 -0.018319678 0.028582469 -0.03059949 0.0331729 -0.0037767952 -0.028162634 0.025356356
-0.024510667 -0.008806593 0.0034509 0.017348642 0.034078047 -0.034129333 -0.02826008 0.0356202
0.03515912 0.029855091 -0.025888668 0.008278093 0.0241871 -0.022424912 -0.022482801 0.0078417305
-0.025302114 -0.024960984 0.033017766 -0.010790636 -0.025875127 0.015445973 0.017825127 0.012772228
0.00831045 -0.03933919 -0.023894077 -0.02721757 0.027989473 -0.011184072 -0.031906955 -0.033817746
-0.0149210375 -0.03336807 0.037550878 -0.014229043 0.03774632 -0.003672036 -0.019077726 0.030874193
-0.012354466 -0.036921985 0.0077370727 -0.00080967037 0.012694784 0.035076335 0.037250645 -0.038215786
-0.015967384 -0.03417246 0.026483877 -0.021789612 0.019606952 -0.038208283 0.029484432 0.0022020263
0.0126192765 0.009450814 -0.0008115683 -0.0015746114 -0.036325675 -0.024326606 0.019874582 0.037914697
0.029568067 -0.034306128 0.0024767714 0.01703551 -0.03571513 -0.029164523 -0.027279818 0.027631128
-0.0005577369 0.011722429 0.009976295 0.037078455 0.015230774 0.005212608 -0.006249457 0.029863928
0.031522173 0.017516322 0.0060773543 -0.037300244 -0.005293411 -0.034464367 -0.0003858842 -0.02407515
0.024156567 0.023715956 -0.006514139 0.031652737 -0.033700973 0.026710233 -0.022460954 -0.0061311843
-0.020942787 0.03196511 -0.0030261977 0.017719181 -0.014587219 0.03995453 -0.014379204 -0.0049074115
00000000: fe8d 48bc bd65 083c 3dec c0bc 9c18 7abc
00000010: ff7f 753b a90a 6cbc 828a ccbc bd67 bebc
00000020: 1b59 ecbc caeb 15bd 26d4 19bd 6323 233d
00000030: 30b8 d63c 3ed9 393c 7574 cbbc 4aa3 073d
00000040: 585b aebc 2dbd 0fbd 0e8b 2d3c ecfb 45bb
00000050: 03b4 acbc 1d73 2abc 56cc 593c 6358 97b9
00000060: b1d1 c4bc ab00 f33c aa11 863c 21aa b33c
00000070: ae3e 263b 8242 033b e99f ccbc c6ea 373c
00000080: b98c 1fbd 3995 a73c c219 6e3c 6fa4 173d
00000090: 7d3f c83b ba87 213d 1693 e8bc dc2e 0b3d
000000a0: 79c2 56bc aa7b 0bbd a7c4 0b3c e36a c6bc
000000b0: b86a ddbb 153e d2bc 3222 e33c bf52 13bd
000000c0: ebba f83c 5332 bc3c 9946 03bd d8fc 76bc
000000d0: cf73 a3bc 88af 84bc 0550 583a 2e1e 2bbd
000000e0: a598 203c 402d 63bc 20c7 13bd 206d a3ba
000000f0: 7442 51bc a751 61bc 245a 90bc 5628 9abc
00000100: 7526 51bc e86e 0ebd 744d f1bc 5380 8b3c
00000110: 798b dc3c 4492 d2bc 3ac1 e7bb 4009 87bc
00000120: 4473 a8bc db48 12bd 5550 543c 1eb2 d93c
00000130: 2b5d b53c e8b4 4dbb 20f2 55bb 3765 34bc
00000140: 8bcf c4bc eca8 8ebc 86f3 013d 96a6 01bd
00000150: 1f7e b2bc 3d15 5cbb 9dde 0cbd db64 b93c
00000160: 7be1 84bc 644d 013c ccb6 da3a d3ab f03b
00000170: 4d59 3b3b 1891 093c dc44 9a3c 6c12 01bc
00000180: 44c9 1a3d 7de2 cdbc 5e34 ae3b f41e fb3c
00000190: d6b9 79bc aba2 c8bc 0548 3ebc 1dfb f23c
000001a0: 060d a0bc da83 65bc 4bc4 a6bc e2cb 8d3c
000001b0: 46f9 1c3d 46d4 fa3c cee2 cdbc b15b 0abc
000001c0: f481 1e3d 2e0d 1f3c 71ac a23c dff5 573a
000001d0: 0029 293d e2f9 c2bb d2d9 613c 0a13 e9bc
000001e0: 5dad b73c 2a50 6f3c 877c f2bc 3226 84bc
000001f0: e5c9 0d3d 72bb 50bc 70de 12bd c9ef 033d
00000200: f632 603c 7ef2 03bc c2ac bfbc 4938 8fbc
00000210: 29b0 0a3d e147 04bc adde 133d 6094 883c
00000220: 0c12 003d 5a9f 25bd 13dd 093b 4ad5 4cbc
00000230: 5a03 a2bc b1f5 d9bc 623f c7ba bda4 a2bc
00000240: 6d6c 243d 2613 96bc c825 ea3c c8ab fabc
00000250: 4fe0 073d 1c84 77bb 53b5 e6bc 22b8 cf3c
00000260: 98ca c8bc 8749 10bc 7f28 623b bd1e 8e3c
00000270: 6c95 0b3d 33cb 0bbd af81 e7bc 7de6 113d
00000280: 0203 103d aa92 f43c 7914 d4bc d7a0 073c
00000290: 0624 c63c 73b4 b7bc da2d b8bc 9a7a 003c
000002a0: 6146 cfbc fa7a ccbc a33d 073d 35cb 30bc
000002b0: 13f8 d3bc 1b11 7d3c 0006 923c 9b42 513c
000002c0: 8e28 083c 2122 21bd 83bd c3bc 62f7 debc
000002d0: 2e4a e53c 663d 37bc deb0 02bd 7a84 0abd
000002e0: 5e77 74bc f5ac 08bd f3ce 193d ef20 69bc
000002f0: e39b 1a3d 8ba6 70bb e448 9cbc e0eb fc3c
00000300: 636a 4abc 823b 17bd 4587 fd3b 0f40 54ba
00000310: c9fd 4f3c 34ac 0f3d 2294 183d 2888 1cbd
00000320: 08ce 82bc 6cf8 0bbd b7f4 d83c 2180 b2bc
00000330: c29e a03c 4a80 1cbd 5689 f13c df4f 103b
00000340: 15c1 4e3c 96d7 1a3c 6dbf 54ba 3163 ceba
00000350: 3bca 14bd 9748 c7bc 05d0 a23c 714c 1b3d
00000360: bb38 f23c 9584 0cbd 5451 223b 0e8e 8b3c
00000370: 074a 12bd 70ea eebc ed79 dfbc ad5a e23c
00000380: 1735 12ba 6e0f 403c 9d73 233c 94df 173d
00000390: 7f8a 793c 86ce aa3b 3fc8 ccbb 32a5 f43c
000003a0: 651d 013d 647e 8f3c 8b24 c73b 24c8 18bd
000003b0: 5a74 adbb 822a 0dbd 8050 cab9 4039 c5bc
000003c0: fee3 c53c f747 c23c 8f74 d5bb 4da6 013d
000003d0: 080a 0abd 6bcf da3c 0900 b8bc 1ae8 c8bb
000003e0: 3590 abbc d9ed 023d 2c53 46bb d127 913c
000003f0: 3bff 6ebc 5ca7 233d c196 6bbc 5ace a0bb

bias f4 [128]
-0.0028762238 -0.008384909 0.021719309 -0.008363566 -0.034222335 -0.03621798 -0.031692073 -0.022118976
0.014226202 0.0036940887 0.01612237 0.00572884 0.011474107 -0.0116105 -0.0342978 -0.018925931
-0.014670206 -0.021212514 -0.034714423 0.014135551 -0.015080919 0.0325636 0.007967379 -0.03620603
-0.00841777 0.004845812 -0.02094018 0.015536807 -0.021169161 -0.019059984 -0.0019368479 0.0394892
0.01693648 -0.0025240525 0.00576196 -0.028425286 -0.0109797865 -0.008376635 0.014550059 -0.011490569
-0.026418822 -0.007936967 -0.004097137 -0.04057002 0.021581624 -0.012249399 0.019603739 0.036567017
-0.03281503 9.67299e-05 0.050210766 -0.039981663 -0.036226176 -0.006716792 0.024002854 0.0378773
-0.0010425458 0.01128738 0.014401663 0.009675383 0.024847846 0.0059895497 -0.031742986 -0.012521174
0.0016541771 -0.002279796 -0.017042186 0.0017482117 -0.050834637 0.034058228 -0.026657835 -0.038359478
0.04333439 -0.00135931 0.018770868 0.020589307 -0.0385672 -0.008647485 0.024878144 0.045822017
0.017976284 -3.9549697e-05 0.025080914 0.0388397 0.027052002 -0.032939002 -0.0236925 0.014765516
-0.017350769 0.008169447 -0.013580987 -0.0005121144 -0.00037542827 0.0030477587 -0.016072422 0.00803184
-0.002313517 -0.0132708 0.024634374 -0.012759981 0.027419735 -0.0098661985 -0.022935951 -0.037625253
-0.031036083 0.040486418 0.0090798475 -0.021303171 0.0050159465 0.041487988 0.026228804 -0.022062032
0.032826383 -0.024925038 -0.013712136 -0.0057099746 0.024776815 0.028782766 -0.036580484 -0.032387115
-0.01486387 0.02915153 0.011494476 0.0123241255 0.032291822 -0.023871483 -0.012632828 0.019929452
00000000: 077f 3cbb db60 09bc b1ec b13c 5707 09bc
00000010: b82c 0cbd 4e59 14bd 8ccf 01bd db32 b5bc
00000020: 0415 693c 8618 723b 0f13 843c feb8 bb3b
00000030: e5fd 3b3c f739 3ebc da7b 0cbd 8e0a 9bbc
00000040: 4e5b 70bc dec5 adbc b630 0ebd cc98 673c
00000050: f515 77bc 6961 053d 9c89 023c c64c 14bd
00000060: b0ea 09bc 9ec9 9e3b be8a abbc 178e 7e3c
00000070: f36a adbc af23 9cbc d5dd fdba 6dbf 213d
00000080: 5fbe 8a3c 936a 25bb d3ce bc3b 25dc e8bc
00000090: 90e4 33bc 273e 09bc 5f63 6e3c f142 3cbc
000000a0: 496c d8bc 0d0a 02bc 4741 86bb c02c 26bd
000000b0: f2cb b03c b4b1 48bc 0598 a03c 4cc7 153d
000000c0: 0e69 06bd 78db ca38 cea9 4d3d d0c3 23bd
000000d0: e661 14bd 8918 dcbb a2a1 c43c 3a25 1b3d
000000e0: 08a6 88ba b4ee 383c f4f4 6b3c 7f85 1e3c
000000f0: b68d cb3c fc43 c43b ef04 02bd 9c25 4dbc
00000100: f9d0 d83a a168 15bb 0e9c 8bbc 4024 e53a
00000110: fb37 50bd a480 0b3d 8861 dabc d41e 1dbd
00000120: 677f 313d e02a b2ba 5dc5 993c e8aa a83c
00000130: a4f8 1dbd 2eae 0dbc 40cd cb3c deaf 3b3d
00000140: 0043 933c 2ae2 25b8 7d76 cd3c 6116 1f3d
00000150: 299c dd3c 0ceb 06bd c616 c2bc 10eb 713c
00000160: 3323 8ebc 25d9 053c ca82 5ebc 6a3f 06ba
00000170: 21d5 c4b9 e8bc 473b 50aa 83bc fb97 033c
00000180: 609e 17bb c56d 59bc 07ce c93c 3d0f 51bc
00000190: 5a9f e03c d6a5 21bc 2de4 bbbc f01c 1abd
000001a0: 623f febc 16d5 253d a4c3 143c fd83 aebc
000001b0: cf5c a43b 4fef 293d cadd d63c 6fbb b4bc
000001c0: f574 063d 982f ccbc dea8 60bc bd1a bbbb
000001d0: bff8 ca3c d6c9 eb3c 6bd5 15bd 5aa8 04bd
000001e0: 9787 73bc 30cf ee3c 5453 3c3c 21eb 493c
000001f0: 6e44 043d 218e c3bc ecf9 4ebc 1743 a33c

weight f4 [128, 128]
0.043259077 0.083114244 0.019999482 0.079503514 -0.055562515 0.06958128 -0.077991664 0.03529358
0.064791195 0.07880539 0.0035283936 0.020902634 -0.05405374 -0.019598316 0.02441758 -0.022763006
-0.06700364 -0.079657085 -0.00048702955 -0.043795157 -0.0022942817 0.08418746 -0.06092625 -0.017228492
-0.077526785 0.01867 0.017683819 -0.064228505 0.033550274 0.07552769 -0.03916705 0.048400775
-0.073961735 -0.05046635 -0.0010435716 -0.009243064 -0.077892855 -0.08340773 0.07052509 0.059929274
-0.071708106 -0.0091398815 0.054430317 -0.00095481426 0.027042536 -0.07705355 0.061326645 0.0027785003
-0.05905068 -0.0267878 -0.041196115 0.08597684 -0.007944591 -0.048968647 -0.061094984 0.02970768
0.07775192 -0.0873694 0.008963667 -0.07787405 0.036611512 -0.004010988 0.069707185 -0.05022408
0.03100993 0.03173937 -0.07921021 0.008316778 -0.008465209 -0.07909464 -0.03268899 0.013698369
-0.07379953 0.01548569 0.042110566 -0.004856016 0.005985061 -0.07352831 0.021133479 0.025769359
-0.07988124 0.013550299 -0.087113775 0.07395252 -0.052015174 -0.08637512 0.062945604 -0.069242716
0.0040675458 0.08215764 -0.02614274 -0.036991477 0.018746667 -0.049500346 -0.02065293 -0.047468204
-0.0047165826 0.017620383 -0.049260885 -0.013537042 -0.034276094 -0.013129167 0.023862913 -0.086746946
-0.08461983 -0.0703551 0.07372112 0.06548389 -0.07971637 0.07075323 0.03511072 -0.08255933
0.01013879 0.0767937 -0.006093137 -0.05740914 -0.053000923 -0.032777164 0.031290114 -0.019954562
0.012783835 0.055393428 0.019750858 0.0068003563 0.053524338 -0.070580564 0.025821708 -0.06441996
0.03306157 -0.08625245 0.017303888 -0.029462893 -0.06594289 0.07128843 0.03154899 -0.00014104694
-0.08033849 0.05213686 -0.028684448 0.012947388 0.055813357 0.08630605 -0.023387965 0.059136532
-0.00030474365 -0.04609602 0.038668245 -0.054437976 -0.011757079 0.044711377 -0.018083856 -0.048330743
-0.028818857 0.0319475 0.037270553 0.08637816 -0.07014837 0.055656932 -0.04546255 0.0543753
0.05996193 -0.019420026 0.04685721 -0.011950095 -0.00412736 -0.06973964 -0.050891697 -0.0043974645
0.088034265 -0.04306865 -0.05960468 0.04406578 -0.0075407894 -0.077638075 0.06530166 -0.05973032
-0.046484888 0.06570629 0.051238224 -0.04442881 0.040992014 -0.010440287 0.07674729 0.033533026
-0.019898115 -0.048952237 0.0038371251 0.021238344 -0.015285797 0.087801285 0.05248064 0.027322903
-0.0112765245 -0.0817307 -0.04268059 -0.028365396 0.003375156 0.07674325 0.066427216 -0.021103732
-0.04566845 -0.017799255 -0.07202701 -0.021194637 -0.017541032 0.010230716 0.015972653 0.08809766
0.046402074 0.059586674 -0.06344991 0.019416606 -0.06474103 0.0099758385 -0.018898383 0.053329237
0.049758583 0.06551141 0.06656427 0.04442424 -0.06822345 0.026064314 -0.08258277 -0.066552885
0.037464954 -0.020733636 -0.045412023 -0.059044573 -0.071913645 0.0221159 0.011212375 -0.07313051
-0.069583744 0.0053721815 -0.03623862 -0.047313694 0.04311222 -0.08803964 -0.0025541112 -0.00239614
-0.00033328257 -0.08653063 -0.044365015 -0.066250235 0.04839977 0.03136174 -0.068640284 0.037770994
0.087950036 0.02242692 0.010722727 -0.08299917 0.014432444 0.0766227 -0.0631119 -0.05249358
00000000: 6e30 313d cd37 aa3d f4d5 a33c bdd2 a23d
00000010: 8595 63bd a180 8e3d 18ba 9fbd 0090 103d
00000020: 3fb1 843d b864 a13d 9f3c 673b 003c ab3c
00000030: 7467 5dbd a68c a0bc 6007 c83c 7c79 babc
00000040: 3439 89bd 4123 a3bd 0058 ffb9 8d62 33bd
00000050: a95b 16bb 7a6a ac3d ce8d 79bd c422 8dbc
00000060: 5dc6 9ebd d4f1 983c a8dd 903c 3c8a 83bd
00000070: 036c 093d 43ae 9a3d a16d 20bd e43f 463d
00000080: 4079 97bd ceb5 4ebd 74c8 88ba 3870 17bc
00000090: 4a86 9fbd acd1 aabd 756f 903d 6678 753d
000000a0: b3db 92bd 71bf 15bc 53f2 5e3d 804c 7aba
000000b0: 4f88 dd3c 40ce 9dbd a631 7b3d 8017 363b
000000c0: 20df 71bd 1772 dbbc 42bd 28bd a014 b03d
000000d0: 082a 02bc 5993 48bd bc3e 7abd 855d f33c
000000e0: 663c 9f3d baee b2bd 58dc 123c 6e7c 9fbd
000000f0: f4f5 153d 9b6e 83bb a4c2 8e3d c4b7 4dbd
00000100: 8908 fe3c 2401 023d f638 a2bd 1843 083c
00000110: a9b1 0abc 5ffc a1bd e4e4 05bd 206f 603c
00000120: 3524 97bd b1b7 7d3c 217c 2c3d 371f 9fbb
00000130: 551e c43b 0396 96bd 1e20 ad3c 431a d33c
00000140: c798 a3bd 1302 5e3c b568 b2bd 6b74 973d
00000150: dd0d 55bd 70e5 b0bd a0e9 803d 20cf 8dbd
00000160: 0c49 853b 4442 a83d 4d29 d6bc 6084 17bd
00000170: 9c92 993c e0c0 4abd 5530 a9bc 056e 42bd
00000180: 908d 9abb 9f58 903c c8c5 49bd 78ca 5dbc
00000190: 1765 0cbd b81b 57bc 287c c33c 62a8 b1bd
000001a0: 294d adbd 5616 90bd 19fb 963d 6b1c 863d
000001b0: 5642 a3bd 12e7 903d 42d0 0f3d de14 a9bd
000001c0: 2b1d 263c 0446 9d3d f0a8 c7bb d925 6bbd
000001d0: 7f17 59bd 5941 06bd 102a 003d c077 a3bc
000001e0: 4a73 513c 38e4 623d 8dcc a13c 86d5 de3b
000001f0: 563c 5b3d 8b8c 90bd 0c88 d33c 9dee 83bd
00000200: 926b 073d 20a5 b0bd e2c0 8d3c 2a5c f1bc
00000210: 110d 87bd abff 913d 8439 013d 00e6 13b9
00000220: 8288 a4bd 768d 553d a6fb eabc 4821 543c
00000230: 8c9c 643d 3ac1 b03d 1e98 bfbc 2639 723d
00000240: 00c6 9fb9 2ecf 3cbd 9862 1e3d 5bfa 5ebd
00000250: c3a0 40bc 4723 373d 9824 94bc 75f6 45bd
00000260: 8615 ecbc 62db 023d 02a9 183d 08e7 b03d
00000270: f3a9 8fbd 86f8 633d f036 3abd a2b8 5e3d
00000280: a49a 753d bf16 9fbc 59ed 3f3d 55ca 43bc
00000290: ce3e 87bb a8d3 8ebd d073 50bd 9b18 90bb
000002a0: 4f4b b43d c168 30bd 0924 74bd 527e 343d
000002b0: ba18 f7bb b600 9fbd e0bc 853d c8a7 74bd
000002c0: f066 3ebd 0591 863d 2cdf 513d fcfa 35bd
000002d0: 3ee7 273d bd0d 2bbc af2d 9d3d ed59 093d
000002e0: 5f01 a3bc 2482 48bd 4778 7b3b 09fc ad3c
000002f0: 4871 7abc 29d1 b33d f1f5 563d 48d4 df3c
00000300: 2cc1 38bc 6d62 a7bd d8d1 2ebd 8c5e e8bc
00000310: b931 5d3b 912b 9d3d fe0a 883d bce1 acbc
00000320: d70e 3bbd becf 91bc e682 93bd 60a0 adbc
00000330: 36b2 8fbc bc9e 273c 15d9 823c 8c6c b43d
00000340: 1a10 3e3d 2811 743d 07f2 81bd 930f 9f3c
00000350: f296 84bd b371 233c c8d0 9abc c26f 5a3d
00000360: a8cf 4b3d d92a 863d d952 883d 31f6 353d
00000370: bcb8 8bbd d484 d53c 2821 a9bd e14c 88bd
00000380: da74 193d 96d9 a9bc f501 3abd b9d8 71bd
00000390: 7647 93bd 672c b53c 1cb4 373c 73c5 95bd
000003a0: ec81 8ebd 2009 b03b f26e 14bd 01cc 41bd
000003b0: 7096 303d 204e b4bd e062 27bb 8f08 1dbb
000003c0: 6ebc aeb9 f936 b1bd 17b8 35bd 34ae 87bd
000003d0: d63e 463d 2b75 003d 4793 8cbd c2b5 1a3d
000003e0: 261f b43d a9b8 b73c 60ae 2f3c 78fb a9bd
000003f0: 0f76 6c3c 5dec 9c3d d040 81bd 8203 57bd

bias f4 [128]
-0.0005782206 -0.08358117 -0.034412865 0.037776206 -0.05253633 -0.011738471 0.025873031 0.06070765
-0.07920989 -0.046150215 0.04645574 0.019020403 -0.019887047 -0.061397076 -0.07458371 -0.033227563
-0.009518874 -0.04206244 0.051365167 -0.08242665 0.091756806 0.05520732 -0.05552917 -0.0676989
0.0045871497 -0.014090258 0.04678164 0.08244176 -0.05208679 -0.00023046299 -0.053690754 0.021965781
-0.01159174 0.09049596 0.005089611 0.058351565 0.06309535 -0.074352354 -0.08808343 -0.041118998
0.09378575 -0.08789493 0.044273503 -0.049780555 0.05314677 -0.012370333 -0.052736465 -0.022507792
-0.033096876 0.062091853 -0.0055846437 0.005727128 0.043058418 -0.023532262 -0.084186494 0.010176946
-0.017573826 0.0863658 -0.0690706 0.049362373 -0.037228722 -0.044935744 0.06617018 -0.08711294
0.038890343 0.03574922 -0.06452186 0.017107574 0.026478972 -0.071709946 -0.044801116 0.02300097
-0.027336739 0.0038785413 0.078223325 -0.07562004 -0.0155767575 0.02589707 0.024528442 -0.0062991697
0.046674147 -0.031771354 -0.0102408305 -0.06076793 -0.06169697 -0.039587427 -0.0802518 -0.06418831
0.0787507 -0.07826348 0.0415188 -0.0074626654 -0.011073405 -0.045824077 -0.03408396 -0.06180667
-0.05700396 -0.057767738 0.04124808 -0.093269676 -0.037501693 -0.08769234 0.04552091 -0.082457855
-0.055937797 0.045562778 -0.04391904 0.081873745 0.008452253 -0.036897186 -0.08263679 -0.03328727
0.052539095 -0.035145424 0.011957236 -0.056876462 -0.07475126 -0.008008087 -0.02705535 0.032349426
0.08285266 0.032588318 -0.07061481 -0.06628784 0.08383974 0.06272904 -0.040345907 -0.10140898
00000000: ba93 17ba 9b2c abbd 81f4 0cbd 39bb 1a3d
00000010: 5630 57bd b752 40bc aef3 d33c 96a8 783d
00000020: cb38 a2bd 0208 3dbd 6048 3e3d add0 9b3c
00000030: 29ea a2bc 807b 7bbd 58bf 98bd a019 08bd
00000040: 0df5 1bbc aa49 2cbd 4864 523d 4ecf a8bd
00000050: feea bb3d 1221 623d 8e72 63bd b9a5 8abd
00000060: cd4f 963b d3da 66bc 1b9e 3f3d 3ad7 a83d
00000070: f558 55bd 70a8 71b9 d6ea 5bbd 95f1 b33c
00000080: 48eb 3dbc f255 b93d c0c6 a63b 0d02 6f3d
00000090: 2338 813d 0c46 98bd 1665 b4bd 656c 28bd
000000a0: be12 c03d 4202 b4bd 2258 353d b2e6 4bbd
000000b0: 6db0 593d f0ac 4abc 3102 58bd 4362 b8bc
000000c0: 9790 07bd 0754 7e3d 63ff b6bb a2aa bb3b
000000d0: 065e 303d bbc6 c0bc f869 acbd 35bd 263c
000000e0: fcf6 8fbc 8de0 b03d e374 8dbd 3330 4a3d
000000f0: 257d 18bd 8b0e 38bd 3b84 873d 4568 b2bd
00000100: 7b4b 1f3d c66d 123d 0924 84bd 2f25 8c3c
00000110: 6eea d83c aadc 92bd 6081 37bd 886c bc3c
00000120: 4cf1 dfbc 202f 7e3b 8d33 a03d aede 9abd
00000130: a835 7fbc 1826 d43c dfef c83c 4469 cebb
00000140: 642d 3f3d ae22 02bd 28c9 27bc cbe7 78bd
00000150: f6b5 7cbd 6d26 22bd 0e5b a4bd 2975 83bd
00000160: 0c48 a13d 9a48 a0bd 9e0f 2a3d 6089 f4bb
00000170: 3a6d 35bc 07b2 3bbd 9f9b 0bbd fe28 7dbd
00000180: fc7c 69bd dd9d 6cbd bff3 283d 2c04 bfbd
00000190: 609b 19bd 0b98 b3bd 2274 3a3d aadf a8bd
000001a0: 081f 65bd 09a0 3a3d 74e4 33bd 6cad a73d
000001b0: 527b 0a3c 8121 17bd 7a3d a9bd 3c58 08bd
000001c0: 3c33 573d a6f4 0fbd 48e8 433c 4bf7 68bd
000001d0: 3017 99bd 5a34 03bc 2ea3 ddbc d580 043d
000001e0: a8ae a93d 547b 053d 7f9e 90bd ebc1 87bd
000001f0: 2bb4 ab3d 1578 803d c041 25bd 83af cfbd

weight f4 [2, 128]
-0.0697094 0.07554511 -0.056650188 0.023759557 0.043332182 0.15543815 -0.040765855 -0.025264159
-0.03579465 0.10187258 -0.058281343 -0.11896322 -0.034510434 0.00029938907 -0.03567919 -0.06730424
-0.05998881 0.10725018 0.07848622 0.018484637 0.15552294 -0.07238423 -0.07906501 0.0064405426
0.16044664 0.028362442 0.0065091606 0.043724023 -0.0045721773 0.009745882 -0.06833944 0.011991043
0.025186978 0.1207119 0.0024984255 0.03763477 0.1091135 0.072029166 0.01746423 -0.0659459
0.17196332 0.0057605356 0.09137187 -0.016179195 0.043672856 -0.012817949 -0.07857172 -0.0018814544
-0.028682467 0.011311764 0.05612247 0.029150868 0.005357977 -0.058937706 -0.10210028 -0.013708468
-0.012155077 0.13168007 0.057317626 -0.086386 -0.03019223 -0.002010367 0.060770877 0.009253242
-0.039210834 0.038791418 -0.08532256 -0.10671006 0.10740578 -0.18276347 -0.06284901 -0.021268457
0.10033652 0.04208677 -0.065531574 0.063454896 -0.0142874345 0.027137961 -0.08039137 0.029298835
0.048882443 -0.06048459 0.066862665 -0.038851496 -0.2553941 0.022369422 -0.046731442 0.02139934
0.03679468 0.104857996 0.084407635 0.12610933 0.080202326 -0.1520318 0.025549723 0.07545759
-0.0020535195 0.009778636 -0.041258227 -0.27689856 -0.016868837 0.019579656 -0.013423003 -0.007126592
-0.17198095 -0.047493707 -0.0057154167 0.0026158546 0.07778468 0.069640346 0.0477771 0.1014286
-0.20028035 0.019177523 0.017489213 0.103909805 0.030342674 -0.02639477 0.036707528 0.09555546
0.12005139 0.10822906 -0.04591447 -0.120698266 0.079607405 0.05268 -0.027250128 -0.139672
-0.016287627 -0.03962167 0.10900577 -0.07453934 0.010961615 -0.09771368 -0.07238184 0.07632389
0.09588187 -0.13315994 0.05094794 0.1770249 0.010413239 -0.05704246 -0.088011615 0.019892283
0.026352761 -0.07427639 -0.031197036 0.026791342 -0.1594928 0.008956031 -0.070611544 -0.025849357
-0.17690022 0.02905967 0.07950394 0.037423883 0.07060695 -0.020616213 -0.038337067 0.07487111
-0.070318416 -0.118355386 -0.011935942 -0.0568657 -0.12555985 0.08170652 -0.008884064 0.07547598
-0.09886951 0.0005769006 -0.16478473 -0.05441486 -0.06938349 -0.06525789 0.025686927 -0.069217026
-0.04484373 -0.12917946 -0.080775134 0.013136881 0.00061340956 -0.0067911833 0.041045014 0.008169991
-0.071084596 0.010620182 0.018539123 0.08340543 -0.037631635 0.061944988 0.016773865 0.009836223
0.060055796 -0.0555157 0.15667742 0.01403013 -0.07196479 0.18883173 0.10266521 0.07406553
0.018013688 -0.11411773 0.01611256 -0.05340093 0.015631042 0.068017945 0.054376867 0.08955604
-0.016114626 0.10513273 0.086575605 -0.061010458 0.26209894 -0.022302069 0.025012529 0.08352594
-0.14466605 -0.021366918 -0.13951929 -0.105341785 -0.14909288 0.20401114 0.08784726 0.068694204
0.08132462 0.064473644 0.07359476 0.2737312 0.08722876 0.008162237 -0.023430578 -0.06276397
0.23349625 -0.076202385 -0.026607135 0.040001903 -0.10588954 -0.0135322185 0.050448064 -0.123299934
0.1797676 -0.050258625 0.017870365 0.021040853 -0.09889168 -0.089538895 0.05473694 -0.14832348
-0.19880532 -0.057219338 0.09825172 0.0059345444 0.06452755 -0.017837744 -0.08183701 0.120007195
00000000: cdc3 8ebd 65b7 9a3d 070a 68bd 67a3 c23c
00000010: 167d 313d 2e2b 1f3e 19fa 26bd c8f6 cebc
00000020: 699d 12bd 92a2 d03d 6bb8 6ebd fda2 f3bd
00000030: d05a 0dbd 52f7 9c39 5824 12bd ced6 89bd
00000040: d4b6 75bd fba5 db3d 62bd a03d 186d 973c
00000050: 6841 1f3e 2f3e 94bd d6ec a1bd 300b d33b
00000060: 204c 243e 5a58 e83c cc4a d53b f617 333d
00000070: 34d2 95bb 31ad 1f3c 8cf5 8bbd 1476 443c
00000080: ec54 ce3c cd37 f73d a0bc 233b eb26 1a3d
00000090: e676 df3d 0784 933d 2511 8f3c a50e 87bd
000000a0: 2717 303e e0c2 bc3b 2d21 bb3d 3b8a 84bc
000000b0: 4fe2 323d 6002 52bc 36ea a0bd 229b f6ba
000000c0: 7ef7 eabc fa54 393c ade0 653d cdcd ee3c
000000d0: f891 af3b aa68 71bd f419 d1bd 7b99 60bc
000000e0: 1726 47bc 24d7 063e e3c5 6a3d 25eb b0bd
000000f0: b255 f7bc 5dc0 03bb e2ea 783d e99a 173c
00000100: 8a9b 20bd c0e3 1e3d 98bd aebd ce8a dabd
00000110: 90f7 db3d 5926 3bbe fbb6 80bd 303b aebc
00000120: 3c7d cd3d 2d63 2c3d 6b35 86bd a4f4 813d
00000130: d815 6abc 6e50 de3c 3ba4 a4bd 1c04 f03c
00000140: f538 483d b0be 77bd 4bef 883d bf22 1fbd
00000150: 04c3 82be 1440 b73c 7869 3fbd ab4d af3c
00000160: 05b6 163d cabf d63d e9dd ac3d ce22 013e
00000170: 1e41 a43d 39ae 1bbe a74d d13c 8289 9a3d
00000180: 5794 06bb 9236 203c 63fe 28bd a6c5 8dbe
00000190: 8430 8abc 8465 a03c 28ec 5bbc 3086 e9bb
000001a0: c61b 30be c388 42bd 6448 bbbb c26e 2b3b
000001b0: 934d 9f3d 999f 8e3d ecb1 433d ccb9 cf3d
000001c0: 4b16 4dbe 2e1a 9d3c 8a45 8f3c aace d43d
000001d0: 3391 f83c d839 d8bc a25a 163d 95b2 c33d
000001e0: 81dd f53d 33a7 dd3d d010 3cbd a730 f7bd
000001f0: 3509 a33d fcc6 573d a93b dfbc 2d06 0fbe
00000200: a16d 85bc 554a 22bd 6b3e df3d 15a8 98bd
00000210: 5898 333c 1c1e c8bd ee3c 94bd b34f 9c3d
00000220: b75d c43d 145b 08be caae 503d 0446 353e
00000230: 4a9c 2a3c 5ba5 69bd 6f3f b4bd 24f5 a23c
00000240: bfe1 d73c 381e 98bd ed90 ffbc 8479 db3c
00000250: 1552 23be 51bc 123c c99c 90bd 08c2 d3bc
00000260: 5525 35be 8c0e ee3c f6d2 a23d c949 193d
00000270: 609a 903d 55e3 a8bc 5407 1dbd 0656 993d
00000280: 1a03 90bd 4f64 f2bd f88e 43bc 02ec 68bd
00000290: c392 00be bf55 a73d 778e 11bc 2793 9a3d
000002a0: 197c cabd 253b 173a 54bd 28be 1ee2 5ebd
000002b0: ee18 8ebd eea5 85bd 646d d23c a8c1 8dbd
000002c0: 0fae 37bd 9f47 04be 6f6d a5bd 133c 573c
000002d0: 38cd 203a 9388 debb d11e 283d 6ddb 053c
000002e0: cd94 91bd 4600 2e3c 5cdf 973c 77d0 aa3d
000002f0: a123 1abd 07ba 7d3d 5869 893c 1c28 213c
00000300: 11fd 753d 6e64 63bd 0c70 203e a1de 653c
00000310: 4762 93bd 1b5d 413e 2342 d23d abaf 973d
00000320: 7191 933c 8eb6 e9bd 7dfe 833c efba 5abd
00000330: ac0c 803c fe4c 8b3d 47ba 5e3d 2869 b73d
00000340: d202 84bc d44f d73d 8d4e b13d 1ae6 79bd
00000350: d531 863e d4b2 b6bc 13e7 cc3c a60f ab3d
00000360: 5623 14be ad09 afbc 25de 0ebe 6fbd d7bd
00000370: ceab 18be 4ce8 503e 44e9 b33d 8caf 8c3d
00000380: 868d a63d c20a 843d d9b8 963d 7f26 8c3e
00000390: fea4 b23d e7ba 053c 7cf1 bfbc 658a 80bd
000003a0: a419 6f3e ff0f 9cbd 35f7 d9bc 09d9 233d
000003b0: 9ddc d8bd 3db6 5dbc a1a2 4e3d ad84 fcbd
000003c0: ff14 383e fddb 4dbd df64 923c de5d ac3c
000003d0: b987 cabd 2b60 b7bd d733 603d 1ce2 17be
000003e0: 9f93 4bbe d35e 6abd 3338 c93d 9176 c23b
000003f0: 0527 843d 7620 92bc 2a9a a7bd 55c6 f53d

bias f4 [2]
0.12696947 -0.043581564
00000000: 4904 023e 9582 32bd
