graph2vec_optimization/model/30_mlp_graph2vec_opt_5.pt (torch_old, 382907 bytes, 6 tensors)

weight f4 [128, 600]
000000 55 2f 65 3c 59 e5 9a 3c fb 11 48 bc ed e8 17 bc
       0.013988336 0.01890819 -0.012211318 -0.009271842
000010 70 05 b8 3c 86 82 b1 3c 49 fb 0e 3d 36 c5 ef 3c
       0.02246353 0.021668684 0.034907613 0.029268842
000020 a6 8d 9a bc 83 e6 d2 ba c2 3e 79 3c cc 0e 13 bc
       -0.018866371 -0.0016090426 0.015212717 -0.008975696
000030 2b 37 cb ba 45 f2 20 3d c3 f1 d2 3c 19 e2 09 3d
       -0.0015504112 0.039293546 0.025750047 0.03366289
000040 cd f1 4d bc 41 47 5f bc 18 c2 ef 3b c9 a5 4d 3c
       -0.012569857 -0.013627828 0.007316839 0.012551733
000050 4e b6 a7 bc e7 e5 fe 3c df cf a2 3c 58 4b e8 3b
       -0.020472672 0.031115485 0.019874511 0.00708906
000060 a7 10 1b bd f0 c4 e7 bb 5d 17 b0 ba b9 65 bb bb
       -0.037857678 -0.0070730373 -0.0013434697 -0.0057189134
000070 d7 20 b3 bc b7 17 1f bc fd 34 09 3d 0a 68 2b bd
       -0.021866245 -0.009710244 0.0334978 -0.041847266
000080 bc 2d 2c 3c 8b ca 39 bc ce 4a 96 39 56 9b 07 3c
       0.010508951 -0.011339794 0.00028665963 0.008276781
000090 c8 a0 29 bc 31 0e 25 bd b6 f7 3b 3b 5b 6d c9 3c
       -0.010353275 -0.040296737 0.0028681583 0.024588278
0000a0 49 34 a3 3c ac 9a 1f bd b0 e0 fb bc 11 43 15 3d
       0.019922392 -0.038965866 -0.030746788 0.036440913
0000b0 e0 3c fd bc ac 69 f0 bc 1b ec 02 bd 0a cf 14 bd
       -0.030912817 -0.029347263 -0.03196345 -0.03633026
0000c0 47 99 db bc dc 5b 0a bd 00 a9 00 bd a9 40 08 3d
       -0.026806487 -0.03377901 -0.03141117 0.03326479
0000d0 77 25 8f 3c 24 71 6f bb 76 28 00 3d e6 f1 9b 3b
       0.01747392 -0.0036535943 0.031288587 0.004759061
0000e0 2b b0 4a 3c fa 70 a3 bb d7 26 da 3c 4d 60 99 3c
       0.012371103 -0.004987833 0.026629848 0.018722678
0000f0 02 a5 57 ba 9b e2 31 3c 75 8d 8c bc 1d 82 a3 bb
       -0.0008226187 0.01085725 -0.017157296 -0.004989876
000100 61 04 ae bc a7 12 aa bc 59 a9 a2 3b 1a d4 19 3d
       -0.021242322 -0.020760847 0.0049640355 0.03755579
000110 8b 57 14 3a 2c 23 17 3b 41 b1 80 bc fa bf 0a bd
       0.0005658797 0.0023061736 -0.015709521 -0.03387449
000120 e1 3d 0e 3d 6e 43 dc bc ba 28 cb 3c 0e 40 1a 3d
       0.03472698 -0.026887622 0.024799693 0.037658744
000130 74 a1 0d 3d 18 ea d6 bb 94 21 39 bc ef 4f 8a 3b
       0.0345778 -0.006558668 -0.01129951 0.0042209546
000140 ee 84 e0 3c c2 42 84 bb f6 92 19 3d 86 5d df 3c
       0.027407136 -0.0040362785 0.03749367 0.027266275
000150 1c ad c7 3c 02 1d c6 bc 4e 5d 27 3d 2f 06 f8 3b
       0.024374537 -0.024183754 0.040860467 0.0075690965
000160 58 92 29 3c c2 44 1d 3d 72 de ca 3c 32 84 96 bc
       0.0103498325 0.03839565 0.024764273 -0.018373583
000170 ac 28 fd bc eb 09 9f bc 22 24 12 3d 0c 30 1c 3d
       -0.030903183 -0.019413909 0.03567899 0.03813176
000180 57 0b 0c bd 0a 15 79 3c 47 73 17 3c 28 71 9b bc
       -0.034190502 0.01520277 0.009243793 -0.018974856
000190 ee 46 8a b9 7d f0 f9 3c 90 65 16 3d f1 6d 0f bd
       -0.00026374258 0.030510182 0.03671795 -0.035016958
0001a0 2b 9a e2 3c 13 ae ae 3c 68 5c 08 bd 3b 3d 89 bc
       0.027661404 0.02132324 -0.03329125 -0.01675283
0001b0 56 2d ec bb e1 a2 c8 bb 21 71 3e ba 0e 14 73 3b
       -0.007207553 -0.0061229323 -0.00072647823 0.003709081
0001c0 f7 4b 28 bd ba e3 eb ba 14 6f 2d bd eb 6b 43 bc
       -0.04108807 -0.0017996945 -0.04234226 -0.011927585
0001d0 c8 9b 57 bc ec fe df 3c bc a8 06 3d 6b a7 fd 3c
       -0.0131597 0.027343236 0.03287576 0.03096362
0001e0 6f d4 86 bc 4d 0d 10 3d c6 dc fa 3b a7 7d a0 3c
       -0.016458718 0.035168935 0.007655713 0.019591166
0001f0 28 bc 02 bd 23 f4 54 3c 86 5b ab bb 5f 38 d2 bc
       -0.03191772 0.01299766 -0.0052294163 -0.025661645
000200 42 21 a3 bb 97 a8 c9 bb 5c 3d 19 3b 50 9c 16 bd
       -0.00497833 -0.0061541307 0.002338252 -0.036770165
000210 67 21 ac 3c 49 a2 71 bb cc b1 b0 3c f3 17 2c 3d
       0.021012021 -0.003687041 0.021569155 0.042015027
000220 46 25 a4 3a f7 ca e7 3b a8 10 c5 bc 57 dd 8a 3c
       0.0012523315 0.007073756 -0.024055794 0.016951246
000230 4b 20 e5 3b 72 4e 64 3c 63 bb 6a 3b 86 70 e4 3c
       0.006992375 0.013934718 0.0035817258 0.027885687
000240 9c 4a 01 3c 89 9e e4 3c dc 64 4d 3a 44 8f 2c 3d
       0.007891323 0.027907627 0.00078351586 0.042128816
000250 3e 78 a3 3c cf 6b ed bc 88 91 2f 3d 49 4f 91 3c
       0.019954797 -0.028982071 0.0428634 0.017738001
000260 e1 26 4e bc 03 d6 20 bc df 0d de 3c 8a 0d 20 3d
       -0.012582512 -0.009816649 0.027106224 0.03907541
000270 6b c9 19 3d 99 a8 8c 3c 9d ce ca 3c f9 4b ee 3b
       0.037545603 0.017170237 0.024756724 0.0072722402
000280 6e 1d 66 bb 13 a1 ce 3c 2d 00 b4 b9 58 aa 03 3d
       -0.0035112756 0.02522329 -0.00034332406 0.032144874
000290 30 77 12 3d 68 3f 27 bd 1f b9 ab 3c 2c 5c e2 3c
       0.035758197 -0.040831953 0.020962296 0.027631842
0002a0 53 95 11 bd 46 d7 cf bc 84 5e 52 3a 4f 99 02 bc
       -0.035542797 -0.025371205 0.0008024948 -0.007971122
0002b0 f4 a8 aa bc 79 2c 13 bb ff b9 c8 3c 82 71 b0 bc
       -0.020832516 -0.0022456928 0.024502752 -0.0215385
0002c0 f7 3d 89 3c 87 1b 1f 3d 2d fb 55 bc 3c 39 0a 3d
       0.01675318 0.03884461 -0.013060373 0.03374599
0002d0 2c 3f a8 bc 97 32 45 bb 1f f0 8d 3c 2c 75 95 3c
       -0.020537935 -0.0030089968 0.017326413 0.018244348
0002e0 10 a0 23 bd 6a 7b a6 bb f1 18 a9 3c f0 a1 00 3c
       -0.03994757 -0.00508063 0.020641776 0.007851109
0002f0 52 d5 eb bb 72 c7 b4 bc f0 78 32 3d f5 54 1d 3d
       -0.0071970606 -0.02206776 0.043572366 0.0384111
000300 84 ec 5a 3c 51 3d 13 bd cc 24 26 bd 6d c3 14 3d
       0.013362054 -0.035947148 -0.040562436 0.036319185
000310 3d 7c 15 3d e2 fe ed bb 47 92 2b bd f7 5f cc 3c
       0.036495436 -0.0072630504 -0.041887548 0.024948103
000320 dc 1a a0 bc 92 24 7a 39 38 a0 ad bc 9a ec 9b 3c
       -0.019544058 0.00023855481 -0.021194562 0.019033719
000330 46 e8 63 3c f6 0e f4 3c ba ef 20 bc aa b0 05 3d
       0.013910359 0.02979229 -0.00982278 0.032639183
000340 5c 34 bf 3c 27 16 20 3d bc 29 b6 bc 74 b4 d6 3c
       0.023340397 0.039083626 -0.022236697 0.026209094
000350 9b ac bd 3c b3 5f ce bc 7b 3c 7e 39 0a 30 d0 3c
       0.023153594 -0.025192117 0.00024245858 0.025413532
000360 9b a9 bd b9 e3 34 0a 3b 35 3e 0f bc 5d 5d 9a bc
       -0.00036175255 0.0021088652 -0.008742859 -0.018843347
000370 3e af 1e bd ee 12 e2 3c 49 96 0e 3d db 6b 06 bd
       -0.038741343 0.027596917 0.03481129 -0.032817703
000380 1d e4 2c 3c 0b 11 2c 3d 51 31 29 bd 4e 6d 94 ba
       0.010552433 0.04200844 -0.041306797 -0.0011324079
000390 e0 21 30 3c 3d 24 03 bd b0 86 43 bc 5f c3 07 3c
       0.010750264 -0.03201698 -0.0119339675 0.008286326
0003a0 cd 59 06 bd 4f ed 57 bc b1 a8 25 bd 80 ff 01 bd
       -0.032800484 -0.013179137 -0.04044408 -0.031737804
0003b0 ae be 8e 3b f9 32 0f bd 50 a5 6f 3c 0d 04 91 ba
       0.004356227 -0.03496072 0.014626816 -0.0011063829
0003c0 27 65 55 bc db 7f f0 3c 18 8f b7 bb e6 12 14 bc
       -0.013024605 0.029357841 -0.005601775 -0.009037709
0003d0 8f b2 11 bc 8e c8 c7 bc c0 ee 11 3d 6c 83 84 3c
       -0.008892669 -0.024387624 0.03562808 0.016175948
0003e0 c7 88 7d 3c bc 58 33 3d e7 9e da 3a ab cf 46 bc
       0.015474505 0.043785796 0.0016679437 -0.012134473
0003f0 f8 25 25 3c 23 32 0a bc 8f f6 78 39 9a d6 c4 bc
       0.010079853 -0.008434805 0.00023742973 -0.024028111

bias f4 [128]
000000 fa 89 d2 3c 93 1d 03 3d 2c df 09 bc ad 35 18 bd
       0.025700558 0.032010626 -0.008415025 -0.037160564
000010 e4 d9 2e 3d c6 27 98 bc eb 81 e5 bc b3 43 03 3d
       0.042688265 -0.018573653 -0.028016051 0.032046985
000020 b9 ba e3 3b ec c2 14 3d 74 3f 39 3d 38 47 99 bc
       0.0069497493 0.036318704 0.04522653 -0.018710718
000030 ef 91 d5 bc 0a df 0a bb ab 13 14 bd 97 dd 04 3d
       -0.026070563 -0.002119007 -0.03615157 0.032437887
000040 55 a7 ea bc ae 79 bf 3b 6d c1 08 3d 11 f8 1f bd
       -0.028644243 0.005843363 0.03338759 -0.039054934
000050 69 a2 0f 3d 97 1f 17 bb 6b aa d5 3b c6 bf 8c 3c
       0.035066996 -0.00230596 0.0065205595 0.017181288
000060 fe a5 c9 bc 8a 4b 73 ba 71 ae 91 bc fd 2c a7 3b
       -0.024615284 -0.00092809706 -0.017783375 0.0051017986
000070 50 1b aa 3c 27 76 2a 3d 08 e2 9f 3b 09 5e 8f 3b
       0.020764977 0.041616585 0.00487924 0.0043752235
000080 15 8b 0c 3d 86 5d c9 3a d6 3b 45 bd 07 83 cf 3c
       0.034312326 0.0015362955 -0.048152767 0.025331033
000090 6e aa c9 3c 9e 75 1c bd 78 a5 c5 3c 8f f9 12 bd
       0.0246174 -0.038198106 0.024126753 -0.03588253
0000a0 83 e5 c7 bc 7a 5f 08 3d 58 a3 d1 bc 07 3b 82 3c
       -0.024401432 0.03329418 -0.025590584 0.015897287
0000b0 af 32 c6 3c 3d e8 1c bd 8f 35 79 3c c2 37 8c bb
       0.02419409 -0.038307417 0.015210523 -0.004279108
0000c0 95 04 32 3b cc 80 0e 3c 75 42 43 bc c5 56 39 bd
       0.0027163376 0.0086977 -0.0119177 -0.045248765
0000d0 28 8e 07 3d 89 7b f2 bc 71 c4 88 bc 4a ab 87 3c
       0.033094555 -0.029599922 -0.016695233 0.01656117
0000e0 30 d4 71 3b d0 a9 bf bc 18 72 83 ba ef b7 85 3c
       0.0036900155 -0.023396403 -0.001002851 0.016323058
0000f0 3a 44 1a 3d 0c 06 0c bd 48 9f 7f 3c 0d 3a ea 3c
       0.037662722 -0.034185454 0.01560194 0.028592134
000100 7a f2 07 bd 65 15 30 bd 7b 1e 8c 3c 1e d6 84 3c
       -0.033190228 -0.042989153 0.017104378 0.01621538
000110 bc f6 1a 3d ad d1 bc 39 bf ac 0a 3d 76 5a 15 3d
       0.03783296 0.00036014375 0.03385615 0.036463223
000120 a7 be ba bc 2a 99 52 3d ea 79 fe bc bd 56 32 bb
       -0.022795988 0.0514156 -0.031063993 -0.0027212345
000130 b3 4c 12 bd 1f 6c 10 3d 95 4e 46 bd 34 6c 0f 3d
       -0.035717677 0.035259362 -0.048414785 0.0350153
000140 29 49 99 bb 9b 4c 98 bc f6 7a 9e 3c 01 92 b3 3c
       -0.004677911 -0.018591216 0.019345742 0.021920206
000150 06 98 de bc ed f6 cc bc fa 23 d1 bb 43 86 1a 3d
       -0.0271721 -0.025020087 -0.0063824626 0.0377257
000160 70 ae 6f 3c 19 40 c8 bc 53 75 3a 3d 52 44 38 3b
       0.0146289915 -0.024444627 0.045522045 0.0028116894
000170 c3 9a ec 3c 0f 74 2a bc df ae c6 bc e1 28 dc bb
       0.02888239 -0.010403647 -0.024253307 -0.0067187403
000180 14 6e 44 3c 15 b2 d0 bb a6 d3 60 3c 08 0e e5 3c
       0.011989135 -0.0063688853 0.013722336 0.027960792
000190 bb 92 16 bd 88 19 86 3c 4f c7 15 bb 48 f4 d0 3c
       -0.036761027 0.016369596 -0.0022854393 0.025507107
0001a0 d8 ee 82 3a 92 7f f0 bc af 40 eb 3c 27 e9 33 3d
       0.0009989394 -0.029357705 0.028717367 0.043923523
0001b0 e2 8c 9d bc 5d a4 35 3c d2 3d 1b 3d 2d 09 d1 bc
       -0.019232217 0.011086551 0.037900753 -0.02551707
0001c0 55 d9 13 3d e0 78 cf 3c 13 cc ef bb 5a 07 e4 3b
       0.036095936 0.025326192 -0.0073180287 0.006958884
0001d0 f2 35 93 3c ba e4 06 bd d7 fb 12 3b 27 b1 23 bd
       0.017970059 -0.032932974 0.002242794 -0.039963868
0001e0 29 5a 15 3c 11 2f d0 bc a0 f2 c4 bc 41 4d 97 bc
       0.009115734 -0.025413068 -0.024041474 -0.018469455
0001f0 29 b0 d3 bc ac d5 da bc ca 50 73 bc 2c 4d 8e bc
       -0.025840836 -0.026713215 -0.014850805 -0.017370783

weight f4 [128, 128]
000000 00 50 8a 37 fc 67 86 bd d9 88 67 bd 4a 57 29 3d
       1.6488135e-05 -0.06562802 -0.056526992 0.04134301
000010 de cc 8f bd a7 fb 5f bd 65 4e a1 bd 73 9a 81 3d
       -0.07021497 -0.054683354 -0.07876281 0.06328287
000020 b6 97 60 3d 46 69 54 3d b8 72 38 3c 3e aa f7 bc
       0.054832183 0.05185821 0.01125782 -0.030232545
000030 f2 e5 55 3d 18 5c f5 3c fd 3d a6 bd fa bf 33 bd
       0.052221246 0.02995114 -0.08117292 -0.043884255
000040 e4 b0 8d bc 92 d2 1a bd 9d 6e 96 bd 9e 3b 05 3d
       -0.017296262 -0.03779847 -0.073453166 0.03252756
000050 e9 41 93 3d e7 86 8b bd 20 02 2a bb ee 62 07 3d
       0.07190306 -0.0681284 -0.0025941208 0.03305333
000060 fc 1a 0f 3d 92 dc b2 bd c8 45 9d bc 8a b7 62 3d
       0.034937844 -0.08733477 -0.019198313 0.055350818
000070 9e eb 84 bd f5 7a ae bd c0 bd af bd dc 56 92 bd
       -0.06490253 -0.08519546 -0.08581114 -0.07145473
000080 80 99 55 bc 2a 4c 37 3d 1b 57 a8 3d 16 95 5b bd
       -0.0130370855 0.04475037 0.08219739 -0.053608976
000090 bb 29 0f bd a0 8d da bc cf 2b 86 3d 00 7c d4 bc
       -0.034951907 -0.02667886 0.065513246 -0.025938034
0000a0 fe 3b 27 3d 6b 7f 93 bd d6 b2 ab bd d0 35 10 bc
       0.040828697 -0.072020374 -0.083837196 -0.008801892
0000b0 0b 49 b3 3d 50 27 b1 bc 3f a2 a3 3d 4d f3 4c bd
       0.08754166 -0.021625191 0.0798993 -0.050036717
0000c0 94 1c 83 bd e2 8b 67 3d 9e 7f eb bc 50 8b 63 3c
       -0.06401935 0.056529887 -0.028747376 0.013888195
0000d0 74 5d 6f bd 54 01 c6 bc 87 92 9d 3d 22 62 4c 3d
       -0.058438733 -0.024170555 0.076939635 0.049898274
0000e0 6c 25 f6 bc 9c 31 a0 bd 65 d5 b0 bd ba e3 62 bd
       -0.030047141 -0.07821962 -0.08634452 -0.05539296
0000f0 03 52 93 3d 2d ef 57 bd 80 1e 53 bc 56 38 1f 3d
       0.07193377 -0.05271833 -0.01288569 0.038872086
000100 e4 73 83 bd 14 5b 32 bd 10 ec c3 3c d8 7b 89 bd
       -0.06418589 -0.04354389 0.023916274 -0.067130744
000110 30 3d 6b 3c 88 18 85 bd 30 4b 67 bd a6 26 2b 3d
       0.01435785 -0.064988196 -0.05646819 0.041784905
000120 88 b1 9e bd 81 35 80 bd 57 e6 1e bd 80 39 46 3a
       -0.07748705 -0.06260205 -0.038793888 0.0007561669
000130 9e 0e 4c 3d 0c 5e a9 bd a9 bb 2a bd ca 80 37 3d
       0.049818628 -0.08269891 -0.041682873 0.044800557
000140 c7 ab b3 3d c0 24 61 bc 21 32 a9 bd 7e 4f 75 3d
       0.08772998 -0.013741672 -0.082615145 0.059890263
000150 5a 14 8d bd 70 2e 92 bc db fa 2d bd 1b da 9f 3d
       -0.068886474 -0.017844409 -0.042475563 0.07805272
000160 7a f8 5b 3d 70 35 8f bb f0 85 87 3b cc bb b2 bd
       0.053703763 -0.004370384 0.0041358396 -0.08727226
000170 ce 2c 72 3d d8 47 cc bc 5b 86 8e bd 84 67 b1 3c
       0.05912476 -0.024936602 -0.0695922 0.021655805
000180 b8 be 9e bd f4 db 8f 3c 80 91 e6 bb 4d 5b 95 3d
       -0.077512205 0.017560937 -0.007036388 0.07292805
000190 aa 09 6a bd bd c4 b2 3d 89 0d 9e 3d 74 ff 96 3c
       -0.057138123 0.08728931 0.077174254 0.018432356
0001a0 22 2a 57 3d 96 99 74 bd 8f 5b a9 3d ea c4 36 3d
       0.052530415 -0.059716783 0.082694165 0.044621386
0001b0 4f 63 97 3d ea 3f 1a 3d 79 c8 62 bd 70 7a d7 bb
       0.073919885 0.03765861 -0.055366967 -0.006575875
0001c0 74 e8 a9 bc d6 ac 1b bd e8 64 6a 3c 8b 1e a4 bd
       -0.020740725 -0.038006626 0.0143062845 -0.08013638
0001d0 6d db 85 3d 26 a2 36 3d c0 26 3a 3c 2d de 84 3d
       0.06535993 0.04458823 0.011361778 0.06487689
0001e0 21 4b 0b bd 14 f6 96 bc a0 28 57 3b ee e8 3b 3d
       -0.034007195 -0.018427886 0.003283061 0.045876436
0001f0 85 d9 2b bd 94 a7 d0 3c 28 a6 09 bd 35 db 9d 3d
       -0.04195549 0.025470532 -0.033605725 0.07707826
000200 0a e2 3b bd 3d e0 0a 3d 9c 85 e5 3c c7 42 72 3d
       -0.045869865 0.033905257 0.028017811 0.059145715
000210 b2 33 c2 3c eb 30 92 3d 2a 77 8c bd 4c d4 9c bd
       0.02370629 0.071382366 -0.06858666 -0.0765768
000220 2b 8d 8c 3d a2 cf 11 3b ad ab 4c 3c 98 a3 b0 3d
       0.06862863 0.0022249003 0.012492103 0.08624953
000230 13 85 bc bc ba 1a 4f 3d 84 04 88 3d cd e0 3c bc
       -0.023012673 0.050562598 0.06641486 -0.011528206
000240 25 19 62 3c a0 e7 2e bd 6c 42 db bc db 5f 85 bd
       0.01379994 -0.042701364 -0.02676507 -0.065124236
000250 d1 33 bd 3c 36 e9 f2 bc fb af 97 bc 4e 86 7c bd
       0.023095997 -0.02965222 -0.018516531 -0.06165152
000260 cf f8 76 3d 78 51 07 bd 70 a4 4f 3c f8 ad d9 bc
       0.060295876 -0.03303668 0.012673482 -0.026572213
000270 bf 4a 02 3c 89 78 59 3d 76 e1 4a 3d 65 b3 8d 3d
       0.007952391 0.053093467 0.049531423 0.069189824
000280 17 0a 9f 3d 8f 60 7b 3c 69 f8 15 3d 28 61 a1 3d
       0.07765596 0.015342846 0.036613856 0.07879859
000290 49 b2 89 bd 10 e6 76 bd 80 8c 96 bd ce ea dc 3c
       -0.06723458 -0.060278 -0.07351017 0.026967432
0002a0 b9 a9 fc bc 3e 8f ae 3b 55 75 82 3d 3f 5f 68 bd
       -0.030842649 0.0053271344 0.063700356 -0.05673146
0002b0 77 44 c6 bc 74 57 ae bc df 37 f5 3c 15 07 a7 3d
       -0.024202568 -0.021281935 0.029933868 0.08155648
0002c0 3a 33 94 3c 85 57 a3 3d 89 b7 3d 3d 93 6e 4a 3d
       0.018090833 0.079756774 0.04631761 0.049421858
0002d0 2b a1 a5 bd c2 8b 30 3d 35 c1 a8 bd 39 70 30 3d
       -0.08087381 0.043102033 -0.08239976 0.043075774
0002e0 72 9d 6b 3d 35 47 3a bd 73 2f fc 3c 0a b3 95 3c
       0.0575232 -0.045478065 0.030784344 0.018273849
0002f0 eb c8 80 bd a2 42 a0 bc 6d 15 e3 bc 6d 9a a9 bc
       -0.06288322 -0.019563023 -0.027720178 -0.020703519
000300 03 de 5c 3c 24 f3 2d bd 1d 00 24 3d 24 2a 32 3c
       0.013480666 -0.042468205 0.04003917 0.010874305
000310 0e 1c f8 3b 94 d9 98 3b 13 c5 28 bd 6e 5e b1 bd
       0.0075717038 0.004664609 -0.04120357 -0.08660589
000320 27 93 96 bd d9 47 c5 bd e1 9f 9c bd aa f1 85 3d
       -0.07352286 -0.096328445 -0.07647682 0.065402344
000330 38 5a 57 3b 3f 93 8a 3d 75 ce 1f bd 62 d4 0e 3d
       0.003286017 0.06766366 -0.039015252 0.034870513
000340 e3 49 f2 3c b4 d5 19 bd 6a 56 a0 3b c7 73 29 3d
       0.029576248 -0.03755732 0.004893114 0.04137018
000350 42 37 60 3d b7 3f 9c bd fd c2 b6 bd 18 4e 81 bd
       0.054740198 -0.0762934 -0.0892391 -0.06313723
000360 ad 36 92 3c bf 6a 98 3d 24 a1 17 bc c5 59 b9 bc
       0.017848337 0.07442235 -0.0092547275 -0.022625813
000370 3e c3 b5 3d c3 4d 5f bc b8 97 2e bc 3c aa 4e 3d
       0.0887513 -0.01362938 -0.01065629 0.050455317
000380 4e 1c 3d bd f7 07 36 3c d4 8b ba 3d e2 e3 52 3d
       -0.04616957 0.011110297 0.09108701 0.051486857
000390 73 36 b4 bd 80 e7 6d 3c 3d fc f0 3c aa 17 5c 3b
       -0.08799448 0.014520526 0.029417152 0.003358344
0003a0 71 52 a7 bd 4e 84 8b 3d b2 ac 18 bd 22 69 c1 ba
       -0.08170021 0.068123445 -0.03727407 -0.0014756063
0003b0 28 21 0c 3d b1 ce 7a bd 5c 05 8b bd e3 7a d0 bb
       0.034211308 -0.061232273 -0.067881316 -0.0063623055
0003c0 87 e6 b3 3d d8 0f 07 bd 42 1a 8c bd 54 2e 29 bd
       0.08784204 -0.032974094 -0.06840946 -0.041303948
0003d0 c4 d5 a9 bc 40 6f 5b 3d d5 e7 e0 3c d6 38 39 3d
       -0.020731814 0.053572893 0.027454296 0.04522022
0003e0 4f b8 c1 bc 93 5d f5 3b 2a d1 ad ba af e3 9c bd
       -0.023647455 0.0074879616 -0.0013261188 -0.07660615
0003f0 5e ab 5b 3d 9a 7d b0 3d 1d ce 7d 3d 5e 2c 2c 3d
       0.053630225 0.086177066 0.061964143 0.0420345

bias f4 [128]
000000 8d 3b 97 3d e1 8d 9f 3d ad b2 a2 3d 6f d7 f5 3c
       0.07384405 0.07790733 0.07944236 0.030009953
000010 80 6e c9 3d 9e f4 5f 3d c6 7e d8 bc cb 12 8c bc
       0.09835529 0.054676645 -0.026427638 -0.017098805
000020 bd 49 a5 3d 70 ff a0 3d 9b d9 96 3d a7 ec 8c bd
       0.08070705 0.07861221 0.07365724 -0.06881075
000030 b0 7c 98 bc 3b 70 85 3c 27 c6 38 3d b2 98 18 3d
       -0.018614143 0.016288867 0.045110848 0.037254997
000040 93 97 81 bd 79 99 86 bd f6 02 56 3d bb 3e a7 bd
       -0.063277386 -0.06572241 0.052248918 -0.08166262
000050 cd 05 0e 3d 82 6a dd b9 f6 2d 27 3d 6e e9 a3 3c
       0.0346735 -0.0004223176 0.040815316 0.020008769
000060 60 d6 26 3d 9c 7f 67 3d 9c 1b 89 3d 82 52 06 bd
       0.040731788 0.056518182 0.06694719 -0.03279353
000070 d4 be c6 bc 89 e0 80 3d e0 94 2a bd 03 b8 19 bc
       -0.024260916 0.06292827 -0.041645885 -0.009382251
000080 0b ec a9 bd bb c5 e2 3b fe ad 51 3d 8f 29 a2 bd
       -0.08296975 0.006920544 0.051191323 -0.07918083
000090 70 f8 a5 3b 44 56 fd bc 74 f7 b6 3c 65 e5 1e bd
       0.0050650164 -0.030924924 0.022334792 -0.038792986
0000a0 da 9f 44 3d 5e 26 90 3c 8c d9 00 bb 3d 01 8c 3d
       0.04800401 0.01759642 -0.0019660918 0.06836174
0000b0 1c 75 f0 3c a1 f0 95 bd bb 2f ad 3d e3 1d 92 3d
       0.029352717 -0.07321287 0.084563695 0.07134607
0000c0 2e 0d 5c 3c 8d 4f 31 bd 5f 1d a7 3d e4 7d 51 bc
       0.013430877 -0.043288756 0.08159899 -0.012786362
0000d0 bb 49 f0 3c 06 4c 93 bd eb 3b 39 bd 58 93 a8 3d
       0.029332032 -0.07192235 -0.045223158 0.082312286
0000e0 d2 72 89 3d 4e e6 84 3d 36 c6 84 3d ee d7 98 3d
       0.06711353 0.0648924 0.06483118 0.0746306
0000f0 27 40 18 bd 1d ad ae bd 0e 10 88 bd cb ea a2 3d
       -0.037170555 -0.085291125 -0.06643687 0.079549395
000100 dc 41 64 3d 0f 13 6a 3d 31 db 85 3d fd fc ac bd
       0.05572687 0.057147082 0.06535948 -0.08446691
000110 83 ed b5 3a 51 48 1e 3d eb 2d 17 bd 4d 69 fc bc
       0.0013879988 0.038643185 -0.036909025 -0.03081193
000120 54 be e0 3c 1d e8 4d 3c ed 19 bf 3d 55 25 02 bd
       0.027434506 0.012567547 0.09331117 -0.031773884
000130 8c 0c e4 3c f0 0c 9a 3d 3c 42 c9 3c aa 86 37 bd
       0.027838014 0.07521999 0.024567716 -0.04480616
000140 0f 4a 5e 3d 00 d0 25 3d 97 26 4b 3c e7 46 91 3d
       0.054269847 0.040481567 0.012399337 0.07093602
000150 b7 13 28 3d 86 47 9e b9 ba 1b 9d 3d 46 16 08 3d
       0.041034427 -0.00030189398 0.07671304 0.033224367
000160 3e 1c 88 3c a3 f6 84 bd 76 34 8f 3d e4 52 aa 3d
       0.01661503 -0.06492355 0.06992428 0.083165914
000170 41 06 51 bd 86 7f d9 bc a8 31 37 3d 84 aa 09 bc
       -0.051031355 -0.026550066 0.04472509 -0.0084024705
000180 92 11 ff bc 55 8f c3 3a 81 4f 90 bd 22 84 12 bd
       -0.031136308 0.0014920036 -0.07046414 -0.035770543
000190 01 08 d8 bc 27 a5 78 bc fd 21 6e 3d 43 5a 8a 3d
       -0.026371004 -0.015176094 0.058137883 0.06755497
0001a0 1b a3 0f bb c8 e8 7a 3d 28 b2 5c bd 3a 60 9e bd
       -0.0021917287 0.061257154 -0.05388084 -0.077331975
0001b0 5f 38 06 3d 49 10 26 3d 89 58 1d bc 4e 16 2d bd
       0.032768603 0.040542874 -0.009603628 -0.0422576
0001c0 24 6b 0e 3d 2c 5e af 3d c8 71 73 3d ef 09 cd bc
       0.034770146 0.08562884 0.059434682 -0.02502915
0001d0 c1 69 3e 3d 09 a4 00 3c 97 f4 11 bb 79 68 cb 3c
       0.046487574 0.007851609 -0.002227103 0.02483009
0001e0 13 b3 b9 3c f8 9e 6a bc 7e ef ce bc 90 c9 6c bd
       0.022668397 -0.014320128 -0.025260683 -0.057809412
0001f0 c8 c7 7e bd 0a 2c fe 3b cb 51 1e bd 44 b4 b7 bc
       -0.062202245 0.0077567147 -0.038652223 -0.022424825

weight f4 [2, 128]
000000 06 e2 64 3d be 52 4e bc 07 56 22 3e 7c 3d a4 bd
       0.055879615 -0.012592969 0.1585313 -0.0801954
000010 98 f1 19 3e 0c 30 a2 3d 26 33 7e 3d 09 3d 8b bb
       0.15033567 0.079193205 0.062060498 -0.0042492193
000020 d9 84 a7 3d 51 b1 0f bd 44 06 d5 3c 96 4e 6a bc
       0.081796356 -0.03508121 0.026003964 -0.014300963
000030 7c d5 38 bd 4b 0b 3d bd 7f 67 4b bd e6 fe 50 3d
       -0.04512547 -0.046153348 -0.04965925 0.05102434
000040 3a 32 d9 bc e7 61 6d 3c bc 95 37 3c 34 5b e5 bc
       -0.026513208 0.014488674 0.011205133 -0.02799759
000050 b9 0b d2 bd 46 08 f0 bc 87 64 7c bd 8c 81 6b bd
       -0.10256142 -0.02930082 -0.061619308 -0.057496592
000060 1d cf b2 bd 9f ac 1d bd be 72 34 be 6d 71 fe bd
       -0.0873091 -0.038494702 -0.17621896 -0.12423978
000070 fa 6d 30 3d 7f 36 b8 3c 5d aa ce 3d 20 68 38 3d
       0.04307363 0.022486923 0.10091088 0.045021176
000080 61 96 6b bb 47 da e3 bd 40 0f d1 bb cc 9b 0e be
       -0.0035947787 -0.111256175 -0.006379992 -0.1392662
000090 90 d7 8f bb e5 a1 86 3d c4 89 18 bc eb a4 4b 3d
       -0.0043897107 0.06573848 -0.00931019 0.049717825
0000a0 2e 07 bf bd e0 b0 9c 3d 1e dc 8f bd 6e 8f 31 3e
       -0.09327541 0.07650924 -0.07024406 0.1733987
0000b0 38 bf 85 bc 83 e1 a4 bc dd da 9d bd d4 0b c1 bc
       -0.016326532 -0.020127064 -0.077077605 -0.02356521
0000c0 fc 85 2e be ca 0c 21 bd 40 cf 51 3c 12 0e 0e 3c
       -0.17043298 -0.039318837 0.01280576 0.008670347
0000d0 a9 67 66 bc d8 df 4d be ce f0 37 3d f5 1c 2a 3e
       -0.0140628 -0.20104921 0.044907384 0.16612609
0000e0 60 d5 76 3d 44 72 9e bc 87 cf 51 bc d0 8f 10 bd
       0.060262084 -0.019341595 -0.012805826 -0.0352934
0000f0 b2 08 24 3e bc af a6 bc 1b 7b 17 3e af 38 e2 3c
       0.16018942 -0.020347469 0.14793055 0.02761492
000100 ed e6 6f be 0c 05 d8 bd 5d bd 82 3d 53 6b a7 bd
       -0.23427935 -0.105478376 0.063837744 -0.08174767
000110 3c eb 8c 3d d2 98 a9 bd ac 02 07 3e b2 60 39 3d
       0.06880805 -0.08281101 0.13184613 0.04525823
000120 9e 1e 2a bd 26 63 0e 3d 1d 86 e0 3d e7 8f a1 3d
       -0.041533105 0.034762524 0.1096308 0.07888775
000130 76 6a 19 3d 6a 3f 59 3d 22 53 7f 3d 11 83 22 3d
       0.037455045 0.053038992 0.06233514 0.039675776
000140 e4 3b cb bd 82 ed a7 3d bf 8b 89 bd 4b 02 9a bd
       -0.099235326 0.08199598 -0.067161076 -0.075199686
000150 af 09 21 3e 63 95 0d bd a0 09 0b 3e 7a 5a 6e bd
       0.1572635 -0.034566294 0.1357789 -0.058191754
000160 e6 50 a7 3d ec ed d2 3d ed eb 22 3e 61 16 c4 3b
       0.08169727 0.10299286 0.15910311 0.005984113
000170 00 ef 93 bc 76 dc a8 3c d0 b6 21 3e e1 41 9e bd
       -0.0180583 0.020612936 0.15792394 -0.07727409
000180 28 be 3a bc 91 b6 84 3d 91 ae 2b 3b c2 66 cc bc
       -0.011397876 0.06480134 0.002619658 -0.024951342
000190 03 17 1a 3d db 0d 74 bc 14 7a 24 be 38 13 9d bd
       0.037619602 -0.0148958815 -0.16062194 -0.07669681
0001a0 58 e1 29 be 10 eb 3c bd c3 59 6e 3d 8f 78 a5 3d
       -0.16589868 -0.04612261 0.058191072 0.08079635
0001b0 2d 37 9c 3d 94 89 a7 3d a2 f0 00 be 51 ac 01 3e
       0.076277114 0.08180538 -0.12591794 0.1266339
0001c0 5f 7f 0b 3d 99 33 77 3d 98 90 71 3d 6a d1 3c 3d
       0.034057017 0.06035194 0.058975786 0.04609815
0001d0 a5 cd d6 3d 3d 5a 59 bd 17 c2 05 3e 2f ce cd 3d
       0.10488442 -0.053064574 0.1306232 0.10049092
0001e0 7e 95 31 3d 35 2f 8c be de 72 82 bd 75 c4 7b 3d
       0.043355457 -0.27379766 -0.063695654 0.061466653
0001f0 a3 cf 3b bd 91 a2 86 bd 44 35 20 bd f5 76 0d 3c
       -0.045852315 -0.06573976 -0.039113298 0.008634319
000200 78 53 84 bc 60 5f 3d 3d a9 c0 bb bd ab 7c 3a bc
       -0.016153082 0.046233535 -0.091676064 -0.011382262
000210 ad 60 0e bd c7 27 bc bb 05 89 90 bd 3e 30 7f 3d
       -0.034760166 -0.0057420465 -0.070573844 0.062301867
000220 0b 17 9f 3d e7 c7 7d 3d 20 ba 51 bb c6 46 88 3c
       0.07768067 0.06195822 -0.0032001808 0.01663531
000230 f9 b7 a6 3d 3c 54 36 bd 87 f2 c3 3c 7c f3 d2 3c
       0.08140559 -0.044513926 0.023919357 0.025750868
000240 cf b3 91 bd fa e9 5d bd 96 be 26 bd c7 b9 34 bd
       -0.07114374 -0.054178216 -0.0407091 -0.044122484
000250 d1 b3 fa bb c6 c9 56 3d 35 1e 1a 3d 01 ce 8d 3d
       -0.0076508303 0.05243852 0.037626464 0.06924058
000260 d8 17 86 bc 0c f0 e8 bc 04 8f 5c 3e 64 5b ec 3d
       -0.016368791 -0.028434776 0.21538931 0.11540869
000270 a2 47 a3 bd b2 42 c8 bd df ac 75 bd 05 6f 3d 3c
       -0.07972647 -0.09778346 -0.059979316 0.011562114
000280 9f 8e a0 3d 74 1d 12 3e f4 87 4e bd cd 51 45 3d
       0.07839703 0.14269048 -0.050422624 0.048173714
000290 40 ae 81 bb 0e 90 8d 3d f0 55 17 bd 1a a8 81 3c
       -0.00395754 0.06912242 -0.03694719 0.015827227
0002a0 fc cb cc 3c a4 f7 28 3d ea 85 ac bd b0 ba 17 be
       0.024999611 0.041251794 -0.084239796 -0.1481731
0002b0 c5 4d 79 bd da da a6 bd ef 14 91 3d 00 7a 7d 3a
       -0.060865182 -0.081472114 0.07084071 0.00096693635
0002c0 8b bf 38 3e bd d2 f2 bd 1c 0f 0e 3d fc 45 a9 bd
       0.18041818 -0.118566014 0.03468238 -0.082653016
0002d0 9f c6 b0 bd ce 86 02 3e 1e a2 3a 3d 5b 54 e0 bc
       -0.08631634 0.12746736 0.045564763 -0.027383974
0002e0 b7 55 9e bd 11 d1 a3 bd c5 18 c0 bd aa 68 2f 3b
       -0.077311926 -0.079988606 -0.093797244 0.0026765266
0002f0 5a 5b 9a bd be c8 ff bc b2 3b c8 bd fd e4 13 bb
       -0.07536955 -0.031223651 -0.09777011 -0.0022566908
000300 94 2b 21 3e da ab b9 3d 4c b0 0c bb 56 0f 8b 3c
       0.1573928 0.09065981 -0.0021467386 0.016975086
000310 15 68 9a bd 8b c8 a4 3d 1e fc 29 be cf 7b cb bc
       -0.07539383 0.08046063 -0.16600081 -0.02483931
000320 2a 8c 7b bd 43 1d 8f bc db 19 e8 bd c6 ec 35 3d
       -0.061412968 -0.017470008 -0.113330565 0.044415258
000330 ce a1 77 3d fc 67 1e 3d d6 34 20 3d 54 e1 aa bc
       0.060457043 0.038673386 0.03911289 -0.020859398
000340 8b 0b 7a 3c c9 23 a2 bd 79 32 a2 3d b0 66 0a 3c
       0.015261541 -0.07916982 0.07919783 0.008447334
000350 99 43 2e be 64 e8 b4 3d be 28 35 bd 2e a4 29 3c
       -0.17017974 0.088333875 -0.044228308 0.010354085
000360 3f bf 6c 3d a9 ed 5a 3c d9 25 4d be 90 a2 cd bd
       0.057799574 0.013362327 -0.20033969 -0.10040772
000370 ca 0d 95 bd 40 51 a9 bc 6d 6c 38 be 0a 93 7b bd
       -0.07278021 -0.020668626 -0.18010111 -0.061419524
000380 4c e4 2f bd a9 18 63 ba ab ec 93 3d 02 5c af bd
       -0.04294233 -0.00086630374 0.07222875 -0.08562471
000390 62 c1 b2 bd fd c6 18 bd 18 ea 20 3e ba 86 d1 bc
       -0.08728291 -0.037299145 0.157143 -0.025576938
0003a0 fb 90 37 3e ec 40 0b 3e fd 57 1e bd 76 a1 dd bc
       0.179264 0.13598984 -0.03865813 -0.02705453
0003b0 91 7c b8 bd 1d f3 d6 bc 07 c9 0b 3e 24 de fc bd
       -0.09008134 -0.026238972 0.13650905 -0.123470575
0003c0 a2 74 bb bd 8c 61 da bd 1b f5 db bd 66 e7 a0 bd
       -0.09153105 -0.10663137 -0.107401095 -0.07856636
0003d0 57 5a 90 bc 92 55 a5 bd 3a 34 ee bd fa f7 ff bd
       -0.017621202 -0.08072962 -0.11631055 -0.1249847
0003e0 56 60 8d 3d e8 83 8b 3e ac 5d af 3c 0a ba a4 bd
       0.0690314 0.27249074 0.02140697 -0.08043297
0003f0 e0 ce 99 3d d5 4b 89 3d 4e 9b 2a 3d b6 31 5f 3d
       0.075101614 0.06703917 0.041652016 0.054490767

bias f4 [2]
000000 ba 78 f6 3d 0a 68 ac bc
       0.120347455 -0.021045703
