graph2vec_optimization/model/40_mlp_graph2vec_opt_5.pt (torch_old, 382907 bytes, 6 tensors)

weight f4 [128, 600]
00000000: b9c6 583b 2c40 f33c 1f7e a1bc 25d5 0d3d
00000010: a4f2 bf3c 61fd 043c cf48 fd3c e563 033d
00000020: 9ce4 9f3c 5bb5 3d3c f753 64bb e33c 293d
00000030: a626 dc3b 8238 373a 2c9c a53b eb75 053d
00000040: 7698 193d 9efb a23c 9065 b1bb 86fa 173d
00000050: 9bf9 103c c568 6d3c 202e 61bb dcd6 40bc
00000060: 0283 003d 15dd 1b3d 0554 b73c 3c6a d0bc
00000070: ea9a ba3c 9ac1 cfbc 0538 f4bc e14b b9ba
00000080: f603 0bbd 2670 8d3c c98c 9ebc e830 20bd
00000090: 0e4c 24bd d597 233d e538 143d 221e 7abc
000000a0: db80 25bc 4e73 c83c adf0 1cbd bcc2 bcbc
000000b0: 94ab 8cbc 1c2c 093d 6db8 313b 4e26 ce3c
000000c0: ed3e ed3c 0ca7 7e3c e5bf b1bc a5a3 b23b
000000d0: 278c f73b 9efb 8e3c 9f62 5cbc 6655 b63c
000000e0: 0f02 95ba d010 a73c 2dfb a63c d6f7 083d
000000f0: ac5a 9d3c 21ac b4bc 8b56 12bd 161e 113c
00000100: cd2d 103d 02f5 21bc b937 9d3c b2a5 273c
00000110: fdf4 c6bc 8e9d 093d e268 dc3c 6129 e63a
00000120: bd68 6ebc 9ea8 fdbc a39e fa3c 632d 093c
00000130: a452 853c 2cc2 223d 9cd8 0a3d 4e17 be39
00000140: e397 143c 51cb 11bd 7669 ec3c 9a8e 8c3c
00000150: 9be9 b13c 6552 f73c 2fc4 c93c 434d d7bc
00000160: 8317 113c fb36 f13c 5dee 663c f520 f3bb
00000170: 6711 1c3c d67e 05bd 9a28 e93c 4cdb 073d
00000180: 7936 6b3b c8b5 bc3b 34e5 1c3d 041a 8b3c
00000190: 7fdd 2a3d afd7 f63c 8a40 553c 0020 1e3d
000001a0: d9c3 793c c1cc e23c 03bb d93c de0c 743c
000001b0: 5122 e4bc a886 fbba d2d9 653c 0ba7 1dbd
000001c0: 6d4e adbc 4587 fabc 975a 143c 2e11 fcbc
000001d0: b82c 21bd d730 c7bc 60b2 283d af01 943c
000001e0: 0800 743c 629c 32bc 996b b9ba 2728 73bb
000001f0: 2762 ccbc 31ae 08bd 6d1f e03c dc9a 033d
00000200: fa42 573c d22b 64bc 71fc ea3c faae e43c
00000210: 3e03 f2bc 0820 15bd 4f5c 723c a04b a8bc
00000220: 8e44 843c 9575 6bbb fc1f 97bc 0426 243d
00000230: a66b 04bb 82ce 783c 6337 04bc 76a4 d8bc
00000240: 805b 5abc 47f2 1abc 7dbe 18bd 3b9b 07b9
00000250: 742b 093c 04b0 d53c cc15 81bc 71a6 d23b
00000260: 88e2 a63c b912 b4bc 234b c93c 1381 a43c
00000270: b72e 693c 4fbb ce3b 64f4 f13c ba98 bf3c
00000280: 0bac ff3c a3f6 d83c 0ea4 943c f70c 13bd
00000290: 5b6c e5bc 8799 d73c d3f1 86bc 7ec7 7cbc
000002a0: 7370 0e3d da72 a43b 361d 1e3d 7acc 0a3d
000002b0: 1ea3 ccbc c241 6abc 8f6b a53c 521c e6bb
000002c0: 3e13 4bbc be71 e63c 2f2d e2bc b108 8abb
000002d0: 8126 fbbc b0bf db3c 8126 b83c 9ff4 f7bb
000002e0: 696e f9bc d197 9ebc 20c3 b9bc c870 5c38
000002f0: 938f a9bb 0f57 b83b a2e2 e4bc d4e5 0f3d
00000300: f1f2 cbbc d879 cf3c 6169 0f3d b3c5 2d3d
00000310: a38c 103d 53d3 8fbc 8af4 9a3c 0dc2 793c
00000320: 1be2 a63c a0e6 013c a577 c03c d1d7 cfbb
00000330: 7105 dbbc 85b2 c63c b133 1a3c 9f8a b43c
00000340: add9 93bc 9257 abbc 45aa e93c fefd 07bd
00000350: cc9f 23bd c139 673b 69e2 c9b8 b738 cb3b
00000360: f3dd 663c 9a0b a73b 2882 6ebc d0db c83c
00000370: 0f38 a73c 6b1a 92bc 0f22 17bd d0cb 4c3c
00000380: 3515 193d 7173 b43c 6383 0a3d 9010 8a3c
00000390: 29e2 8f3c f4c0 a43b e23a 0fbd e7e4 1dbc
000003a0: c4bd 0b3d 5e5f f8bc 61e6 ef3c f04e c13c
000003b0: f6e7 843c c78d 033d f52c a3bc b4ce e5bc
000003c0: b1f2 3c3c d5eb ae3c e7c6 e43c ddb5 823c
000003d0: eaef 9fb9 5452 8dbc ae86 e7bc ecb5 a3bc
000003e0: 750c 57bc ecaa 0d3d dda5 b9bc 6660 793c
000003f0: 7448 ce3c 844c 3a3c 0f13 5d3c 483b 703c
0.0033077432 0.029693685 -0.01971346 0.0346271 0.02343113 0.008117051 0.030918507 0.03207769
0.01951819 0.011578883 -0.0034840086 0.04131783 0.0067184744 0.00069893163 0.0050540175 0.03258316
0.037498914 0.019895371 -0.0054137185 0.037104152 0.008848573 0.014490311 -0.0034359768 -0.0117699765
0.03137494 0.038052637 0.02237893 -0.025441281 0.022778947 -0.025360871 -0.029811868 -0.0014136994
-0.033939324 0.01726539 -0.019354241 -0.03910914 -0.040111594 0.03993972 0.03618707 -0.015265973
-0.010101522 0.024469044 -0.038315464 -0.023042075 -0.017171659 0.03348933 0.0027117983 0.02516475
0.02896067 0.015542757 -0.021697948 0.005451637 0.0075545493 0.017453965 -0.0134512475 0.022257518
-0.0011368411 0.020393759 0.020383442 0.03343948 0.019208275 -0.022054734 -0.035727065 0.008857271
0.03519993 -0.009885075 0.01919161 0.010232376 -0.024286741 0.03359752 0.02690548 0.0017559939
-0.014551339 -0.030964192 0.030593222 0.008372637 0.016274758 0.039735958 0.03389798 0.00036256987
0.009069416 -0.03559429 0.028858881 0.017157841 0.021717837 0.030190656 0.02462968 -0.026281958
0.008855703 0.029445162 0.014094916 -0.0074197003 0.009525633 -0.032591663 0.028461743 0.033168122
0.0035890623 0.0057589747 0.038304523 0.016980179 0.04171514 0.030132143 0.013015876 0.038604736
0.015244448 0.027685525 0.026578432 0.014895646 -0.027848395 -0.0019189911 0.014028983 -0.038489383
-0.02115556 -0.03058208 0.009054801 -0.03076991 -0.039349288 -0.02431528 0.041185737 0.018067209
0.014892586 -0.010901542 -0.0014146446 -0.003710279 -0.024949146 -0.033369247 0.027358735 0.032130107
0.013138527 -0.013926463 0.028684827 0.027915467 -0.029542562 -0.0364075 0.014792516 -0.020543873
0.01614597 -0.0035928239 -0.018447869 0.040075317 -0.0020205765 0.015185954 -0.008069846 -0.026445609
-0.013327479 -0.0094571775 -0.03729104 -0.00012932431 0.008372176 0.026084907 -0.015757464 0.006428533
0.02037169 -0.021981584 0.02457196 0.020081079 0.014232329 0.00630895 0.02953548 0.023388255
0.031209966 0.026484793 0.018144634 -0.035901036 -0.02800577 0.026318325 -0.016472733 -0.015428422
0.03477521 0.005018574 0.038602076 0.03388641 -0.024980124 -0.014297904 0.02019289 -0.007022419
-0.012394724 0.028130408 -0.027609436 -0.004212462 -0.030658009 0.026824802 0.022479298 -0.007567003
-0.030448155 -0.019359501 -0.02267605 5.2557123e-05 -0.005174586 0.0056256126 -0.027940098 0.03513129
-0.024896117 0.025326654 0.035012607 0.04242487 0.03529037 -0.017556822 0.018915433 0.015244019
0.020371487 0.00792852 0.023494551 -0.006342866 -0.026735993 0.024255047 0.009411738 0.022038756
-0.018048132 -0.02091578 0.028523574 -0.03320121 -0.039947316 0.0035282227 -9.626599e-05 0.0062018293
0.014091003 0.0050978186 -0.014557399 0.024518877 0.020412473 -0.017834863 -0.036897715 0.012499765
0.03737374 0.022027703 0.033816706 0.0168536 0.017563896 0.0050278846 -0.034968264 -0.009637094
0.03411652 -0.030318912 0.029284658 0.02359721 0.016223889 0.03211763 -0.019918898 -0.028052665
0.0115324715 0.021352688 0.027926875 0.01595586 -0.00030505593 -0.017251171 -0.028262462 -0.019984208
-0.013125529 0.034586832 -0.022662098 0.015220737 0.025181033 0.011370782 0.013493313 0.014662571

bias f4 [128]
00000000: 88b0 223d 3969 d83b 0e01 1abd 2092 01bc
00000010: 69e5 d6bb d0e0 eeba d4b4 a8bc 3e55 ad3b
00000020: f00b 6bbb b986 5fbc 75be e43c 5b8d 4f3c
00000030: cc8f 153b 81be 9abc f49c 4e3c 196e edbc
00000040: a4aa d7bc f263 b33c 2881 2a3c acb8 cf3b
00000050: 8b0b 0abb a961 303c a6f9 46bc ba7e d7bc
00000060: 7f9c e83b f08f d83c 7c99 e7bc d82b 5b3c
00000070: db20 923c 7733 c9bc 1ea7 df3c 4d1c 1ebc
00000080: b3d9 dfbb 059a 153c 410f 3b3d e73a d53b
00000090: 37bb b5bc 35be e0bc 50ec fe3c 5ebe b5bb
000000a0: f836 b0bc 1476 063d 318b 273c ac61 83bc
000000b0: 4f8c e3bb 8a5f 14bc 08c2 69bb 7346 cf3b
000000c0: b99d 903b 5a4d 183d a94a 493d e8b2 5a3d
000000d0: 7b2b 05bc 5e3b d23c d734 a93b 08fe ae3b
000000e0: c0c0 973a b722 0a3c d9b8 e8bc e3fe 3cbc
000000f0: 684a 8bba 53b1 3bbb 7096 2fbc 9a1e 0d3d
00000100: 0c49 bebc 0654 993c 6aba 82bc 43e8 cbbc
00000110: 67df 0ebb e48c a63c 80d1 173d eff8 9dbc
00000120: 35ac efb9 683e 5c3c db84 f0ba 0fea b63c
00000130: f44d c9ba 7b35 363d d5fa b3ba 9639 603c
00000140: a55b b93c ec1a 4c3d c056 6c3a e755 a1bc
00000150: 832b 023d 968f f83c ab5c 013b b292 ccb9
00000160: b468 abbc 52cb fdbc b909 86bc 630b d43c
00000170: f260 70bc 6091 d33a 2bb9 b53b f93a df3b
00000180: 7c8d 493c 9259 af3c 08a8 1abd b419 1d3c
00000190: 4a53 083d 3d08 0ebd 069e ba3c 9bc9 4d3c
000001a0: 1c71 013d 5c56 a9bc 6465 40bc 2917 df3c
000001b0: 43ad a0bc b4c3 bb3c c5ce 503d 1a26 4cbc
000001c0: 0589 ac3c 7923 bc3c d886 ed3c 2b18 b2ba
000001d0: 319b d43c f549 b2bc 27fc b03c 5995 f0bc
000001e0: 5a8e e1bb a835 09bc d74c 0bbd 029a 04bd
000001f0: 7f59 d5bb d421 87bb 9440 1c3d d457 aebb
0.039719135 0.0066043404 -0.037598662 -0.007908374 -0.0065581095 -0.0018224958 -0.020594038 0.0052897027
-0.003586527 -0.01364296 0.027922848 0.012667979 0.0022821305 -0.018889667 0.012610663 -0.028983163
-0.026326485 0.021898244 0.01040677 0.0063391533 -0.002106401 0.0107654715 -0.012144482 -0.026305545
0.007098734 0.026435822 -0.02827143 0.013377152 0.017837932 -0.024560673 0.027301367 -0.009650302
-0.0068313717 0.009130959 0.045668844 0.006507266 -0.022183998 -0.027434448 0.031118542 -0.005546375
-0.021510586 0.03282745 0.010226057 -0.016037785 -0.0069442163 -0.009055981 -0.003566863 0.006325537
0.0044133333 0.037183143 0.049143467 0.053393275 -0.008128042 0.025663074 0.0051637697 0.0053403415
0.001157783 0.008431128 -0.028408455 -0.011535379 -0.0010627033 -0.002863963 -0.010717019 0.034453012
-0.02322819 0.018716823 -0.01595803 -0.024891024 -0.0021800639 0.020330854 0.03706503 -0.01928374
-0.00045713937 0.013442613 -0.0018350141 0.022328405 -0.0015358315 0.044484597 -0.001373137 0.013685605
0.022626707 0.049830362 0.00090156123 -0.019694282 0.031779777 0.030341905 0.0019739072 -0.0003901921
-0.02092395 -0.03098074 -0.016362058 0.025884336 -0.014671551 0.0016141348 0.0055457554 0.00681245
0.012301799 0.021405015 -0.037757903 0.009588648 0.033282556 -0.034675825 0.02278043 0.0125602735
0.03160201 -0.020671062 -0.011742923 0.027232723 -0.019613868 0.022920467 0.05097844 -0.012460256
0.02106143 0.022966133 0.028994963 -0.0013587525 0.025952907 -0.021763781 0.02160461 -0.02936809
-0.0068834247 -0.008374609 -0.034008827 -0.032373436 -0.006510913 -0.0041239057 0.038147524 -0.0053205285

weight f4 [128, 128]
00000000: 8d43 aebd fee2 9a3d ad54 5a3d 0ac9 1cbd
00000010: 28db 3ebd 2d43 45bd 1867 6c3c de70 903d
00000020: c4d1 57bd 2b93 f5bc 46f0 5fbd 20f0 a13d
00000030: adf9 663c 7763 973d cbda 14bd 2ca1 4d3d
00000040: e806 963d 84ab 983d 838a e3bc 2bd1 1ebd
00000050: 6cb4 fdbb 54d2 1abc fa54 7abd 247b 89bd
00000060: 3faf 913d eb44 54bd 359e 84bd 3630 70bd
00000070: 404b 943d a8d1 2fbb e400 8f3c 8fc7 953c
00000080: c983 593d 60ad 88bd dd30 39bd 8004 01bd
00000090: 846f aabd 2f3d 9fbc 3cd3 6b3d 132f 873c
000000a0: e8fa d33c 5fee 61bd 67cd a5bc 6a96 893b
000000b0: c35a 683b a853 efbc 4cd1 7cbc 6993 ac3d
000000c0: 1de2 943d a6fa 273d a114 233d cd46 823d
000000d0: b1f5 8cbd d33e 903d 12d6 a5bc 217d 50bd
000000e0: a8d1 a53d 4c4d 553d fcb3 54bd bc0a 8dbd
000000f0: 0214 533d 3cc3 d93d 28c9 293d 3b69 113d
00000100: 843f f83c 904d 67bc 35cd 4cbd c1dc 0c3d
00000110: a8b7 003d 6a48 fb3c c314 983c ab04 163d
00000120: f719 9a3d 95d2 ea3c bf9d 4a3d 21d2 38bd
00000130: 7710 55bd 58f1 0e3c da79 163d fc1a 103d
00000140: 1e8e 7b3d df96 bc3d e1da aabd 19d5 ab3d
00000150: 5e2b 98bd 95d2 a9bd 5f2c 18bd 991c 95bd
00000160: fbe4 363a 89ab 8b3d ef1c 76bd 15ed c73d
00000170: f587 923d 8716 86bd 6ac6 203d 3d11 e43c
00000180: ef9a 4e3d 085d 24bc 0fb3 b0bc 0c95 89bd
00000190: 12f1 d23b cc28 0cbd 924e 123d 08bd 80bc
000001a0: 3f60 74bd 7823 e8bb 2812 5a3d 6bc6 8cbd
000001b0: a649 97bd a4e6 0d3d 2fdd bd3d f67a f93b
000001c0: 83ce cabd 91d4 8a3c 645d 143d 98c6 973b
000001d0: ef6d 163d 6cae 733c 1e42 483d 94b5 12bd
000001e0: f4db aabd 02f4 183d 4b17 a83d 8939 f83c
000001f0: 7362 6bbd a435 54bd d0d1 0d3c 70b4 603d
00000200: 7b0a a4bd 3b81 4fbd 0ff4 993d 4c01 903c
00000210: 5d2a 943d f97e 5e3c f908 09bd b041 4c3d
00000220: 7eba aebd fe75 afbd c1e1 a3bd 979d a13c
00000230: 49e4 9fbd d02c 56bd 2221 8d3d 6415 87bd
00000240: 0dad 813d 721a 4a3d bdf5 553d dd4d 033d
00000250: 99bf a43d 50ae ad3d 493a beba 7c69 46bd
00000260: 6b70 b4bc bce8 cb3d 225f 62bd 1da7 a33d
00000270: dc26 2a3d 51c9 493c afe0 703c 96d2 ebbc
00000280: f859 a4bd 0076 a7bd 3d69 69bc b419 fb3c
00000290: e5d1 b4bd e247 9f3d fc5c 82bb 785d 8cbd
000002a0: a4b0 f43c bcbe 21bd afa4 ce3c f99c 71bd
000002b0: 21d3 5d3d 97f1 9b3d 1acb 02bd c33e a83a
000002c0: c8b1 7dbd 2033 b5bc d4c8 923d 9431 b33d
000002d0: 13a2 e5bc 7357 a53d 62c1 c5bb 4bf2 113d
000002e0: a1ea 67bd ba58 593d 3a0f 3fbb 646e d0bc
000002f0: 51b0 a23d 4636 173c 4438 ae3d b43a 833d
00000300: 2be1 973d 88c7 aabd 198e 88bd 207c 963d
00000310: b623 9fbd e2fc bebd 3bea 063c f57b ac3d
00000320: 7e2e ae3d a1c4 e4bc 9a0f 2cbd edda 2abc
00000330: deb7 afbd a16c 8b3d d570 93bd 4cdc e3bc
00000340: 57a6 43bd a0c0 cb3d 0026 35bb f63b a53d
00000350: 67b2 8ebd 9a5c 633d 3745 443c 25de 7a3c
00000360: 1825 693c d30f 83bd d4e9 70bd 80a4 a83b
00000370: d375 b03d e7ca 97bc 85db dabc e2d8 b03d
00000380: 3976 8fbc a7ab 16bb d5cb 8bbc 69a0 49bd
00000390: c92f 21bd 790f 793d 8b2f 893d b308 36bd
000003a0: 2357 8b3d a165 3a3d e121 0e3d b5d2 f23c
000003b0: ca25 153d fe6a 49bd 6a39 dd3c 79a9 0f3d
000003c0: 3c34 babc f61c 1e3d f27b 31bd 34f0 843d
000003d0: e813 8e3b 00f6 e23c 0b95 3cbc 9516 2d3b
000003e0: 56be a3bd 0e0a 363d 63d2 25ba 3159 843d
000003f0: 21da c73c b35f b3bd b64b 273d 0438 a2bd
-0.08508978 0.075628266 0.05330341 -0.038277663 -0.046595722 -0.048159767 0.014428876 0.07052778
-0.052690282 -0.029977402 -0.054672502 0.07907128 0.014097613 0.07392018 -0.03634147 0.050202534
0.07325536 0.07454589 -0.027776008 -0.038773697 -0.007742455 -0.00944956 -0.061116196 -0.0671294
0.07113504 -0.051823538 -0.06475488 -0.058639728 0.07240915 -0.0026827846 0.01745648 0.018283634
0.053104196 -0.06673694 -0.045212615 -0.031498432 -0.08322051 -0.019438354 0.057574496 0.016501939
0.025876477 -0.05515897 -0.020239545 0.004198839 0.0035454489 -0.029214695 -0.01543076 0.08426554
0.0726969 0.04101052 0.039814595 0.063611604 -0.068827994 0.07043233 -0.020243678 -0.050900582
0.080966294 0.05207567 -0.05192946 -0.06886813 0.051532753 0.10632941 0.041451603 0.035500746
0.030303724 -0.014117613 -0.05000039 0.034390215 0.03142515 0.030674178 0.018564587 0.036625545
0.07524484 0.028664866 0.049466845 -0.04512227 -0.052017655 0.008724533 0.0367373 0.035181984
0.06141483 0.09208464 -0.08342529 0.083902545 -0.07430147 -0.082921185 -0.03715169 -0.07280845
0.000697687 0.06819827 -0.060086187 0.09762017 0.07154838 -0.065472655 0.039251722 0.027840251
0.050440725 -0.010031946 -0.021569757 -0.067178816 0.006437429 -0.034218594 0.03571946 -0.015715137
-0.0596621 -0.0070843063 0.05323997 -0.06873783 -0.07387094 0.034643784 0.09270703 0.007613535
-0.0990267 0.016947063 0.036221877 0.0046318285 0.036725935 0.014873128 0.04889118 -0.035817698
-0.08342734 0.03734208 0.08207568 0.030300872 -0.057466935 -0.05180897 0.00865598 0.05485958
-0.080098115 -0.050660353 0.075172536 0.017578743 0.07234643 0.013580077 -0.033455823 0.049867332
-0.08531664 -0.08567427 -0.080020435 0.019728465 -0.07807214 -0.05228883 0.06891085 -0.06595877
0.06331835 0.049341626 0.052236307 0.032056678 0.08044357 0.08480513 -0.001451322 -0.04844044
-0.022026261 0.099565 -0.055266507 0.07990859 0.041540965 0.012316064 0.014702006 -0.028786939
-0.08024973 -0.081768036 -0.014246282 0.030651905 -0.08829097 0.077773824 -0.0039783698 -0.06853765
0.029869385 -0.03948854 0.025225012 -0.05898759 0.054156426 0.07614439 -0.031931974 0.0012836087
-0.061937124 -0.022119105 0.07167211 0.08749691 -0.028031385 0.0807332 -0.006035016 0.03563146
-0.056620244 0.053063132 -0.0029153363 -0.025443263 0.07943786 0.009229248 0.085068256 0.06407681
0.07415994 -0.08338839 -0.06667728 0.07347894 -0.07770483 -0.09325577 0.008234556 0.084220804
0.085049614 -0.027925791 -0.042007066 -0.010428173 -0.08579992 0.06807829 -0.071992554 -0.027815007
-0.047766056 0.0994885 -0.0027641058 0.08068077 -0.06967621 0.055508234 0.011979393 0.015311752
0.014230035 -0.063995026 -0.058816746 0.005146563 0.08616223 -0.018529369 -0.026716003 0.08635117
-0.017512428 -0.0022990496 -0.017064968 -0.049225245 -0.039352212 0.06080577 0.06698521 -0.04444189
0.068037294 0.045507077 0.03470028 0.029641489 0.03641299 -0.0491743 0.027004916 0.03507373
-0.022729985 0.038601838 -0.043331094 0.064911276 0.004335869 0.027705193 -0.011510144 0.0026411165
-0.07995288 0.044443183 -0.00063256006 0.064623244 0.024396004 -0.087584876 0.040843688 -0.079208404

bias f4 [128]
00000000: 4879 bf39 7458 83bd 1349 493d fc78 88bd
00000010: 733a 54bb 597a 303c 1500 8c3b 67de 853d
00000020: 493f b0bd 51ec a93d ce0d b13c d8f4 4a3c
00000030: ca74 89bc 54ed a63d fad1 9bbd 0f9f a03d
00000040: 596a db3c e048 42bd 3642 8a3d dca6 063d
00000050: a23e d0bc 0cb9 6ebc 0fd8 8abd 2a4d cc3c
00000060: 2ab7 7dbc 3659 5d3d 24a2 6c3d 8864 2dbd
00000070: d317 803d 482e 88bd 8f2c c43c c45c d93c
00000080: 777e 053d 60bc 653d 5b4d 8cbc fa15 61bd
00000090: 946d 8dbb b558 623d 277c 39bd fffe 8ebc
000000a0: aa57 d83c 8e2a 5bbd eb4b f53c 563a 09bd
000000b0: 5ca7 2bbd 1a10 293c 29c5 3f3d c09c ab3d
000000c0: 00a4 1c3d 7a30 b03d 8fe6 80bc 36cb d9bc
000000d0: 56ca a93d 95dd 3b3d 5f4f 92bd 58d8 89bd
000000e0: 3594 853d 5f03 21bd 069a 41bd edb5 0f3d
000000f0: b86e 42bb 9b6f 31bd 5f58 0b3d 7273 2abd
00000100: 59aa 2ebc 0f16 42bd 07ea 4c3d b9f4 50bd
00000110: 7184 4abd b9d0 933d 7b05 a6bd cbf9 b3bd
00000120: 62cd 43bd b7e3 443d f641 90bd 95ba 733d
00000130: f094 3f3c 378f 403c 9d67 773c d50c 723d
00000140: 930d 4c3b d526 0a3b e4fb efbc 5d67 6c3d
00000150: fd6f 283d a7c2 563c db84 a3bd 6b86 8fbd
00000160: bcc9 093d be6c a7bd 8094 ac3d 2387 5d3b
00000170: 6a66 943c 7bd5 383d ce98 54bd 74e1 7abd
00000180: bbcd 32bd 6ada 8bbd 5db8 4dbc f9d1 79bd
00000190: d760 99bd 3e94 6d3d bbf8 f1bc be3b 54bd
000001a0: f365 9cbd 41d9 1b3d aaf1 eb3c 5bde 8f3d
000001b0: 9760 bc3c c96b e03a 7697 cdba faa6 3c3d
000001c0: b8a7 9ebd df53 56bd 14cd c0bc cdfe 0cbd
000001d0: ffdb 9b3d 4ecd 8ebd a69d f3bc 1de0 ff3c
000001e0: cd84 98bc 5374 24bd 5bbb 11bd e3a9 723d
000001f0: 3c7d 3cbd 57e1 cdbc 4654 cabc cb43 0abd
0.0003652072 -0.064133555 0.049141955 -0.06663701 -0.0032383471 0.010771357 0.0042724707 0.065365605
-0.08605821 0.08297027 0.021613028 0.012387477 -0.016779322 0.081507355 -0.07608409 0.07842838
0.026784109 -0.04743278 0.0675091 0.032873973 -0.02542049 -0.014570486 -0.06779491 0.024939138
-0.015485564 0.054040156 0.057771817 -0.042332202 0.06254544 -0.066494524 0.023947028 0.026533492
0.03259131 0.05608785 -0.01712673 -0.0549526 -0.0043160412 0.05526038 -0.045284417 -0.017455576
0.026408989 -0.05350738 0.029943427 -0.0335029 -0.041907653 0.01031878 0.046818886 0.08379507
0.03824234 0.08602996 -0.015734939 -0.026586156 0.08290546 0.045865614 -0.07144045 -0.067307174
0.06522409 -0.039309856 -0.04726603 0.035085607 -0.0029668044 -0.043319326 0.034019824 -0.041614003
-0.010660731 -0.047384318 0.050027873 -0.051014636 -0.049442712 0.07217545 -0.08106514 -0.087878786
-0.04780329 0.04806873 -0.07043831 0.05950411 0.011693224 0.011752895 0.015100387 0.05909427
0.003113602 0.0021080275 -0.029294915 0.057715762 0.041122425 0.013107932 -0.079843245 -0.0700806
0.033639655 -0.08175038 0.084267616 0.0033802472 0.018115241 0.045125466 -0.05190354 -0.061250165
-0.04365323 -0.068287686 -0.012556163 -0.06099126 -0.07489174 0.058002703 -0.02953755 -0.051814787
-0.07636633 0.038048986 0.028801758 0.07024833 0.022995276 0.0017121966 -0.0015685398 0.04605768
-0.077468336 -0.05232608 -0.023535289 -0.034422684 0.0761032 -0.069727525 -0.029738259 0.031234795
-0.018618012 -0.040149998 -0.035579067 0.059244048 -0.04601787 -0.025131864 -0.024698388 -0.03375606

weight f4 [2, 128]
00000000: 51cd d93d 285a e33d af19 0cbd 3d57 57bd
00000010: 8ca7 733d 225d ec3b 039c bc3c 4b3f 75bd
00000020: 4e0c 423d b82e ac3d e58e fc3d c036 11be
00000030: 21e9 58be 1270 78bd ec4c 92bc 5b17 dbbc
00000040: db71 6c3c a4e7 a3bc 3a6d 6e3d 1b3c a6bd
00000050: e43f d4bd e3d2 a83d 38b2 083d 44e4 ce3d
00000060: 3cfd 833d 479b ae3d 5623 0d3d f506 e73d
00000070: f231 1bbe 60bb 02be 57e1 153e b89c 323c
00000080: 6141 c9ba 51ba 2a3c 3ff7 a23c 114a 1a3e
00000090: 176f 8d3d 939e 33bd e8dd 24be df63 6f3e
000000a0: a1e6 393d 6bff 4fbe d9df be3c 9284 adbd
000000b0: b6db 42bd 347d 28ba b7ca 32bd 900e 013e
000000c0: da3a 74bd 33d9 9fbc e346 b13d 00f0 cd37
000000d0: d95b 32bd 7f7c 353e 3cd8 5ebd 6804 14bc
000000e0: 8163 f5bc 5511 07be b387 92bd 3916 7b3c
000000f0: b401 a23d 1b75 d5bc 59b4 68bd 1aa7 383e
00000100: 3fc6 d3bc 0312 a6bd 2858 46bd bc67 3ebd
00000110: d1cc 17bd e6bc 193d 38c5 34bd 83c2 633d
00000120: e988 973d 5064 28bd 6354 1e3d 7555 e73d
00000130: debf 49bd f0b5 303e e1b1 963d 8068 683d
00000140: b625 eabd 13e5 ffbd 30c4 213d 66e6 6f3d
00000150: 0230 76bd 0947 acbd 0c51 c63c 4ab3 30be
00000160: 7706 a8bc 8892 61bc 2a28 a7bd e78c dbbd
00000170: 9fa3 0bbd 49fc e6bc 9d02 e73b 9d04 0abd
00000180: 07f2 4f3d 753d 00be 6abb 0e3d 334b 02bd
00000190: 85c6 a83d a833 8fbc 0934 883d 5b8a eabd
000001a0: 8a90 553d 599c 343d 9cb4 20bc 8d24 3bbd
000001b0: 879a c13a f960 b1bd 318d 1e3e c06f e7bc
000001c0: cf11 a5bd a650 0bbd d9df 833d a445 2abd
000001d0: b82a aa3d 2fd5 17be 2959 b03d 103a 463d
000001e0: 5e3c 2cbd 0219 53bc dca0 4abd c50a a3bc
000001f0: f91b 993d f739 213e 63df 5abd 5131 eebc
00000200: cfa7 cabd 34d4 edbd e6a8 f2bc ea23 7a3d
00000210: ccfb 1bbd 9e88 b53c 94be 54bb 3b3d a6bd
00000220: 6c22 ae3d 37db 063d 443a e23b 3f7e aa3d
00000230: b4f4 683e d845 95bd 3b54 ae3d b9eb e8bc
00000240: 3492 e7bc c480 153e 68d0 d53d 1e70 403d
00000250: aa3e d73d 0d4e 953d b224 69bc e023 533c
00000260: a7b7 83bc e0ad 253b 8e58 80bd 5bf4 f8bd
00000270: 2125 513d 3704 023e b10e 27bb 75ff 803d
00000280: 1bb2 1b3d 60b5 c7bd e7fb d33d f606 27be
00000290: 2d8e 473d 7311 af3d 92f6 1b3e 35cd 54be
000002a0: af07 1d3d 0736 4e3e afe5 8a3d 4699 0e3d
000002b0: 0d45 01bd ca4e d03d 278f ccbd 223d 95bd
000002c0: 25d4 973d c025 9abd deef d8bc bc0d a9bd
000002d0: 9432 983d e2cf 40be 5a52 963d a3bf a0bd
000002e0: 40e4 adbd eb91 253e 3cb8 4abd b5fa f83c
000002f0: 28fc e8bd 5a7f 393d 3c2f 86ba dd75 dbbd
00000300: 916c 463d 0694 d83d 6dc8 243d b9ce 5fbd
00000310: 70d5 adbd da56 683d 0ec2 23bd 4175 913d
00000320: 51a8 523d 9efd d4bd 5a23 ad3d 0d5b 0cbe
00000330: 2935 d7bc ef27 27be 65c0 4b3d a611 23be
00000340: a21a 833d e883 d23d f23b 87bc b253 7fbd
00000350: d62d 4d3b 9212 0bbc 29f3 82bd f91d 5e3e
00000360: a28b 98bd 9da1 4bbd 801f 5fbd fa25 383e
00000370: b7f4 9e3c 815a 86bd 0e65 c1bc 515f 86bc
00000380: 7c0a c2bb 27d4 363e abf3 10be b5c6 903d
00000390: 4047 d0bd f14e d7bc 8db8 9cbd 9bd7 4c3d
000003a0: eb61 a43b ed36 7f3d 5a86 b83c 5834 49bd
000003b0: d873 213d cb8f c03d 06c6 07be 6d83 ac3d
000003c0: e280 133d 1ea1 073c 9543 5bbd b573 80bd
000003d0: f52d 00be 7853 083e 2200 7f3d b3b5 aabd
000003e0: 6f91 033e acde a8bd 6822 a2bb 7c9d bfbb
000003f0: e0b7 0b3c 2b74 e1bd 8fd2 a4bc 1706 96bd
0.10634864 0.1110118 -0.03420418 -0.05257343 0.059485957 0.0072132507 0.023023611 -0.059874814
0.047375016 0.084073484 0.123319425 -0.14181042 -0.21182682 -0.060653754 -0.017858945 -0.026744535
0.014431442 -0.020007916 0.058209635 -0.08116933 -0.10363749 0.082433484 0.033373088 0.10102132
0.06444785 0.085257106 0.034457527 0.11280624 -0.15155771 -0.1276679 0.14636742 0.0109016225
-0.0015354567 0.010420398 0.019893287 0.15067317 0.06905954 -0.0438524 -0.16100276 0.23377942
0.04538596 -0.20312278 0.023300098 -0.084725514 -0.047572814 -0.0006427348 -0.043650355 0.12603211
-0.059626438 -0.019512748 0.08656099 2.4549663e-05 -0.043544624 0.17723273 -0.054405436 -0.009034254
-0.029954674 -0.13190205 -0.07154789 0.0153251225 0.07910481 -0.026056817 -0.056812618 0.18032494
-0.025851367 -0.08108904 -0.048423916 -0.046485648 -0.037060563 0.037533663 -0.044133395 0.055605423
0.073991604 -0.04111129 0.038654696 0.112955965 -0.049255244 0.17256904 0.073581465 0.056740284
-0.11432974 -0.12494864 0.03949374 0.058569334 -0.060104378 -0.084119864 0.024208568 -0.17255893
-0.020510895 -0.013767846 -0.081619576 -0.10720234 -0.034091588 -0.02819647 0.007049872 -0.033695806
0.050767925 -0.12523444 0.0348467 -0.031809997 0.082409896 -0.017480686 0.0665055 -0.114521705
0.052139796 0.044094417 -0.009808686 -0.045689154 0.0014770784 -0.08661074 0.15483548 -0.028251529
-0.08060037 -0.03401246 0.0643918 -0.04157032 0.08308929 -0.14827417 0.08610756 0.048395216
-0.042049758 -0.01288438 -0.049469814 -0.019902596 0.074760385 0.15744768 -0.053435694 -0.02907625
-0.09895288 -0.1161274 -0.029621553 0.061069407 -0.03808193 0.02215987 -0.0032462226 -0.081171475
0.08502659 0.032923903 0.0069039185 0.08324861 0.22749597 -0.07288712 0.085121594 -0.028432714
-0.028267957 0.14599901 0.10440141 0.046981923 0.10509999 0.07290278 -0.01422994 0.012886971
-0.016078783 0.002528064 -0.062668905 -0.12155982 0.0510608 0.1269692 -0.0025490934 0.062987246
0.03801165 -0.097513914 0.10350781 -0.16311249 0.048719574 0.0854825 0.15230778 -0.20781405
0.038337406 0.20137797 0.0678209 0.03481414 -0.031559993 0.10171278 -0.09988242 -0.07287051
0.0741351 -0.075267315 -0.026481565 -0.08254573 0.07431522 -0.18829301 0.07339926 -0.07849052
-0.08490801 0.16168945 -0.049492106 0.030392984 -0.1137622 0.045287468 -0.0010237466 -0.1071584
0.04844338 0.10575108 0.040230203 -0.054640505 -0.084879756 0.056723453 -0.039979987 0.071024425
0.05143005 -0.10399936 0.084540084 -0.13706608 -0.026270466 -0.16323827 0.04974403 -0.15924701
0.06401564 0.10279065 -0.016508076 -0.062335677 0.0031307838 -0.008488314 -0.06394035 0.21691121
-0.07448508 -0.049714673 -0.0544734 0.17983237 0.019403799 -0.06560231 -0.023607757 -0.016402872
-0.00592166 0.17854367 -0.14155452 0.0706915 -0.1016984 -0.02628276 -0.07652388 0.050010305
0.0050165555 0.06230824 0.022525001 -0.049122185 0.039417118 0.09402426 -0.13259134 0.08423505
0.036011584 0.008278159 -0.053531248 -0.06272069 -0.12517531 0.13313091 0.062255986 -0.083354376
0.12848447 -0.08245596 -0.004947949 -0.005847631 0.008527726 -0.110084854 -0.020119933 -0.0732538

bias f4 [2]
00000000: c255 893c 8f3f b8bd
0.016764525 -0.08996498
