graph2vec_optimization/model/40_mlp_graph2vec_opt_4.pt (torch_old, 382907 bytes, 6 tensors)

weight f4 [128, 600]
0	0x3ca4cb43	0.020116454
1	0x3cbdfbd8	0.023191378
2	0x3d19cac3	0.037546884
3	0x3babf00e	0.0052471226
4	0xbc41a09d	-0.011818078
5	0xbcfe07c4	-0.031009562
6	0xbc2e2876	-0.010629764
7	0x3b74f913	0.0037379905
8	0x3cebea56	0.028798264
9	0x3a167575	0.00057395484
10	0xbbd10e32	-0.006379866
11	0xbc111f8a	-0.008857617
12	0xbd0caa31	-0.034341995
13	0x3cd129f4	0.0255327
14	0x3d22a776	0.039710484
15	0x3d0e1c09	0.034694705
16	0xbcdf23e1	-0.027238788
17	0xbd137d43	-0.03600813
18	0x3b2eee1e	0.0026692222
19	0x3c9f6f58	0.019462273
20	0xbc4c2183	-0.012459162
21	0x3c5a8a42	0.013338627
22	0xbd22295d	-0.03959023
23	0xbd0f1175	-0.034928758
24	0xbc98a58f	-0.018633632
25	0xbc2f60b9	-0.010704213
26	0xbce54eb0	-0.027991623
27	0xbb3c5a9d	-0.0028740533
28	0x3d064f51	0.032790486
29	0x3d170538	0.03687021
30	0xbb88ad51	-0.0041710516
31	0x3ab5ec3d	0.0013879609
32	0xbc5f7faf	-0.013641282
33	0x3c4c0787	0.0124529665
34	0xbc9d9562	-0.01923627
35	0x3cf2c60e	0.029635455
36	0xbce7cb4c	-0.028295182
37	0x3d215b0d	0.039393473
38	0xbc948b29	-0.018132763
39	0x3b242649	0.0025047234
40	0x3cb9e492	0.022691999
41	0xbc6b39b2	-0.014357017
42	0x3ca9776c	0.020686828
43	0x3b524c4a	0.003208893
44	0xbbfe9cde	-0.007770165
45	0x3d110eba	0.035414435
46	0x39afabeb	0.0003350669
47	0x3ce212f1	0.027596923
48	0xbd0040e1	-0.031311873
49	0xbd1e3a6d	-0.038629938
50	0x3cb5f4af	0.0222114
51	0x3b2b3426	0.0026123612
52	0x3a870ef5	0.001030414
53	0x3c285435	0.010273983
54	0xbc618084	-0.013763551
55	0xbd183f21	-0.03716958
56	0xbc49843e	-0.012299595
57	0xbc9f8eb6	-0.01947723
58	0xbd23700b	-0.039901774
59	0xbba74818	-0.00510503
60	0x3d04a9de	0.03238856
61	0xbd0baf3c	-0.034102663
62	0x3d10d2f0	0.035357416
63	0x3d26b6c9	0.04070166
64	0x3ca029b3	0.019551134
65	0xbbfaf6de	-0.0076588234
66	0xbc5fd96e	-0.013662679
67	0x3c66e7f2	0.014093386
68	0xbcea8e53	-0.028632319
69	0xbca8fac6	-0.02062739
70	0xbcc88bcc	-0.024480723
71	0xbc9ac913	-0.018894708
72	0x3d093fd8	0.03350815
73	0x3d214425	0.03937163
74	0xbd124e29	-0.03571907
75	0xbc6a990b	-0.014318715
76	0x3cbc41b9	0.022980558
77	0x3cbfe010	0.023422271
78	0xbcb0f502	-0.021601204
79	0x3d1fe052	0.039032288
80	0x3d117373	0.03551049
81	0x3c7e944b	0.0155382855
82	0xbcd28042	-0.025695924
83	0x3cddfb3c	0.027097337
84	0x3c401c40	0.011725485
85	0x39d037f1	0.0003971453
86	0x3caa728d	0.020806575
87	0x3d01f590	0.031728327
88	0x3ba58dde	0.0050523123
89	0xbc70de19	-0.01470139
90	0xbc73362d	-0.0148444595
91	0xbbaab4f2	-0.0052095586
92	0xbc112fcd	-0.008861494
93	0x3bc1fce9	0.005920042
94	0x3d0bf076	0.03416487
95	0xbb037a85	-0.002006204
96	0xbcfdb062	-0.030967895
97	0xb9ab10d4	-0.000326282
98	0x3cf52705	0.029925833
99	0x3ca5a800	0.02022171
100	0xbcba88a5	-0.022770235
101	0x3c230138	0.009949021
102	0x3d17191b	0.036889177
103	0x3cc1ff63	0.023681348
104	0xbcc8bc63	-0.024503892
105	0x3c47fe8c	0.012206685
106	0x3c59b69a	0.0132881645
107	0xbc3b30d0	-0.011425212
108	0xbb3da7db	-0.002893916
109	0x3cc4ea90	0.02403763
110	0x3b557e18	0.0032576378
111	0xbc5277e0	-0.012845963
112	0x3d0ed169	0.034867678
113	0xbcdd5f1f	-0.027022896
114	0xbc9809e8	-0.018559411
115	0x3cbc853d	0.023012752
116	0xbc83c068	-0.016082957
117	0x3d20d8e8	0.039269358
118	0xbbfae1d4	-0.0076563153
119	0xba3a97bb	-0.00071179465
120	0xbb9d4ce4	-0.004800426
121	0xbc1de88c	-0.009637963
122	0x3c176c9d	0.009242204
123	0x3d0194d0	0.03163606
124	0x3d0ead30	0.034833133
125	0xbd0e5601	-0.03474999
126	0x3cf52525	0.029924938
127	0x3c97804c	0.018493794
128	0x3cf82913	0.030293023
129	0x3c2d5321	0.0105789015
130	0x3d06d302	0.032916076
131	0xbbe0688d	-0.006848401
132	0xbb23174e	-0.0024885717
133	0xbd1c7baa	-0.038203873
134	0x3cacc4d3	0.021089947
135	0xbc80f9b8	-0.015744075
136	0xbb9c3ad2	-0.004767754
137	0x3d21dd39	0.039517615
138	0x3c433f60	0.011916965
139	0xbd05ffcc	-0.03271465
140	0xbd0022fc	-0.031283364
141	0x38e7b42a	0.000110484965
142	0xbc91d0b5	-0.017799715
143	0x3d1d583d	0.03841423
144	0xbcddf296	-0.027093213
145	0x3c265ebf	0.010154425
146	0xbd200a5f	-0.03907239
147	0x3d187571	0.037221376
148	0x3bc9c929	0.0061580134
149	0xbcb3c8d7	-0.021946354
150	0x3cf8bc5f	0.03036326
151	0xbcfc99e6	-0.030835103
152	0x3c49aea2	0.012309702
153	0xbbacf6c8	-0.005278442
154	0xbb6f0ab9	-0.0036474897
155	0xbd20a9ea	-0.039224543
156	0x3c241583	0.010014894
157	0xbbdd2695	-0.006748984
158	0xbcd5d2ea	-0.026101548
159	0xbc6c6814	-0.014429111
160	0xbd0adea1	-0.03390372
161	0x3cf22bb8	0.029561862
162	0x3be8f2ff	0.0071090455
163	0x3d0ae7ad	0.03391235
164	0x3cf5a0f1	0.02998397
165	0x3b96ebbd	0.004605739
166	0xbd159882	-0.036522396
167	0xbb8d819e	-0.00431843
168	0x3cd125b2	0.02553067
169	0x3c9d0870	0.019169062
170	0xbccbde8b	-0.02488639
171	0x3d01e86d	0.0317158
172	0x3d20c61d	0.039251436
173	0x382718c2	3.983896e-05
174	0x3cffea0a	0.031239528
175	0xbce91f27	-0.028457237
176	0xbbf439fe	-0.0074532023
177	0x3cd1d02a	0.025611956
178	0xbc8e2c03	-0.01735497
179	0xbc0190ed	-0.007908088
180	0xbcc2b3fb	-0.023767462
181	0x3cf35efd	0.02970838
182	0x3b2b90f7	0.0026178935
183	0xbce67ee9	-0.028136687
184	0xbd0b2277	-0.033968415
185	0xbc6e184d	-0.014532161
186	0x3d056423	0.0325662
187	0x3c18eff8	0.009334557
188	0xbc3022fc	-0.010750528
189	0xbcfd2a29	-0.030903893
190	0xbc0e6769	-0.008691647
191	0xbd021379	-0.03175685
192	0x3b38f22d	0.002822052
193	0x3c04b014	0.008098621
194	0x3ca957da	0.020671774
195	0xbc3e8d1d	-0.011630324
196	0xbbab8755	-0.0052346387
197	0xbbbfa715	-0.005848775
198	0xbc9cbe7a	-0.019133795
199	0x3b8b3a97	0.004248928
200	0xbcb4ec15	-0.022085229
201	0xbccd9f63	-0.025100416
202	0xbb738cc2	-0.0037162756
203	0x3d0a300e	0.033737235
204	0xbd0555b8	-0.03255245
205	0xbc922397	-0.017839236
206	0x3cb60f4e	0.022224095
207	0x3bf906e1	0.007599697
208	0xbd04ef04	-0.032454506
209	0x3c26fee0	0.010192603
210	0x3d03887d	0.032112587
211	0x3d26f3bd	0.04075979
212	0x3c25784b	0.010099481
213	0x3c8385a9	0.016054945
214	0xbbb5376c	-0.0055302884
215	0x3c108fd4	0.008823354
216	0xbbb305ae	-0.0054633236
217	0x3c8b03ef	0.01696965
218	0x3cf220c2	0.029556636
219	0xbcff77b0	-0.031185001
220	0xbc247c11	-0.010039345
221	0x3ba2080e	0.004944808
222	0xbba14d21	-0.0049225246
223	0xbc4f0c40	-0.012637198
224	0x3cdd92a9	0.027047472
225	0xbc28860b	-0.010285865
226	0x3cc4cc81	0.024023296
227	0xbd048d1a	-0.032361127
228	0x3c78d642	0.015187802
229	0x3b8521a5	0.0040628486
230	0xbd27fd88	-0.04101327
231	0x3c8e2e85	0.017356167
232	0xbc0b02df	-0.008484571
233	0xbc4ebc0a	-0.012618074
234	0x3ccc863c	0.024966352
235	0x3d10d7e9	0.035362158
236	0x3b0fdcee	0.0021951753
237	0x3cf1ccf2	0.02951667
238	0xbc000a4f	-0.007814958
239	0x3c5e2e94	0.01356091
240	0xbd16d61d	-0.036825288
241	0xbc832758	-0.016009971
242	0x3be5151c	0.006991042
243	0x3cf1b2eb	0.02950426
244	0xbb0ed7be	-0.0021796073
245	0xbcfec61f	-0.03110033
246	0xbb83c52f	-0.004021309
247	0x3cae59b6	0.021283012
248	0x3cc992f6	0.02460621
249	0xbd178a27	-0.036996987
250	0x3c7b1505	0.015324836
251	0xbcac79c3	-0.021054154
252	0x3cf66689	0.03007819
253	0x3cd83e45	0.02639688
254	0xbb33c740	-0.0027431995
255	0xbc29e050	-0.010368422

bias f4 [128]
0	0xba283aad	-0.0006417435
1	0x3c42d6a8	0.011891998
2	0x3d12934d	0.03578501
3	0xbb540758	-0.003235301
4	0x3ce5d8fa	0.028057564
5	0xbbc9d92f	-0.0061599235
6	0x3c66db20	0.014090329
7	0xbd228f43	-0.039687406
8	0x3d241630	0.040060222
9	0xbcda0d96	-0.026617806
10	0xbc816610	-0.015795738
11	0x3c72ab0c	0.014811289
12	0xbbb9782f	-0.005660079
13	0xbc211521	-0.009831698
14	0x3c8e75b3	0.017390108
15	0x3ca82e93	0.02053002
16	0xbd123a82	-0.03570033
17	0x3ca37c1c	0.01995664
18	0x39c6aa2e	0.00037892297
19	0xbc057ef1	-0.008147941
20	0xbcc4bd65	-0.024016092
21	0x3be6ed40	0.0070473254
22	0xbd08ef53	-0.033431362
23	0x3b045710	0.0020193495
24	0xbd1909b0	-0.037362754
25	0xbd1bdd68	-0.038052946
26	0xbba6a54b	-0.0050856224
27	0xbb2704c8	-0.0025485028
28	0x3cdf7d92	0.027281556
29	0x3b9b3c98	0.004737448
30	0xbcc5c895	-0.024143497
31	0x3d04652e	0.032323055
32	0x3cbbb057	0.022911234
33	0x3cc68f32	0.024238203
34	0xbca072e2	-0.01958603
35	0x3cf96dcc	0.030447863
36	0x3d226c21	0.0396539
37	0xbba058b1	-0.0048933853
38	0xbccc1cfa	-0.02491616
39	0xbc84182a	-0.016124804
40	0x3cef6730	0.029224008
41	0xbb82d7fa	-0.0039930316
42	0x3c791672	0.015203105
43	0xbbe9e2c3	-0.007137628
44	0x3ca6fac4	0.020383246
45	0x3d1ae040	0.037811518
46	0xb9e64e3f	-0.00043927316
47	0x3cdc9cf1	0.026930304
48	0x3d3fc1a3	0.046815526
49	0x3b8b8cad	0.004258713
50	0x3c4fc65e	0.012681572
51	0xbc1a3693	-0.009412426
52	0xbce669b4	-0.028126575
53	0x3d18898b	0.037240546
54	0x3cf3c7fa	0.029758442
55	0xbce5c741	-0.028049113
56	0x3cae6372	0.021287654
57	0x3d1fd435	0.039020736
58	0x3bd23c04	0.006415846
59	0xbc328ec7	-0.010898299
60	0xbd14fd84	-0.036374584
61	0x3cbfe1b5	0.023423055
62	0x3c49bd2d	0.012313169
63	0xbc1c3365	-0.009533738
64	0xbcf3e631	-0.02977285
65	0xbcbfc44f	-0.023409037
66	0x3b3f527f	0.0029193459
67	0xbd09dae4	-0.033656016
68	0x3cccc391	0.024995597
69	0x3cc34c58	0.023840114
70	0x3c278dc9	0.010226675
71	0x3ae8689d	0.0017731372
72	0x3c7cb66a	0.01542435
73	0xbb90c722	-0.0044182697
74	0x3d16c7ab	0.036811512
75	0xbcce196c	-0.025158606
76	0xbd113a9d	-0.03545629
77	0x3bad9c7f	0.005298197
78	0xbc5b2951	-0.01337655
79	0xbc515de7	-0.012778736
80	0xbd1cb833	-0.038261604
81	0x3d11b781	0.035575394
82	0xbc9165f4	-0.01774881
83	0x3ce86c25	0.02837188
84	0x3c8d2699	0.017230319
85	0x3caaf194	0.020867147
86	0x3bd6e8a1	0.0065584932
87	0x3ba2111b	0.004945887
88	0x3ca6ce2e	0.020361986
89	0x3d02c009	0.03192142
90	0xbc816bef	-0.015798537
91	0x3cd867ac	0.026416622
92	0xbcfae289	-0.030625599
93	0x3d0bf08e	0.034164958
94	0xbae98ef1	-0.0017819089
95	0xbcd8d142	-0.02646697
96	0x3d230718	0.039801687
97	0x3c8060b2	0.015671108
98	0x3cde0b63	0.027105039
99	0xbd236073	-0.039886903
100	0xbc6c4710	-0.0144212395
101	0xbd0e5d4d	-0.034756947
102	0xbbadd04a	-0.005304371
103	0x3d257a87	0.040400054
104	0x3cd8c6c7	0.026461972
105	0xbcaf359c	-0.021387868
106	0xbc545bbc	-0.012961324
107	0xbcfc0f08	-0.030768886
108	0x3d0fc9f4	0.035104707
109	0xbc8a6fe2	-0.016899053
110	0x3c056176	0.008140912
111	0x3cf80ba1	0.030278983
112	0x3d0065ae	0.03134697
113	0x3b5a583b	0.003331675
114	0xbcef903e	-0.029243585
115	0xbd14ffce	-0.036376767
116	0x3c7acc4e	0.015307499
117	0xbce1433c	-0.02749788
118	0x3d213e8c	0.03936629
119	0x3b93a4bb	0.0045057214
120	0x3cafaa3f	0.021443484
121	0xbb63552d	-0.003468822
122	0xbd17d0ac	-0.03706424
123	0x37b3d800	2.1439046e-05
124	0x3c05a676	0.008157363
125	0x3c890f2e	0.016730871
126	0x3cf10a3f	0.029423831
127	0xbc9e9cf7	-0.019361956

weight f4 [128, 128]
0	0xbd2a42ca	-0.0415676
1	0x3cdd3ded	0.027007068
2	0x3d214e31	0.03938121
3	0x3ce3cd02	0.027807716
4	0xbb845d39	-0.0040394333
5	0x3d79bd6e	0.06097167
6	0xbd2687b3	-0.040656757
7	0x3bff56bf	0.0077923234
8	0xbcb10987	-0.021610988
9	0x3d30aca3	0.04313339
10	0x3db6c612	0.08924498
11	0x3cb48d94	0.022040166
12	0x3d77fa38	0.06054136
13	0xbd1e3263	-0.03862227
14	0x3d926fd5	0.071502365
15	0xbd8bc2ca	-0.068242624
16	0x3dac319a	0.08407898
17	0x3d9f1abc	0.07768771
18	0x3d719f0a	0.058989562
19	0xbd969c0f	-0.073539846
20	0x3d7e94d3	0.06215365
21	0x3b045069	0.002018953
22	0xbd65a996	-0.056069933
23	0x38720ed5	5.771111e-05
24	0xbd93c912	-0.072160855
25	0xbd863e4f	-0.06554853
26	0x3da60f14	0.08108345
27	0x3cbfe7e9	0.023426013
28	0xbc2eaeda	-0.010661805
29	0x3db70414	0.08936325
30	0xbda5512d	-0.08072124
31	0xbdb46d27	-0.08809882
32	0xbd519df7	-0.051176038
33	0x3cd4f649	0.025996344
34	0x3d93c0b8	0.072144926
35	0x3d06a693	0.0328737
36	0xbd8f0763	-0.06983831
37	0xbd814f02	-0.06313898
38	0x3daa2af9	0.08308978
39	0x3c322271	0.010872469
40	0xbd5d36c2	-0.0540073
41	0xbd008eca	-0.031386174
42	0x3d32f8e6	0.0436944
43	0x3b9b4083	0.004737915
44	0xbd6950cf	-0.05696183
45	0x3c1b7974	0.009489406
46	0xbdb002a2	-0.08594252
47	0xba487b7d	-0.0007647796
48	0x3d9bbcf0	0.07604396
49	0xbdb6b1ac	-0.08920607
50	0x3d98f4d1	0.0746857
51	0xbda08081	-0.0783701
52	0x3d57121b	0.0525075
53	0x3da8b257	0.082371406
54	0xbcab1c90	-0.020887643
55	0xbd1539ff	-0.036432263
56	0x3dc6eb9f	0.0971291
57	0x3db15621	0.08659006
58	0xbd4d1493	-0.05006845
59	0xbd849bc4	-0.064750224
60	0x3be57eda	0.0070036473
61	0x3cb0f125	0.021599362
62	0x3c821aa0	0.015881836
63	0xbd8e4d9e	-0.06948398
64	0xbc5f51ee	-0.013630373
65	0x3bb41632	0.00549581
66	0xbbb25a07	-0.005442861
67	0x3da3cdf0	0.07998264
68	0xbd70e90f	-0.058816012
69	0x3d8f1d2d	0.06987987
70	0xbdbeff04	-0.09325984
71	0x3ce5ca34	0.02805052
72	0x3d881c10	0.066459775
73	0xbd579585	-0.052632827
74	0x3d103c68	0.035213858
75	0xbd73a9b1	-0.059488002
76	0xbd8a4f35	-0.06753389
77	0x3d787298	0.06065616
78	0xbdafccc3	-0.08583977
79	0xbd826f57	-0.06368893
80	0xbc35d898	-0.011099003
81	0x3cf7045b	0.030153444
82	0x3c3bc1b9	0.011459761
83	0xbd9930c6	-0.07480006
84	0x3d5def03	0.054183017
85	0xbcc3d8c1	-0.023907067
86	0x3d5f2128	0.05447498
87	0xbb61324b	-0.0034362252
88	0xba8abf00	-0.0010585487
89	0xbdb2e498	-0.08735007
90	0x3d94ff1f	0.07275223
91	0x3d84a17e	0.06476115
92	0x3d1b072c	0.037848637
93	0x3dbb59cf	0.09147989
94	0x3d5e0c03	0.054210674
95	0x3c3b6293	0.011437076
96	0x3da40cd1	0.08010257
97	0xbcd6666e	-0.02617189
98	0xbc173934	-0.009229947
99	0x3ddadd41	0.10686732
100	0xbcc49f5c	-0.02400177
101	0x3d9869da	0.074420646
102	0xbc00efc1	-0.007869662
103	0xbd44dfb9	-0.04806492
104	0xbd59173e	-0.05300068
105	0xbd6e798c	-0.058221385
106	0xbd2669eb	-0.040628355
107	0x3d37b7ea	0.04485313
108	0xbd8a4639	-0.06751675
109	0x3bab8565	0.0052344077
110	0xbd919cba	-0.07109971
111	0x3daa79a5	0.08323983
112	0x3d591b26	0.053004406
113	0x3baa8def	0.005204908
114	0x3d369362	0.04457415
115	0xbd08c0b2	-0.033386894
116	0x3d86dae0	0.06584716
117	0x3d9fd427	0.07804137
118	0xbcb50550	-0.02209726
119	0x3dadc31e	0.08484481
120	0x3d7edb5b	0.062220912
121	0xbdb60675	-0.0888795
122	0xbd3b5abe	-0.045740835
123	0xbd1f6d16	-0.03892239
124	0xbd56cd09	-0.05244163
125	0xbda63fdd	-0.0811765
126	0xbd8d1171	-0.06888092
127	0x3d39e80d	0.045387316
128	0x3cbd9ba9	0.023145514
129	0x3d6933e0	0.056934237
130	0xbd8c0632	-0.06837119
131	0xbd35983c	-0.044334635
132	0x3b1242c5	0.002231763
133	0x3d5a2464	0.05325736
134	0xbd7f6526	-0.062352322
135	0x3c61a793	0.013772863
136	0xbd55ccc4	-0.052197233
137	0x3d0ff626	0.035146855
138	0xbdae97c7	-0.08525043
139	0x3cb9c154	0.022675194
140	0x3d6f619a	0.05844269
141	0xbd75e77e	-0.06003522
142	0xbc0efae9	-0.008726814
143	0x3d2a16ce	0.041525654
144	0xbd1aaf32	-0.037764736
145	0x3d4a3ae5	0.049372572
146	0xbaefe7ec	-0.0018303371
147	0x3c0e73d1	0.008694605
148	0xbd959605	-0.073040046
149	0xbc86b13d	-0.016441936
150	0x3daf24d6	0.08551948
151	0x3d55d6a4	0.05220665
152	0x3d9fd101	0.07803536
153	0xbd91f644	-0.071270496
154	0x3d7671be	0.060167067
155	0x3ccbaa57	0.024861498
156	0xbd8945ca	-0.06702764
157	0xbd9622df	-0.0733087
158	0xbc7b4a16	-0.015337488
159	0xbb242b60	-0.0025050268
160	0x3d3ddac6	0.046351217
161	0x3d93ed07	0.07222944
162	0x3db3a15e	0.08771013
163	0xbda60b79	-0.08107657
164	0xbcccd724	-0.02500493
165	0x3d0122aa	0.0315272
166	0x3cb255e9	0.02176948
167	0x3d2d6de7	0.04234114
168	0xbd66696c	-0.056252882
169	0xbda983ca	-0.0827709
170	0xbd8f5048	-0.06997734
171	0xbdaae92f	-0.083452575
172	0x3c94dbef	0.018171279
173	0x3cc91286	0.024544965
174	0xbcfc6f53	-0.030814802
175	0xbc1dab50	-0.009623364
176	0xbc8ce1c0	-0.01719749
177	0xbd1cc6f5	-0.038275678
178	0x3ba1759c	0.00492735
179	0xbdabaf10	-0.08383
180	0x3d826289	0.0636645
181	0xbb38c8b1	-0.0028195793
182	0xbd48b38b	-0.04899935
183	0x3cd3dd97	0.025862498
184	0x3d3c795e	0.046014182
185	0x3c16a190	0.009193793
186	0xbc5ab189	-0.013347992
187	0xbc55acad	-0.013041657
188	0xbca6afe0	-0.020347536
189	0xbd93180f	-0.07182323
190	0x3d616604	0.05502893
191	0x3da6c9f6	0.0814399
192	0x3da0e1b5	0.0785555
193	0xbcd468f2	-0.025928948
194	0xbbfc30ab	-0.0076962314
195	0x3d415452	0.047199555
196	0xbcb45de9	-0.022017436
197	0xbda6de67	-0.08147889
198	0x3d6ebfe6	0.058288477
199	0x3ba43d2c	0.005012175
200	0xbd997047	-0.07492118
201	0xbc545e35	-0.012961914
202	0xbcdabcce	-0.026701357
203	0xbdaa9961	-0.08330036
204	0xbd4bf82b	-0.04979722
205	0x3cfefb12	0.031125579
206	0x3db5bb6b	0.08873638
207	0x3c930a1a	0.017949153
208	0xbd4c99dd	-0.049951423
209	0x3c061a32	0.008184956
210	0xbd4ea6c4	-0.05045201
211	0xbd8ea795	-0.069655575
212	0x3d0bc269	0.03412095
213	0xbd68b6e0	-0.05681503
214	0xbcdb05d5	-0.02673618
215	0xbd8977b0	-0.06712282
216	0xbd361795	-0.044456083
217	0xbbe4fffd	-0.006988524
218	0x3d546fb6	0.05186435
219	0x3bc5614a	0.0060235607
220	0x3bb9bdd5	0.0056683817
221	0x3d041a2a	0.032251514
222	0x3d9b5fa7	0.075866036
223	0xbc626354	-0.013817627
224	0x3d209265	0.039202113
225	0x3da0e907	0.078569464
226	0xba92c8e9	-0.0011198792
227	0xbd81789f	-0.06321835
228	0x3d44bd43	0.048032057
229	0x3d6ceb84	0.057841793
230	0x3d98d094	0.07461658
231	0xbb9f918b	-0.004869645
232	0xbcfaa308	-0.030595317
233	0x3d81d415	0.063392796
234	0xbd2e6345	-0.04257514
235	0x3da72108	0.08160597
236	0xbc9d63ea	-0.019212682
237	0x3d29fb16	0.04149922
238	0xbd690359	-0.05688796
239	0x3d8b314d	0.06796513
240	0x3d17c94b	0.037057202
241	0x3c8a5134	0.016884424
242	0x3da0b58d	0.07847128
243	0x3d3d0613	0.04614837
244	0x3cd10498	0.025514886
245	0xbcf2e37c	-0.029649489
246	0x3d9166f6	0.07099716
247	0x3d9a67e9	0.075393505
248	0x3daed8e1	0.0853746
249	0xbccfe666	-0.025378417
250	0x3bec87c0	0.007218331
251	0xbd91467f	-0.07093524
252	0xbd7f2547	-0.06229141
253	0xbd632e8f	-0.055464324
254	0x3d80fe79	0.06298537
255	0xbce6fbc2	-0.02819622

bias f4 [128]
0	0x3d682884	0.056679264
1	0x3d887393	0.06662669
2	0x3d95fceb	0.07323631
3	0x3dc1e870	0.09468162
4	0x3caff910	0.021481067
5	0xbcd8328f	-0.026391296
6	0xbd7f7b1a	-0.06237326
7	0x3ba6ffe7	0.005096424
8	0x3cdf55ac	0.027262531
9	0xbd91ef59	-0.0712573
10	0xbd8f9398	-0.07010573
11	0xbc8344df	-0.016024051
12	0xbca70cf9	-0.020391928
13	0xbd225415	-0.039630968
14	0xbbb0e392	-0.0053982222
15	0x3c5de40b	0.013543139
16	0x3d514317	0.051089372
17	0xbb8b7b94	-0.004256675
18	0xbdabfdd7	-0.083980255
19	0x3c0c47ff	0.008562087
20	0x3c801338	0.015634164
21	0x3d94573b	0.072432004
22	0x3d956fca	0.07296713
23	0x3d0cac3b	0.03434394
24	0xbc283835	-0.010267307
25	0x3c34d597	0.011037252
26	0xbd69d6a8	-0.057089478
27	0xbd3868db	-0.045021873
28	0x3d477f7e	0.04870557
29	0xbd096c0b	-0.033550303
30	0xbdc7abd3	-0.0974957
31	0x3dc3ec4a	0.09566553
32	0x3da9375b	0.08262511
33	0x3cbcdf92	0.023055825
34	0xbd31a832	-0.043373294
35	0xbc51f4b9	-0.012814694
36	0x3cf3e1a6	0.029770683
37	0xbd9a6557	-0.0753886
38	0xbd655f1b	-0.055998903
39	0xbdacfa5f	-0.08446192
40	0x3d553758	0.052054733
41	0x3d99e636	0.075146124
42	0xbdaeb275	-0.08530132
43	0xbcb16c94	-0.02165822
44	0xbd87efdc	-0.066375464
45	0x3d42fca7	0.04760423
46	0x3d8c5be2	0.06853463
47	0xbd7a7974	-0.061150983
48	0x3caa2838	0.02077113
49	0xbd01c2d3	-0.03167994
50	0x3690fa45	4.3206696e-06
51	0x3c37cab2	0.01121776
52	0xbbe881cc	-0.007095551
53	0x3d9c806c	0.07641682
54	0x3c978a72	0.018498633
55	0x3c0262b1	0.0079581
56	0x3d865299	0.06558723
57	0x3d19e2cd	0.03756981
58	0x3c480d0e	0.012210144
59	0xbc70abc6	-0.0146893915
60	0x3d2e3bdd	0.04253756
61	0xbc5a52f0	-0.013325438
62	0x3d342f47	0.0439904
63	0xbd92a74d	-0.07160816
64	0x3d40a04f	0.047027882
65	0xbc92f878	-0.017940745
66	0x3d682acb	0.056681436
67	0xbdcbec15	-0.099571384
68	0x3d50c022	0.050964482
69	0x3d050cb5	0.03248282
70	0x3d76015f	0.0600599
71	0xbca41fb2	-0.020034645
72	0x3cc3f98c	0.023922704
73	0xbd1c1b26	-0.03811183
74	0xbd5caeee	-0.053877763
75	0xbd530cc2	-0.05152584
76	0xbc3fdfd5	-0.011711081
77	0xbcbb230d	-0.022843862
78	0xbb9344aa	-0.0044942694
79	0xbb5d39b2	-0.0033756313
80	0xbc7c754f	-0.015408828
81	0x3d97e139	0.07416005
82	0xbb889c18	-0.0041689985
83	0x3ce49101	0.027901175
84	0x3cc35547	0.023844374
85	0xbd5b9b1b	-0.053614717
86	0xbd2563a2	-0.04037822
87	0x3d1e0b92	0.038585253
88	0xbd2b6d0f	-0.041852053
89	0x3c5b6693	0.013391155
90	0xbdc42cb0	-0.09578836
91	0x3d8aa532	0.0676979
92	0xbd4c0c04	-0.049816146
93	0xbcd3d799	-0.02585964
94	0xbd382f91	-0.044967238
95	0xbda5023a	-0.08057065
96	0x3c90be5f	0.017668901
97	0x3d50427f	0.050844666
98	0xbc3f71c6	-0.011684841
99	0x3d271170	0.040788114
100	0x3d9018c5	0.070359744
101	0xbd711e85	-0.058866996
102	0xbda84ced	-0.082177974
103	0xbd0efca4	-0.034908906
104	0xbd8a4415	-0.06751267
105	0xbd9cf88f	-0.07664596
106	0x3d8d8b3a	0.06911321
107	0x3ce6ac0f	0.028158216
108	0x3d45e619	0.04831514
109	0x3c04c0eb	0.008102636
110	0x3d111248	0.035417825
111	0xbce9669e	-0.028491315
112	0x3d935e16	0.0719568
113	0x3d5ce74e	0.053931527
114	0x3daf6ae2	0.08565308
115	0xbd322f88	-0.04350236
116	0x3d8bb32e	0.06821285
117	0xbd9dedcc	-0.07711372
118	0x3d09cb72	0.033641286
119	0xbc8aa91f	-0.016926346
120	0xbd488f9d	-0.048965085
121	0xbd1758d1	-0.036949936
122	0x3d05ac23	0.032634865
123	0xbd88ee17	-0.06686037
124	0x3d174ef0	0.036940515
125	0xbd3cf634	-0.046133235
126	0x3d848b56	0.06471889
127	0x3cdaa3a3	0.026689356

weight f4 [2, 128]
0	0xbde7f684	-0.11326316
1	0xbd1c2088	-0.03811696
2	0x3dc1c65e	0.09461664
3	0x3e1f2667	0.15541993
4	0xbd144d64	-0.036206618
5	0x3cd81330	0.026376337
6	0xbd705792	-0.058677264
7	0xbcacda42	-0.021100167
8	0xbe11d9e4	-0.14243275
9	0xbcf1797e	-0.029476877
10	0xbe199693	-0.14998846
11	0x3d8fbab7	0.07018035
12	0xbd5bd1a6	-0.053666733
13	0xbe1c0b70	-0.15238738
14	0xbd7fdfa8	-0.062469155
15	0x3cb03325	0.021508763
16	0x3d094b83	0.03351928
17	0xbd89a556	-0.067209885
18	0xbd83793c	-0.06419608
19	0x3d91119a	0.07083435
20	0x3d7afd32	0.061276622
21	0xbd49c84a	-0.049263276
22	0x3cce4f64	0.02518434
23	0x3dd50f92	0.104033604
24	0xbdc49a06	-0.0959969
25	0x3e394cd1	0.1809571
26	0x3d445979	0.04793689
27	0x3d8f99d1	0.0701176
28	0x3d2043d3	0.039127182
29	0x3da5d89b	0.08097955
30	0xbe3a8ed3	-0.18218546
31	0x3e644779	0.2229289
32	0xbd17cce6	-0.03706064
33	0xbc0c2004	-0.008552555
34	0x3c10c8b5	0.008836915
35	0xbd1f5b2c	-0.038905308
36	0xbe456cf8	-0.1927985
37	0x3cac92fb	0.02106618
38	0x3d8c5807	0.068527274
39	0x3d1f274d	0.03885584
40	0x3df244ab	0.118295036
41	0xbd1f4f2e	-0.03889387
42	0xbcce95d9	-0.025217937
43	0x3db431e3	0.08798578
44	0x3cf65a8b	0.030072471
45	0xbd9e0827	-0.07716399
46	0x3e22f497	0.15913616
47	0xbd8418aa	-0.06450017
48	0xbac4fbe1	-0.0015028679
49	0x3e644618	0.22292364
50	0xbd5f9ff0	-0.054595888
51	0xbb65fff1	-0.003509518
52	0x3ca3257a	0.019915331
53	0xbd34cd0c	-0.04414086
54	0xbdd31370	-0.10306442
55	0xbcd8f49a	-0.026483823
56	0x3d79b039	0.060959075
57	0x3db887ba	0.09010263
58	0xbc436934	-0.011926938
59	0xbd3eb87f	-0.046562668
60	0x3e3e2e72	0.18572405
61	0xbd970a1c	-0.07374975
62	0xbdc80654	-0.09766832
63	0x3d8ebe45	0.06969885
64	0x3d1cf7d2	0.038322277
65	0x3cde0c3a	0.02710544
66	0x3d21b7c1	0.039481882
67	0xbdd7c801	-0.105361946
68	0x3d5867b6	0.05283328
69	0xbdbf54b0	-0.09342325
70	0x3d868a48	0.06569344
71	0xbc244cb4	-0.010028053
72	0xbd54cbb3	-0.051952075
73	0x3c1557dd	0.0091151865
74	0xbdffdc08	-0.124931395
75	0x3abb60e7	0.0014295847
76	0xbdd2c12e	-0.10290752
77	0x3cb023a9	0.02150138
78	0x3db0861d	0.0861933
79	0xbdda0f74	-0.10647479
80	0xbdcd8cf7	-0.100366525
81	0x3d0967f9	0.03354642
82	0xbd455613	-0.04817779
83	0x3d0d0663	0.03442992
84	0xbc837048	-0.01604475
85	0x3e2d176f	0.1690347
86	0xbda9dd64	-0.0829418
87	0x3c7a890a	0.015291462
88	0xbd2a8b7c	-0.04163693
89	0xbdad174c	-0.08451709
90	0xbd32fcbd	-0.04369806
91	0x3cdb1983	0.026745563
92	0x3e032751	0.12807967
93	0x3d76d9d3	0.060266327
94	0xbdc59326	-0.09647207
95	0x3d91d9ec	0.071216434
96	0x3dabc62f	0.0838741
97	0xbdabb50d	-0.08384142
98	0x3cbb5ad3	0.022870457
99	0x3d6e708a	0.058212794
100	0xbdf9183a	-0.12162824
101	0xbd808d89	-0.06276996
102	0xbd955e13	-0.07293334
103	0x3d5a5b26	0.053309582
104	0x3d99bfaa	0.0750726
105	0x3d9879c4	0.074451
106	0x3c4172ab	0.011807124
107	0xbbf51ca3	-0.0074802204
108	0x3c4ba990	0.012430564
109	0xbe1cc8e7	-0.15311013
110	0xbd65efd4	-0.05613692
111	0x3dd554ba	0.10416551
112	0xbd7b0ec9	-0.061293397
113	0x3df37366	0.11887245
114	0x3bfe299d	0.0077564255
115	0xbd54a01e	-0.051910512
116	0x3d99fc73	0.07518854
117	0x3d8f5986	0.06999497
118	0x3e2054df	0.15657376
119	0xbd4c8da0	-0.04993975
120	0x3e17a5a9	0.14809288
121	0xbd50bb01	-0.05095959
122	0xbb77031a	-0.0037691058
123	0xbe3d981d	-0.18515058
124	0xbc76f3bc	-0.015072759
125	0xbe465de0	-0.19371748
126	0x3e047218	0.12934148
127	0x3d96a6f0	0.073560596
128	0x3d739ce3	0.05947579
129	0xbd35cbcd	-0.044383813
130	0xbbee38da	-0.007269961
131	0xbdb45d97	-0.08806913
132	0x3d14dc5a	0.036342956
133	0xbdbebcb3	-0.09313335
134	0xbd913d9c	-0.07091829
135	0xbe0de77b	-0.13857834
136	0x3db3fe39	0.087887235
137	0x3da145c3	0.07874634
138	0x3d6a7acb	0.05724601
139	0xbd796205	-0.060884494
140	0xbd7a8738	-0.06116411
141	0x3e018562	0.12648538
142	0x3bd6a9e2	0.0065510133
143	0xbd780d7f	-0.060559746
144	0xbcf66c05	-0.030080805
145	0xbd6a0993	-0.057138037
146	0xbc5e8d59	-0.013583505
147	0x3ca74d92	0.02042273
148	0xbc59fec8	-0.0133053735
149	0x3d5e243e	0.054233782
150	0xbc299eb6	-0.010352781
151	0xbe00735e	-0.12544009
152	0x3d05ffc0	0.032714605
153	0xbe2e1f05	-0.1700402
154	0xbdc51e46	-0.09624915
155	0x3da8c0e1	0.08239914
156	0x3d5d7183	0.05406333
157	0x3d8cdd85	0.06878189
158	0x3e59611f	0.21228455
159	0xbe623626	-0.22090968
160	0x3c73ce88	0.014880784
161	0x3cd30938	0.025761232
162	0xbd8b0ba0	-0.06789327
163	0x3da15646	0.078777835
164	0x3e138fc4	0.14410311
165	0x3d93f62d	0.07224689
166	0x3cf529fc	0.029927246
167	0x3d51c915	0.051217157
168	0x3c6b3994	0.014356989
169	0x3d9402dc	0.07227108
170	0x3d5b5400	0.053546906
171	0x3d8fed39	0.070276685
172	0x3d9843c5	0.07434801
173	0x3da87c29	0.08226807
174	0xbddbf50c	-0.10740098
175	0x3d6515da	0.055929042
176	0x3c822c46	0.015890252
177	0xbe68b5ce	-0.22725603
178	0x3d82dd20	0.063898325
179	0x3d63e569	0.055638704
180	0x3dd1711f	0.10226654
181	0x3adee8b9	0.0017006613
182	0x3c2bbaeb	0.010481576
183	0xbdb66648	-0.08906227
184	0xbd699ccc	-0.0570343
185	0xbcc6ec65	-0.024282644
186	0x3de64cfc	0.11245152
187	0x3d8d4c03	0.06899264
188	0xbe4b1bef	-0.19834875
189	0x3cbd23db	0.023088386
190	0x3dadb095	0.08480946
191	0xbd90fe67	-0.070797734
192	0x3dbd8178	0.0925321
193	0xbd537cca	-0.05163268
194	0x3ce04b46	0.027379643
195	0x3e4aed84	0.19817168
196	0x3d77b68e	0.060476832
197	0x3e06bfea	0.13159147
198	0xbd62edf0	-0.055402696
199	0xbd02dd03	-0.031949054
200	0xbddb3b0c	-0.10704622
201	0xbd13c151	-0.036073033
202	0x3e035768	0.12826312
203	0x3e1659a3	0.14682631
204	0x3d022cd9	0.03178105
205	0xbce8f09f	-0.02843505
206	0xbcf39dbb	-0.029738298
207	0xbb7fb088	-0.0039015133
208	0x3c5b765c	0.013394918
209	0xbd6fae4d	-0.058515836
210	0x3d31c46c	0.043400213
211	0xbd2fb30f	-0.042895373
212	0x3c137ff7	0.009002677
213	0xbe41dd35	-0.1893204
214	0x3cbe942c	0.023264013
215	0xbde34e0c	-0.11098871
216	0xbd90c636	-0.07069056
217	0x3d01ea82	0.031717785
218	0x3e115edc	0.14196342
219	0x3d5b876e	0.053595953
220	0xbdce323a	-0.10068174
221	0xbd97e3da	-0.07416506
222	0x3db93ccc	0.09044799
223	0xbaa59162	-0.0012631828
224	0xbdd3ebf4	-0.10347739
225	0xbd5b34d4	-0.053517178
226	0xbb0668ee	-0.002050932
227	0x3c1ab586	0.009442693
228	0x3d2691f0	0.04066652
229	0xbd3fac8a	-0.046795405
230	0x3d2c3d93	0.04205091
231	0xbd0a5d08	-0.033780128
232	0xbce8d8a0	-0.028423607
233	0x3d98dbae	0.074637756
234	0xbd90cd18	-0.070703685
235	0x3d7e2a94	0.062052324
236	0xbdbfdb20	-0.09367967
237	0x3dbbfaff	0.09178733
238	0x3a2b8551	0.0006542998
239	0xbd863539	-0.0655312
240	0x3d4f5154	0.05061467
241	0xbe117c96	-0.14207682
242	0xbd1d6b44	-0.038432375
243	0xbb5842d7	-0.0032998824
244	0xbcc2f406	-0.023798
245	0xbd79e863	-0.061012637
246	0xbe0138f4	-0.12619382
247	0x3cf558be	0.029949542
248	0xbe12b06e	-0.14325115
249	0x3d94d32c	0.0726684
250	0x3d7eb022	0.062179692
251	0x3e0f8809	0.14016737
252	0xbc7699cf	-0.015051319
253	0x3dc70a25	0.09718732
254	0xbe0b2c96	-0.13591227
255	0x3c4f2219	0.012642407

bias f4 [2]
0	0x3e22cf7d	0.15899463
1	0xbe372572	-0.17885378
