graph2vec_optimization/model/40_mlp_graph2vec_opt_2.pt (torch_old, 382907 bytes, 6 tensors)

weight f4 [128, 600]
00000000: 5ab9 45ba 231d 4a3a 21b2 18bd c6f5 f339
00000010: 75c1 aabc 0424 05bd 3d05 7bbc 0e45 b336
00000020: c25f a9bb edce 93bc 6257 65bc 5d28 d7bc
00000030: 73e8 ebbc 0b4a c4bc d17b ffbc 29d3 c0bb
00000040: b809 8ebc fcb2 993c 51c4 2fbb d8d5 c33b
00000050: 0db7 fe3c 0a5d 1d3d 5fd0 aa3c f500 19bd
00000060: fb37 e0bc a77e 1bbd 70fe ecba 3189 273d
00000070: cf94 7b3c 3598 2f3c c721 a13b ab26 2e3d
00000080: 2967 c7bc 6b3b 2dbd 263e 0e3d 3a6a fbbc
00000090: 1734 e8bc d58e 083c 064b 89bb 584e a5bc
000000a0: 7fa4 cc3c 2422 49bc 5e4b 72bc aa8c 1a39
000000b0: 16a5 22bc 6748 d23c f58a a0bb c389 513c
000000c0: 0f29 15bd cb13 a3bc f734 243c d817 e13c
000000d0: d468 073d 375b b7bc ff4c a4bc 56e9 1abd
000000e0: 04e5 15bd ab83 aebc 7d01 b73b 5866 21bc
000000f0: 3e12 213d 7c3c cdbc 505f 78bc 8878 0d3d
00000100: 7945 143c 4419 27bc fdd5 1c3d bb05 c5bc
00000110: d88b ddbc e372 02bc 156e 98bc abc6 8d3c
00000120: 42b9 ff3c 75b5 f4bc 0965 85bc e957 c9bc
00000130: 520d 9b3c 4aee 98bc f142 e93c cb72 893c
00000140: 23a3 b6bc cdc9 803c 4541 e33b 43df 233d
00000150: 3dc0 473c 875f 16bc 3b6f 0f3d d406 0f3b
00000160: 1ccc c43c f27a 003c 38e5 ae3c 4e87 8fbc
00000170: 7618 c4bc 678c aebc 2d4b 84bc 8465 27bd
00000180: d339 05bd 7c3c 0c3c cc2f a7ba 3a4e 94bc
00000190: a5a7 02bd 6f99 013d 83a1 edbc 5b4e ab3b
000001a0: 20c1 e6bc 47c2 6ebc 3fd0 2c3c 2fe0 bcbb
000001b0: 94ca 1ebd 448f bd3c 755a ba3c 9b0d 19bc
000001c0: 06cb 813c 4aec 23bd 3431 3abc e6e8 babc
000001d0: 8122 103d a59d 10bd 0ecb 2c3c f204 f6bc
000001e0: 1900 e6bc f78d 2abd a462 b03b d5a5 04bd
000001f0: aee5 d03c c623 5abb 40f0 093d f3a3 71bc
00000200: 0f48 1f3c 675b 9fbc bc79 eaba 56a6 d63b
00000210: 9412 7ebc 8b93 233c 878e 7dbc 331b b4bb
00000220: e97b aebc 0c7b c63c 73e6 84bc 3c52 2e3c
00000230: 9f30 bbbc 8d76 1abd 46c7 c4bc 10af 4c3c
00000240: 5afb 153d 0858 503c 2f01 14bd 7ed8 133d
00000250: a9d2 51bc b26e 003d 99f9 2b3c 3242 283d
00000260: 11a0 f0bc 6726 b4bc 4c94 fabc b532 763c
00000270: 2bdc 383c 768b 2dbc 84d0 0e3d e85c 183d
00000280: 9f20 14bc dae8 dbbb 388f 05ba a299 993c
00000290: 80b0 6dbb f651 30bc e9d0 c1bc e616 fa3c
000002a0: 827c 8b3c a0c9 9cbc be1e 1abd 4cd1 e53b
000002b0: 20dc 82bc 4311 283d 2e65 01bd b88a 13bd
000002c0: 2d05 a7bb 8235 0e3d 1e9d cabc 114d 123d
000002d0: c62f d1bc 8869 debc 6cf1 5b3c 8a67 15bd
000002e0: 2484 ad3c a48d 0b3d d515 1bbd 38e6 02bd
000002f0: 4c0e ae3c d82a a13b d9f3 aa3c 6ec5 2c3c
00000300: 5037 19bc 0d45 db3c c7f5 203d 77b3 05bd
00000310: d7ac 073d 5220 3fbc 6971 f8bc d1b0 0e3d
00000320: df3c 603b 54c5 843b c149 743c 7e82 06bd
00000330: da1b 623c 56cc f5bc 656b b1bc 38eb d9bc
00000340: 55d9 67bb a0b9 d2bc 42da fd3b 157e 763c
00000350: 1e18 013d cdeb b03b 221b 2ebb 46f1 9bbc
00000360: bf3a bcbb f54c 933c 0b3c a8bc a6ab 83bc
00000370: bb4a b13b 1037 1dbc c472 afbc 3ebf a6bc
00000380: 406d e33c 85eb d2bc 1171 ebbb ba71 4b3c
00000390: 4968 36bc 9d1c 17bd f47a d03c 30ec 2b3c
000003a0: 15f8 d53c 0784 133d 6cfd 96bc 8c4a f83c
000003b0: eeb7 093d 7e38 1c3d c7c2 ec3c 4ed3 b6bc
000003c0: c61f 8c3b 173d 373b e95e 173c 074d 1dbd
000003d0: f0f3 33bc 0525 123d 502f 73bc f896 933c
000003e0: bf83 23bd fab8 e4bc e0cb 98bc ef4e 0e3d
000003f0: 81b8 8e3c 5eae ff3b d4cd e9bc d630 7cba
-0.0007542573 0.000771003 -0.037279252 0.00046531687 -0.0208442 -0.03250505 -0.015321073 5.3426547e-06
-0.005168886 -0.018043006 -0.0139978845 -0.026264364 -0.028797364 -0.023961088 -0.03118697 -0.0058845473
-0.017338619 0.018762104 -0.0026819895 0.00597642 0.031093145 0.038418807 0.020851312 -0.03735443
-0.027370444 -0.037962582 -0.0018081199 0.04090232 0.015355303 0.010717441 0.0049173567 0.042517345
-0.024341183 -0.042292994 0.034727238 -0.030690301 -0.02834515 0.008334835 -0.0041898517 -0.020178959
0.024980782 -0.012276206 -0.014788477 0.00014738986 -0.009927055 0.02566929 -0.0048993775 0.012789193
-0.03641611 -0.019906899 0.010022393 0.02747719 0.033058956 -0.022382362 -0.020056246 -0.037820183
-0.03659536 -0.021303019 0.005584894 -0.009851061 0.039324038 -0.025053255 -0.015159443 0.034538776
0.009049767 -0.010198895 0.038290013 -0.024050584 -0.027044222 -0.007961961 -0.018607179 0.017306646
0.031216267 -0.029871682 -0.016283529 -0.024578052 0.01892725 -0.018668313 0.028474303 0.01677837
-0.022294587 0.015721226 0.006935271 0.04000784 0.012191829 -0.009178049 0.035018187 0.0021824138
0.024023108 0.007841812 0.021349534 -0.017520573 -0.023937445 -0.021307183 -0.016149128 -0.040868297
-0.03252585 0.0085593425 -0.0012755333 -0.018103708 -0.03189816 0.031640466 -0.029007679 0.0052278466
-0.028168261 -0.0145726865 0.010547697 -0.0057640295 -0.038767412 0.023139603 0.022748211 -0.009341623
0.01584388 -0.040020265 -0.01136427 -0.022816133 0.035189155 -0.03530659 0.010546459 -0.030031655
-0.028076218 -0.041639294 0.0053828526 -0.032384712 0.025500145 -0.0033285483 0.033676386 -0.014748561
0.00972177 -0.019452764 -0.0017889063 0.0065505905 -0.015507359 0.009983907 -0.015475876 -0.0054964065
-0.02129932 0.024228595 -0.016223168 0.010639723 -0.022850333 -0.037710715 -0.024020802 0.01249291
0.03661666 0.012716301 -0.03613394 0.036095135 -0.012806573 0.031355567 0.01049652 0.041078754
-0.0293732 -0.021990968 -0.030588292 0.015026738 0.011282961 -0.010592332 0.034866825 0.037197977
-0.009040981 -0.0067111077 -0.00050948886 0.018750016 -0.0036268532 -0.0107617285 -0.023659186 0.030528497
0.017027143 -0.019139111 -0.037626974 0.0070134755 -0.015974104 0.041032087 -0.031590633 -0.036020964
-0.0050970525 0.034718998 -0.024733122 0.035718028 -0.025535475 -0.02714993 0.013424259 -0.036475696
0.021181174 0.034070626 -0.037862618 -0.031957835 0.021247052 0.0049184375 0.020868229 0.010545118
-0.009351566 0.026766324 0.03929689 -0.032641854 0.033123817 -0.011665421 -0.030327516 0.034836594
0.003421597 0.0040518437 0.014910162 -0.03283929 0.013800586 -0.030004662 -0.021657655 -0.026601419
-0.0035377343 -0.025723279 0.0077469656 0.015044709 0.03151714 0.0053992034 -0.0026566465 -0.019035947
-0.005744308 0.017981032 -0.020536443 -0.01607306 0.00541052 -0.009595647 -0.02141703 -0.020354863
0.027762055 -0.02574707 -0.0071851094 0.012417251 -0.011133262 -0.036892522 0.025449254 0.010493323
0.026119271 0.036014583 -0.018431388 0.030308984 0.033622675 0.038139813 0.02890147 -0.022317555
0.0042762486 0.0027959996 0.009238937 -0.038403537 -0.010983452 0.035679836 -0.014842823 0.018016323
-0.039920565 -0.027920235 -0.018651903 0.034743246 0.017421963 0.0078027686 -0.02854053 -0.0009620314

bias f4 [128]
00000000: a7e9 833c b703 25bc 31c7 43bc 560d 0abc
00000010: c943 36bd 7b66 ecb9 4b5c e8bc 8ec8 b2bc
00000020: 794d 203d a9b8 713c 9e63 80b8 ddef 61bc
00000030: 456d e83b c27e 0abc c1c1 b7bb a635 b33c
00000040: 3422 033b 1bcd 283d 6750 763c c5fb ebbc
00000050: a8a1 8abc 0a42 d1bc 7382 9a3c 59d3 0bbd
00000060: b1c3 e43c 0149 13bd f9bd e93c 5d9c d8bc
00000070: 4c02 843c bfe3 03bb dbb5 60bc 8c07 f0bc
00000080: bc00 1dbd df88 34bd 6487 3a3c 2492 843c
00000090: 6f78 0fbd 3b48 f6bb 1153 03bd 0908 07bd
000000a0: 64a9 aabb 8b8a 643c 1fe4 2e3b 867c a43c
000000b0: a84a 8f3b 16f7 d43c f426 d8bc e485 a23b
000000c0: b0eb 3cbc 0048 923b 9c62 38b8 4b95 c33c
000000d0: 79c1 8bbc 20b7 af3a f918 563c 02c0 94bc
000000e0: 8205 063d f960 143d 2272 c1bc 4b85 993c
000000f0: a02c ac3c 0472 70bc cd03 f13c 1c84 8d3d
00000100: 99f0 723c 951c 8d3c c50f 143d ea68 a33c
00000110: c612 cd3c 4676 d73b 20ce e63c 6509 89bc
00000120: ce51 76bc 0f27 493c 5fb2 013d b8a1 48bc
00000130: 323b 18bd 4c06 c43c bff1 f03b a6aa 92bc
00000140: 43a2 12bc b755 b3bb 3725 e83b f457 363c
00000150: 8506 2dbb f2bf 3a3c a673 043b 92f5 09bd
00000160: e1b5 2e3d bd70 cf3c 24c8 85bc 7354 e93c
00000170: c391 a7bc f0c4 dc3c 95af c2ba 5ce1 1d3d
00000180: effc 05bd 18dd fcba 3e5c 163d 76cd 3fbd
00000190: 6023 973b ba8b e1ba 8208 e6bc 9f7b 32bc
000001a0: badc 9b3c 8967 8fbc 7ffd 153d b800 a5bc
000001b0: 8087 a83c 689a 02bd e1b5 b83c 2ef4 27bc
000001c0: 5642 35bd 804f 35bc 3575 fa3c 4c23 2f3c
000001d0: 4d5c d93b 5c4d e2bc 464c 16bd 312c bdbc
000001e0: 3c9a f63c 9a6e ffbc 9ee4 54bc 7de4 ffbb
000001f0: 84a7 993c 967a 6e3c cd40 8cbc 2fdb 17bd
0.016102625 -0.0100716865 -0.011949346 -0.008426031 -0.04449824 -0.00045089782 -0.028364321 -0.021824148
0.039136384 0.014753499 -6.122071e-05 -0.013790098 0.007093104 -0.008453073 -0.005607814 0.021876168
0.00200094 0.04121123 0.015033818 -0.028806577 -0.016922787 -0.025544185 0.018861031 -0.034137104
0.027925344 -0.035958294 0.028532969 -0.026441747 0.016114376 -0.002012476 -0.013715233 -0.029300474
-0.03833078 -0.044075843 0.011384819 0.016182967 -0.035026964 -0.0075159348 -0.03206164 -0.032966647
-0.005208181 0.013949047 0.0026686264 0.020078909 0.0043729134 0.025996726 -0.026385762 0.0049598087
-0.011530802 0.0044641495 -4.3960856e-05 0.0238749 -0.017060028 0.0013406016 0.013067477 -0.018157963
0.032720096 0.036225293 -0.023613993 0.018740317 0.021017373 -0.014675621 0.029420758 0.069099635
0.014827871 0.017225543 0.03614785 0.019947488 0.025033366 0.0065753786 0.02817446 -0.016728112
-0.015034152 0.012277379 0.03166425 -0.012245588 -0.037165828 0.023928784 0.007353037 -0.017903637
-0.008949819 -0.0054728645 0.0070845145 0.011129368 -0.002640159 0.011398302 0.0020210533 -0.03368146
0.042653922 0.025322312 -0.016330786 0.028482651 -0.020455247 0.026949376 -0.0014853353 0.038544998
-0.03271192 -0.0019291965 0.036709063 -0.046826802 0.0046123713 -0.001720778 -0.028080229 -0.010893731
0.019026149 -0.017505424 0.036618706 -0.020141944 0.020572424 -0.031885535 0.022547664 -0.010251088
-0.044252716 -0.011066318 0.030573467 0.010689568 0.0066333176 -0.027624778 -0.036693834 -0.023092361
0.030102842 -0.031180669 -0.01299396 -0.0078092203 0.018756635 0.014555594 -0.017120743 -0.037074264

weight f4 [128, 128]
00000000: 5919 3ebd 4ed7 87bd c1d7 a7bd d6f9 b5bc
00000010: 1176 b4bd 1bac 9b3d 6265 d6bc a025 e0bb
00000020: 1482 70bd 9936 883d 3eda a7bd 1c4d 0bbc
00000030: aeff e5bc e65f 4fbd 3f80 b23d 1261 14bd
00000040: b660 08bd 5024 543d 0461 8a3d 1826 4e3d
00000050: ca84 7d3b ce8f 4c3d 0050 98bd 4b7d b13d
00000060: 6afa 42bd 3152 a8ba 00ec 7b3d 4a02 a5bd
00000070: c481 55bd 9e09 34bd 14ce 603d ba5c 1b3d
00000080: aa10 adbd dbc6 033d 4cc4 b2bd b8d3 8cbd
00000090: 27a2 7c3d fd0f a33d 09ea 95bd d936 863d
000000a0: f3d9 91bc d21d 453d 85e8 86bc 4fba 6cbd
000000b0: 5144 48bd 0572 7f3d 55c9 573d 4c64 8abd
000000c0: 630d 4fbd cd78 42bd 6249 38bd 6b38 8cbd
000000d0: 748f 88bd 7f20 8d3d ace8 74bd d436 823c
000000e0: 2009 8b3b d3d0 79bd d43a 09bd 5c70 02bd
000000f0: a733 ffbc c45f a9bd 8af3 58bd fa54 313c
00000100: 904a aa3c 8f60 90bd c1fd c5bb beae 1fbb
00000110: b846 26bc 80e0 a43b 0f54 2d3d c0cf b3bd
00000120: 00eb 7bbc 108e 88bd c6a8 9cbd 63a0 1ebd
00000130: 9512 6c3d fa47 4e3d 0d8e 283b 315e 803d
00000140: 6f7c 23bd e8e5 923c 59ad 9b3d 65ce 5a3c
00000150: afcb b3bd 1afc 6abd 2d1e e1bc e86f 0a3d
00000160: a9b4 a8bd 10ce 963d 7690 9abd 4f88 8d3d
00000170: 0fc4 733d b267 f1bc e2ab 9cbd 7f91 ab3d
00000180: 7bed a53d ac48 61bd d2ec a7bd 2c58 0f3c
00000190: 5baf a73d d232 afbd 30b5 5a3d 2d40 693c
000001a0: c831 dcbc e2ea 253d 657d 1a3d d8fe fe3c
000001b0: 4770 4abd 09b5 9cbd f151 dbbc e609 d7bc
000001c0: bbd6 66bd 602a 6a3b f12d 1ebc 4bc5 aa3d
000001d0: 1018 39bc 4904 14bd f15b 09bd edd9 b3bd
000001e0: ed0f 26bd 5c22 c6b9 ea0e 2a3d db63 913d
000001f0: be37 913d fdb3 883d 8dc0 96bd 4b02 143d
00000200: e164 59bd 0a85 a0bd 66bd 593c 6aaf ad3d
00000210: 2d84 823d 529f 8d3c 1bf1 d13c 06da b3bd
00000220: 4c8f e3bc 0615 5ebd fdee 893d 08d9 2a3d
00000230: 5920 d0bb 8185 143d a9aa 2abc 7366 eb3c
00000240: 65ed 953d f5a5 a73c eba7 a7bd 4e0f 44bd
00000250: 2c93 143c 533e 163d 8863 98bd 0bca 79bc
00000260: 2c9f c8bc 9ff2 7a3d 0ba9 98bb 3fc8 963d
00000270: 9387 4cbd 4630 8abc 486b 313d ae36 0fbd
00000280: 27ff c33c ab10 2d3d fa49 033d ed60 f4bc
00000290: aa75 8fbc 1ca2 b4bc d0fa 8f3d ea4b 023d
000002a0: 70c7 15bd 45a1 84bd 4753 8fbb 0672 a53d
000002b0: 230f eb3c 4f12 c8bc 22cf 7bbd c1da 913d
000002c0: a4ca 9dbd e097 343b 6556 9dbc 4224 183c
000002d0: 1204 073c 32f9 243d 18ef 233c ea99 a53d
000002e0: e6f7 89bb 5728 acbc e227 a5bc 9bd0 3f3d
000002f0: 0783 95bd 185b f8bb da77 713d e26c bb3c
00000300: 1704 99bd 7f5a 6dbd 3896 9f3c 90a6 a03d
00000310: 72d9 143d 1457 64bd 6cbe 423d e5b2 783c
00000320: 39a9 5a3d 987b 8ebd f5a1 6cbd 79de 8a3d
00000330: 48d3 8f3d da3a acbd 3f93 34bd c21e 09bd
00000340: d746 88bd 18ee 413d 4953 12bd 44b3 8d3c
00000350: 5b27 9d3d 577b 4cbd 4233 30bd 0246 1d3d
00000360: 4b46 b23d 469a 883d 4d4e a53d 950d a63d
00000370: 2ae2 71bd e45c 9dbd 5c30 6dbd 8600 d73c
00000380: 33c4 213b c4db 353d b87a 3f3d 0825 8dbd
00000390: 8a87 433d 428a b0bd d4ec 2d3d 65ca 34bd
000003a0: b4c5 9c3c b7ba 9fbd 23f0 8abd a222 4e3d
000003b0: 01fe 9bbb ad73 51bd 2671 7bbd 8c4f 863d
000003c0: 1ccb b73b 4341 78bd 5621 aa3d 8911 6cbd
000003d0: 6a95 353d 6cff 9bbd 7a9f ec3b 86a8 4d3d
000003e0: 3f6f bf3c 8c0a 05bc 907c 8e3d b868 943d
000003f0: 60b2 1b3d b7be 5fbd beb4 6a3d da46 67bd
-0.046410892 -0.06632863 -0.08195449 -0.022213858 -0.08811582 0.07601186 -0.02617139 -0.0068404227
-0.058717802 0.06651039 -0.08195923 -0.008502271 -0.02807602 -0.050628565 0.08715867 -0.036225386
-0.033295356 0.051792443 0.067567855 0.050329298 0.0038683885 0.04994183 -0.07437134 0.08666476
-0.047602095 -0.0012841878 0.061504364 -0.08057077 -0.052125707 -0.043954484 0.05488403 0.037930228
-0.08450444 0.032172065 -0.08728847 -0.0687632 0.061678078 0.07962034 -0.07320029 0.0655343
-0.017804122 0.048124142 -0.016468296 -0.057794865 -0.048893277 0.062364597 0.05268224 -0.06757411
-0.050549876 -0.047478486 -0.04499186 -0.068466984 -0.066679865 0.06890964 -0.059792206 0.015895285
0.004243031 -0.060990166 -0.03350337 -0.031845436 -0.03115256 -0.08270219 -0.052966632 0.010823483
0.020787507 -0.07049667 -0.0060422127 -0.002436563 -0.010148697 0.0050316453 0.042316493 -0.087798595
-0.015375853 -0.06667721 -0.076493785 -0.038727175 0.05763491 0.05036161 0.0025719434 0.062679656
-0.03991359 0.017931893 0.07601423 0.013354872 -0.08779084 -0.05736933 -0.02748021 0.03379813
-0.08237583 0.07363522 -0.07547085 0.069107644 0.059513148 -0.029468391 -0.076499715 0.083773606
0.081019364 -0.055000946 -0.08199467 0.008749049 0.08187743 -0.08554615 0.05339545 0.014236492
-0.026879206 0.040507205 0.03771724 0.031127378 -0.049423482 -0.07651717 -0.026772471 -0.026249837
-0.056357127 0.0035730824 -0.009654508 0.08338412 -0.011297241 -0.0361369 -0.033534948 -0.087818004
-0.04054253 -0.00037791103 0.04151813 0.07099124 0.0709071 0.06674955 -0.07360945 0.036135
-0.05307472 -0.07837875 0.013289785 0.08480723 0.06372867 0.017287884 0.025627663 -0.08781819
-0.02777829 -0.05421927 0.067350365 0.041710883 -0.0063515124 0.03626013 -0.010416665 0.028735375
0.0732067 0.020464877 -0.08186325 -0.04786616 0.009068292 0.03668053 -0.07440859 -0.015245925
-0.024489962 0.061266538 -0.0046588234 0.07362413 -0.04993398 -0.016868722 0.043315202 -0.034964256
0.023925377 0.042252224 0.03205297 -0.029831374 -0.017512161 -0.022049956 0.070302606 0.03181068
-0.03656715 -0.06476072 -0.004373941 0.08078389 0.028693741 -0.024422793 -0.061476834 0.07121802
-0.07704666 0.0027556345 -0.019206235 0.009285988 0.0082407165 0.040276714 0.010005735 0.080859974
-0.00421046 -0.02101533 -0.02016062 0.0468298 -0.07300382 -0.0075792186 0.05895219 0.022879068
-0.07471483 -0.057947632 0.01948081 0.07844269 0.036340185 -0.055747107 0.04754488 0.0151793705
0.05338404 -0.069571674 -0.05777164 0.067807145 0.070227206 -0.084096625 -0.044085737 -0.0334766
-0.06654137 0.047346205 -0.03572396 0.017297395 0.07673522 -0.049922314 -0.043017633 0.038396843
0.087048136 0.0667005 0.08071575 0.08108059 -0.059053577 -0.07683733 -0.057907447 0.026245367
0.0024683594 0.044399038 0.046747893 -0.06891829 0.047736682 -0.086201206 0.042462185 -0.04413833
0.019137241 -0.07799285 -0.06784084 0.050325997 -0.0047605042 -0.051135708 -0.061387204 0.06558141
0.0056089293 -0.060609113 0.083071396 -0.05763391 0.044331945 -0.07617077 0.0072211595 0.050209545
0.023368476 -0.00812019 0.06957352 0.07246536 0.03801191 -0.05462524 0.057301275 -0.056464054

bias f4 [128]
00000000: 0a14 8ebd 4116 76bb f9d6 583d f080 7bbd
00000010: 125d 29bd 96ae 38bd c8bb 5c3c bc1b 53bc
00000020: 17c8 913b 03f3 603d de9d 193c 5576 2abd
00000030: f0a9 eb3c 3be9 303c 161d 893d 2a18 043d
00000040: 2c6b cb3c 8e9e 06bc 8f7c a73b 87fe 723c
00000050: b039 a03c d0c8 8fbd 906e 87bd 8cef e9bc
00000060: 7747 923d cf26 873c 383f 993d 512f 6bbc
00000070: 51a0 2bbd c217 f23c e84e 893c f8f2 51bd
00000080: 60d7 8cbc 541c d23c 86ce bcbc fa3f 0cbd
00000090: 8009 a7bd fc9b 89bc 4746 92bc cba6 153d
000000a0: b1b2 b03c da72 0cbd 85ea ac3c 990c 4a3d
000000b0: 9eec 5eba 6522 663d 55f5 3c3c aa5e cb3b
000000c0: 9799 9dbd 8b0f e1bc 7f37 b43d c495 623d
000000d0: 5c52 883d e655 063d 125c 2a3d 0131 433d
000000e0: 031c 853c 5d91 a4bd bce8 2b3d 1640 3f3d
000000f0: e35b c53c b27a 553d d281 98bc 1c46 753d
00000100: 5e32 4a3d 7498 85bb 4241 273d d866 3aba
00000110: f2a4 e1bc 32b1 2fbd 124e 99bd 815e 623c
00000120: a22b 723c 3f55 92bd 54be 683d c923 993d
00000130: f21c cc3c 9715 cdbc b084 80bd 6bff b53d
00000140: e5c8 3cbc 3aab 01bd 142a 333d aedf 58bd
00000150: d54e 833c 4596 713c 7ace c7bc 6e57 773d
00000160: de2e be3c 5a41 6fbd ce5e a0bd b7e7 923d
00000170: e35b 383d 40b5 fbbb f25b 87bd d3de 9bbd
00000180: 1416 44bc 15cc 3e3d c876 f9bc 5ead 8d3c
00000190: 3ea3 95bd bf7a e6bc 4325 2e3c 8d23 75bd
000001a0: 701a 7a3c 962b 853d ffda fbbc 56e7 23bc
000001b0: 96f1 da3c 72c0 1a3d 8220 36bd c6d5 723d
000001c0: 1b2c a13d 67b0 32bd 5d14 a7bd 6709 1cbd
000001d0: 193e 3a3d 49d7 c53b eb59 cabc 5c76 52bd
000001e0: bda5 3a3d 8b74 b73d 968f 7fb9 daba 2d3c
000001f0: 18c8 2dbd fdda b73d 7c21 8ebd cdaa 90bd
-0.06937416 -0.0037549885 0.05293939 -0.06140226 -0.041348524 -0.045088373 0.013472505 -0.01288503
0.0044489014 0.054919254 0.009376017 -0.041616756 0.028767556 0.010797794 0.06695001 0.032249607
0.024831377 -0.008216513 0.005111284 0.014831192 0.019558758 -0.07020724 -0.06612885 -0.028556608
0.07142537 0.016497998 0.07482761 -0.014354543 -0.041900937 0.029552344 0.016761258 -0.051257104
-0.017192543 0.025648274 -0.023047697 -0.0342407 -0.08156109 -0.016798012 -0.017855776 0.03653602
0.021569582 -0.03428922 0.021107921 0.04932842 -0.00085038866 0.056185145 0.011533101 0.006206353
-0.076953106 -0.027473232 0.087996475 0.05531861 0.06656334 0.032796763 0.04159171 0.047654156
0.016248709 -0.08035538 0.04197 0.046691976 0.024091667 0.052118964 -0.01861659 0.059881315
0.04936444 -0.0040770117 0.04083372 -0.0007110662 -0.027544472 -0.042893596 -0.07485594 0.013816477
0.014780911 -0.07145166 0.056822136 0.074775286 0.024916146 -0.025034709 -0.06275308 0.08886608
-0.011522506 -0.031657435 0.0437413 -0.052947693 0.016028801 0.0147453 -0.024390448 0.060386114
0.023215707 -0.058411933 -0.078305826 0.07173102 0.045009505 -0.007681519 -0.06609334 -0.0761086
-0.011968154 0.046581347 -0.030452147 0.017294582 -0.073065266 -0.028134702 0.010629001 -0.059848357
0.015265092 0.06502454 -0.030744074 -0.010003885 0.026726525 0.037781186 -0.044464596 0.0592859
0.078697406 -0.04362526 -0.08158181 -0.038094904 0.045469377 0.006037627 -0.02470108 -0.051382408
0.045568217 0.08957776 -0.00024372185 0.010603631 -0.042427152 0.089773156 -0.069399804 -0.07063828

weight f4 [2, 128]
00000000: 1325 9d3d 83d5 ea3c c1e9 633d 2455 063e
00000010: a4f3 383d 7f6c bb3d 602f e9bb 488f e63c
00000020: 2b35 d53c cc73 8c3d a0eb 413e f8df ebbd
00000030: d49d 683d bf9a 093e e5b1 c53d fa99 36be
00000040: ef06 d3b8 183b db3d 1130 8f3d 40e3 3b3d
00000050: 9420 21bd 233a df3c ee32 103e 9a16 4abe
00000060: 6713 c0bc a86a 813d 1ba5 aa3d b062 8a3d
00000070: dad5 1a3d 3f8e 5cbd 4fb5 503d 85eb 29bc
00000080: c390 ba3c 988a 433c f17d ffbd 7218 78bd
00000090: f410 b2bd 381f 55bd 7497 953c 4539 673d
000000a0: 55af 193e 749c a6bd 1eb3 243d c781 80bd
000000b0: 5350 723d f901 c63c 3339 4abd 2ad9 dcbc
000000c0: 5e2b c73b 0984 00be af07 23bd c5f8 01be
000000d0: fcde 3c3e 093f 93bd 6624 b0bd 6f27 8e3d
000000e0: e2ac 433e db6b c3bd 04ab d4bc 2819 68bc
000000f0: b3fe a7bd 9f43 823d 2a1b 4f3d 7642 0ebd
00000100: f9a9 0fbd 8e54 2ebd cb81 873d 7f06 c43d
00000110: e749 18bd d137 dd3d 988b d2bc 03b3 1ebd
00000120: 8e82 d73d 6c6c 5a3d 8284 0abe 36bb 4d3c
00000130: f457 463e f1eb 863d 61bf 72bc 1c01 203c
00000140: 6332 debb 1ff4 4b3d 9c03 a5bd 94e0 6d3d
00000150: 97fb 9dbd 09ca 543d ac05 413d 9ecf 123e
00000160: 94fd d1bd a3c8 1bbe c3b9 a7bc 2861 1c3c
00000170: 1f5e 083e 8a51 6f3d bc19 48be 25b8 c3bc
00000180: 9842 293c 5485 033c dea3 4e3d a945 34bd
00000190: b200 053c 637e 02bd 93f3 4d3e f743 fcbc
000001a0: 8c57 9c3c 52ee 7cbd 3cb3 263e 30e4 9d3d
000001b0: 6a33 ef3c 7c09 69bd ae8c b5bb eed0 7b3d
000001c0: 5da3 673e 13ab e5bd bff6 83bd d267 273d
000001d0: 6a3e 1b3e 2573 27bd 970f 9dbd 98cc 6ebd
000001e0: 1145 aa3d 46cf 4cbd acc7 983d 632c b63d
000001f0: f3c7 e6bd 5aeb 023e b969 963c 8b61 20bd
00000200: 9c3a ca3b 41e6 b3bd 25f4 ea3c 1cae 08be
00000210: abca 5c3d 5bc2 3cbe 7699 83bd 8e6d 733d
00000220: 4284 b13c 0529 67bd 4ad7 e3bd f7fa 873d
00000230: 68b9 fdbd 3c79 bebd 6149 edbd 5fd1 2b3e
00000240: 0d50 723d 6451 adbc 5d2f ddbd ca36 7abd
00000250: 2236 7e3d 5c17 a13d 4c7b f4bd c5cd a83d
00000260: 1860 bd3c f72c 9f3d bdfb 58be 6639 923c
00000270: 5a9d 643b 0368 95bc 99f4 cc3d 4e4a af3d
00000280: 56a5 473d 76ea 643d b1bf 3d3e 6aa2 8cbd
00000290: 455a 943d b86a 043e 5695 193c dbb7 883d
000002a0: c362 48be a4ed 93bd 95de 093d 0c5c 5dbd
000002b0: 2ab3 54bd 9f57 e03c b9a4 573c a192 e7bc
000002c0: 6eae 833d bab2 3b3c a777 8a3d 8ca7 9d3d
000002d0: 7e7c 53be ce87 203d b709 9abd b63f 25bc
000002e0: 0248 39be a2c8 1a3e c0d5 003d b4a1 d33c
000002f0: 9f28 79bd 13dc b2bd f575 a4bd 473a 503d
00000300: 9db1 59bd 2a3c d4bc cb3d 4e3d cda0 8c3c
00000310: 8750 9f3d 26d2 573b 4739 a8bd e98c d0bc
00000320: 9542 15be 1a11 4d3d e182 cf3d c0fe 4c3d
00000330: af33 06be 0b8b a53d 6d90 623d 431f 44bd
00000340: 7b79 0d3d afd0 ac3d 2121 28bc 7214 6e3d
00000350: c4a5 c73c 3738 06be 2c24 e1bd e5c4 8bbc
00000360: 2f47 ee3d 600e 663d 5680 9f3d c735 d3bd
00000370: 2be8 fbbb 3c44 72bd 68a3 fc3d 2240 063b
00000380: 6fed b13d eb92 f9bd 8f02 bbbc 73bc 4ebd
00000390: e3b6 0bbd 758f 443c 956e b2bd f7cd 86bd
000003a0: 993e 913d 9394 293c 0e09 1bbe 16a7 00be
000003b0: 95b4 47bc 491d b43d 7e6e a6bd a907 a43d
000003c0: faf8 70be 5cad 9dbc f37f 913d a1e5 55bd
000003d0: 0a5b 0cbc c793 dc3c 487a 36bd 68f0 903d
000003e0: 7bf7 4dbd ec44 aebd 7dc3 debd 6915 583d
000003f0: d47a 7d3d 1c0d 88bd 812f abbb 5ee7 7e3d
0.07673087 0.028666263 0.055642847 0.13118416 0.04515423 0.09151553 -0.0071162432 0.028144494
0.026026329 0.06858024 0.1893754 -0.11517328 0.05679114 0.13437937 0.09653071 -0.17832175
-0.000100625555 0.107046306 0.0699159 0.04587102 -0.03933771 0.027249401 0.14081928 -0.19735184
-0.023446752 0.06319171 0.083322726 0.067571044 0.0378016 -0.053846594 0.05095416 -0.010371094
0.022774106 0.011934899 -0.12475193 -0.060570188 -0.0869464 -0.052031726 0.018260695 0.0564511
0.1500829 -0.0813531 0.040209882 -0.06274753 0.059158634 0.024170863 -0.049370956 -0.02695902
0.006078168 -0.12550367 -0.03980225 -0.12692554 0.18444437 -0.071897574 -0.086006925 0.06941115
0.19108918 -0.09542056 -0.025960453 -0.014166154 -0.08202877 0.06360554 0.050563015 -0.03473135
-0.035074208 -0.042561106 0.06616553 0.095715515 -0.037179854 0.10801662 -0.02570133 -0.038744938
0.10522948 0.053326055 -0.1352711 0.012556842 0.19369489 0.06587971 -0.014816136 0.0097658895
-0.006780909 0.04979336 -0.08057329 0.058075503 -0.077140026 0.05195049 0.04712455 0.14337012
-0.10253444 -0.15213256 -0.02047432 0.009544648 0.13317154 0.05842737 -0.19541067 -0.023891518
0.010330819 0.008027393 0.050449245 -0.044011746 0.008117842 -0.031858813 0.20112447 -0.030794127
0.019084714 -0.061750717 0.1627931 0.07709539 0.02919932 -0.05689381 -0.005540452 0.061478548
0.22620912 -0.112142704 -0.064435475 0.040870495 0.15160528 -0.040881295 -0.07668989 -0.058300585
0.083139546 -0.05000236 0.074599594 0.08895185 -0.11268606 0.12785092 0.01836096 -0.039155524
0.0061715376 -0.08784152 0.02868087 -0.13347667 0.053904217 -0.18433516 -0.06425755 0.05943065
0.02166951 -0.056435604 -0.111250475 0.066396646 -0.12388879 -0.09300467 -0.115862615 0.16779087
0.059158374 -0.021156974 -0.108000495 -0.061087407 0.062063344 0.078657836 -0.119375795 0.082423724
0.02311711 0.07772248 -0.2118978 0.017849635 0.0034883828 -0.018238073 0.10007591 0.08559094
0.04874166 0.055887662 0.18530156 -0.068669155 0.0724378 0.12931335 0.009373983 0.06675693
-0.19568925 -0.07223061 0.033659536 -0.05404286 -0.051928677 0.027385531 0.013161832 -0.02826816
0.06429754 0.011456186 0.06761103 0.07697973 -0.20652959 0.039192013 -0.07521384 -0.010085991
-0.18093875 0.15115598 0.031453848 0.025833942 -0.060829755 -0.08733382 -0.08030311 0.050836828
-0.0531479 -0.025907595 0.0503519 0.01716652 0.07779031 0.0032931655 -0.0821405 -0.025457816
-0.1457618 0.050065137 0.10132385 0.050047636 -0.13105653 0.08083161 0.055313516 -0.047881376
0.03453968 0.08438241 -0.010261805 0.058124967 0.024371035 -0.13107382 -0.10993227 -0.01706166
0.11634671 0.056166053 0.0778815 -0.103129916 -0.0076875887 -0.059147105 0.12335855 0.0020485003
0.08687865 -0.121862255 -0.022828368 -0.050472688 -0.03410996 0.011997093 -0.08712498 -0.065822534
0.07092018 0.010350364 -0.15140173 -0.12563738 -0.01218905 0.08794648 -0.081265435 0.080092736
-0.23532477 -0.019247703 0.071044825 -0.052220944 -0.008566627 0.026925934 -0.04455021 0.07077104
-0.050284844 -0.085092396 -0.1087713 0.052754793 0.061884716 -0.066431254 -0.0052241688 0.062232368

bias f4 [2]
00000000: 6a66 273d be5d 05bd
0.040869154 -0.032560103
