graph2vec_optimization/model/40_mlp_graph2vec_opt_3.pt (torch_old, 382907 bytes, 6 tensors)

weight f4 [128, 600]
000000 88 85 01 bd 28 33 fd bc fc 6b fe bc 00 ba 24 bd
       -0.031621486 -0.030908182 -0.03105735 -0.040216446
000010 e6 0c 14 3d d5 1f dd bc 70 b0 fa 3c a0 6e e6 bc
       0.036145113 -0.026992718 0.03060171 -0.028128922
000020 7c 49 04 bc 3c 2a bf bc 98 f7 e7 bc 52 52 14 3d
       -0.008074161 -0.023335569 -0.028316304 0.03621132
000030 bc fd 95 3c 64 8e 14 3d 08 69 49 3c 68 ce 01 3d
       0.018309467 0.036268607 0.012293108 0.031690985
000040 63 cc 0e bd f0 d6 aa bb a8 07 26 3d a0 56 4e 3b
       -0.034862887 -0.005213611 0.040534645 0.0031484738
000050 00 74 2a bb 6c 5e 57 bc be 21 a8 bc b2 1c 35 bc
       -0.0026009083 -0.0131450705 -0.020523902 -0.011054205
000060 4c 34 08 3c e0 c5 b6 3b 00 bb 9a 39 68 67 6c bc
       0.00831325 0.0055777878 0.00029512495 -0.014428951
000070 cc ad 13 bd 97 45 25 bd 12 56 26 bc 5f b0 0f bd
       -0.036054417 -0.04034957 -0.010152357 -0.03508031
000080 1a d9 98 bc c7 60 1e bd 26 30 9d bc c0 a9 d5 bb
       -0.01865821 -0.038666513 -0.019187998 -0.00652048
000090 40 6b be 3a 69 c4 25 bd f8 67 41 3c 0c 39 0b bd
       0.0014527813 -0.040470514 0.011804573 -0.03398995
0000a0 b9 6e 26 bd 1c ff 8c bc ca b9 0c bd 42 86 21 3d
       -0.040632937 -0.01721149 -0.03435687 0.03943468
0000b0 0a 50 21 bd ac 20 9b bc e8 77 86 3c 96 ac 09 3d
       -0.03938297 -0.018936478 0.016414598 0.033611856
0000c0 f2 1a 85 bc b0 32 6c bb 62 53 66 bc 0c cb bc bc
       -0.0162482 -0.0036040954 -0.014057966 -0.023046039
0000d0 af 6b d8 bc a8 4f b5 3c 6e 73 95 3c d8 00 3b 3c
       -0.026418535 0.02213271 0.018243518 0.011413775
0000e0 10 d8 21 3b d0 44 c4 bc 6a a8 52 bc e1 b1 87 bc
       0.0024695434 -0.023958594 -0.012857536 -0.016564311
0000f0 f4 a8 cc bc 3e ce dc bc 8e a9 26 bd 53 a7 fe bc
       -0.024982907 -0.026953813 -0.040689044 -0.031085646
000100 a0 0c 9f ba 26 0c 04 bd 00 33 31 3b a0 8e c0 bb
       -0.00121345 -0.03223815 0.0027038455 -0.005876377
000110 e0 51 fc bb ca 7c 6a bc 80 5d ab 3a 40 35 71 3a
       -0.00770019 -0.014311979 0.001307413 0.0009201355
000120 1e 49 ac 3c 18 f8 0c 3c 8a 06 1f 3d 38 1d 60 bc
       0.021030959 0.008604072 0.038824596 -0.013678841
000130 90 29 4f 3b 20 fd f8 bc 9c bd e7 3c d0 e0 06 bc
       0.0031610467 -0.030394137 0.028288655 -0.00823231
000140 cf 06 9c bc c9 25 27 bd ec c0 da bc c4 db 4e bc
       -0.019046215 -0.04080752 -0.02670332 -0.012625638
000150 00 0a 8b b8 aa 74 23 3d 68 a1 f9 bc 94 7a c2 3c
       -6.629899e-05 0.03990618 -0.030472472 0.02374009
000160 90 32 b4 3c 90 6b b7 bb 9a d6 16 3d a0 d2 fc 3c
       0.021996766 -0.0055975392 0.036825754 0.030862153
000170 c8 36 82 bc 52 2e 03 bd 34 06 0c bd 7c 98 8b 3c
       -0.015895262 -0.032026596 -0.034185603 0.017040484
000180 71 e9 a2 bc c0 73 e6 bc bc 9e ca bc 48 74 12 3d
       -0.019886704 -0.028131366 -0.024733894 0.035755426
000190 c6 37 ff bc 9c f3 fd 3c 27 ca d8 bc 9a da 3c bc
       -0.031154525 0.030999951 -0.026463581 -0.011526728
0001a0 f8 22 47 bc b0 d1 c8 bb 20 22 89 ba f2 a9 31 bc
       -0.012154333 -0.0061285123 -0.001046244 -0.010843741
0001b0 dc 2a 59 3c 0c db ca 3c bc 6c 0e 3d c5 07 01 bd
       0.013254847 0.024762653 0.034771666 -0.03150155
0001c0 08 6c b5 bb 10 18 92 3b 6c 17 ee bc 88 ec d9 3c
       -0.00553656 0.004458435 -0.029063903 0.026602045
0001d0 f1 2c c8 bc c0 4a 95 ba b6 52 9f bc 54 aa 1c bc
       -0.024435492 -0.0011390075 -0.01944862 -0.009562094
0001e0 76 c0 0e bd 0a 22 0e bd 55 80 9a bc 84 0d 16 3d
       -0.034851514 -0.03470043 -0.018860022 0.036633983
0001f0 b8 c8 4f 3c ac 4e 00 bc a0 05 e4 3c e4 52 14 bd
       0.012682132 -0.007831257 0.027834713 -0.036211863
000200 20 76 48 bb ca b0 d4 bc 94 94 02 bc 68 48 01 bd
       -0.0030587986 -0.025963206 -0.007969994 -0.031563193
000210 18 e3 c7 3b 44 a7 cc 3c 40 8a 09 3a e4 3d c6 3c
       0.0061000697 0.024982102 0.0005246736 0.024199434
000220 1c b1 e1 3c 66 dc 00 3d 0c 93 2e bc 7e a7 87 3c
       0.027550273 0.03146019 -0.010655176 0.016559359
000230 e8 7e dd bb 68 ad da bb 54 06 14 bd 4a f6 00 3d
       -0.006759513 -0.0066735037 -0.036138847 0.03148488
000240 1d 2f 9b bc 2c 76 44 bc e8 d5 03 bc 14 c1 69 bc
       -0.018943364 -0.011991065 -0.008046605 -0.014267225
000250 a4 4b 8e bc 2b a6 ad bc ac 10 6c bc 85 2a 07 bd
       -0.017370053 -0.0211974 -0.014408272 -0.032999534
000260 a0 68 63 3b 43 fb 26 bd c4 3a a4 3c 60 7f e9 3c
       0.0034699813 -0.040766966 0.020047553 0.02850312
000270 94 43 41 3c 5c 24 cd bc 30 88 ce bc bf 93 d5 bc
       0.011795897 -0.025041752 -0.025211424 -0.026071427
000280 80 c4 50 ba 00 45 0a 3b 41 ea b2 bc 31 57 22 bd
       -0.0007963851 0.0021098256 -0.021840217 -0.039633933
000290 e0 74 fd 3c 90 e1 66 3c 80 07 03 3b ac 95 07 bc
       0.03093952 0.014091864 0.0019993484 -0.008275431
0002a0 92 e0 a9 3c c7 8e e7 bc 84 19 08 3d 82 03 05 3d
       0.020736966 -0.028266324 0.03322746 0.03247405
0002b0 00 af 49 39 86 cd 21 bc bc 51 58 3c ce 80 8b bc
       0.00019234046 -0.009875661 0.013203081 -0.017029192
0002c0 62 8b 23 3d a7 65 8d bc a0 46 b9 ba 52 ef 44 bc
       0.039927848 -0.017260386 -0.0014135428 -0.012019949
0002d0 5e 8d 1c 3d fc 35 14 bc 72 8b 07 bd cf ad 0d bd
       0.038220756 -0.009046074 -0.03309197 -0.034589585
0002e0 d8 d0 31 3c a6 df 9b bc 01 03 b2 bc c6 a9 0b 3d
       0.010853015 -0.019027542 -0.021729948 0.034097455
0002f0 d2 98 7e bc 10 cf 89 bc 58 2b ff 3c 20 7a 26 bb
       -0.015539365 -0.016822368 0.031148598 -0.0025402382
000300 cf ec 9d bc 32 62 f0 bc bc b5 e2 3c c6 fb c5 bc
       -0.019277958 -0.029343698 0.027674548 -0.024167906
000310 24 ec 03 3c 3c 25 06 3d a8 47 0a 3d c0 2d dc bc
       0.008051906 0.032750353 0.033759743 -0.026877284
000320 12 4a 3b bc dc 1e de 3c b2 b2 91 3c 54 e6 ca bc
       -0.011431234 0.027114324 0.017785404 -0.024768032
000330 0e 1c 1f 3d e9 c6 fd bc 4a 9f 09 bd 88 02 e4 3c
       0.038845114 -0.030978637 -0.033599176 0.027833238
000340 00 fa e2 38 ac 16 17 3d b8 86 bf 3c 68 b9 9e 3c
       0.00010823086 0.036886856 0.023379669 0.019375518
000350 1d dd 95 bc ce 4c ad 3c 20 89 d1 3b e2 b1 1d bd
       -0.018293912 0.021154787 0.0063945204 -0.03849972
000360 60 07 e0 3c 32 eb 10 bd e2 63 09 3d a1 f8 bc bc
       0.027347267 -0.03538055 0.03354252 -0.023067774
000370 80 b9 21 3c a8 d9 cc bb 3a 96 22 3d 28 0a f9 bc
       0.009870887 -0.0062515326 0.03969405 -0.03040035
000380 08 f4 e7 3b 34 92 1a 3d da 8e 0d 3d 2c be c4 3c
       0.0070786513 0.037737086 0.034560062 0.024016462
000390 c8 79 fb 3b e8 fc 00 3c a0 6c e0 3c a4 ef 5b 3c
       0.0076744296 0.007872798 0.027395546 0.013423834
0003a0 c4 6f 5f 3c 68 70 b5 3c 4a d7 96 3c 3c 37 fc 3c
       0.013637487 0.022148326 0.018413205 0.030788057
0003b0 c0 ca c7 3c a4 83 2a 3c 08 c5 7c bc 53 17 0a bd
       0.02438867 0.010407362 -0.015427835 -0.03371365
0003c0 7a 9a 10 bd 24 ff f4 3c e0 38 dc bc b0 98 27 3b
       -0.03530357 0.029906817 -0.026882589 0.0025573187
0003d0 7d 96 18 bd a4 69 10 3d 5c ad 22 3d 66 9f a6 3c
       -0.03725289 0.035256997 0.03971611 0.020339679
0003e0 f2 ee 42 bc 18 22 cf 3b 38 9b ca 3c 3e 6b 71 bc
       -0.011897789 0.006321203 0.024732217 -0.014735041
0003f0 28 e0 0f bc d8 df c3 bc 90 40 16 3b 9c a2 db 3c
       -0.00878147 -0.023910448 0.0022926666 0.026810937

bias f4 [128]
000000 30 1f 24 bb ae bd 0d bd d2 3d a8 3c 4d 25 97 bb
       -0.0025043003 -0.03460472 0.02053729 -0.004612601
000010 30 5c 06 bd 0a bf 78 bc 82 b0 08 bd e6 77 17 bc
       -0.03280276 -0.015182266 -0.033371456 -0.009244895
000020 89 c8 72 bc fd 39 fb bc 89 b7 90 bc b6 18 f0 3c
       -0.014818319 -0.0306673 -0.017665641 0.029308658
000030 08 61 8c 3c 4a 2c 22 3d b7 a8 91 3c 1b f8 a6 bc
       0.017136112 0.03959302 0.017780645 -0.020381978
000040 db 0f 3e 3d 3e 9e d0 3c 8f 67 e6 bc 2c 2f 0f bc
       0.04640184 0.02546608 -0.028125552 -0.008739274
000050 94 1a dc 3b d1 01 fe 3c 3d e0 08 3d 02 18 28 3d
       0.0067170355 0.031006726 0.033416975 0.04103852
000060 90 f6 ea bc 49 0a 6e bc f4 bc ea bc 51 15 2d 3c
       -0.028682023 -0.014528819 -0.028654553 0.010564164
000070 06 02 1b 3c ed 6b c1 bc 3f 03 12 3d bc 26 7c 3c
       0.009460932 -0.023611033 0.035647627 0.015390094
000080 4e ca b2 bc 73 12 09 3d 22 5b e8 3c 60 54 17 3d
       -0.021824982 0.03346486 0.028363768 0.0369457
000090 36 86 9f 3c f0 da c5 3c 12 83 0b bd 97 14 ce 3c
       0.019473176 0.02415225 -0.034060545 0.025156302
0000a0 98 a8 68 3b 27 1a b4 3c 20 62 82 bb b8 0a 77 bc
       0.003550088 0.021985127 -0.0039789826 -0.015078239
0000b0 c3 d0 11 bb d9 10 85 ba 37 85 8e bc ec 56 f3 3b
       -0.0022249676 -0.0010152116 -0.017397506 0.0074261334
0000c0 73 f0 28 3d c2 8e bc 3b ce 54 85 bc 93 d2 13 bd
       0.041244935 0.0057543227 -0.01627579 -0.03608949
0000d0 36 14 c9 bc 94 21 87 3c eb 01 40 3d 8c fd e8 bc
       -0.02454577 0.016495503 0.04687683 -0.028441213
0000e0 01 21 77 3c 14 fc 78 bb 66 85 f6 3b 73 da 3a bd
       0.015083552 -0.0037992047 0.0075232266 -0.045618486
0000f0 98 af 02 bc fe 2b 14 3d 0c 39 0c 3c a7 a4 a4 3b
       -0.007976435 0.036174767 0.008558523 0.005024511
000100 2b 66 21 bd 2d 50 14 3c 58 0d 8b bc 04 41 0a bd
       -0.039404076 0.0090523185 -0.016974136 -0.03375341
000110 8e 30 49 bc 21 a5 01 39 b5 9b a0 bc 7f 24 64 bc
       -0.012279643 0.00012363914 -0.019605497 -0.013924717
000120 f8 93 ad 3c 55 e6 70 3c 5c bb 15 3d 03 cf fe bc
       0.021188721 0.014703353 0.036555633 -0.03110457
000130 47 0f d3 3b fa 74 07 3d d8 ed cf 3c ef d4 3f bb
       0.00644103 0.033070542 0.025381967 -0.0029271205
000140 36 81 5b 3c e6 f0 a7 3c 98 2a 04 3d d5 16 26 3d
       0.0133975055 0.020500612 0.032267183 0.040549118
000150 9a 0f c3 bc 3d 1e 27 bd 35 b7 27 bb ed 49 3b bd
       -0.02381115 -0.04080032 -0.0025591378 -0.045724798
000160 cc c0 22 3d 39 79 50 bc 43 e9 0a bd 45 05 1f bc
       0.039734647 -0.012724214 -0.033913862 -0.009705846
000170 03 25 c2 3a f1 e1 08 3d af f1 c5 3c f5 17 3b bd
       0.0014812056 0.0334186 0.024163095 -0.045677144
000180 7a c2 c5 3b 94 c1 01 bd e0 fc db 3c ab 97 d1 3b
       0.0060351463 -0.03167875 0.026853979 0.006396254
000190 a8 9e 26 bb 4f a2 d3 bc 4b b7 18 bd 7a fb 32 3c
       -0.0025424156 -0.02583423 -0.037284177 0.0109242145
0001a0 17 70 f6 39 7b 8b f0 bc 02 0f 13 3d e3 37 e8 3c
       0.0004700429 -0.029363384 0.035902984 0.028346961
0001b0 db 23 e9 bc b8 c8 54 bc f1 21 6c 3c 20 f4 cc bc
       -0.02845948 -0.012987308 0.014412389 -0.025018752
0001c0 64 b9 42 3c b0 50 81 bc e4 9a 7e 3c d9 b5 f6 3b
       0.011885021 -0.015785545 0.0155398585 0.007529002
0001d0 22 78 e3 3b 7d f4 d8 bc 1c f5 0d bd 87 0d a1 3a
       0.006941811 -0.026483769 -0.034657583 0.0012287357
0001e0 6b 70 24 3d a3 9c c8 3c c2 0d 24 bd b9 58 97 3c
       0.040146273 0.024488753 -0.040052183 0.018474923
0001f0 b8 2d 86 3c 85 0f bc bc 70 f5 02 bd 8f 67 b5 3c
       0.016379222 -0.022956619 -0.03197235 0.022144107

weight f4 [128, 128]
000000 98 2e 5f bc 8f b5 1c bd 7c b5 aa 3d 53 ac 82 bb
       -0.013621949 -0.038259085 0.08335397 -0.003987828
000010 20 ce 91 3d 48 af 77 3d 20 8d 78 bc 5a d4 a1 bc
       0.07119393 0.060469896 -0.015170366 -0.019754577
000020 aa 58 8d bd 0c 5d 62 bd 0d 4b 31 3d 30 70 4d bd
       -0.06901677 -0.055264518 0.043284465 -0.05015582
000030 a4 b0 a0 bd f0 f3 6e 3d c9 09 a8 3d 41 8c 46 bd
       -0.078461915 0.058338106 0.08204991 -0.0484736
000040 5f b4 59 3b fd f4 c1 3c c6 a8 79 bd 74 43 04 3d
       0.0033219082 0.02367639 -0.06095197 0.03229089
000050 e0 fc 84 bd f5 f0 03 3d 8c e3 b9 3d e7 b5 48 3d
       -0.064935446 0.032212216 0.09076604 0.0490016
000060 f5 c8 51 bd 9b 88 42 3c 81 aa 82 3c cf f1 af 3d
       -0.05121704 0.01187339 0.015950443 0.08591043
000070 a1 d9 7d bd 7b 8d 1e 3c 00 cb 55 bd ac d0 20 3d
       -0.061975125 0.009677286 -0.05219555 0.039261505
000080 ef a4 20 3d 99 9f 70 3d 01 2e 58 3c 71 11 bb bd
       0.039219793 0.058745954 0.013194562 -0.09134186
000090 de 2c 49 bd 92 38 9a 3c ec a3 c6 ba a7 51 12 3d
       -0.049115054 0.018825803 -0.0015155054 0.0357224
0000a0 9a 2e b0 3c 0d f9 b2 bd 1f 7c 46 3d f1 4f 11 bc
       0.021506596 -0.08738909 0.048458215 -0.008869157
0000b0 d6 7f 70 3d 97 ef 4b bd 9c 68 87 3d 66 77 aa 3c
       0.058715664 -0.049789038 0.066117495 0.020808887
0000c0 23 67 9c bd 81 4e c6 3d c1 e2 9e 3c 14 98 42 3d
       -0.07636859 0.09682942 0.019395234 0.047508314
0000d0 56 3a 44 3b 48 41 97 bd 66 1d 2a bd c8 ff c0 bc
       0.0029941997 -0.07385498 -0.041531943 -0.023559466
0000e0 c5 29 b3 3d b4 e8 8e 3c 3f ae ee 3c 0c 0d b8 3d
       0.08748201 0.017444946 0.029135821 0.089868635
0000f0 4e d7 31 3d 4e 98 62 3d 75 14 15 bd 69 e1 82 bd
       0.04341822 0.05532103 -0.036396462 -0.0639065
000100 1a f9 26 3d 50 a3 b0 bd 54 6e 2c 3d 49 2e a3 3d
       0.040764906 -0.086248994 0.042097405 0.079678126
000110 1a 0e bb bc dd b0 24 bd 8b 3d 93 3d c7 79 c9 3c
       -0.022833873 -0.040207732 0.07189473 0.0245942
000120 fb 33 ea bc 17 94 96 bd ab 72 ab bc 57 08 05 3d
       -0.02858924 -0.07352465 -0.020928701 0.032478657
000130 35 55 a1 bd 22 43 0c bc 99 f5 87 bd ac 67 e9 3c
       -0.0787758 -0.008560928 -0.06638641 0.028491817
000140 f5 65 89 bd 9b fd c9 b8 d5 ff 2a bd 82 72 de 3c
       -0.067089 -9.6316646e-05 -0.041747887 0.027154211
000150 41 d3 b3 3d 4b 66 65 3d a1 23 b6 3d 47 27 98 3d
       0.08780528 0.056005757 0.088935144 0.074293666
000160 d3 76 c2 3c 72 34 1d 3d 0c 2a 97 3d ac bb 16 bd
       0.0237383 0.038380094 0.07381067 -0.03680007
000170 fe 2b b4 bc 6a 3a 4c bd b1 c1 3d bc 4e 16 95 3d
       -0.021993633 -0.049860395 -0.011581824 0.07279645
000180 6d cf 75 3d 9e 29 71 bd be c2 c3 bc c1 bf a0 bd
       0.06001227 -0.05887758 -0.023896571 -0.07849074
000190 d5 1e 22 3d 71 ff 53 3c 9c 25 19 bc 83 20 8a bd
       0.039580185 0.01293932 -0.009347346 -0.06744482
0001a0 ae cf 45 bd 9e b7 c3 3d 7c 36 52 bc ab 82 dc 3c
       -0.048293762 0.095565066 -0.012830373 0.026917776
0001b0 43 9b 71 3d da 1d c7 b9 22 3e 9d bd a7 fe 21 3d
       0.05898596 -0.0003797848 -0.076778665 0.039549496
0001c0 e1 0a 0e bd 60 85 28 bd 52 6c 21 bc c0 a5 28 bd
       -0.034678344 -0.04114282 -0.009852486 -0.041173697
0001d0 fe 91 97 ba 7e 58 55 3d 93 0e 0b 3d e0 ff 98 bd
       -0.0011563895 0.052086346 0.033949446 -0.07470679
0001e0 47 a0 a7 bd 84 d6 76 bd 38 75 47 bd d6 52 a0 3d
       -0.08184867 -0.06026317 -0.048695773 0.078283
0001f0 11 e3 a6 bd 20 45 a4 3d 0d 9f a3 3c c0 89 28 3c
       -0.08148778 0.08020997 0.019973302 0.010286748
000200 55 c5 83 3d 3a 98 28 bd 67 3f d1 bc ee 8a 97 bd
       0.064341225 -0.0411608 -0.025542928 -0.073995456
000210 ae 5d 86 3d fa 26 80 3c 68 45 91 bd 7f 5a cf bd
       0.06560837 0.015643585 -0.07093316 -0.10124683
000220 48 12 82 3d fa f0 97 3b 1b b1 e9 3c 45 e4 2c bd
       0.06351143 0.004636881 0.028526833 -0.042209882
000230 5c e8 20 bd 70 35 6d bd 89 e7 97 3d d5 6d 7f 3d
       -0.039284095 -0.05791229 0.07417209 0.062360603
000240 12 76 a3 bd 02 59 48 3d 44 82 11 bc 4c a5 96 3d
       -0.079815045 0.04891301 -0.008881155 0.073557466
000250 51 95 20 bd b7 a5 88 3d 82 04 b7 3d dd 7f 84 3d
       -0.0392049 0.066722326 0.08936407 0.064697005
000260 3f d3 69 bd 0e 2e 94 3d a2 09 83 bc e3 00 d9 3d
       -0.057086226 0.07235347 -0.015995804 0.10595872
000270 e7 e1 89 bd cf 88 eb 3c 49 86 cd bd 1f 0a b0 bd
       -0.067325406 0.028751759 -0.100353785 -0.085956804
000280 f9 48 03 3d ce 85 93 bd e0 c9 0e bc c7 b4 26 3d
       0.032052014 -0.072032556 -0.008715123 0.040699746
000290 b8 bc 14 3d 72 73 a1 bd fb 8a ac 3c 82 79 63 3d
       0.03631279 -0.078833476 0.021062365 0.0555358
0002a0 84 0a bb 3d 94 64 4d bd 24 95 aa 3a 07 02 04 bd
       0.09132865 -0.050144747 0.0013014418 -0.032228496
0002b0 9b 20 7a 3d 6f e1 58 3c 7f 55 af bb a4 97 07 be
       0.06106625 0.013237341 -0.005350768 -0.1324144
0002c0 63 1c 8d 3d f9 e2 0a 3e ff 95 13 3d 63 27 82 bc
       0.0689018 0.13563146 0.03603172 -0.015887922
0002d0 21 ba 9d bd 0c c2 b5 bd 61 d0 a9 bd 6e 7b 96 bb
       -0.07701517 -0.08874902 -0.08291698 -0.0045923507
0002e0 a9 77 05 3d 82 cc 2e 3d 19 d7 5d 3c 96 82 72 3d
       0.03258482 0.042675503 0.013540053 0.059206568
0002f0 92 1e ac bd ce f4 3b 3d fc 07 90 bd 9a 15 b8 bd
       -0.08404268 0.04588776 -0.07032773 -0.08988495
000300 95 e6 a6 3d cf f4 ab 3d f2 3a 91 bd 1d 17 b4 3d
       0.08149449 0.08396303 -0.07091321 0.08793471
000310 c3 52 9a 3d 19 31 70 bd 36 0d 9a 3a 32 72 3b 3d
       0.07535317 -0.058640573 0.0011753205 0.045763202
000320 45 e9 a1 3d de 4e 2e bd 7a 96 7e 3d 6e e4 42 bc
       0.07905821 -0.042555682 0.062155224 -0.011895282
000330 ac d0 90 bd 9e 77 8a 3c e5 88 8b bd 59 c1 e0 3c
       -0.07071051 0.016902741 -0.0681322 0.027435945
000340 06 ba a8 bd fb 16 22 3d 99 37 dd 3d f2 27 d8 bd
       -0.08238606 0.039572697 0.1080162 -0.10554494
000350 2e 58 39 3d 0f e8 e5 3d c7 c3 d1 3d 61 0f a6 3c
       0.04525011 0.11225902 0.1024242 0.020271005
000360 84 8a a4 bd 84 f2 e3 bc 0c fe 6f 3d 17 b2 c8 3c
       -0.08034232 -0.027825601 0.058591887 0.024498982
000370 65 0b 76 bb 8e cd 9c bd f5 62 73 3d a0 d2 1a 3d
       -0.0037543413 -0.07656394 0.059420545 0.037798524
000380 8d b3 b9 3c be d3 0e 3d c3 81 92 bc 8e 75 ec bc
       0.022668624 0.0348699 -0.01788414 -0.028864648
000390 65 35 ad 3d ff 8e d3 bd 75 8d 4e 3d a5 b9 ad 3d
       0.0845745 -0.10330009 0.050427873 0.084826745
0003a0 35 b3 f4 3c ab cc 74 3d 1e c0 a6 bd 23 d5 62 bd
       0.029870609 0.0597655 -0.08142112 -0.055379044
0003b0 e4 6b e4 3d ec be 9f 3d e4 ed 0a 3d 39 62 9d bd
       0.11153391 0.07800087 0.033918276 -0.0768475
0003c0 46 23 2b bd 77 75 5f 3d 96 51 1f bd b5 64 3d 3d
       -0.041781686 0.054555383 -0.038896166 0.04623862
0003d0 bc 4d fa bc 2a 36 8d bd 02 de 5d bd 1a 4e 15 bc
       -0.030554645 -0.068950966 -0.0541668 -0.009112859
0003e0 8d c0 07 bd df 0f a2 3d 38 dd 73 3c 00 c8 73 bd
       -0.033142615 0.079131834 0.014884286 -0.059516907
0003f0 76 0f 68 bc 21 0f 5d 3d e0 87 9b 3d f2 62 78 bd
       -0.014163842 0.053969506 0.075942755 -0.060641237

bias f4 [128]
000000 70 ab 48 bc ac 7e d0 3b 28 67 47 bc a9 c6 35 bd
       -0.012247905 0.0063627567 -0.01217059 -0.04437891
000010 f0 b5 83 3d 55 b4 89 3d df cb 9b 3d 3a 4f 30 bc
       0.06431186 0.06723849 0.07607245 -0.010761077
000020 f6 09 33 bd b4 e1 49 bd d8 09 79 3c 28 0c 93 3d
       -0.04371067 -0.049287513 0.015200101 0.07180053
000030 01 a1 8a 3d d5 29 80 3c 9a 0e 51 3d 9b 30 36 3d
       0.0676899 0.015644947 0.051039316 0.044479948
000040 a2 b7 8d 3d 80 59 9d 3b 2c 73 b2 bd 96 c3 01 3c
       0.06919791 0.004801929 -0.087133735 0.0079201665
000050 1f 07 6d bd 7a 4e 4d 3d f1 7d 7b 3d cf be 12 bd
       -0.05786812 0.05012367 0.061399404 -0.0358265
000060 30 07 37 3d 6a b6 62 bd 91 41 f6 3c 56 ad ec ba
       0.04468459 -0.055349745 0.030060561 -0.0018057029
000070 66 00 cd 3c e4 92 80 bc a1 5d ed b9 6a bf 00 3d
       0.025024604 -0.015695043 -0.00045273922 0.031432547
000080 39 48 06 3c e3 b2 9c bd 9f c4 83 3b 5e 0f 84 bd
       0.00819593 -0.076513074 0.004021242 -0.064482436
000090 35 05 06 3d 42 58 96 3b a3 43 e6 3c 6a ff 88 bc
       0.03271981 0.004588158 0.028108424 -0.016723353
0000a0 b3 82 96 bd a8 61 cc 3d c8 ab a2 3d 52 77 8b bd
       -0.07349148 0.09979564 0.07942921 -0.06809868
0000b0 26 32 03 3d df 0d 6f bd bf 7e 8a bd 10 5e 73 3d
       0.032030247 -0.058362838 -0.06762456 0.059415877
0000c0 fb 1a b0 3c e3 71 a6 3d 77 13 8c bd 5f 60 1d 3c
       0.02149724 0.08127191 -0.0683965 0.009605496
0000d0 d1 51 a0 3d c2 f3 08 3d 64 48 c9 3c 5c c1 9e 3c
       0.07828105 0.03343559 0.024570651 0.01937931
0000e0 a7 c0 9a 3d 5a 43 68 3d a4 dc 47 3d ae 72 d6 bb
       0.07556277 0.056704856 0.048794404 -0.0065444326
0000f0 c7 f5 3a bd e5 7d a0 bd be 4a 48 bd 72 e7 a5 3c
       -0.045644548 -0.078365125 -0.048899405 0.020251963
000100 60 e4 f6 3b 06 39 e8 bb b1 69 5a 3d 7b 92 ac bc
       0.0075345486 -0.007086876 0.05332345 -0.021065941
000110 9c 3f 65 bd 23 7b 96 bd 40 82 84 bc bc ed 04 bd
       -0.055968866 -0.07347705 -0.01617539 -0.032453284
000120 02 82 48 3c ae c9 b3 bd 77 12 82 bd 3e 05 f9 bc
       0.0122380275 -0.08778702 -0.06351178 -0.030398007
000130 14 8a c8 3c 95 3c af 3d bf a1 22 bd df 8e a8 3d
       0.024479903 0.08556477 -0.039705034 0.082303755
000140 5c e2 6b bd 47 28 a0 bd cf 35 0d bd e0 13 a0 bd
       -0.05758892 -0.07820182 -0.034475144 -0.07816291
000150 0d 17 a7 3d 45 b9 61 3d 65 e7 7b 3c 3f 4c 09 3c
       0.081586935 0.055108327 0.015374993 0.008379995
000160 c0 2e 2c bd 71 6d 0c 3d f7 12 a5 bc ba 7f c3 bc
       -0.04203677 0.03428406 -0.020150645 -0.023864616
000170 a2 60 53 bd 40 64 21 3b a0 c9 3e bd f6 da 25 3d
       -0.051605828 0.0024626404 -0.046579003 0.04049202
000180 51 a7 09 bd d8 00 9d bd fb ad 19 3d 8e 6d 2f 3d
       -0.03360683 -0.076661766 0.037519436 0.04282909
000190 24 f8 b3 bd 34 14 8b 3d 5e f4 af 3b 86 01 36 3d
       -0.087875634 0.06790963 0.005369707 0.044435047
0001a0 56 07 34 bd db 97 90 bd 0d 7d 92 3d 45 23 82 bd
       -0.04395231 -0.07060214 0.07152758 -0.063543834
0001b0 f2 df 0a 3d be 29 38 3d 4c c4 36 3d 35 58 a0 bd
       0.033904977 0.044961683 0.044620797 -0.07829324
0001c0 63 08 70 bd f3 9f 9c bd f6 a6 83 bd 80 da fa ba
       -0.05860175 -0.076476954 -0.0642833 -0.0019138604
0001d0 74 b1 6d 3d 50 5e 0b bc 47 5f de 3b 19 43 68 3d
       0.05803056 -0.008506373 0.0067862603 0.056704614
0001e0 aa a0 57 3d 77 8b a3 3b 4a c1 9b 3d eb d3 6b 3c
       0.052643456 0.0049909907 0.07605226 0.014393787
0001f0 5c b3 97 bd 90 5a 07 3c 62 4a 29 bd 39 12 b9 bd
       -0.07407257 0.008261338 -0.041330703 -0.09036679

weight f4 [2, 128]
000000 29 8f d2 bd ca b4 8f be 58 66 f0 bc 04 56 f0 bd
       -0.10281212 -0.2806762 -0.029345676 -0.11735156
000010 a5 4f 12 bd fb 62 5e 3d b4 e0 90 3d 10 4f d2 3d
       -0.035720486 0.054293614 0.07074109 0.10268986
000020 24 7f b0 bc 47 1a 83 3d 28 b2 4a bc c5 7b e9 3c
       -0.021545 0.064014964 -0.012371577 0.0285014
000030 c4 80 50 bd 09 ac 6a bd 43 79 ad bd df e9 0d 3d
       -0.05090405 -0.05729297 -0.084703945 0.034646865
000040 d6 9f 9c bd 9a ca 1b bc 0a c9 4a 3d e8 70 b3 bd
       -0.07647674 -0.009508753 0.049508132 -0.087617695
000050 50 a2 6e 3a 46 f9 1d 3d b8 e6 18 bd 69 46 e7 bd
       0.0009103166 0.038567804 -0.037329406 -0.112927265
000060 a9 c7 e8 3b 20 21 0b be f5 77 d0 3d 62 05 54 bd
       0.0071038795 -0.13586855 0.1017913 -0.051762946
000070 e2 ea aa bd 7d 21 0f bd eb 9d 30 3d 04 f0 c9 3c
       -0.083455816 -0.034944046 0.043119352 0.024650581
000080 0c 17 ee 39 f7 11 34 3b 59 4a 44 3d e8 ca 95 3c
       0.0004541207 0.0027476528 0.047922466 0.01828523
000090 2b 73 5e bd 0b bc a6 bc 4c 5c 5f 3c d1 13 90 3d
       -0.05430905 -0.020353338 0.013632845 0.0703503
0000a0 38 7d 2b bc 36 57 9e 3d 98 4f a1 ba 00 91 3c be
       -0.010466866 0.07731478 -0.0012307046 -0.18414688
0000b0 b0 4d b6 bc 73 5f ee bc d2 34 dd bc 9b 87 b0 bd
       -0.022253841 -0.029098248 -0.027002726 -0.08619615
0000c0 81 62 b8 3d 73 49 68 bd 20 36 f2 3b e1 83 c6 bd
       0.09003163 -0.05671067 0.007391706 -0.09693123
0000d0 c9 3d 60 3c 7f 73 16 bd 1c 2b 76 3b c0 44 be ba
       0.013686606 -0.03673124 0.0037562316 -0.0014516339
0000e0 df 9b 13 3e 1c cb 2d 3e 99 2d be bd 77 61 a4 3d
       0.14414929 0.16972011 -0.09286041 0.080264024
0000f0 57 42 0e be c1 9c af 3d 98 5b ad bc b1 66 df 3d
       -0.13892494 0.0857482 -0.02116184 0.10908259
000100 e9 74 05 be 94 49 42 bd f0 22 53 3d 5e aa 1b bd
       -0.13032879 -0.04743345 0.05154699 -0.03800427
000110 90 5d 36 3d 4d 1d b8 bc f2 84 ea bc f4 5d 31 bc
       0.044522822 -0.02247491 -0.028627846 -0.010825623
000120 45 1a cc bd 6f 0d df bd 41 cb b3 3d 78 ed 2e bd
       -0.09965948 -0.10891234 0.08779002 -0.042706937
000130 e8 cd 02 3d ec 44 ba 3d cc e8 12 3e 7b 99 8f bc
       0.03193465 0.09095177 0.14346617 -0.01752924
000140 c7 5e e0 3c 4c ed 0a 3e 45 e6 59 bd 0a b9 3d bd
       0.027388943 0.13567084 -0.053198118 -0.046319045
000150 04 18 bb bc 98 c4 90 bd a5 40 62 be da 68 7f bc
       -0.0228386 -0.07068747 -0.22094972 -0.015588963
000160 f2 d2 38 3d 21 67 db bd 68 8b ad 3d cc 11 0f 3e
       0.045123048 -0.1071303 0.08473855 0.13971633
000170 9f 90 40 3e 57 3b 22 bd 36 12 4b 3d 64 c9 8e bb
       0.18805169 -0.039607372 0.049577914 -0.0043575037
000180 df 8d 2b bd 43 ef 19 3c d5 22 b9 3d da 57 9b 3d
       -0.041883346 0.009395423 0.09039847 0.07585116
000190 96 8b 09 be 12 78 81 bd 97 07 c2 bd 62 50 4f be
       -0.13432154 -0.0632173 -0.09474104 -0.20245507
0001a0 30 88 2c bd 4d bf 27 bd 64 a2 7f bd 2a f4 08 bc
       -0.042122066 -0.040953923 -0.062410727 -0.0083589945
0001b0 e8 04 7b bc 08 1c 26 3e 71 11 de 3c 10 9b 88 bb
       -0.015320994 0.1622163 0.027107926 -0.0041688755
0001c0 d3 6e 81 bc b2 db cc 3d 7a 46 99 3d c4 d6 9a 3d
       -0.015799915 0.10002841 0.074841455 0.075604945
0001d0 00 12 0c 3e 1d 52 3e bd 94 f7 16 3d 5b eb cf 3c
       0.13678741 -0.046465028 0.036857203 0.02538078
0001e0 2d a4 7e bd 5c 79 0e 3e f4 5f dd 3b 05 51 aa bd
       -0.06216829 0.13913482 0.0067558233 -0.083162345
0001f0 d3 26 5b 3c 8c c1 a0 3c b8 6a ca bb 46 1f d1 bc
       0.013375956 0.01962354 -0.0061772726 -0.025527608
000200 b9 14 c5 3d 46 41 8d 3e d9 fe 7d bd d1 93 f5 3d
       0.09623093 0.27588862 -0.06201062 0.11991084
000210 a7 42 65 3d 3e 0d 83 3d e7 fd c4 bc ee b8 55 be
       0.055971768 0.0639901 -0.024046851 -0.20871326
000220 4a ed a7 bc 5f f0 6e bd b4 2d 4f bd c7 b7 ad 3d
       -0.02049889 -0.058334704 -0.050580695 0.08482318
000230 c7 9a 95 3d 61 80 bb 3d f7 98 1e 3d 56 51 d2 3d
       0.07304912 0.09155346 0.038720097 0.1026942
000240 37 25 df 3d 51 21 2a 3d dd bd 3f 3d 9b 98 95 bc
       0.1089577 0.04153568 0.046811927 -0.018261245
000250 62 20 88 bc f6 a2 16 bd 40 de ab 3b 25 86 3f 3e
       -0.016617004 -0.036776505 0.005245 0.18703516
000260 d6 4d 1e bd b6 1a ba 3d ed bc 2f 3c 1e e9 19 bc
       -0.03864845 0.09087126 0.010726196 -0.009393958
000270 95 f5 5d bd bb d3 34 3e 39 97 01 be 2c 37 a9 bd
       -0.054189283 0.17658894 -0.12655343 -0.08262476
000280 e8 27 75 bd 2a b9 a4 3c 81 be 5a 3d 5d 5a 98 3d
       -0.05985251 0.020107824 0.053404335 0.074391104
000290 a6 33 d5 bc e6 5f 77 3b f8 c1 d9 3d cc f1 fc bc
       -0.026025604 0.003774637 0.106327 -0.030877016
0002a0 d7 ce a2 3d 99 5e 03 be ae 5d 1b 3e 58 50 87 3d
       0.07949608 -0.12829055 0.15172455 0.06607121
0002b0 70 65 0a bc 51 69 ac 3d d5 7a 96 3d 07 f2 39 3e
       -0.008447036 0.08418525 0.07347647 0.18158732
0002c0 04 36 05 bd b2 a7 36 bc ec 46 9b 3d 6c f0 86 3d
       -0.032522216 -0.01114838 0.07581887 0.065888256
0002d0 c1 ec a0 3d 2e 54 26 bc f6 01 9a 3c fd c5 93 3d
       0.07857657 -0.010151906 0.018799763 0.07215498
0002e0 ac 81 00 be 0b 10 2d be f5 c3 0c ba e3 f7 d9 bd
       -0.12549466 -0.16900651 -0.0005369776 -0.10642984
0002f0 60 9e b8 3c bc 9e ef bd 1b b4 08 bd 53 bb 10 3d
       0.022536457 -0.11700198 -0.033374887 0.035334896
000300 e8 de 20 3e b5 1e b2 3d 53 df 0d 3d e2 aa ae 3d
       0.15710032 0.08697263 0.034636807 0.08528687
000310 c6 d0 13 be 4c 68 4e 3c a8 74 01 bd 9d cf 53 bd
       -0.1443511 0.0125981085 -0.031605393 -0.051711667
000320 7a ef 0d 3e e6 ac ea 3d 0d 47 79 bd d5 d5 39 bd
       0.13860884 0.11458759 -0.060858775 -0.04536994
000330 5b 9c ab bd 50 8d b5 bd 37 2c 2a be 13 9a e9 bd
       -0.08379432 -0.08864844 -0.16618429 -0.114063405
000340 57 dd a6 3a 01 a3 12 3b 8f ca 8c bc 9d bd a7 bd
       0.0012730759 0.002237499 -0.017186431 -0.08190463
000350 e9 a4 83 3d f3 b5 e4 3c d9 53 54 3e e7 72 88 bd
       0.064279385 0.027918791 0.2073511 -0.06662541
000360 92 5c 59 3d b6 57 0e bd c3 61 40 be 33 b9 45 be
       0.053066798 -0.034751616 -0.18787293 -0.19308929
000370 0a 41 3f be bf 37 0c bd 8f 4d 86 3d fe 34 2a 3d
       -0.18677154 -0.03423285 0.06557762 0.041554444
000380 e0 7d 22 3d 9a e0 2d 3c b0 bb 5b bd cf a4 83 bc
       0.039670825 0.010612631 -0.05364579 -0.016069798
000390 29 b5 e7 3c ce 8a 9b bd 50 27 12 3c cf 83 0a 3e
       0.028284626 -0.07594834 0.008920506 0.13526843
0003a0 7f 4b 23 3d 0f 99 ac 3c af f1 70 3c 19 52 4b bd
       0.03986692 0.021069078 0.014706059 -0.04963884
0003b0 90 29 26 bc 79 ef c1 bd d8 da 93 bc 34 e4 a1 3d
       -0.010141745 -0.09469504 -0.018048689 0.079048544
0003c0 3d 1a 38 3d 7b d6 e2 bd 70 46 a8 bd c5 ad 57 3c
       0.044946898 -0.11076065 -0.0821656 0.0131639885
0003d0 d4 29 b8 3b 5d 28 69 bd 28 94 9d 3d 63 76 1c 3d
       0.0056202207 -0.05692326 0.07694274 0.03819884
0003e0 6d 6a be bc 14 65 6d bd b6 dd bb bd ac 25 e5 bc
       -0.023244107 -0.057957724 -0.091731474 -0.027972065
0003f0 1c b4 90 3d d7 4a a1 3d c5 9a 28 3d 33 1a 07 3e
       0.07065603 0.07875603 0.041163225 0.13193588

bias f4 [2]
000000 58 ac c8 3d 0f c1 3f be
       0.09798497 -0.1872599
