graph2vec_optimization/model/40_mlp_graph2vec_opt_1.pt (torch_old, 382907 bytes, 6 tensors)

weight f4 [128, 600]
00000000: 4d80 a3bc 2048 a3bb 202b 7c3c 6ce2 de3c
00000010: 670f 24bd c751 20bd 524a 063d e760 00bd
00000020: 9067 903b 0c06 c93c b693 56bc b1f0 babc
00000030: 201e 143c 00e6 8f3b 7cc9 a73c 200d c9ba
00000040: e014 ce3b 8da1 ffbc 9415 d03c b034 8ebb
00000050: a247 143d 1090 4dbc f8e1 94bc 7cfc 4e3c
00000060: d420 ee3c 56c5 223d c068 65bb f052 d3bb
00000070: e4dd 893c 4425 c43c da33 e0bc f0f0 f2bc
00000080: 947c 3a3c f0f9 eebb c712 95bc f82b 2d3c
00000090: 7a49 74bc 4457 b63c d8a3 363c 7431 5fbc
000000a0: 3847 b73c b843 5c3c a8ac 8dbc d90c cabc
000000b0: c460 f93c 7093 233d 9077 1f3d f5d0 d7bc
000000c0: 142a 183c 8068 063a 0045 ce3b 1841 793c
000000d0: 32a3 54bc b6fd 1c3d e0f3 853b 4e4f a1bc
000000e0: 98b1 0b3c 189a b53c 8b56 17bd 4ab6 163d
000000f0: d288 113d 779b 86bc 602d f23b 9fed 8abc
00000100: 6ee5 10bd ccae c93c d04b e4bb 3658 fbbc
00000110: 0ee1 15bd e0ec debb 4051 733b 3cff 8b3c
00000120: 6b08 20bd e410 5abc f21f 9e3c 0c88 c23c
00000130: a0a8 fb3c f498 09bc f414 c13c d40a eb3c
00000140: acff f2bc a48b 733c 0838 81bb 25b4 8fbc
00000150: e0aa bb3a 308d 243b 20ce d4bb 2eca 1e3d
00000160: defb 0c3d c86d fa3c b8b3 96bb e610 1b3d
00000170: 80c5 323c 8889 bf3b 203e ba3b e8f9 853b
00000180: b0fe 0e3c 8014 bb3b a83c 683c a234 7fbc
00000190: 4c50 053c d0b0 c23c e416 21bd 3ca7 ecbc
000001a0: 8dd9 15bd 2aa4 9e3c b813 cb3c 18f5 23bc
000001b0: 0057 f23c 2431 2cbc 76d4 0e3d d8c3 e33c
000001c0: 5669 0b3d fad2 1b3d 201e fbbc 00af e539
000001d0: 0aae 94bc 7419 d5bc 271b bcbc 1351 a7bc
000001e0: f4be b93c 40d0 56bc 8495 1cbc 607d 0cbd
000001f0: 281a 65bc 5604 833c d8f8 1d3d 3c53 b83c
00000200: bcfb 133c 6628 8b3c aed1 173d 0020 5138
00000210: 2fec 0fbd b10e 83bc c0de a2ba 622a 123d
00000220: e059 8a3b 9ca9 debc 0050 173d 0ce6 e63c
00000230: 6ec0 ccbc 4ebd 1a3d e29c 6cbc 34b1 e53c
00000240: 0ac4 033d a47d e3bc 4a11 0e3d cc3f c23c
00000250: ec80 17bc 2cc2 eabc 3640 a6bc 28c9 76bc
00000260: b01b 9b3c 06df 103d f04e d0bb 9896 c23c
00000270: ae6f c5bc c040 0dbd 56df 20bc b84c 033d
00000280: 1867 243d 58ca 863c acb6 1e3d e27d 1e3d
00000290: d0a6 0d3d 5843 17bd 6c15 503c caf8 4cbc
000002a0: f440 283c 5e4d 2dbc 1005 88bb b09a 863c
000002b0: 47cd 89bc d80f e9bc 38bd 9dbb 07cd edbc
000002c0: 5aee 03bd aa73 243d 8070 823c 0022 6fb9
000002d0: 80d8 e93a a113 98bc 0014 3638 c180 f0bc
000002e0: 00f3 34ba 56cd a73c e06a 7bbb 8ae3 1bbd
000002f0: ceac 5abc a4d1 0c3d 8049 043c e020 36bc
00000300: 067d 23bd b00e a03b 4285 08bd 9c25 603c
00000310: d03a d73c b887 d43c c69d e3bc a0e2 90bc
00000320: a194 abbc e010 003c 9ca1 063d ecd2 3d3c
00000330: 20d6 dd3c ed05 99bc dc59 bb3c 784c 32bc
00000340: 4845 e13c 31d2 dfbc c802 373c 5476 063c
00000350: b369 8bbc 4011 f1bb a822 e43b c08f 07bd
00000360: e0b8 b23a 2361 b3bc 50c5 733c b0a2 973b
00000370: 2888 dd3c 2075 573c 040d e4bc 644f c33c
00000380: 00ac e8bb 349d 10bc 0099 7fba 4a49 133d
00000390: 80b2 6aba 2410 a03c 4c2c 37bc 0ef6 043d
000003a0: a8b5 01bd 60ce 31bb 9203 d9bc 40c5 c23c
000003b0: a03f 7f3c 1457 76bc 2c27 b73c 30e7 243d
000003c0: 7866 c4bb 504f e83c 1044 2c3b ac7f 243d
000003d0: 82e2 1cbd ed0f 27bd dee1 1c3d 4ccc b73c
000003e0: 5270 103d 15bd 8fbc 1883 2a3c dc4c 803c
000003f0: 3b4c 0cbd b0a3 1a3d 6435 173c 1959 9fbc
-0.01995864 -0.004982963 0.015391141 0.027207576 -0.04005375 -0.03914049 0.03278572 -0.031342413
0.004406877 0.024539016 -0.0130967405 -0.022819849 0.0090403855 0.004391432 0.020481817 -0.0015338995
0.0062891096 -0.031204963 0.025400914 -0.004339777 0.036201127 -0.012546554 -0.018174157 0.012633439
0.029068388 0.039738975 -0.0035005063 -0.006449096 0.016829439 0.02394355 -0.027368475 -0.029655904
0.011382241 -0.0072929785 -0.01819743 0.010569565 -0.014910096 0.022258408 0.011147462 -0.01362263
0.022372827 0.01344388 -0.017294243 -0.02466433 0.03044165 0.03993553 0.038932383 -0.026344756
0.009287376 0.0005127266 0.0062948465 0.015213273 -0.012978362 0.038327895 0.00408791 -0.019691136
0.008526228 0.022168204 -0.03694777 0.03679494 0.035530873 -0.016431553 0.007390663 -0.01695901
-0.03537505 0.024619482 -0.0069670454 -0.03068171 -0.036591582 -0.00680314 0.0037127286 0.017089479
-0.039070528 -0.013309691 0.019302342 0.023746513 0.030720055 -0.008398283 0.023569562 0.028691687
-0.02966293 0.014864836 -0.003943447 -0.017541954 0.0014317892 0.0025108568 -0.0064942986 0.038767032
0.034419887 0.030569926 -0.004599061 0.037857912 0.0109113455 0.0058452524 0.0056836754 0.004088629
0.008727714 0.005709231 0.014174618 -0.0155765135 0.00813682 0.023765951 -0.03932847 -0.028888337
-0.036584426 0.019365389 0.024789676 -0.010007165 0.0295825 -0.010509763 0.034870587 0.027803347
0.034036003 0.038043 -0.030654013 0.0004380867 -0.018149395 -0.026013114 -0.022962166 -0.020424401
0.022674061 -0.013111174 -0.009557132 -0.034299254 -0.013983287 0.015993278 0.038567394 0.022500627
0.009032186 0.016987037 0.0370652 4.9859285e-05 -0.03513735 -0.015998216 -0.0012426004 0.03568495
0.0042221397 -0.027180485 0.03694153 0.028185867 -0.024994101 0.03777819 -0.014441701 0.028038599
0.03216938 -0.027769871 0.034684457 0.023712061 -0.009247046 -0.028657041 -0.02029429 -0.015062608
0.0189341 0.03536894 -0.0063570663 0.02375345 -0.024101105 -0.03448558 -0.009818872 0.032055587
0.04013738 0.016453907 0.03874843 0.03869427 0.034582913 -0.03692946 0.01270042 -0.012510488
0.010269392 -0.010577528 -0.004150994 0.016431183 -0.016821517 -0.028449938 -0.0048138164 -0.029028429
-0.03220973 0.04014937 0.015922785 -0.00022805482 0.0017841011 -0.018564047 4.3410808e-05 -0.02935827
-0.0006902665 0.020483654 -0.0038363263 -0.038058795 -0.013346864 0.034379616 0.008074164 -0.011116236
-0.039914154 0.0048845634 -0.03333021 0.013680842 0.026273161 0.025943622 -0.027785193 -0.017686188
-0.020944895 0.007816523 0.032868966 0.011585932 0.027079642 -0.018679583 0.022869997 -0.010882489
0.027498856 -0.027321907 0.011170097 0.008206923 -0.017018175 -0.0073567927 0.006962139 -0.033096075
0.0013635419 -0.021896904 0.014878586 0.004627548 0.027042463 0.013150483 -0.027838238 0.023841567
-0.007100582 -0.008826543 -0.0009750277 0.035958566 -0.000895299 0.019538946 -0.011179995 0.03246122
-0.03166738 -0.0027131066 -0.02649096 0.023775697 0.015579134 -0.0150354095 0.022357546 0.04025954
-0.0059936605 0.028358132 0.0026285686 0.04016082 -0.038301952 -0.040786672 0.03830134 0.022436284
0.035263367 -0.017546216 0.010407232 0.01566165 -0.034252387 0.03775376 0.009229038 -0.019451665

bias f4 [128]
00000000: 28b6 d6bb c392 07bd e60b da3c 7a7f 6a3c
00000010: 1df4 1dba 2454 5c3c 0e63 1cbd ba13 633c
00000020: 613a 2c3d 4c4c beb9 3a85 223d d712 8dbc
00000030: f769 243d a9f8 be3c ac59 0d3d 7b2e 12bd
00000040: e0a9 adbc b8bf 903a 1d55 cabc f34f b93c
00000050: 3ac9 193d 655c 3dbc a2b9 0abc d133 1bbc
00000060: 0600 42bd 5100 35bd 52cb bbbc 3a64 1b3d
00000070: be8b 0b3d d349 123d 4842 e63b 796d d2bc
00000080: 3e9c eb3c 456e 04bc 4382 63bc 23c9 7e3c
00000090: 3321 c3bc 1b4b 1a3c f25e c53b c8b3 243c
000000a0: 6bf2 82bb 003e 63b9 4810 8d3b 990c 1fbd
000000b0: 7dfa edbc 9e36 c2bb 035a 0ebc 8e5f 9a3b
000000c0: 715d dc3c 004d 22bd f5b5 8ebc d598 e3bc
000000d0: 8492 8d3c 8d14 dabc 27c5 603c 97ac e13c
000000e0: ddb3 d3bc 6336 783c bd9f 963b da1e 843c
000000f0: 5d19 9f3b e4f7 aabb d5af 11bd fb78 0e3d
00000100: 3d3c c0bc eb54 dbbc c982 473c 3a70 123d
00000110: 5b68 aa3c 1709 cb3c 1d70 30bb 01a3 8c3b
00000120: 8ce6 c73c 897a 4cbc a7ca 863c c2e8 85bb
00000130: b398 0b3d 73b0 063d 2fd7 b23c a5c3 c13c
00000140: ab62 cc3c 829f ea3c 86a7 943c 5a3d b53c
00000150: 040e a8bc 9f06 393b 47f6 64bc dc8e 6fbc
00000160: 1eec 64bc 6010 ffbc b5c5 38bc 1631 2d3b
00000170: d171 25bc 6cda 95bc 640a 37b9 b1c8 003c
00000180: 2c0d 313d e75e c53b a601 df3c 2c75 843b
00000190: 4c6d 843c cf15 b1bc 84f1 f03c 8f7c a33b
000001a0: 81bd 743c c717 5e3b 8ba0 8cbc a18e b13b
000001b0: 996d 673c e859 dabc c284 debc 35ab 123c
000001c0: 354e 12bd c21d 173d 6ce9 41bd 2def 99bc
000001d0: 8f3b d7bc 1d98 a23c 2cb8 b1bc 4f81 7e39
000001e0: 1d67 a9bc c1aa d2bc 7291 ea3c 0483 09bd
000001f0: 9cf5 13bb cfd5 d3bc 9441 9dbc 29d6 a3bc
-0.0065524764 -0.033098947 0.026617002 0.014312619 -0.00060254504 0.013447795 -0.038180403 0.013859684
0.042047862 -0.0003629647 0.039677836 -0.017220898 0.04014012 0.02331193 0.034509346 -0.03568886
-0.021199167 0.0011043465 -0.024698788 0.02262113 0.03754542 -0.011557673 -0.00846711 -0.009472803
-0.047363304 -0.044189755 -0.0229241 0.03793738 0.034068815 0.035714936 0.0070269443 -0.025686966
0.028761026 -0.008082931 -0.013886037 0.015550884 -0.023819542 0.009417321 0.0060232813 0.010052629
-0.0039961836 -0.00021671504 0.0043049194 -0.038830373 -0.029050106 -0.005926921 -0.008688453 0.004711098
0.026900025 -0.039624214 -0.017420748 -0.027782837 0.017281778 -0.026621128 0.01371888 0.027548118
-0.025842601 0.015149686 0.004596679 0.016127992 0.0048553185 -0.005217539 -0.035568077 0.034783345
-0.023466224 -0.02677389 0.012177178 0.03575156 0.020801714 0.024784608 -0.0026922293 0.0042918925
0.024401926 -0.0124803865 0.016454054 -0.004086585 0.034081172 0.03288312 0.021831123 0.02365286
0.024949392 0.028640512 0.018146288 0.022123981 -0.020514496 0.0028232706 -0.013974733 -0.014621463
-0.01397231 -0.031135738 -0.011277606 0.0026426963 -0.010097937 -0.018292628 -0.00017456111 0.007860349
0.043225452 0.006023276 0.027222466 0.0040422883 0.016165398 -0.021616844 0.029412039 0.004989214
0.014937759 0.0033888684 -0.017166397 0.005418614 0.014125251 -0.026654199 -0.027162913 0.008951952
-0.035719115 0.036893614 -0.04734175 -0.018790806 -0.026273517 0.019847924 -0.021694265 0.00024271499
-0.020679051 -0.025716187 0.028633807 -0.03357221 -0.0022576815 -0.025858788 -0.01919631 -0.01999958

weight f4 [128, 128]
00000000: 007c b73c 5d69 a93d 6c25 09bd 9473 bcbc
00000010: 6801 cabc 76f7 81bd 2148 32bd d782 04bd
00000020: c0ac 7c3b 86e7 093d 627f 6c3d ccca ccbc
00000030: a00d c93b 0b2c 953d fb94 813d ad7f 33bd
00000040: 1781 4abd 006e 3539 f5b9 a33d 212f ab3d
00000050: a4b2 96bd d9b6 91bd a85b 74bc 70d2 893c
00000060: 9af0 4e3d 62de 313d c3a3 a33d d235 343d
00000070: aae5 1d3d 12e8 353d 782d a2bc 7db3 6fbd
00000080: 7b59 a43d a8a7 de3c 82fc 3f3d e305 ac3d
00000090: 6fc1 b13d 6633 0fbd d8fb d23a 28e2 a2bd
000000a0: 9ec5 f3bc d6f8 663d 1569 9cbd e804 26bc
000000b0: e16a 77bd 68c1 423c a60b 78bd 7c63 b83c
000000c0: c837 de3c 93b7 6bbd 4bf3 23bd c0eb adbc
000000d0: aa39 343d 5dee 943d c8da 88bd 2cb3 ffbc
000000e0: fee5 783d 9a0a 523d 9aa3 783d 400a 83bc
000000f0: 8f2f 853d 9a28 b3bd d4df 9a3c b676 323d
00000100: 08e5 8c3c a87e e0bc d6bb 553d 0dc6 a7bd
00000110: 40df 923b 1a83 8cbd a847 f9bc c1f6 a8bd
00000120: 7817 8ebc 67ab 80bd 279e 0abd 83ac 31bb
00000130: 936d 893d c93b 99bd c205 663d 8008 e53b
00000140: 2a63 a0bd 2883 7bbc bf19 1dbd d8e9 983c
00000150: aab8 1f3d 20bf d03c 084e e23c 7f12 993d
00000160: d2f1 3c3d 0c71 8cbc be93 2e3d 68fe 81bd
00000170: fb83 b13d d28f 2e3d 1cfd 8dbd bc06 91bc
00000180: 1fbf b2bd 9605 093d 2dad 5fbd 320e 40bd
00000190: 369d 3e3d a89b 60bc 009b a8b9 3720 9f3d
000001a0: 9f41 943d 9e1e 733d 1d67 8d3d cee9 223d
000001b0: 7e08 91bd 2edc 79bd 56b5 433d 1663 86bd
000001c0: 59fe a23d 68d9 10bd 2fb7 9b3d c55a 49bd
000001d0: 527a 473d c2a8 73bd b2a8 40bd 1cf5 a1bd
000001e0: 44b5 47bd d37b 95bd bc78 acbc 3ce0 5ebd
000001f0: 1d2d b43d 24b9 7abd 785d b8bc 4700 9e3d
00000200: 364f e4bc 5585 cfbc 760b a53d a95a 353c
00000210: 64f3 2cbd 1bdd 75bd 4260 f8bb 66ca 9e3c
00000220: 606c bd3c 08a5 9f3c c0fd 353d bb91 7bbc
00000230: 89d7 3ebd b219 b63b 7ede 3ebd dc47 43bc
00000240: 1546 8bbd 66f4 45bc aa01 9a3d 9517 b13c
00000250: 163a 953d 735d adbc b6f5 493d 049f 8e3d
00000260: f174 97bd 9e49 65bc 76b3 513d 34be 30bd
00000270: 5b51 2c3d decf 683d c1a2 e1bc c6f1 a1bd
00000280: ed00 81bd 62cd f23c 2fb8 3a3d abee e83a
00000290: f5ea 7ebd a316 b23d 8d3f 3c3c 98f8 9bbd
000002a0: 40f1 a63c 50a8 f73c 1426 aabb 9092 a83d
000002b0: 53b3 24bd 90e9 d63c 72c4 63bd 4f27 363d
000002c0: 8ee3 31bd a5b1 273d f1bf d03c 903d 6c3d
000002d0: de3c 563d e4fa 0c3c 0d37 183c 54f5 28bd
000002e0: 5d3d 8d3b 0290 06bd 5b6e 26bd a623 6dbd
000002f0: cb49 5d3d 469b eebc b4b5 193c a1b3 7b3d
00000300: c3f4 85bc 0f59 5ebd b301 b83d c861 223d
00000310: b72f 923d acbd 833d 9b4c 88bd 1dec c1bc
00000320: e356 e2bc 86ef 273c ca16 183c 6585 973d
00000330: eebc fcbc 7cd2 97bd af53 a43d 4f58 c33d
00000340: d3b9 1a3d 881b 80bd 0144 6b3d 8db2 d43c
00000350: 3fe1 c33d 261e 47bd 5fa9 0fbc 4ec2 223d
00000360: 93ec 413c 3107 27bd ec51 95bd 1d0a 873d
00000370: 3d8e 9d3c 2cb9 a9bd d8b0 a4bc c006 3b3d
00000380: f702 b83d cac7 613d 01fb 59bd ab06 963d
00000390: 5d50 aa3d cf52 9f3c e8be 78ba 82ab 50bd
000003a0: 743a 13bd 0f4c 8ebd 41b2 3d3b 678d 9dbd
000003b0: 8c63 373d bbd0 adbc c5a3 4f3d a2b9 983d
000003c0: 88ba 99bd 94e8 0cbd b141 8a3c b623 5b3d
000003d0: b2aa 9a3d 688a 293c f5b5 1c3d bc9f 943d
000003e0: bb71 f8bc 6a31 8cbd de78 833c cc3d ed3c
000003f0: 45c2 dc3b d8e1 053d 1549 99bd b8a2 bebd
0.022397995 0.082720496 -0.033482954 -0.02300433 -0.024658874 -0.063460276 -0.04352582 -0.03235134
0.0038555115 0.033668064 0.05773867 -0.024999045 0.0061356574 0.07283791 0.06327244 -0.043822933
-0.049439516 0.00017302483 0.07994453 0.083585985 -0.07358292 -0.071149535 -0.014914431 0.016823977
0.050522424 0.04342497 0.079902194 0.04399664 0.038549103 0.044410773 -0.019797072 -0.058520783
0.080248795 0.027179554 0.04687167 0.0839956 0.08679473 -0.034961127 0.0016096784 -0.07953292
-0.029757317 0.056389652 -0.0763723 -0.010133006 -0.060404662 0.011886932 -0.060557984 0.022508375
0.027126208 -0.057548117 -0.040026944 -0.021230578 0.044000305 0.07272027 -0.06682354 -0.031213365
0.060766213 0.05127964 0.060702898 -0.015996099 0.06503212 -0.087479785 0.018905558 0.043570243
0.017199054 -0.027404144 0.052181087 -0.08192072 0.00448218 -0.06860943 -0.030429676 -0.082501896
-0.017345175 -0.062826924 -0.033842232 -0.0027110882 0.06710353 -0.07482106 0.056157835 0.0069895387
-0.07831414 -0.015351094 -0.03835463 0.018666193 0.03899447 0.02548176 0.027625099 0.07474231
0.046129055 -0.017143749 0.042621367 -0.06347352 0.086677514 0.042617626 -0.069330424 -0.017703407
-0.0872786 0.033452593 -0.054608513 -0.046888538 0.046536647 -0.013708986 -0.0003215894 0.07769816
0.07239079 0.05935537 0.06904433 0.039773755 -0.07081698 -0.061000995 0.047780357 -0.06561868
0.07958669 -0.035363585 0.07603299 -0.04915883 0.048700638 -0.059487112 -0.04703588 -0.07908079
-0.048756853 -0.07299008 -0.021053664 -0.054413065 0.08797667 -0.06121172 -0.022505507 0.07714897
-0.027869802 -0.025332132 0.080588266 0.011068978 -0.042224303 -0.060025316 -0.007579834 0.01938362
0.023122966 0.019487873 0.044431448 -0.015354569 -0.04659227 0.0055572623 -0.046598904 -0.011918988
-0.068004765 -0.012082195 0.07519849 0.02161769 0.0728647 -0.021162724 0.049306594 0.069639236
-0.07395352 -0.0139946025 0.051196538 -0.04315014 0.042069774 0.056838863 -0.027543427 -0.07907443
-0.06299005 0.02963895 0.045585807 0.0017771324 -0.06223579 0.08695724 0.011489761 -0.07615775
0.020378709 0.030231625 -0.0051925275 0.082310796 -0.04021008 0.026234418 -0.055607267 0.04447108
-0.043429904 0.0409409 0.02548215 0.057675898 0.05230414 0.008604739 0.009290469 -0.041249588
0.0043102936 -0.03285218 -0.040632587 -0.057895325 0.054025453 -0.029126775 0.0093817 0.061450604
-0.016352063 -0.05428415 0.08984699 0.039644033 0.07138007 0.064326614 -0.06655236 -0.023672158
-0.027629321 0.010249978 0.009282777 0.0739849 -0.030851807 -0.074131936 0.08023774 0.09538328
0.037774872 -0.06255251 0.0574379 0.025964046 0.09564447 -0.048612736 -0.008768409 0.039736085
0.011836189 -0.040778343 -0.07291016 0.06593726 0.019232864 -0.08287272 -0.020103857 0.045660734
0.089849405 0.055122174 -0.05321789 0.073254906 0.08316109 0.019448666 -0.00094888965 -0.050944813
-0.035944417 -0.06948101 0.002894536 -0.07692986 0.04477267 -0.021217695 0.050693292 0.07457282
-0.07506281 -0.03440149 0.016877027 0.053500853 0.07552089 0.01034794 0.038259465 0.072570294
-0.030327668 -0.068453625 0.016048845 0.028960131 0.006737026 0.032686085 -0.074846424 -0.0930838

bias f4 [128]
00000000: 1be1 69bd f97a e9bc b2d1 64bd 1d79 613c
00000010: 0254 7cbd 0275 363d c3f6 2ebd 4717 b4bd
00000020: f096 1c3d 11c8 963d 18bf 9b3d 0c94 7bbd
00000030: 3907 0dbd 382b 263c 852c 8c3d d4be 993d
00000040: c13c a0bd d851 06bd b432 5a3b 0fae 973d
00000050: 4919 b1bc 64c3 bbbd f529 9abd b804 903d
00000060: 7bd3 e7bc dffd 69bd 3451 ab3c cbdd 0bbd
00000070: 1c00 65bd 385a 31bd 083a 7c3c 391a 213d
00000080: 1fa9 1abd ce74 b1bc 3aeb 163d 76e1 10bd
00000090: f327 633d 96bb 553d bb73 923d 3273 47bd
000000a0: c8e3 8d3d 8530 c93c 818e 143d a8c4 9f3c
000000b0: 0de8 793c ac51 92bd 5fe7 81bd 4df6 b13d
000000c0: fffe 853d a0de 8d3d 82a9 2f3d 490f 82bd
000000d0: 2882 c23c c96b b2bd ff93 85bd 8ca1 5c3d
000000e0: 5ab5 4cbd 576d c73d 69aa e7bc 5028 593d
000000f0: be30 773d 96d2 b33d a4c8 4ebd ae35 56bd
00000100: 1023 5bbd 0f65 a4bd f4dd 05bd 5237 693d
00000110: fb6a dd3c e65d 4e3d f32e 67bd 4696 713c
00000120: 5929 24bc 7514 4a3d 0287 61bc 7087 833c
00000130: 7c49 933b e83c 6abd e91a 063d 788a 013d
00000140: 6cee 5abd 29cd 6dbd 8dd4 ae3d ef33 92bd
00000150: da47 303d 0aa0 94bd 1fc1 2c3d 15ba 793d
00000160: 4ffa 8c3d 7e95 673c 4fe2 93bc 4f2b 4cbb
00000170: 76cf e9bc 61de 6ebd 5f0c a3bc 1df3 9f3d
00000180: 4f76 ae3d 65f6 283d d89e ed3b 6106 073d
00000190: 3c2e 713d 9d21 04bd c7d3 f03c 8511 9fbd
000001a0: 8013 b03b 857a e0bc 63c3 59bd afcc b33d
000001b0: 7e16 a83d 84d5 47bd 3f51 163b f01c 87bd
000001c0: 2c86 4d3d c2dd 683d b322 c2bd ceb1 533d
000001d0: 8da2 88bb fd60 57bc 99fe 41bd 3abd 4fbd
000001e0: 2dfd 8b3d 709e b63d 7a7d 87bd c71f a03d
000001f0: 9efc 843d 2430 1a3c 3f2a dc3b 68d0 a6bc
-0.057099443 -0.02850102 -0.055864044 0.013761786 -0.061603554 0.04454518 -0.0427158 -0.08793502
0.038229883 0.073623784 0.076048076 -0.061420485 -0.034430716 0.01014214 0.06844429 0.07507101
-0.07824088 -0.032792896 0.0033294382 0.07406246 -0.021618502 -0.09168127 -0.07527534 0.0703215
-0.028299084 -0.057126876 0.020912744 -0.034147065 -0.055908307 -0.04329893 0.015394695 0.03933165
-0.037758943 -0.021662142 0.036845423 -0.035371266 0.05545802 0.05218085 0.0715098 -0.048693843
0.069282115 0.024559269 0.036268715 0.019502953 0.015253079 -0.07144484 -0.06342959 0.08689556
0.06542777 0.06927228 0.042886265 -0.06350572 0.023743704 -0.08711965 -0.06522369 0.053865
-0.049977638 0.09737652 -0.0282795 0.05301696 0.06034922 0.087804005 -0.050484315 -0.052297287
-0.053500235 -0.08027088 -0.032682374 0.056937523 0.027028551 0.050382517 -0.05644126 0.014745301
-0.010019624 0.049335916 -0.0137650985 0.016055793 0.004494844 -0.05718699 0.032740507 0.031626195
-0.053450033 -0.058056984 0.085366346 -0.07138812 0.043037273 -0.072570875 0.042176362 0.060968477
0.0688368 0.014134763 -0.018052248 -0.0031153744 -0.028541308 -0.058317546 -0.01990336 0.07810042
0.08518659 0.041250605 0.0072516017 0.032965068 0.058881983 -0.03225862 0.029397858 -0.077670135
0.0053734183 -0.027402172 -0.05316485 0.08779275 0.08207415 -0.04878761 0.002293661 -0.06597316
0.050176784 0.05685211 -0.094792746 0.05168324 -0.004169768 -0.013145682 -0.047361944 -0.05071757
0.06835399 0.08916938 -0.0661573 0.07818561 0.064934954 0.009410892 0.0067189033 -0.020363048

weight f4 [2, 128]
00000000: 7a77 463d ae6c 3c3d a678 463d 9cff 2d3c
00000010: f2b6 bebc 1817 1dbe 1a8c a2bd 8ba0 673d
00000020: 7d1c b1bd 35aa 363d 94e2 ebbb 1e3e f3bc
00000030: da97 4f3e b0f4 3a3c 16c2 adbd abd7 86bd
00000040: fae3 ebbc fa52 b63d 2984 10be f43b ac3c
00000050: 1363 28be 9a2e 1abd 583b a93d 4bb0 88bd
00000060: 7aae 153e 18ef bfbd c385 cf3d b89e 9bbc
00000070: db70 753d d9e1 eb3d 305c 1a3c ae8e a3bd
00000080: 6a51 30bc ed06 e53c 57cb e83d c371 60bd
00000090: 3ed4 bd3c 00b7 e9bc 5940 b13c 2a37 6ebe
000000a0: 6a6a 41be b140 393d 74f8 75bd 0c82 1f3d
000000b0: 28a9 ac3d c155 f13d cc07 b0bd 0d88 8d3d
000000c0: 5b7e aa3d 43d4 903d 30f3 84bd b771 edbb
000000d0: 99af 833d 2db6 32be 6b0b 773d 9ca5 263c
000000e0: 48d4 9d3c 9fdd 403e c05c 0dbe 6a74 0dbe
000000f0: e157 af3d f167 9dbc 4d9c d33d 1b66 3bbd
00000100: da8c 87bd 1c0f a33d e705 423d d80a 063e
00000110: e3c5 7cba 22d1 03bd bc39 033d 5262 90bd
00000120: 213d 7e3d a64c 613c b3f7 71bc 7b6c 9a3d
00000130: a320 143e 5399 febd 65a4 fe3d af18 ff3d
00000140: 1312 05bd 1bfd 70bd 4d8f 14bc 7402 da3b
00000150: e760 a13d 37e9 54bd 8b93 d4ba 62d7 e4bd
00000160: a3ce 16bd 5a5a b53c d5a2 a73c 2d82 0a3d
00000170: 3d72 123e 7123 553e 3147 dfbd cac4 1b3d
00000180: fc80 83bd 8d78 70bd 2839 0fbe 3127 a9bd
00000190: ebaf 97bd b7d8 87bd 1565 a53c 7d7d 733d
000001a0: b579 94bd 7306 243e 5d83 11be 580a 2cbc
000001b0: 4424 81bd 9517 aa3b 3603 07bd a6f8 01be
000001c0: 15bd e83c 817a 8a3d f41d 09be 28de 803c
000001d0: b841 8d3d 0224 90bd 6d31 5d3c b726 40bd
000001e0: 5331 4bba 888c 993c 510b b9bd 35fb 87bd
000001f0: 3125 8ebd bcc3 1a3d 1d96 4bbc 946b ef3c
00000200: 6b25 893d de5b 90bd 3a47 433d 4939 97bd
00000210: ac77 9dbd 8e01 623d 701a f2bb a40b bc3d
00000220: 04fb 60bd 48d4 4f3d ba3b 863d 4078 1cbd
00000230: 24c5 2cbe b456 813c 8dc3 0aba 5f15 ce3a
00000240: e12b 22bd c991 3dbe 1757 243e b8e0 973d
00000250: 8fbb 883d 5677 f43d fe7a 1ebd 939b b0bd
00000260: 80e8 62be 9e3f e83d 56c1 c8bd b7f2 48bd
00000270: eeb7 043d deba 26be 8638 2f3d 0aee 45bd
00000280: c509 62bd f408 75bd ee87 2ebd 9198 80bd
00000290: 076c d4bd 8e50 1cbd aa4d 00be 384e 4c3e
000002a0: 34de a93d 5dba c1bd 18f9 e03c bc4e 3f3d
000002b0: 664c 50bd bb7d 8cbd 05c3 5d3d a46a ef3c
000002c0: a498 15be 4740 963d bdf1 05bd 8e0a 93bd
000002d0: e2b8 583d ac6c c53d fdf8 efbd 0c5b 17bd
000002e0: 0007 8abd e43d ffbd 3df3 293e dd4f e53d
000002f0: 26c4 abbd 9aad 863b 29bc cc3c 60fc 62bc
00000300: 80dd 60bb be2c 4d3d 7409 a5bd 01e3 79bc
00000310: 0b8c 04bd 0c8a bf3b 1824 00bc 371f dd3c
00000320: a270 b0bd e2af 1dbc 9aea 3a3d 2f7d b23d
00000330: e852 40be c2a1 8a3d 42bc 77bc 536f 63be
00000340: cbfd 12bd 766c 8f3d 15d8 2f3d 351f 9c3d
00000350: 061a 8fbd 69ba 9f3d a959 cf3d 3e6f 1a3c
00000360: 3071 cabd b67f a73d a951 9dbd ddf3 07be
00000370: eddb 18be f08f 2cbe e74c 0b3e 12b2 67bd
00000380: 6457 6cbd d8c8 053d bf7e fe3d 779e 74bc
00000390: 7fab 0f3e 6098 47bd 5dd3 f63d 90e6 28bc
000003a0: 50da 083d f41d 3cbc ea62 b33d 7de2 f3bd
000003b0: 04e4 383d 8ef1 b23d db6c febd 9ba9 173e
000003c0: ba38 0abd 6af9 213c fb20 b23d 1481 3ebd
000003d0: 960d 3d3d d8ea 9a3d 450c 03bb 7553 e4bc
000003e0: 68b7 993d 3685 79bd 82b4 e03d ab41 80bc
000003f0: 6ec1 0abd 3221 b23c d3d9 273d 8258 82bc
0.048453785 0.046002083 0.048454903 0.010620024 -0.023280594 -0.15340841 -0.079368785 0.05654959
-0.08648012 0.044595916 -0.007198641 -0.029692706 0.2027277 0.011410877 -0.084842846 -0.06584104
-0.028795231 0.08902545 -0.14112915 0.021024682 -0.16444044 -0.0376421 0.08263272 -0.0667425
0.14617339 -0.093717754 0.10132935 -0.018996581 0.05992208 0.115176864 0.009421393 -0.07986198
-0.010761598 0.027957404 0.11366909 -0.05479599 0.023172494 -0.028529644 0.021637129 -0.23263231
-0.1888825 0.04522771 -0.060051396 0.03894238 0.084307015 0.117839344 -0.08595237 0.06910715
0.08324882 0.07071736 -0.06491697 -0.007246222 0.06429977 -0.17452307 0.060313623 0.01017132
0.019266263 0.18834542 -0.13804913 -0.1381394 0.085616834 -0.019214602 0.103325464 -0.045751672
-0.06618662 0.07961866 0.04736891 0.13090074 -0.00096425245 -0.032181866 0.03203748 -0.07050003
0.062070016 0.013751185 -0.014768529 0.07540222 0.14465575 -0.12431588 0.124336995 0.1245588
-0.03248794 -0.05883513 -0.009067369 0.0066531245 0.07879811 -0.051980224 -0.0016218288 -0.111738935
-0.036818158 0.02213781 0.020463387 0.03381555 0.14301391 0.20814301 -0.109022506 0.03802947
-0.06421086 -0.058708716 -0.13986647 -0.08259428 -0.074066006 -0.06633132 0.020189801 0.059445847
-0.07249776 0.16018085 -0.14210267 -0.010500513 -0.06305745 0.0051907995 -0.032962047 -0.12692508
0.028410474 0.06761647 -0.13390332 0.015730932 0.068973005 -0.07038118 0.013500554 -0.04691192
-0.00077511853 0.018743768 -0.090353616 -0.06639711 -0.069406874 0.037784323 -0.0124259265 0.029226102
0.0669659 -0.07048772 0.04767535 -0.07383973 -0.07688841 0.055177264 -0.0073884055 0.09181908
-0.054926887 0.050739557 0.06554361 -0.038200617 -0.16872078 0.015788414 -0.00052934216 0.0015722922
-0.039592627 -0.18512644 0.16048847 0.074159086 0.06676399 0.11936824 -0.038691513 -0.086234234
-0.22159004 0.11340259 -0.09802501 -0.049059596 0.03240197 -0.16282222 0.042778514 -0.048322715
-0.0551851 -0.05982299 -0.0426101 -0.062791 -0.10372167 -0.03816276 -0.12529626 0.19951713
0.08294335 -0.09459374 0.027462527 0.046705946 -0.05085411 -0.06859919 0.054141063 0.029225655
-0.14609009 0.07336479 -0.032701243 -0.071797475 0.052910693 0.09639868 -0.117174126 -0.036952063
-0.067396164 -0.124629766 0.16596694 0.11196873 -0.08387022 0.0041100504 0.024992066 -0.013854116
-0.0034311712 0.050091498 -0.08058444 -0.015251876 -0.032360118 0.005845314 -0.007821105 0.026992423
-0.08615233 -0.009624453 0.04563389 0.08715283 -0.18781626 0.06769134 -0.015120568 -0.22210436
-0.035886567 0.07003109 0.04293068 0.0762314 -0.069873855 0.07799227 0.10124523 0.009425936
-0.0988487 0.08178656 -0.07681591 -0.1327662 -0.14927645 -0.16851783 0.13603555 -0.056566305
-0.05770053 0.032662243 0.12426519 -0.014930359 0.14030264 -0.0487293 0.12052033 -0.010308877
0.033411324 -0.011481751 0.08759101 -0.119084336 0.045139328 0.08737479 -0.12423106 0.14810793
-0.033745505 0.009886125 0.08697697 -0.046509817 0.046155535 0.07564324 -0.0019996327 -0.027871827
0.07505685 -0.060918055 0.10971929 -0.015656313 -0.033875875 0.021744344 0.040979218 -0.015911344

bias f4 [2]
00000000: f09d f03d a0df 70bd
0.11748874 -0.058807015
