graph2vec_optimization/model/50_mlp_graph2vec_opt_5.pt (torch_old, 382907 bytes, 6 tensors)

weight f4 [128, 600]
00000000: 585d 82bc 5383 bc3c 3124 593b 9318 6abc
00000010: f52e 27bc 76d0 70bc b93b d53a c26f c73c
00000020: 456d 7b3c 07ff c8bc b90c 0bbd 2ea6 04bd
00000030: fe2c 2fbb 2dfd b4bc 0bbc 0bbd 5aa5 89bc
00000040: 3a76 ac3c 2b8a e23b d131 fb3c 1f5a f2bb
00000050: 463e 813c 12cd 5ebc cf30 153c 50bd aabc
00000060: 5c08 f73a afe8 4ebc 05fc c43b 0851 bd3c
00000070: f145 10bd 6708 a8bc 894d 38bc ae19 15bc
00000080: 303b d8bc ede1 d63c 4278 9abc 46a3 683c
00000090: 9e93 0f3d 8f80 283d caa7 1a3c 597e af3c
000000a0: ea01 1cbc 3092 183c eecc 35bc 7154 debb
000000b0: c424 12bd 9b02 f83c 96eb 933c 4ca4 c2bc
000000c0: 95a5 ad3c aaf7 1fbd f8b5 5bbc 5e15 183b
000000d0: ee6e efbc fa25 0e3d f3da a8bc ef24 69bc
000000e0: f27a 653c e7bf 053d 552c d7bc 0923 1abd
000000f0: e03d be3b 9132 9ebc 3b86 2ebd 7b14 bcbc
00000100: b2c7 cd3c 8bf4 91bc 96b8 183d ad94 ddbc
00000110: 49e4 bfbc 5ceb 85bc 1cab 9e3c aa63 2cbd
00000120: b6b3 bdbc 2409 e53c e26f 813c c438 123d
00000130: ea6b 39bc 182f fdbb 706c 053c 265c 293d
00000140: ff0a 09bd 1305 033d e502 59bc 1f19 ca3c
00000150: f6cb 0f3d 948c cabc f9fc 2bbd e994 57bb
00000160: b8aa c9bc 94aa 06bd 4d75 56bb e8a9 3dbb
00000170: 8033 fb3a 40f2 1838 f14f 0b3d b581 733c
00000180: ddfb 1b3c 20e1 be3b 9e41 b13c d78b efbb
00000190: e720 953c 2a68 753c 5777 d2ba b7eb fd3c
000001a0: e8c2 d8bc 2e3c 98bc 45e5 df3b 4cf0 c1bc
000001b0: f87a c5bc b50c b53b f92d b4bb 3865 e13c
000001c0: 2da9 ebbc 270f 1bbd d720 ab3c 71d8 a13c
000001d0: 271d ccbc 9883 1b3d 7a5b c23c c4f5 3bbd
000001e0: a6f2 ceb8 e392 993b db36 a83c e533 623c
000001f0: dacc 9dbc 25a4 243c f8be 6b3c e8df a2bc
00000200: 0909 8d3c e0e8 a2bc bf06 bdbb 2037 d03c
00000210: b0cb c43c 0cb7 23bc 4738 113d f0d0 c83c
00000220: 078a c2bc 8095 883a 8679 d1bb 9866 71bc
00000230: 1ff9 0dbd 88c8 e6bc a42d 11bb 27c6 8a3c
00000240: 473f 033d 5d22 c9bc 2773 f73c 83c8 383c
00000250: 2097 033b cdf2 adba fa9e e43c 5982 f6bc
00000260: 992a 213d 3a4e b4bc 36b6 ab3c 919b 22bc
00000270: e017 143d dc42 223c 95f0 9bbc 853c 353d
00000280: 507c 053c ce2d ca3c 7106 613c e869 85bc
00000290: e5ba c1bc a920 24bb a704 e33c fbf0 b8bc
000002a0: 5b3c 00bd 7bf6 963c 57be 8fbc 3d87 21bd
000002b0: 10fa aa3c 9629 86bc 8718 243d da97 53bc
000002c0: 34d5 07bd 4112 e7bb f3ae df3b d29c b3bc
000002d0: 49d8 b63c 82c2 9abc ccf1 93bc 4839 4fbc
000002e0: 521b f63c f1e1 0dbd 73c7 0fbd ee44 a8bc
000002f0: 068b 8c3b 3d90 03bd bbf3 02bd ce26 5abc
00000300: 87f5 b23c f10a 5db9 0083 9bbc 18f8 e9bc
00000310: 82a7 1ebd 0e90 d9bb c946 fcbc 4b9b fa3c
00000320: f69a 2a3d d319 c93b 4ecb bf3b 8832 bb3c
00000330: 7259 02bd 5028 31bc 0b20 2dbd 3a7d 1e3b
00000340: b710 14bd 91da f3bc a03c d3bc 2694 89bc
00000350: 9c9a 06bd 2e30 c8bc b055 bd3c c6fe 063d
00000360: 36de c23c 19fd cebc 6324 953c ff8e e23c
00000370: 60c1 19bc 2220 0cbc 6559 55bc 6139 173d
00000380: eb0e c63c b63f 1bbd eabd 9fbb 4322 bebc
00000390: 132d 0a3c 7533 d0ba 4218 e2bc 941a 12bc
000003a0: 5dcd 223d 2fa6 fc3c e1b3 52bb 5dfa 7abc
000003b0: e36b 3bbc 893f 413a 06bb d2ba de90 1c3d
000003c0: 386b e0bc 0dc8 00bb a3e2 963c 5708 d8bc
000003d0: f10c 233d 8564 f43c f85d d1bc 25ce 3dbc
000003e0: a6ac 273c ad53 08bc 6226 1fbd b4a5 283d
000003f0: b6a1 10bd a409 873b e506 0bbd f27a 1c3c
-0.01591365 0.023011839 0.0033133144 -0.0142880855 -0.0102040665 -0.014698138 0.0016268409 0.024345282
0.015345876 -0.024535669 -0.03394768 -0.032385044 -0.0026729698 -0.02209338 -0.03411488 -0.016802479
0.021052469 0.0069134436 0.030663403 -0.007395997 0.015776765 -0.013598697 0.009105875 -0.020842224
0.0018847096 -0.012628718 0.0060114884 0.023109928 -0.03522295 -0.020511819 -0.011248955 -0.009100361
-0.02639541 0.026230777 -0.018856172 0.014199084 0.035052888 0.041138228 0.009439418 0.021422552
-0.009521941 0.009312198 -0.011096222 -0.0067849685 -0.035679594 0.03027468 0.018056672 -0.023759983
0.02119712 -0.03905455 -0.013410084 0.0023206095 -0.0292277 0.034704186 -0.020612216 -0.014229997
0.014006363 0.032653715 -0.026266256 -0.03763107 0.005805716 -0.019311221 -0.04260848 -0.022958985
0.025119636 -0.017816802 0.03728541 -0.027048433 -0.023424285 -0.01634758 0.0193687 -0.042087235
-0.023156982 0.02795846 0.01580042 0.035698667 -0.011317233 -0.0077265613 0.008143529 0.041347645
-0.033457752 0.03198726 -0.013245319 0.024670182 0.03510662 -0.024725236 -0.0419893 -0.0032895154
-0.024617538 -0.03287752 -0.0032723725 -0.0028940383 0.0019165128 3.6465237e-05 0.034011785 0.014862468
0.009520498 0.005825177 0.021637734 -0.0073103714 0.018204166 0.014978448 -0.0016057295 0.030996187
-0.026460126 -0.018583383 0.006832751 -0.023674153 -0.024106488 0.0055251964 -0.0054986444 0.027514085
-0.028767193 -0.037856247 0.020889683 0.019756528 -0.024916245 0.037967294 0.02372526 -0.045888677
-9.868042e-05 0.0046866997 0.02053397 0.013806318 -0.01926272 0.010048901 0.014388792 -0.019882157
0.017216222 -0.019886434 -0.0057686265 0.02541691 0.024022907 -0.009992372 0.03545406 0.024513692
-0.023747457 0.0010420531 -0.0063926606 -0.014733933 -0.03466141 -0.028171793 -0.0022152448 0.01694019
0.032042768 -0.024552519 0.030206276 0.0112782745 0.0020079091 -0.0013271213 0.027907837 -0.030091451
0.039347265 -0.022009958 0.020960908 -0.009924785 0.03615558 0.009903636 -0.019035617 0.04424717
0.008147314 0.024680045 0.013734446 -0.016285852 -0.023648689 -0.002504388 0.02771218 -0.022575846
-0.03130756 0.018428078 -0.017546816 -0.039435614 0.020871192 -0.016377252 0.040062454 -0.012914622
-0.03316231 -0.0070517366 0.0068262755 -0.021925364 0.02231993 -0.018891577 -0.018059634 -0.012647934
0.030042324 -0.034639303 -0.03510232 -0.02054068 0.004289034 -0.03211998 -0.03197072 -0.013314916
0.021845592 -0.00021080278 -0.018983364 -0.028560683 -0.038733967 -0.006639487 -0.030795472 0.030591628
0.04165169 0.0061371117 0.005853093 0.022851244 -0.031823583 -0.010812834 -0.042266887 0.0024183528
-0.036148753 -0.029767307 -0.025785744 -0.016794275 -0.03286229 -0.024437036 0.023112148 0.032957815
0.023787599 -0.02526717 0.018205827 0.027656076 -0.009384483 -0.008552583 -0.013021802 0.036919955
0.024177035 -0.037902556 -0.0048749344 -0.023209697 0.008433598 -0.0015884476 -0.027599458 -0.0089174695
0.03974663 0.030840961 -0.0032150673 -0.01531848 -0.011439296 0.0007371833 -0.0016077466 0.038224094
-0.027394876 -0.001965049 0.018418616 -0.026371164 0.039807264 0.029833088 -0.025557503 -0.011584793
0.010234034 -0.008320731 -0.038854964 0.04117365 -0.03531047 0.0041210223 -0.033942122 0.009550797

bias f4 [128]
00000000: 81db 323d 96cf 453c d569 a53a 2042 35bd
00000010: eb0b 0dbd 4383 1abd a3ed 763c 8e92 f9bc
00000020: 6de3 dfbc daee 11bd cc4d 6abc c6cf 983c
00000030: d6fb 0d3d 1f9f 0bbd 77d3 ecbc 40a6 71bc
00000040: fcfa ccbc a073 b33b f51f 75bc 7e05 3fbc
00000050: 86a0 bc3c 2cb5 76bc 0e92 1fbd 1a7b 263d
00000060: 07ad 813c b906 e9bc 3ab4 67bc 7f12 543c
00000070: 1416 e23c 2600 db3c 1f1f 78bc 906d 263d
00000080: 5bce a13c 9012 a53b 0144 dc3c 7126 8a3c
00000090: ebfc c73c dee1 f5bc 1b96 8fbc ac39 abbb
000000a0: 561f 193c aab2 843c d0c5 dbbc aff9 463d
000000b0: 6239 64bc 41be b0bc d66c 28bc 65bc cabc
000000c0: c263 0bbd 5716 97bc 6215 f1bc 34cb d9bc
000000d0: d6b0 56bb 3b86 0e3d 00d0 b8bc 01ae e23c
000000e0: e857 e33c 6fa0 833c dfb8 1d3d 90d2 f1bb
000000f0: 0a08 24bd cf6f f7bb cab8 b4bc 300e 6ebc
00000100: 55be cfbc a7e6 603b d221 ce3b f267 c0bc
00000110: 7837 9c3c 40d7 153c 5138 0eba 7283 1b3c
00000120: 18b4 3bbd 44d1 0a3d 34b5 0dbc 8ff1 11bc
00000130: 3db8 edbc 225d 0a3c a347 eabc e6eb 213d
00000140: 5a31 033d 0c55 f2bc 75b3 6a3c 666f 9fbb
00000150: d622 5dbc 6a25 273d f29f 30bc b869 b9bc
00000160: 09c3 353c 366c 0a3d c693 e8bc dde4 febc
00000170: 7e28 cb3c ca42 ae3c 62ba 4dbc d343 30bd
00000180: e569 ce3c f7e0 ae3c 758c f6bb b3cb f3bc
00000190: d744 86bc 81d6 373d 81a7 ec3c cdda 0dbb
000001a0: 4ce7 373d 45c5 113d 6268 93bc 6362 1c3d
000001b0: b19c a0bc b162 d43c 6a60 77bc 8884 94bc
000001c0: 7bf2 c0bc 353d 1bbc c538 40bc 8f09 4c3d
000001d0: a150 56bd 520f f9bc a613 d5bc bfbd 0ebd
000001e0: 3513 53bd 029d 73bc 00a4 c2bb 9204 983c
000001f0: 8e5f e3bc a11f 063d fa3b 703c b1e8 e9bc
0.043666366 0.012073418 0.0012620041 -0.044252515 -0.034435194 -0.037722837 0.015071305 -0.03046539
-0.027330125 -0.035628177 -0.014300775 0.018653762 0.034663998 -0.034087297 -0.028909428 -0.01474911
-0.025022022 0.00547643 -0.014961232 -0.011659024 0.023025762 -0.015057843 -0.038957648 0.040644743
0.015829576 -0.028445588 -0.01414209 0.012943863 0.027598418 0.02673347 -0.015144139 0.04063183
0.019751718 0.005037613 0.026887896 0.016864033 0.024412593 -0.030014928 -0.01752763 -0.005225381
0.00934585 0.016198475 -0.026827723 0.04857796 -0.013929697 -0.021575095 -0.010279855 -0.024748037
-0.034030683 -0.01844327 -0.029429141 -0.026586153 -0.003275921 0.03479598 -0.02256012 0.027670862
0.027751878 0.016067712 0.038506385 -0.0073798373 -0.04004673 -0.0075511704 -0.02206077 -0.01452975
-0.025359312 0.0034317167 0.006290653 -0.023487065 0.019069418 0.009145558 -0.0005425262 0.009491788
-0.045826048 0.033890978 -0.008649159 -0.00890769 -0.029018516 0.008445056 -0.028598612 0.03953161
0.032029487 -0.02958157 0.014325012 -0.0048655747 -0.013497075 0.040807165 -0.010780321 -0.022633418
0.011093863 0.033794604 -0.028390776 -0.03111499 0.024799582 0.021272082 -0.012556644 -0.043033432
0.025196979 0.021347506 -0.007524068 -0.029760217 -0.016390247 0.0448823 0.028888466 -0.0021645308
0.044898316 0.03558852 -0.01799411 0.038179766 -0.019605966 0.025925966 -0.0150986705 -0.018129602
-0.023553124 -0.009475042 -0.011732285 0.049813803 -0.052322987 -0.030402813 -0.026010346 -0.034848925
-0.05153199 -0.014868977 -0.0059399605 0.018556867 -0.027755525 0.032745007 0.014662737 -0.028553339

weight f4 [128, 128]
00000000: 6670 66bd da11 ffbc b9d2 00bd 9528 5dbd
00000010: f10e 49bd 4d82 7e3d 73a2 943d c89a 6dbc
00000020: 1ce3 573c b367 873c 86c0 87bd 7501 b4bd
00000030: 9fbc a5bd 6993 263d fc77 073d 93de 02bd
00000040: c13f 8c3d e018 7ebd 55ed 03bd 1fec 963d
00000050: eb1f 8ebd b759 a7bd bf9a 11bd 8130 083d
00000060: f859 7bbc 3368 a73d b3a8 70bd 5642 643d
00000070: 53c6 f4bc 0e17 59bd 410c 3a3d 4081 873c
00000080: a8b8 7c3d 82fc e2bc 38c5 76bd 3951 9bbd
00000090: 93c0 9a3d ad64 863d ad4e 59bd c7cc 2c3d
000000a0: fff6 873d 9d67 a1bd 4658 40bd da1f a1bc
000000b0: 7154 b23d 02ba 93bd 78ea 1abc b5cb 9e3d
000000c0: 3017 963b c713 843d 8f9d 8c3d b2d2 0e3d
000000d0: 89f9 0e3c 3a9c 1ebd 2926 9d3d e27c 2cbd
000000e0: eefc 6b3d 888b 48bc 0081 c7ba 00b8 5eb9
000000f0: 2047 c23b 3fef acbd 6e72 76bd 400e 723c
00000100: 9cf6 fa3b f371 9dbc b5f6 803d 62b1 9bbd
00000110: 3404 a03c ec3d fcbc dff9 a33d b1b8 a3bc
00000120: edda a5bd 9bdf 49bd 809f 9a3b d4eb 6e3d
00000130: cf40 e7bc 0bde a63d 1e1d 953c d1bc 843d
00000140: efe3 d5bc b870 0f3c 72ae f33b 54e1 103d
00000150: 5fde 12bd a0bc 6bbd 57c5 d33c 0408 a9bc
00000160: 0fb5 1cbc 7a6c 3ebd c2b3 03bd fa9b 4a3d
00000170: b895 eabc 20a9 fabb 402d 83bd 8377 113d
00000180: 7dc1 433d c877 cebc a9bd 7f3c 9f97 0fbd
00000190: 0d82 b3bd c3f9 9cbd 3338 8fbc 103e 8c3c
000001a0: 6468 87bd aada 233d b857 9ebc 41b1 253d
000001b0: 4555 62bd 6a38 293c e1ff a43a c245 b1bd
000001c0: f943 6cbd 809c 32bc 6ad0 453d 5fc1 5c3d
000001d0: b416 74bd e810 c2bc 4d24 13bd e784 db3c
000001e0: 9984 3ebd 746f f63c 4db1 03bb a704 a9bd
000001f0: 5dfb 81bb 146d 2bbd 6c2c 3ebd 9c9b 26bd
00000200: 200e 8f3d f25e 81bd 99e8 8f3d d721 38bd
00000210: 2688 dfbc 9a9e 023d 3333 78bd ada2 62bd
00000220: 6f5b a0bd 2a58 ac3c d3d9 f3ba 43d6 5a3d
00000230: 346f 1c3d ff61 fdbc c2bd 723b 2cfe b2bc
00000240: f162 dab8 78e8 93bd 12a4 6ebd 56e3 94bd
00000250: 6343 e1bc 2fdc 08bd 3c94 513d 9784 663d
00000260: f873 9e3d 7047 7b3c 98d0 9dbd 2e53 1b3d
00000270: 65f7 83bd abb4 22bd 95bf 23bd 55b2 973d
00000280: 1b86 79bd 36b6 79bd 895b b33d e587 8dbd
00000290: 2458 293d 6679 80bd ab3e 103b 0e2b d9bb
000002a0: 2115 7b3c ade3 44bd ef57 8c3d cc19 a2bd
000002b0: ee24 913d 30ea 813d 3826 87bd 32d3 3e3d
000002c0: 7887 8ebc 676b 063c 237b b7bc fc06 64bd
000002d0: 0f60 5d3d 6f16 4abd bbb0 9c3d ddcb 903d
000002e0: 3d33 8dbd 0eaf 5fbd 97a3 8ebd 5647 97bd
000002f0: b5af 90bd e1d4 aa3d 3282 0cbd c08b 09bc
00000300: b082 71bd e2ab ecbb de00 c0bc cfdf ddbc
00000310: 40c1 79bc da99 80bd 8fa6 47bc f28f febb
00000320: af9b 49bd a867 4b3c c69c 23bd 1b4a 09bd
00000330: 0921 9ebd ae02 49bc 156d 81bd 3d9c aa3d
00000340: 06ae 043d 3c9a aebd 2176 183d a549 8f3c
00000350: 10cb 1c3c 81c4 2bbc 08db 4c3d 520f 6c3d
00000360: 3851 90bd f713 b5bd c766 cdbc 0fa2 ac3d
00000370: 8e02 783d 914c 1d3c 178e 373d a68c 003d
00000380: d26a b43d 88fa 8bbd 043d bb3c 7990 1fbc
00000390: 8b8e 21bc f7c3 4cbd 7301 ac3d d1a2 40bc
000003a0: 8826 573d 8bb5 88bd ec58 cd3c 0466 193d
000003b0: 922c 59bd 8332 013d 0923 903d c596 923d
000003c0: cc16 5fbd a0fa 843d a61d 673d 579e 00bd
000003d0: 9ed1 573d 8ceb a0bd 445f ca3c 714d b73c
000003e0: a041 a03c 4003 e73c 2b14 9c3d a0b5 1dbb
000003f0: 139d dd3c 8fb8 82bd 114b 1cbd 3103 183c
-0.056259535 -0.031136442 -0.03145096 -0.05399378 -0.049086515 0.062135983 0.07257547 -0.014502235
0.013176706 0.01652894 -0.06628518 -0.087893404 -0.08092617 0.040667925 0.03307341 -0.031950545
0.068480976 -0.06203544 -0.03220876 0.07369255 -0.069396816 -0.081714086 -0.035547968 0.033249382
-0.015341274 0.08174171 -0.058754634 0.055727325 -0.029879725 -0.053000502 0.045421842 0.016541123
0.06169954 -0.027708296 -0.060246676 -0.07583851 0.07556262 0.06562171 -0.053053547 0.04218748
0.06638908 -0.07881091 -0.046959184 -0.019668508 0.08707512 -0.072132125 -0.009455316 0.07753698
0.004580401 0.06449085 0.068659894 0.034868903 0.008726486 -0.038723208 0.07673294 -0.042111285
0.05761426 -0.012240298 -0.001522094 -0.00021240115 0.005928889 -0.0844407 -0.060167722 0.014773905
0.0076587927 -0.019219374 0.06297056 -0.076021925 0.019533254 -0.030791245 0.080066435 -0.019985529
-0.080983974 -0.049285512 0.004718721 0.058330372 -0.028229145 0.0814782 0.01820236 0.06481326
-0.026109664 0.008754902 0.007436567 0.03537114 -0.0358566 -0.057552934 0.025850935 -0.020633705
-0.009564652 -0.04649017 -0.032153852 0.049465157 -0.028635845 -0.007649556 -0.06405115 0.035514366
0.047791947 -0.0252036 0.015609183 -0.035056707 -0.087650396 -0.07664826 -0.017482853 0.017119437
-0.06611708 0.040003456 -0.019328937 0.040452246 -0.0552571 0.010328392 0.0012588465 -0.08655883
-0.05768201 -0.01090157 0.048294462 0.05389535 -0.059591964 -0.023689702 -0.03592329 0.026796771
-0.046513174 0.030082442 -0.0020094693 -0.082528405 -0.0039667324 -0.041852072 -0.046429083 -0.040675744
0.06985116 -0.063169375 0.07026786 -0.044954147 -0.0272866 0.031889535 -0.060595702 -0.05533092
-0.078299396 0.021038134 -0.0018604345 0.053426992 0.03819199 -0.030930517 0.0037039374 -0.021849714
-0.00010413479 -0.07222074 -0.05826194 -0.072699234 -0.027497953 -0.03341311 0.051166758 0.05627879
0.07736963 0.015336856 -0.07705802 0.037921123 -0.06443671 -0.03972308 -0.03997763 0.07407061
-0.06091891 -0.060964786 0.08757693 -0.069106854 0.041343823 -0.06273155 0.002201001 -0.006627447
0.015324862 -0.04806869 0.068527095 -0.079150766 0.07087122 0.06343496 -0.065990865 0.04658813
-0.01739858 0.008204318 -0.022397583 -0.055670723 0.054046687 -0.0493378 0.07650896 0.07070134
-0.068945386 -0.054610305 -0.06964796 -0.07386653 -0.070647635 0.08341385 -0.03430385 -0.008395135
-0.058962524 -0.0072226385 -0.023437914 -0.02708426 -0.015243828 -0.06279345 -0.012185707 -0.0077686245
-0.049220737 0.01241485 -0.039944433 -0.033517938 -0.07721145 -0.012268705 -0.06319634 0.08330581
0.032392524 -0.085255116 0.03722203 0.017491171 0.009569898 -0.010483862 0.050013572 0.057631798
-0.07046741 -0.088416986 -0.025073422 0.08429348 0.06054931 0.009600774 0.04481324 0.031384133
0.08809437 -0.068348944 0.022856243 -0.009739035 -0.009860645 -0.049991574 0.08398714 -0.011757568
0.05252698 -0.066752516 0.025066815 0.037450805 -0.05302102 0.031542312 0.070379324 0.07157663
-0.0544651 0.064931154 0.05642476 -0.031401005 0.05269014 -0.07857427 0.02470363 0.022375794
0.019562542 0.028199792 0.07621034 -0.0024064556 0.027052438 -0.06382858 -0.038157526 0.009278105

bias f4 [128]
00000000: 0637 28bd 0734 1cbc d8bc 45bd 2d80 1d3d
00000010: 105d 2cbc 4554 95bd b799 933d e11a 8a3d
00000020: df5a a13d b571 9a3d 5b0c 1ebd fa5d 3fbb
00000030: c17c 64bd 30b6 1d3d 585b 83bd 6cce 543d
00000040: bec3 bcbb 1acf 41bd 50bc 95bb 1b20 70bd
00000050: ba58 993d 6d0a 38bd 24b8 09bd cfe4 acbd
00000060: 0625 583d e0c3 5abd 223d 553d 8aed 6fbd
00000070: 0681 333d e1e5 fdbc caf1 4f3d 1d44 85bd
00000080: 3cd3 8c3d 8653 5bbd dae2 263c 643e b53c
00000090: 7352 38bd 83c2 95bd 7af0 723d 180b 763d
000000a0: 0f10 dbbc 0d76 433c d854 603d 9d3b 54bd
000000b0: 077d 0fbc 4286 3dbd ef59 18bd 6c9b 143d
000000c0: 402d 453d ce86 443d 70f7 793d ac4b 1b3d
000000d0: 7539 d0bd 5616 bc3c 2d99 b2bd dece 4dbd
000000e0: 9229 e73a 1483 8bbd 6101 663c d4b5 23bd
000000f0: 3711 0d3d 852a 383d 582e 11bd 8faa 4b3d
00000100: 8b58 ee3c ff83 54bc 28ba 9a3a ed55 9b3c
00000110: e297 44bc 0b7e 98bd 170e a4bb cab1 b4bd
00000120: 7311 e3bc 535a 223c fdb5 a7bd 87d4 abbc
00000130: e44a 313d 454e acbd aa71 4fbc 2c26 b3bd
00000140: 097e cfbc e604 3b3d 8327 a1bd addd b0bd
00000150: db13 853d 5c7b 99bd b908 a63b 08e2 223d
00000160: fce6 a9bd 47f7 953d da3d 41bd 6d89 e7ba
00000170: 0674 6abc 93ba 80bc f20c 80bd c76f 9ebb
00000180: 9a90 d8bb 758f d2bc a639 51bd 55cf 8a3d
00000190: d245 6cbd a7bb 8ebd aa52 54bc ce96 4c3d
000001a0: e0f2 e5bb 6175 25bd 29b0 39bb a763 43bc
000001b0: e606 873d eb48 813d 878e b8ba ae4b edbc
000001c0: c5af 61bd f084 ddbc be0b a1bc 6322 45bd
000001d0: 8cb6 413d fad3 68bd a7f9 32bc b3b2 733d
000001e0: c533 19bd ab21 a33c 30a4 b1bd c6d7 163c
000001f0: d84f 953c a740 cebc e4a1 80bd 160c 29bd
-0.0410681 -0.009533889 -0.0482758 0.038452316 -0.010520235 -0.07291464 0.07207053 0.06743408
0.078786604 0.07541219 -0.038586 -0.0029200302 -0.055783037 0.038503826 -0.06413907 0.05195467
-0.005760639 -0.047316648 -0.0045695677 -0.05862437 0.074876264 -0.044931818 -0.033622876 -0.08442079
0.052769683 -0.053409457 0.052060254 -0.058576144 0.04382422 -0.030993404 0.050767697 -0.06507132
0.06876227 -0.05354645 0.010185922 0.022124477 -0.045000505 -0.07312491 0.059311368 0.060069174
-0.026741056 0.011930001 0.054768413 -0.051814664 -0.008757836 -0.046270616 -0.037195142 0.036281034
0.048138857 0.047980122 0.06102699 0.037913963 -0.10167209 0.02295987 -0.08720622 -0.050246112
0.001763629 -0.068121105 0.014038415 -0.039968327 0.034440245 0.044962425 -0.035444587 0.049723204
0.029094955 -0.012970923 0.0011804746 0.018961871 -0.011999102 -0.07445916 -0.0050065625 -0.08822973
-0.027718281 0.00990923 -0.081890084 -0.020975364 0.043284312 -0.08413366 -0.012661377 -0.08747515
-0.025328653 0.04565897 -0.078688644 -0.08636031 0.06497928 -0.07494232 0.005066958 0.03976634
-0.0829601 0.07322555 -0.047178127 -0.0017664857 -0.014309889 -0.015713966 -0.06252469 -0.0048351022
-0.0066090347 -0.025703171 -0.05108037 0.06777827 -0.057683773 -0.069693856 -0.012959162 0.049948506
-0.0070174783 -0.040395144 -0.002833376 -0.011925614 0.06593113 0.06312736 -0.0014080562 -0.028966751
-0.055099268 -0.027040929 -0.01965892 -0.048128497 0.04729323 -0.05684278 -0.01092378 0.059496593
-0.037402887 0.019913515 -0.086738944 0.009206718 0.018226549 -0.025177313 -0.06280878 -0.04127129

weight f4 [2, 128]
00000000: 59a0 0d3c 2527 973d 7820 1f3c 542c a1bc
00000010: d235 a83d d382 cc3d bd0f 41bd edd9 823b
00000020: 7e27 143e 3171 17bc 3b55 dbbc 0b77 d6bd
00000030: 8afd 1e3c 88b5 143d 3871 f03c 909e acbd
00000040: f04d 4bbc 0640 36be 93ff 03be bcb3 b03d
00000050: 2195 b93c e0dd c3bd 2155 1f3e 53b3 c4bc
00000060: d7ef 62bd 7fe2 a33d 7685 293d 15db 1b3d
00000070: ec21 acbc cb2c 25bd b902 923d afe5 e8bd
00000080: 3557 a7bd 1b38 e2bd 5bf8 193e de28 9c3d
00000090: ca59 23bd c2e6 8d3b 6df3 4abe 4816 1f3d
000000a0: 992d 4dbd 6637 84bd d6ba a93d b5a9 36bd
000000b0: ef75 a63d 5c2d 7abd 4c90 933c 6b46 51be
000000c0: d3cf 1c3e 144d 52bc c423 87bd 45eb 89bd
000000d0: 176a 06be ba35 6e3e 40ee 31bd 52ad 963d
000000e0: d401 783d e67b e2bc 59bc a83d bbf4 f73b
000000f0: 62f9 b03d 7467 8bbd 0607 d6bd b948 93bd
00000100: 37d8 aebd 771c af3d 1734 4f3d 656e 3bbd
00000110: 8367 d1bd 15cf b1bc 1fd3 4bbd fda9 bf3c
00000120: 299f 24be ff13 e6bc 754d eebd c075 b13d
00000130: 6127 b7bd 6827 9b3d 9b04 723b da5e cabc
00000140: ad18 9e39 288a 31bd 9ba9 28bc 4b9b 42be
00000150: 6604 6d3d 4ab1 0dbe ae83 5b3d 2b62 2abd
00000160: 86f1 b4bc bf4c 223e c66d 4fbd fced a63d
00000170: ce5e 3b3d b278 843e e43c 7cbd 00aa 663e
00000180: bf0b 64bd 4718 133d df8c 823d c956 a3bd
00000190: d6e2 b3bd 596b 01bd 3173 0f3e f6c2 303d
000001a0: 7084 cebb 8379 023e 424a f93d 3f5e 983d
000001b0: 4faf a3bd abbe a03c d93f 0e3d 2e1a 953d
000001c0: e3bb e0bc 087e 9f3d d038 6bbd 483d b33d
000001d0: 750e 763d e09e 9b3d 9f29 f4bc 60ae 973d
000001e0: a524 983c f547 39bd 7d39 c2bd 1e40 4ebd
000001f0: 8437 603b 0acd 8b3d 90a9 b4bd 8028 90bc
00000200: ac32 203d 1227 0b3d 551b ac3d 79b5 8d3d
00000210: df0e a8bc a74b 22be 15a2 2abd 1b0f 4c3d
00000220: 4d44 87bd 33d2 533d a450 acbd f59f 433e
00000230: a8f6 3e3d a61c d53b 1221 593d f058 4fbd
00000240: 0365 ddbd c15a be3d 9ee7 a33d 11fc 99bd
00000250: 5241 3e3d 8d3a 303e 96e4 5ebd 5fb0 ba3b
00000260: 34c8 87bd 93f7 5dbd 5450 003d 9451 80bc
00000270: 30ec 85bc 169d 16bd 3675 bdbd c134 2e3e
00000280: 4c06 0cbd 4229 543d 179c d5bd 5d4e 63ba
00000290: 4782 39bd c0ca a4bb c709 383d 4536 f43c
000002a0: 474d ba3c 3fde 803c bdf6 f0bc 40cd 103c
000002b0: 30fa a6bd 4988 cb3c 2d16 b23d 3287 683e
000002c0: 94e1 0fbe 741f 01be 7ab4 b93a 3dcc a7bd
000002d0: 3cd5 d73d 92d3 42be 480b 37bd 392e aebc
000002e0: 09ac f6bc e6a9 763d 39e2 30bd 6ba8 53bd
000002f0: 5cdc 1d3d 569d 91bd e702 c23d ee8e c43c
00000300: 6e21 683d cb3e f7bc 5361 9b3d 4493 f83b
00000310: 4e8d c33c 1877 bfbd 6042 adb8 aa50 3fbd
00000320: 00e0 103e 6729 d4bc 2f26 9f3d fde1 d0bd
00000330: 4c2d bf3d 983c f6bb 5da8 7abd 3831 613d
00000340: 4118 42bc b413 64bd ce24 333d 0e6e 363e
00000350: ec2b d53c 0e60 453e cedd 84bd 23f4 823a
00000360: 4a4b 10bd 15bb 40be 4eb9 89bd 8167 4cbe
00000370: 6d19 69bc bcdf 54be f678 643d 5b62 6bbe
00000380: e3e4 b73d a084 04bd 4084 69bb c592 04bd
00000390: 33e2 a23d e083 a3bd 4f5c 26bd 41b0 afbd
000003a0: 40d4 69bb cbe9 c7bc e315 adbd 6810 f93c
000003b0: fe2c cd3c 21b7 6fbc 5e8b 79bd b2a1 8ebd
000003c0: f411 99bd 8b9e cd3c 14a2 b6bd 28db b0bc
000003d0: bfc8 cebd f161 cebd 758c dabc ece6 70b9
000003e0: 8ad2 debc 03a6 c23c 90fe 973d 2ee0 41bd
000003f0: 488f e9ba 6f29 8fbd 2dd8 0a3e 388c 29bc
0.008644187 0.07380513 0.009712331 -0.019674458 0.082133904 0.0998589 -0.04713415 0.003993264
0.1446819 -0.0092432955 -0.02677404 -0.104719244 0.009704003 0.036305934 0.029350862 -0.08428681
-0.0124087185 -0.1779786 -0.12890463 0.086280316 0.022654118 -0.09563804 0.15559818 -0.02401129
-0.05540451 0.08002185 0.041387044 0.03805073 -0.021012269 -0.04032592 0.071294256 -0.11371934
-0.0817093 -0.110458575 0.15036146 0.07624982 -0.03988055 0.004330487 -0.19819422 0.03883961
-0.050092313 -0.06455879 0.08287589 -0.04459544 0.08127963 -0.061078414 0.018013142 -0.20437019
0.15313654 -0.01283576 -0.065986186 -0.06734327 -0.13126408 0.23262683 -0.043440104 0.07357277
0.06054862 -0.02764697 0.082390495 0.007567016 0.08641316 -0.068068415 -0.10450558 -0.07191605
-0.085373335 0.08550351 0.050586786 -0.045759577 -0.102248214 -0.02170519 -0.049761888 0.023396486
-0.1607634 -0.028085707 -0.116358675 0.08665037 -0.08943058 0.075758755 0.0036929015 -0.024703432
0.00030154493 -0.043344647 -0.010294343 -0.19004552 0.057865523 -0.13837162 0.053592376 -0.041597527
-0.022087824 0.15849589 -0.050641797 0.08150861 0.04574471 0.25873333 -0.061581507 0.22525787
-0.055675264 0.035911825 0.06374525 -0.07975537 -0.087835 -0.031596515 0.14008786 0.04315468
-0.006302409 0.12741666 0.12172367 0.07439851 -0.07992422 0.019622168 0.03472886 0.07280384
-0.027433341 0.077877104 -0.057427227 0.08751923 0.06007238 0.075986624 -0.029805003 0.07406306
0.018572161 -0.04523464 -0.09483621 -0.050354116 0.0034212777 0.068262175 -0.08821404 -0.017597437
0.039110824 0.033972807 0.08403651 0.06919379 -0.020514904 -0.15849172 -0.04165848 0.049819093
-0.06604824 0.051714133 -0.084138185 0.19103988 0.04662195 0.0065036593 0.053010054 -0.050621927
-0.10810282 0.09294654 0.08003162 -0.07518781 0.046449013 0.17209835 -0.054417215 0.0056972946
-0.066299826 -0.054191183 0.031326607 -0.0156639 -0.016347975 -0.036770903 -0.09250872 0.17012312
-0.034185693 0.05179716 -0.104301624 -0.000867104 -0.045290258 -0.0050290525 0.0449312 0.029811034
0.022741927 0.015730975 -0.029414529 0.008837998 -0.08153188 0.02484526 0.08695636 0.22707823
-0.14050895 -0.12609655 0.0014168166 -0.08193252 0.10538718 -0.1902602 -0.044688493 -0.021262275
-0.03011133 0.06022062 -0.043184493 -0.051674288 0.03854023 -0.071100876 0.0947321 0.023993935
0.056672506 -0.03018131 0.075869225 0.007585915 0.02387109 -0.09348887 -8.261646e-05 -0.046707787
0.14147949 -0.025898648 0.07770955 -0.10199354 0.093348116 -0.0075145476 -0.06119572 0.05497858
-0.011846603 -0.055682853 0.04373627 0.1781542 0.02602192 0.19274923 -0.064876184 0.0009990971
-0.03522805 -0.18821366 -0.06724797 -0.19961359 -0.014227253 -0.20788473 0.05577942 -0.22986738
0.089792036 -0.032353044 -0.0035631806 -0.032366533 0.079533 -0.079841375 -0.040615376 -0.0857854
-0.003567949 -0.024403473 -0.0845144 0.03040333 0.025045868 -0.014631064 -0.060923927 -0.06964435
-0.074741274 0.025100013 -0.08917633 -0.021588877 -0.10096883 -0.100772746 -0.026678303 -0.00022974209
-0.027200002 0.023760801 0.07421601 -0.047332935 -0.001781919 -0.06990325 0.13559027 -0.010348372

bias f4 [2]
00000000: 10fb fc3d 11da 89bd
0.12352574 -0.06731046
