graph2vec_optimization/model/50_mlp_graph2vec_opt_3.pt (torch_old, 382907 bytes, 6 tensors)

weight f4 [128, 600]
000000 f8 c5 10 3d ff e0 06 bd ce d2 12 3d b4 d6 c5 3c
       0.035345048 -0.032929417 0.03584557 0.02415023
000010 a4 e0 d0 bc 9d e0 ad 3c c9 51 c8 bb 56 ec 09 3d
       -0.025497742 0.021225268 -0.006113265 0.033672653
000020 b0 0f 06 3d dc 28 8a bc 62 1b de 3c bf d6 8b 3c
       0.032729805 -0.016865186 0.027112667 0.017070172
000030 8d 2f c9 bc a0 75 c2 bc 29 7e cc bc 03 41 05 bd
       -0.024558807 -0.023737729 -0.024962502 -0.032532703
000040 c3 25 3c bd be 8a fc bb cd c8 cb 3a d6 90 d4 bc
       -0.04593445 -0.007706969 0.0015547514 -0.02594797
000050 f6 20 1e 3d c3 3e 58 bb 3a 2e de 3c af 9a 2a 3d
       0.038605653 -0.0032996393 0.027121652 0.041651424
000060 d4 91 15 3d ea a7 11 bd af c8 05 3d 2c 45 d2 bc
       0.036516026 -0.035560526 0.03266209 -0.02566775
000070 56 c9 4f bc cc c0 00 bd b7 28 a7 3c 81 83 f6 3c
       -0.01268228 -0.031433865 0.020405157 0.030092003
000080 a6 a2 99 bc 41 bc 2a 3d 06 08 2f bc 52 2c 35 3d
       -0.018754315 0.04168344 -0.010683065 0.04423172
000090 44 27 97 bc 7a e4 99 bc 5c b3 81 3c 8f 0b 84 3c
       -0.01845134 -0.018785704 0.015832596 0.016118793
0000a0 44 b3 ad bc 1e b5 c7 bb c0 f5 a4 3c a3 d8 12 3d
       -0.021203645 -0.006094589 0.020136714 0.035851132
0000b0 2d 18 30 3c 53 18 d6 bc 2d 6a 24 3d 9e d4 26 3d
       0.010747951 -0.026134646 0.04014032 0.04073011
0000c0 8a fc d4 3b a9 f4 b2 3c 61 74 ed bc a6 7a c5 bc
       0.0064998316 0.021845179 -0.028986158 -0.024106335
0000d0 19 7a fc bc a0 7b e6 bb d4 6b 9b 3c 94 4b de bb
       -0.03081994 -0.00703378 0.018972315 -0.006783912
0000e0 96 e7 5b bc 2f c6 f8 bb 5f 89 ed 39 7f b4 5a bc
       -0.013421914 -0.0075919847 0.00045306512 -0.013348698
0000f0 78 53 c6 bc 51 08 00 bd 44 aa 39 3c 27 29 3d 3c
       -0.024209723 -0.03125793 0.011332098 0.011545456
000100 14 49 34 bd 84 b9 e9 bc 49 de 77 bc 21 88 f7 bc
       -0.044015005 -0.028530844 -0.0151286805 -0.030216279
000110 de 78 a9 3c eb 0c 98 3c f3 b3 32 bd e4 ea 07 3d
       0.020687517 0.018560847 -0.043628644 0.033182994
000120 88 6b ba bc 52 98 b6 bc 9d fb a2 3c 88 e1 ba bc
       -0.022756353 -0.022289429 0.01989537 -0.02281262
000130 82 dc a7 bc 1d 15 4b bc ad 33 0c 3c 09 6b a3 bc
       -0.020490889 -0.0123951705 0.008557242 -0.0199485
000140 9b 51 85 bc 10 19 23 bd 07 3a e8 bc 2c e0 13 bd
       -0.016274264 -0.039818823 -0.028347982 -0.03610246
000150 5c 48 03 bb 9f c9 0f bb bb 5a 84 3c ab ca c3 bc
       -0.0020032143 -0.0021940244 0.016156545 -0.02390035
000160 4b 1a f7 3c c4 e9 f8 3c 12 93 d7 3c be d2 c6 bc
       0.030163905 0.030384906 0.026315246 -0.024270412
000170 85 95 ae bc ca ef d1 3b c7 01 9e 3c e5 b2 a5 3c
       -0.02131153 0.006406759 0.019287957 0.020226905
000180 82 ed af 3b 16 8c 5f 3c f2 22 bd bc 5a 57 f0 3c
       0.0053688893 0.013644239 -0.023087952 0.029338527
000190 f9 56 0a 3d 61 5b 08 bd b5 fe eb bc dd 06 8e bc
       0.03377435 -0.03329027 -0.028807977 -0.017337257
0001a0 d0 9a 96 3c 2b 28 3c ba 78 b3 22 bd ed c4 1b bd
       0.018384367 -0.00071776164 -0.039721936 -0.0380296
0001b0 72 69 2b 3d a5 a2 cc 3b e2 c8 f8 bc 1a 65 e9 bc
       0.041848607 0.0062449747 -0.030369226 -0.028490592
0001c0 07 c3 0f 3d 0c 36 9d 3c b1 fa 6e bc 93 d2 4d 3c
       0.035098102 0.01919081 -0.014586137 0.012562412
0001d0 90 eb a6 3b 31 88 56 3b b0 50 fd 3b 43 2e 03 3c
       0.005093999 0.0032734985 0.007730566 0.008006635
0001e0 9b 0f d6 3b a2 ca 38 bc cf d3 bd bc 2e 18 27 bd
       0.006532622 -0.01127878 -0.023172287 -0.040794544
0001f0 21 e8 fb 3c 78 19 fd 3c 96 95 4b 3c 56 8e 14 bc
       0.030750336 0.030895934 0.012425801 -0.009067139
000200 f1 f3 ee bc 9e fa fd bb 15 19 f5 bc 06 53 10 bd
       -0.029169055 -0.007750823 -0.029919187 -0.035235427
000210 9a fb 37 bb 52 af 12 bd 71 e4 1e bd 06 75 47 bc
       -0.002807355 -0.03581173 -0.038792077 -0.012173897
000220 c5 15 9f 3c 01 df 78 bb d9 8f d4 36 a0 5f 91 3a
       0.01941956 -0.0037974718 6.3348384e-06 0.001109112
000230 01 91 bf bc e0 21 8e 3c 86 67 00 bd 76 5f ac bc
       -0.023384573 0.017350137 -0.031348728 -0.021041613
000240 94 05 e5 3c c0 62 d0 3c 5f cf f6 bc b4 56 3f 3c
       0.027956761 0.025437713 -0.03012818 0.0116783865
000250 8d 20 d2 3c 78 1f 88 3c 05 38 e2 3c 1d cf 82 bb
       0.025650287 0.016616568 0.027614603 -0.003991975
000260 95 e5 23 3c 21 23 e0 3c ce e6 36 3c ef 91 69 bc
       0.010003467 0.0273605 0.011163427 -0.014255985
000270 b2 af 9b bc 39 88 6d 3c 99 c4 1e 3d 1a 86 88 bb
       -0.019004676 0.01449781 0.03876171 -0.004166377
000280 14 9b 07 bd a0 f4 47 3c 2c 83 10 3d e8 66 02 bd
       -0.03310688 0.012204319 0.035281345 -0.03183642
000290 60 2a 12 bc b8 4b 12 3d bf 17 bc 3c 79 c6 ed bc
       -0.008921236 0.035716742 0.022960542 -0.029025303
0002a0 64 2b c9 3b fe 87 cb 3b ee ff dd bc b0 4b 25 3b
       0.006139206 0.00621128 -0.027099576 0.0025222115
0002b0 0e c6 d5 3c 7a d4 fd bc 35 1c 16 3b c9 20 3c 3b
       0.026095416 -0.030985106 0.0022904996 0.0028706065
0002c0 b0 19 17 3d 09 e5 fb 3c 2a 28 95 3c df d9 b9 bc
       0.036889732 0.03074886 0.018207628 -0.022686897
0002d0 88 cf 1f 3b 81 33 f5 b8 de 39 76 bb 31 c2 be bc
       0.0024385173 -0.00011692104 -0.0037571113 -0.023285957
0002e0 27 f6 94 3c 27 cd 9d bc ca a1 ab 3c 39 2c c4 3b
       0.01818378 -0.019262863 0.02095117 0.005986717
0002f0 a3 55 24 bc 72 58 13 bc a2 7f 7a bc 7d 00 04 bd
       -0.010030183 -0.008993255 -0.015289219 -0.03222703
000300 27 18 02 3d 3e cf ca 3c 68 05 0f bd 4b 14 1b 3d
       0.031761315 0.024757024 -0.034917265 0.03786115
000310 55 58 ae 3c 45 7d ba 3c af 44 b4 3b 59 cc 2f 3d
       0.021282354 0.022764811 0.005501352 0.04291949
000320 98 91 a6 3c 81 93 0a 3d 2d 72 11 3d 8d 62 8c bb
       0.020333096 0.033832077 0.035509277 -0.004284209
000330 e9 9c c3 3b b7 ad 1f bd 0c 0b 0d bd 38 c6 e3 3b
       0.005969633 -0.038984027 -0.034434363 0.0069511198
000340 95 ee 48 3d d8 c6 89 3b b3 74 19 3d a0 9c cc bc
       0.049055655 0.004204612 0.03746481 -0.024977028
000350 2e 79 41 3b 55 88 43 3c 89 b3 29 bc a1 dc be bc
       0.0029521692 0.01193436 -0.010357746 -0.023298563
000360 a4 83 14 3d c6 e3 ba 3c 59 19 a3 bc 79 13 24 3c
       0.036258355 0.022813689 -0.019909548 0.010014408
000370 d7 92 5e bb 77 6b 5e 3c b1 92 1a bd 66 6b aa bc
       -0.0033962035 0.013575426 -0.037737552 -0.020803165
000380 fd dc d7 3b 83 17 0f 3d 12 21 60 3c 38 05 c4 bc
       0.006587623 0.034934532 0.01367976 -0.02392827
000390 6c 68 ad 3b 84 6a b8 bb e3 6d c8 3c f6 55 1b bc
       0.005291989 -0.005627932 0.02446646 -0.009480944
0003a0 47 5b 9c 3b f8 58 3f bc ec 31 f2 3c e4 12 13 bc
       0.0047716233 -0.011678927 0.02956482 -0.008976672
0003b0 f6 c3 ed bb e5 1f fb bc 97 bf 09 bd d4 21 9c 3c
       -0.0072560264 -0.030654857 -0.03362998 0.0190591
0003c0 ee 8e b9 3c 58 4b 15 bc a1 30 f4 bc a4 86 3c 3c
       0.022651162 -0.009112202 -0.029808344 0.01150671
0003d0 b7 68 58 3c 75 5d 5a 3c 5a dd a6 bb 8d c4 c3 3c
       0.01320856 0.013327946 -0.005092305 0.023897434
0003e0 8b 37 52 3b f7 19 23 3d 7e 4e ca b9 2c af 1f bc
       0.0032076563 0.039819684 -0.00038586924 -0.009746354
0003f0 1a 1e f7 bb c9 6b ff ba 56 b6 0b bd e2 cb b5 3c
       -0.00754143 -0.0019487079 -0.034109436 0.022191945

bias f4 [128]
000000 04 ac 9c 3c 53 14 89 bc df b5 7d 3c 0d 7e 40 3c
       0.019124992 -0.016733324 0.015485256 0.011748803
000010 d2 47 00 3b 82 43 66 3b a9 3b e4 bc 35 34 da bc
       0.0019574058 0.0035135453 -0.02786048 -0.026636222
000020 96 4f 25 3d a6 d9 07 3d f6 27 58 bc 9a c7 98 bc
       0.040359102 0.03316655 -0.013193121 -0.018649865
000030 46 3d ff 3b d6 b4 9e bc 77 f3 1f 3c 9f 9f 9a bc
       0.007789287 -0.019373339 0.009762636 -0.018874941
000040 ae 27 03 3d cc f2 16 3d 60 cf a0 3c a3 ac 15 3d
       0.032020263 0.036852643 0.019630134 0.036541592
000050 84 5e aa bc 2c 9e f4 bb d4 75 f0 3c 75 6e 46 3c
       -0.020797022 -0.0074651446 0.02935306 0.012111296
000060 e3 aa 32 bc 96 ef b0 bc fc 8c 30 3d 96 49 fc 3c
       -0.010905 -0.021598618 0.043103203 0.030796807
000070 24 48 1c bd f6 04 25 3d c8 9b 26 bd dc 1c af bc
       -0.038154736 0.040287934 -0.04067591 -0.021376066
000080 6a 34 f0 bc 9d 88 48 3c 84 77 9e bc 30 53 b9 3b
       -0.029321868 0.012239602 -0.019344099 0.0056556687
000090 96 9d 16 3d 7b de 7d 3a c4 a6 1b 3c e1 9b 05 bd
       0.03677138 0.0009684336 0.009500209 -0.03261936
0000a0 85 30 0c 3d ab 14 f5 bc ad d3 c3 3c e0 49 da 3a
       0.03422596 -0.029917082 0.023904646 0.0016654097
0000b0 a9 3b 82 bc d0 85 4c bc 6d 1f 0a bc 34 9c 1f bd
       -0.015897589 -0.012483075 -0.008430344 -0.038967326
0000c0 b4 a1 c9 bc 7f b2 7c bc f8 1d 23 3b de 7c b9 bb
       -0.024613239 -0.015423416 0.002488969 -0.0056606373
0000d0 86 b4 12 3d 02 af b6 bc b6 3b 04 bd 5e a4 b8 3c
       0.03581669 -0.022300247 -0.032283507 0.022539314
0000e0 19 13 b0 3c 45 c4 1a 3d 76 c5 6e bc b8 fe ad bc
       0.021493481 0.037784833 -0.014573446 -0.021239623
0000f0 48 4f 26 3d be fb 0a bd 83 6c b0 3c be 4f 62 3b
       0.040602952 -0.033931486 0.021536117 0.0034532393
000100 b9 7f bb bc 70 c9 2a 3d 2f 0f 8b bb 58 74 15 bc
       -0.022888051 0.041696012 -0.0042437534 -0.009121977
000110 0b 3b fc bc 29 93 b0 3c 05 29 fd 3b 4b 67 05 bd
       -0.030789873 0.021554546 0.007725837 -0.03256921
000120 68 65 12 bd ed a6 f5 bc 99 f6 d9 3c d1 77 b6 3c
       -0.03574124 -0.029986823 0.026606845 0.02227393
000130 43 6e bc bc a8 6f 9a 3c 6c 77 2c bc de 93 28 3d
       -0.023001796 0.01885207 -0.010526519 0.041156642
000140 75 0e e5 3c 1e 69 a3 3c 02 e0 e6 bc 97 f1 05 bb
       0.027960995 0.019947585 -0.028182987 -0.0020438188
000150 88 4f bc ba 06 ca 9b bc 8a e7 96 3c 8a a2 a0 bc
       -0.0014366964 -0.01901723 0.018420953 -0.019608755
000160 a6 79 1d 3d 90 5b b6 bc e6 10 81 bb b2 36 0e bd
       0.03844609 -0.022260457 -0.003938782 -0.03472013
000170 c1 20 2d 3c f1 08 be bc 1d 0a 57 3b 64 8a f0 3c
       0.010566891 -0.023197623 0.0032812424 0.029362865
000180 14 a8 bd 3c 5f 80 29 3a bf 07 f9 bc e8 9b 91 bc
       0.023151435 0.0006465967 -0.030399201 -0.017774537
000190 54 89 24 3d 63 d9 dd 3c 82 c8 18 3c e0 da a9 3c
       0.04017003 0.027081197 0.009325149 0.02073425
0001a0 bc 43 8c 3b 6d 0d d4 bc dc 35 08 bd 84 5f 22 3d
       0.0042805355 -0.025885308 -0.03325449 0.039641872
0001b0 b4 28 b9 bc 6a 8d d1 bc 65 76 5e 3c b4 cf d4 bc
       -0.022602417 -0.025580127 0.013578032 -0.025977947
0001c0 a4 23 a3 b9 a5 ac 34 bc 7a 4f 86 3c ea 65 01 bd
       -0.00031116337 -0.01102749 0.01639532 -0.031591333
0001d0 09 51 c7 3c 2c 9d c7 3c dd 9a 46 bd 88 68 22 bc
       0.024330633 0.024366938 -0.048487533 -0.0099126175
0001e0 3d 30 8c b9 3e db 12 3d 96 88 c7 bb 60 5b 16 bd
       -0.0002673882 0.035853617 -0.0060892804 -0.036708236
0001f0 97 b4 84 3c 7d 30 a6 3c 5f a6 2f 3d 31 14 19 bd
       0.016199393 0.020286793 0.042883273 -0.03737277

weight f4 [128, 128]
000000 2b dd 4a bd 24 bb a9 3d a4 c5 da bc a4 ec e4 3c
       -0.04952733 0.08287647 -0.02670557 0.02794487
000010 34 aa 95 3d 7b 4e a1 bd bc ee cf bc a7 5c 7b 3d
       0.07307854 -0.07876297 -0.025382392 0.061367657
000020 8d b9 ef bc ec 37 85 bd 38 55 20 bc bc 48 e1 bb
       -0.029263282 -0.06504807 -0.009785943 -0.0068751257
000030 fe 82 9e 3d 27 e5 84 3b 10 1a 87 3d 02 79 2c bd
       0.077398285 0.0040556374 0.06596768 -0.04210759
000040 30 6c 4a bc d5 1f a7 3d 2c c1 95 3d 61 e3 92 bd
       -0.0123548955 0.08160368 0.07312235 -0.07172275
000050 6f 37 94 3d 4a e0 06 3d 67 77 78 3d b2 09 9b bd
       0.072371356 0.032928742 0.060660746 -0.075702086
000060 b5 a8 01 3d 47 7d 54 bd 79 eb 2e 3c 34 16 fa bc
       0.031655032 -0.051877286 0.010676258 -0.030528165
000070 18 d3 5f 3c 25 81 8e 3d 8f 5a a7 bd 57 16 1b bd
       0.0136611685 0.06958226 -0.081715696 -0.0378631
000080 d0 48 ae 3c 2d 76 a1 3b ab 49 5f bd f2 37 42 3d
       0.021274954 0.0049274177 -0.054513615 0.047416635
000090 e4 e8 5f 3d cf 83 48 3d 5e 23 da 3c 6c 67 fb bc
       0.05466546 0.048953827 0.026628193 -0.030688964
0000a0 a0 8a 64 3c 5d 79 55 3d 09 f6 50 bc 1a ec 7f 3d
       0.013949066 0.052117694 -0.012753972 0.062481023
0000b0 0b 56 63 3d d2 28 b8 3c 76 1c 3a bd 9b cd 4f 3d
       0.05550198 0.022480402 -0.0454373 0.05073319
0000c0 f5 9e 4a bd 65 c0 1a 3d 14 8a bc bc f4 b7 67 3d
       -0.049468 0.037781138 -0.02301506 0.056571916
0000d0 bb 45 86 3b 83 aa 92 3c bb b3 27 bd 5f cf 89 bd
       0.004097668 0.017903572 -0.04094289 -0.06729006
0000e0 75 81 2c bc 2d f0 06 bd 05 a6 81 3d f6 a3 87 bc
       -0.010528912 -0.032943893 0.06330494 -0.016557675
0000f0 6d fd b1 3c e3 2f 36 bd 2e a3 56 3d d2 1e 81 3c
       0.021727288 -0.044479262 0.052401714 0.015761767
000100 80 67 af 3d 94 e5 b8 3c bd 09 fc bc 3d 3a aa 3d
       0.08564663 0.022570409 -0.030766362 0.08311889
000110 46 13 ae bd d5 55 ee bc c1 16 29 bd d1 a4 82 bb
       -0.0849977 -0.029093662 -0.041281465 -0.003986933
000120 b4 e3 2b bc 5b 0c c7 bc a9 ca 9f bd 59 11 38 bd
       -0.0104913 -0.024297884 -0.07802326 -0.04493842
000130 33 1a f1 bc 46 fc c3 bb 7b c2 19 bd 88 e2 87 3d
       -0.029431438 -0.005981001 -0.037538987 0.06635004
000140 fa f6 8e 3d 30 56 23 bc 5e 57 39 bd 41 1c a0 bb
       0.06980701 -0.009969279 -0.045249335 -0.0048861806
000150 a5 f9 b0 bc cd 96 87 3d 86 d9 db 3c d0 ba 3a 3c
       -0.021603415 0.0662056 0.026837122 0.011397079
000160 40 ac 6b ba f4 0c 9d 3d 18 5b 77 bc d4 93 0d bd
       -0.0008990206 0.07668486 -0.015097402 -0.034564808
000170 da 20 17 3d b6 e1 46 3d d4 fe 84 bd 47 b7 36 bd
       0.036896564 0.0485551 -0.06493917 -0.04460838
000180 5a db 14 3d 12 37 af bd 68 85 3c bc 89 44 6e bc
       0.036342002 -0.08555426 -0.011506416 -0.014542707
000190 74 91 a3 3c 02 6f b0 bc 76 11 22 bd 5b 96 a1 bd
       0.019966818 -0.021537308 -0.039567433 -0.07890006
0001a0 14 3a e0 3c a1 27 e0 bc 7c 50 2f bd d5 cb 64 bc
       0.027371444 -0.027362647 -0.042801365 -0.013964613
0001b0 5e a6 52 3d d7 b8 7f 3d 26 ab 3b bd 01 b5 1d ba
       0.05142819 0.062432136 -0.045817517 -0.00060160464
0001c0 1c fe 92 ba 2c d8 de 3c b6 06 2d 3d cf 0c f5 3c
       -0.0011214647 0.027202688 0.04224273 0.029913334
0001d0 a4 33 98 bc 60 8f 29 bb 23 a3 b0 3d df 5d 3a 3d
       -0.018579312 -0.0025872812 0.08624866 0.04549968
0001e0 86 dd 9b bd 56 9e da 3c d8 ab 52 bd 97 79 24 bc
       -0.076106116 0.026686829 -0.051433414 -0.010038755
0001f0 e5 ff 47 bd 09 69 a9 3d b4 e7 9e bd 5e 76 2e 3b
       -0.048828024 0.08271987 -0.077590376 0.0026620845
000200 10 cd b8 3d 1e 52 4b 3d d9 13 e0 3c db 00 98 3d
       0.090234876 0.04963886 0.027353214 0.07422038
000210 b7 4e a5 39 93 5e 9c bd a4 0d ea 3c 7d 81 9e 3d
       0.000315299 -0.07635226 0.028570957 0.07739542
000220 c2 29 86 3d f1 cb 17 3c 16 88 ad 3d b3 56 49 bd
       0.065509334 0.009264932 0.08473222 -0.04915495
000230 99 c3 09 bc 3c a9 0e bd b2 78 48 3d bf ed ab bd
       -0.0084084505 -0.034829363 0.04894323 -0.08394956
000240 49 3e 98 3d 15 e8 2b 3d 1f 6b 13 bd 58 e1 ce bb
       0.07433755 0.041969378 -0.03599083 -0.006313484
000250 aa 1a 1f 3d 01 32 8d 3d 08 74 7e 3d e9 f8 8b 3b
       0.03884379 0.06894303 0.062122375 0.0042716158
000260 a3 04 a7 3c c0 e2 17 bd 01 b4 99 bd 7c a1 7c 3d
       0.020387953 -0.03708148 -0.07505036 0.06167744
000270 a2 57 0a bd 76 33 81 bd 0b 1d 05 bd 1e f7 85 bd
       -0.03377498 -0.063086435 -0.0324984 -0.065412745
000280 df 23 a0 bd b6 09 ca bc 99 57 3f bc 9a a7 52 bd
       -0.07819342 -0.024662834 -0.0116786 -0.05142937
000290 41 cb de 3c a8 30 50 3c 6d 9b a7 3d a2 0b 79 bc
       0.027196528 0.012706913 0.08183942 -0.015200527
0002a0 cc 31 19 3d 82 94 df bb fb 58 8c bd 8b 44 ac bd
       0.037401006 -0.0068231234 -0.06852909 -0.08411511
0002b0 ee e1 44 3d 54 36 e1 bc 86 e5 89 bc 03 6e ab 3d
       0.048067026 -0.027491726 -0.016833078 0.083705924
0002c0 95 a8 2d 3d 63 0f 08 3d dc da f3 bc b8 cb c8 bc
       0.0423971 0.0332178 -0.029767446 -0.024511203
0002d0 5a 01 22 3d 06 60 b0 bd 7b 0f a1 3d cd 58 9b bd
       0.03955207 -0.08612065 0.07864281 -0.07585297
0002e0 99 4b 90 3d b7 94 03 3d f7 26 33 3c 50 38 ec 3a
       0.07045669 0.032124247 0.010934583 0.0018022154
0002f0 dd 66 b4 bc 5d 1e ec 3c f5 36 b0 3d 96 67 39 3d
       -0.022021705 0.028823072 0.08604232 0.045264803
000300 99 9d 0a 3d 36 13 77 3d bc e9 ac bd 05 c0 21 3d
       0.033841703 0.060321055 -0.08443019 0.039489765
000310 b4 49 be bb bd b7 60 bd 38 ca 56 3d 68 fe 47 bd
       -0.005807126 -0.054862726 0.052438945 -0.048826605
000320 32 1d 42 3d d9 a7 50 3c 27 59 97 bd a3 9d 9d 3c
       0.047391124 0.0127353305 -0.07390051 0.019240206
000330 4a 02 83 3d d7 b7 11 3c 61 79 12 3d 49 61 81 3d
       0.06396921 0.0088939285 0.035760287 0.06317384
000340 77 31 9b bd fa 41 96 3c 7d 7e 53 bd b0 d1 38 bd
       -0.07577794 0.018342007 -0.0516343 -0.04512185
000350 de 06 b1 3d e6 67 88 3c 20 26 a6 bd 83 68 45 3d
       0.08643888 0.016651105 -0.081127405 0.048195373
000360 dc 80 9c bd 76 20 c0 bd fc 81 a6 bd d6 85 a5 bc
       -0.076417655 -0.093811914 -0.08130261 -0.02020542
000370 cf b4 9a bd b3 da ac 3d 67 d3 ba bc c0 c2 74 bd
       -0.07554018 0.08440151 -0.022805883 -0.05975604
000380 20 62 ad 3c 8d 86 57 bd c6 68 be bd 34 7c e8 bc
       0.021164954 -0.052618552 -0.09297328 -0.028379537
000390 d4 a3 b2 bd 15 8a 23 bd c0 ab a9 bc 2d 34 a4 bd
       -0.08722654 -0.039926607 -0.02071178 -0.08017764
0003a0 1d 64 49 3d d9 c2 a8 bc c9 4a ab 3c a2 31 90 3d
       0.04916774 -0.020600723 0.020909684 0.07040717
0003b0 ef 93 6d bd a1 24 9c 3c 4a 0f d2 bc fd 73 73 3d
       -0.05800241 0.019060435 -0.025642056 0.059436787
0003c0 32 ba 24 bc 05 02 42 bc 23 b7 53 bd d4 ab b2 3d
       -0.010054158 -0.011841302 -0.051688325 0.0872418
0003d0 88 8d dd 3a 08 6c c6 bc f5 ff 85 bd 87 c9 98 3d
       0.0016903142 -0.024221435 -0.065429606 0.07460313
0003e0 df ac cc bd 52 0b db bc a3 67 1f 3d 91 7e 4f 3d
       -0.0999391 -0.026738796 0.038917195 0.050657813
0003f0 9c 14 4d bd e7 94 8a bd f7 78 b8 bd 52 50 79 3d
       -0.050068483 -0.06766682 -0.09007447 0.060867615

bias f4 [128]
000000 b3 8e a8 bd 20 cd f6 3b e1 24 f8 3c 49 7c 7b bd
       -0.08230343 0.007531777 0.030291023 -0.061397824
000010 a8 49 a9 bc c7 1b 5f bd 0a 84 69 3d 25 f0 3b bd
       -0.020665005 -0.05446985 0.057010688 -0.045883317
000020 10 00 57 bd 50 3f 4d bd b2 eb 23 bd cd af 42 bd
       -0.052490294 -0.050109208 -0.0400197 -0.047530938
000030 cc c1 84 3c 00 bc 00 bd d8 8e 35 3d d4 ca 09 3d
       0.01620569 -0.03142929 0.04432568 0.033640698
000040 e0 96 c8 bc f3 d4 58 3d 67 8a be 3c d8 fb 73 bc
       -0.024486005 0.05293746 0.023259355 -0.014891587
000050 4a 20 92 bc 90 49 21 3d c1 64 dd bc 44 97 47 bd
       -0.017837662 0.039376795 -0.027025582 -0.048728243
000060 8e f9 6f bd 2e 35 58 3d 08 1d bf bd 51 71 d0 3c
       -0.058587603 0.05278509 -0.09331709 0.025444658
000070 26 83 6c bd 4a 0a 9a 3a 22 33 2b 3d 30 41 6d bd
       -0.05774226 0.0011752334 0.04179681 -0.057923496
000080 48 d2 8a bd f1 d4 91 bd 15 d9 84 3d a5 26 4f 3d
       -0.06778389 -0.071206935 0.064867176 0.050573964
000090 dd c4 8d 3d f9 d3 a4 3c bd 03 81 bd 14 33 b3 bc
       0.06922314 0.020120608 -0.06299541 -0.021874942
0000a0 de c7 b3 3d f9 0b 92 bd c3 f4 77 bd f2 8a 1e bc
       0.08778356 -0.0713119 -0.060536157 -0.009676682
0000b0 79 51 18 3d 60 31 87 bd 11 f6 87 bd b3 ec 0d 3b
       0.037187073 -0.066012144 -0.0663873 0.0021655976
0000c0 3a 91 ce bc 3c 8c 39 bd 56 5f 91 bd 8e 3b f0 bb
       -0.025215734 -0.045299754 -0.07098262 -0.007331318
0000d0 99 b9 f1 bc 06 0a 7b 3d 43 b4 86 bd fb 3a 94 bd
       -0.029507445 0.061288856 -0.06577351 -0.07237812
0000e0 66 cb b1 bd a2 ce 95 bd 58 d7 aa 3d 78 38 93 bd
       -0.08681373 -0.07314803 0.08341855 -0.07188505
0000f0 a4 8b 16 3d af 7d 8e 3d ba 91 b2 bd ec 4a 70 3d
       0.036754265 0.06957566 -0.087192014 0.0586652
000100 d6 5d a7 3d a0 28 08 bc 60 d9 1e 3b fb 86 b8 bd
       0.08172195 -0.008310467 0.0024238452 -0.090101205
000110 07 ca c5 bc 54 6e 39 bd a2 47 9c bc e8 82 af ba
       -0.024144186 -0.045271233 -0.019077126 -0.0013390454
000120 3b cd 84 bd 9a d6 23 3c 5d 08 9a 3d 7e 35 e5 bc
       -0.06484457 0.0099998955 0.075211264 -0.027979609
000130 3b c0 86 bd c7 86 95 3d da 9a 2d 3d fe 2b 12 bd
       -0.06579634 0.07301097 0.042384006 -0.035686485
000140 2d 30 02 3d aa 0c c9 bb 14 67 c8 bc 1f f8 0c 3c
       0.031784225 -0.006135543 -0.024463214 0.008604079
000150 12 3f ba 3c 7c b3 b2 bc 10 82 7c 3b ca 17 0e 3d
       0.022735152 -0.0218141 0.0038529672 0.034690656
000160 95 3e 99 bc 3c 67 16 3d aa 0c 4a 3d 09 d2 89 bd
       -0.0187066 0.036719546 0.049328484 -0.06729514
000170 8c b9 2e 3c 92 ad 94 3b f3 d1 d8 bc 47 81 56 bb
       0.010664355 0.0045372928 -0.0264673 -0.0032730864
000180 7a 32 97 3d 46 15 9a 3d 38 c3 a3 bd 1d af a6 3d
       0.073826745 0.07523589 -0.079962194 0.08138869
000190 a6 be 4b bd 67 67 16 3d c1 74 17 3b b6 bb 84 3d
       -0.049742363 0.036719706 0.0023110362 0.064811155
0001a0 2d 78 ac 3d d7 59 ae 3d d8 ab ce 3c bb 03 5a bd
       0.08421359 0.08513229 0.025228426 -0.053226214
0001b0 5c 1c 80 bd b4 7c 77 bd c4 ac 87 bd df 10 8b bd
       -0.06255409 -0.06042166 -0.06624749 -0.06790327
0001c0 06 6e 98 bd 00 11 05 bc 86 89 50 bd 10 54 be bd
       -0.0744286 -0.008121729 -0.050912403 -0.092933774
0001d0 08 f9 64 bd db 34 93 3d be b0 ab 3d e3 9c 0e 3c
       -0.055901557 0.07187816 0.0838332 0.008704397
0001e0 e7 91 b9 3d b7 8f cf bc 20 6d 76 3c 60 a6 6b 3d
       0.09061032 -0.025337083 0.015040666 0.057531714
0001f0 94 a5 39 3d a4 3d 12 3d 84 8a 87 3d 40 bf 5b 3d
       0.045323923 0.035703316 0.06618217 0.053649187

weight f4 [2, 128]
000000 e5 b3 ea bc f4 3e fd bd cc fb b3 bd 84 ea 73 bd
       -0.028650234 -0.12365523 -0.08788261 -0.059549823
000010 c3 0b 6d 3d 02 fd 1a 3d 86 4d 94 3d 1e 0a f9 ba
       0.057872545 0.037838943 0.07241349 -0.0019000208
000020 c0 31 fc 3b b3 16 6e 3c a5 4b 21 bd 13 ce 80 bd
       0.0076963603 0.014531779 -0.03937878 -0.062893055
000030 c5 15 c6 3c 55 02 a2 bc 31 8b 19 bd 3c 28 2f be
       0.024180302 -0.019776503 -0.03748626 -0.17105192
000040 03 cd 4d bd c1 55 80 3d 63 f3 3f 3d d4 44 3c bc
       -0.050244343 0.06266356 0.04686297 -0.011491019
000050 c4 70 05 3d 8a a0 4d 3d 70 5a 28 3e cd 4b 42 3d
       0.032578245 0.05020193 0.16440749 0.04743557
000060 7e e2 8d bc 44 04 d1 3c 98 c4 0f be 32 6a e0 bc
       -0.017319914 0.02551473 -0.14039838 -0.027394388
000070 8e c1 3f bd 62 2a 1f bd d4 d4 d5 bd 7f a8 5e bd
       -0.046815448 -0.03885878 -0.10440984 -0.05435991
000080 3c 55 db bd ca 31 44 bd a7 61 ed bd af b8 49 3e
       -0.107096165 -0.047899045 -0.11590891 0.19699357
000090 b0 86 eb 3d 3b 29 b5 bd f6 b3 e6 bd ed 41 70 3d
       0.11500299 -0.08845755 -0.112647936 0.05865662
0000a0 0d 1a 98 bd 72 c8 ac 3d 80 c7 13 be 15 d2 21 3d
       -0.07426844 0.084366694 -0.14431572 0.03950699
0000b0 8a 67 85 3d 11 3d 16 3d e4 ec e1 ba aa 36 91 bd
       0.06513889 0.03667933 -0.0017236737 -0.070905045
0000c0 1a 6d a6 bd f5 83 a1 3d 9c 6f f7 3d b3 a4 ee bb
       -0.08126278 0.07886497 0.12081835 -0.0072828173
0000d0 3d 28 c5 bc 78 bc b0 bc 61 56 e5 bd 41 6e 13 3d
       -0.024067039 -0.021574244 -0.11198116 0.03599382
0000e0 57 93 0a be dc 93 46 bc 62 34 16 3e 0e 85 ad bc
       -0.13532768 -0.012120213 0.1466842 -0.02118161
0000f0 53 49 41 3d bf 8b ab 3d aa 2e 67 3c f1 ca e4 bb
       0.047189068 0.08376264 0.014110247 -0.0069822003
000100 fd ae 46 3e 56 95 aa 3d f8 88 5b 3c 3d b5 a1 bd
       0.1940269 0.08329265 0.013399355 -0.078958966
000110 35 4f 2f 3e 55 4a fd bd 55 c3 d4 3a 56 15 80 3d
       0.17120059 -0.12367693 0.001623253 0.062540695
000120 84 82 8c bd 4f 62 c0 3d 3a 3e 95 3b 70 ad 02 be
       -0.068608314 0.09393751 0.004554537 -0.12761474
000130 99 a8 e4 3d ac ea 42 bd 39 c0 e5 3d 43 95 c0 3d
       0.1116497 -0.04758708 0.11218304 0.094034694
000140 d6 ff 66 bd 50 ef 8e 3d 7f 76 d1 bd aa 8e 72 3d
       -0.056396328 0.06979239 -0.102276795 0.059218086
000150 6e 3f c3 bd 90 ae c1 bc 97 54 c7 bd 92 8f 46 be
       -0.09533583 -0.023642808 -0.09732931 -0.19390705
000160 fb cb 4e bc 85 a4 52 bd c4 d8 dd bd e8 36 85 bd
       -0.012621875 -0.05142643 -0.108323604 -0.06504613
000170 cf 11 21 be 96 ac 30 3d fe 72 38 be f5 ee b3 bd
       -0.1572945 0.04313334 -0.18012616 -0.08785812
000180 ae e1 e9 3d a0 56 8c bd 63 c9 70 3c 01 68 0b 3e
       0.11419998 -0.0685246 0.014696452 0.13613893
000190 99 1d 88 3d 89 b4 f9 bc 4a e8 a7 3c 73 ff a1 bd
       0.0664627 -0.030481594 0.020496506 -0.07910051
0001a0 ce 9a 10 3d 50 0e 12 3e b2 c1 16 be 7c 6e 44 bd
       0.035303883 0.14263272 -0.14722326 -0.04795693
0001b0 6f 3b 3f 3d 25 4c 06 be 3a 51 dd 38 c3 5b ac 3c
       0.04668754 -0.13114984 0.00010553231 0.02103985
0001c0 34 d5 d6 bc c3 9a 76 3c c2 82 58 3d c5 56 30 be
       -0.02622471 0.0150515465 0.052859075 -0.172206
0001d0 78 3d d0 3d 9e 41 10 bd 74 40 aa 3b 59 41 17 be
       0.10167974 -0.035218827 0.0051956717 -0.14771022
0001e0 e4 cf 8b 3b 87 79 07 be 39 b8 91 3d 97 81 46 3e
       0.004266726 -0.13229953 0.07115216 0.19385372
0001f0 45 cd 81 bd 14 ad 3d bd 2b 72 d8 bd 3d 5a a4 bd
       -0.0633798 -0.04630764 -0.10568651 -0.08025024
000200 ae c5 40 3d c6 97 d1 3d 9c 19 0b bd e5 8d ce bd
       0.047063522 0.102340266 -0.03395997 -0.10085658
000210 73 56 06 3d 42 d3 47 bd 06 ff e1 bd c1 f9 69 3d
       0.03279729 -0.048785456 -0.1103497 0.05712295
000220 68 35 09 3d f0 cf 14 3c ed 60 b8 3d a5 29 b1 3b
       0.033498198 0.009082779 0.09002862 0.0054065757
000230 2f 42 91 3d 25 81 03 bc 05 1c 01 3c 3b 94 76 3d
       0.07092702 -0.008026396 0.0078802155 0.060199957
000240 3b 31 12 b8 71 92 90 3c ce dd 89 bd fe ba b0 bb
       -3.4854962e-05 0.017647954 -0.06731759 -0.005393385
000250 c0 02 36 bd c4 7c 9e bd 47 97 53 be 27 43 07 bd
       -0.044436216 -0.07738641 -0.20663176 -0.033023026
000260 5d 2d d2 bb 88 88 8e bd d4 83 1c 3e 0c f8 7e 3d
       -0.006414099 -0.06959635 0.15284663 0.062248275
000270 b2 69 a2 bd da 7f 63 bd 59 72 07 3e 3c 17 d5 3c
       -0.07930316 -0.05554185 0.13227214 0.026012056
000280 3d 9c 30 3e 00 18 91 bd 39 d6 f3 bb 32 3a 53 be
       0.172471 -0.07084656 -0.007441309 -0.20627668
000290 d8 40 b6 3c 75 6a 21 bd 9d 46 bf 3d 17 67 4e bd
       0.022247717 -0.039408166 0.0933964 -0.050391283
0002a0 cb 42 16 bd 0d d5 48 bd 5e 96 12 3e 8b 0c 93 bd
       -0.036684792 -0.049031306 0.14315173 -0.07180127
0002b0 2d fe 81 3d 55 ad f4 3d bb 0c 6d bb 17 40 0b 3d
       0.06347308 0.11947123 -0.0036170918 0.033996668
0002c0 a2 27 73 bd 98 ee 87 3d ce 8a 44 bd b5 77 8b 3d
       -0.05936397 0.06637305 -0.047983937 0.06809942
0002d0 7e 84 a0 3d 04 98 0f 3d 67 2e 9d 3d 25 6f e6 bc
       0.07837771 0.035057083 0.07674866 -0.02812917
0002e0 f7 fd 3e 3d c2 02 3d bc 1a d4 5b bd 8c a3 e6 3d
       0.04662892 -0.011536302 -0.053669073 0.11261663
0002f0 fb 4b d1 bc d1 27 33 bd 98 dd 85 bd 89 c2 62 3d
       -0.025548926 -0.043739144 -0.06536406 0.055361304
000300 b3 ce 45 be b9 8e 29 be 63 9a b2 bd 92 b7 f1 3c
       -0.1931713 -0.1655835 -0.08720853 0.029506478
000310 62 f6 34 be 2c 3a 1b 3e 9c 0f 5d 3d fe 39 4d bd
       -0.17672113 0.1515891 0.053969964 -0.050104134
000320 2d f8 db 3d 82 83 15 3d d3 34 84 3d 01 07 9d 3d
       0.10740695 0.03650237 0.06455388 0.076673515
000330 c3 cd 15 bd 6a 98 d5 3d 4d e7 01 bb 1d 6b 9b 3d
       -0.036573183 0.10429461 -0.0019821704 0.075887896
000340 3d 36 20 3d 35 94 ad 3c 04 4f 04 3e 00 e4 99 bd
       0.039114226 0.021188835 0.12920767 -0.07514191
000350 c5 3c 41 3c 7d 32 85 3d 1c 5e 9b 3d 00 97 24 3e
       0.011794274 0.065037705 0.07586309 0.16073227
000360 4c c4 fb 3c af 9a 95 bc 91 13 d8 3d f0 75 25 bd
       0.03073325 -0.018262235 0.10550607 -0.040395677
000370 51 80 c6 3d 72 5b a1 bd 46 f1 27 3e ec d0 3d bb
       0.09692443 -0.0787877 0.16400632 -0.0028963638
000380 30 38 23 bd e5 98 87 3d 3c 49 9b 3d 81 3f 25 be
       -0.039848506 0.06620959 0.07582328 -0.16137506
000390 60 60 4d 3d ac 9a a6 3d 91 e4 80 bd 1d 99 be 3d
       0.05014074 0.0813497 -0.062935956 0.09306548
0003a0 a4 d2 9d 3d 39 fb 08 be a3 a9 c9 3d c2 43 e2 3d
       0.07706192 -0.13377084 0.09846809 0.1104808
0003b0 40 4e 68 3d 97 40 01 3e 1c 68 9b bc b5 09 17 bd
       0.05671525 0.12622295 -0.018970542 -0.03687449
0003c0 56 99 b5 bc 7e 08 9f 3c 9d d0 8f bd f8 cc 25 3e
       -0.022167843 0.01941323 -0.07022212 0.1619147
0003d0 4c 11 7a 3d 90 cd c1 bd 15 0a 80 3c 22 21 09 3e
       0.06105165 -0.09463036 0.015629807 0.13391545
0003e0 a1 0e fe bd 62 6e 07 3e eb 8c 7e 3d 6d 57 43 be
       -0.12405134 0.13225701 0.06214611 -0.19076319
0003f0 1c 9e ce 3d 14 0c 36 bc df 28 81 3d de bd 3e 3d
       0.10088751 -0.011111278 0.06306624 0.04656779

bias f4 [2]
000000 d1 0d 1d 3c 3e 43 e4 bd
       0.009585814 -0.11145638
