graph2vec_optimization/model/50_mlp_graph2vec_opt_2.pt (torch_old, 382907 bytes, 6 tensors)

weight f4 [128, 600]
00000000: aa5c 9c3c 8a41 1ebc a88c 523c c93d ebbc
00000010: 46bf 0ebd d927 23bc 477d 143d f179 6bbc
00000020: 91f3 803c 1858 03bd c216 523a 7f28 f43c
00000030: 5294 c3bc 26a8 febb 9b9a e53c 9d97 d23c
00000040: 0dc4 4f37 1352 24bd 68bc 713c 1289 a1bc
00000050: f480 c2bc 58d7 1a3d ca56 cb3c 2efb 903c
00000060: e4f1 f6bc 5508 8abc b2c6 203d 99af f83c
00000070: 9dca dfbc 4fe0 d73c 2e4b 073d c82e 86bc
00000080: eba0 a9b9 3cb2 fabc 9d01 233c c67b 493c
00000090: c67d 49bb 055d be3c aeed 18bd 5a68 5d3c
000000a0: 6fdb da3c 7fbd 163d 8395 23bd bc99 003c
000000b0: c2e8 85bc 88e1 e5bc 057a 0b3d c4ef 13bc
000000c0: 4e04 223d 8d6e 3c3c c665 bb3b e668 b3bc
000000d0: 1132 aebb 20f5 76bc 8a59 29bb 3a94 24bd
000000e0: f443 103d 8264 453c e855 4ebc fbba f53c
000000f0: ec0b 223d c720 40bc 84ab 223d 4f6a 153d
00000100: 9340 3b3b 0cec 473c 7ddc b53c de70 883c
00000110: ba61 20bd bd87 f53c 2e56 1e3d b683 8abc
00000120: 714e bc3b 3860 86bc 0690 d73c 9755 06bd
00000130: e525 e0bc b73b be3c a248 33bc cca7 8f3c
00000140: 97d2 483c df3a f83c 8546 0dbd 8084 73bc
00000150: ea1f 73bb 442f 503b 36ac 083d 3718 943c
00000160: 297d a5bc c0f9 c4bb 5115 583c 52b9 f13c
00000170: 87f0 a4bc 4380 9e3a 8f7f 14bd e8d8 73bc
00000180: 99ff 723a 61a4 2c3d f07e 173d 0ab4 b33b
00000190: a0f3 243b e2fd 05bd c222 1e3b ca93 853b
000001a0: 8e2d de3c 74af 2abd 39dc 0c3c e0cc 1cbd
000001b0: d1e4 a93c e90f 1abd 6c70 f23c 7908 023d
000001c0: 8822 d8bc 3c7d 0c3c 487a e63b ebda 033c
000001d0: 94d6 8f3c bb30 ecbc 6d23 4abb 2529 33bc
000001e0: 7c64 133d 957a 31bc 0e9d 26bd 3d06 38bc
000001f0: 9217 dfbc 5b2a ae3c 7846 1fbd 84b2 5c3c
00000200: 3774 c63c c37c 413c d33b f33b 067c bc3c
00000210: 650c 903c 9ab2 e33c 750c efbc 322c 8a3c
00000220: c9dc 4a3b dc46 e53c 29f0 32bc 1d8a 48bc
00000230: 1013 0fbd 73d6 04bd cbfc 143d 8fbe 99bc
00000240: f02d 233d f632 f93c ed54 0abc 07cc 26bd
00000250: 7df8 ad3c a3bc 8b3c a305 8f3c 6563 163d
00000260: 42ae a73c 074a 1bbd 84c1 f5bb 395a 403b
00000270: 04e7 0f3c f179 41bc 5074 dc3c 4db8 403b
00000280: b00e 353b bae0 883c 2a45 723c 646a 9e3c
00000290: 1eac 85bc 97e4 bcbc 8828 bfbc a4be ff3c
000002a0: ca62 b3bb 723c 5e3c 677f 693c 086a e3bc
000002b0: 1206 293c eecf 54bc f114 c2bc 8a8e ac3b
000002c0: 8b76 1cbd 9308 1b3c 2a8e 823c 256e 6fbc
000002d0: 9d32 0abd f96b b13b 2f54 5a3c f3df c3bc
000002e0: 9475 e53c fad0 25bd a675 193d e4f9 803b
000002f0: d426 d23c 570f 3fbb af73 9e3c 6c99 e0ba
00000300: 0406 d03c f324 783c c841 613c 4d7c b7bc
00000310: b33d 0e3d 4698 15bd ad08 07bd d57d bfbb
00000320: 3c6c 44bc bc21 323c 3a15 943c d4e1 1a3d
00000330: 822c 1a3c f935 0bbd cc7d d6bb 9452 b43b
00000340: 8ecf 2cbc bf89 f13c 2b4a 5dbc e223 cabc
00000350: d93f 1e3d df18 22bd a1ac b03b 5f4d a43c
00000360: fb8a 55bc a743 ec3c 4539 153d 93c5 e43a
00000370: 3feb 0cbd 62ce 03bd e785 fb3c 5174 1a3d
00000380: e7b5 943c 97cb 8a3b 6bf8 ffbc 57c6 933c
00000390: 6350 1bbd 6e69 203c a97f 50bc b16f 1ebd
000003a0: c5e9 103d 2405 39bc 4b70 a5bb cd64 83bc
000003b0: 3534 f0bc 2bab 2bbc 3230 bf3b fc29 823c
000003c0: 84de c63c d745 813c e758 78bc 99c2 3abc
000003d0: d437 99bc e841 c53b cdde cfbc 386e 513c
000003e0: d890 81bc 0d66 2dbd 36a1 c43b c2fc e3bc
000003f0: 7926 0a3d b250 c13c d0ed 093d a499 bdbc
0.019087154 -0.00965918 0.012850918 -0.028715985 -0.03485038 -0.009958231 0.036252286 -0.014372335
0.015741142 -0.032066435 0.00080142554 0.029804466 -0.023874436 -0.0077715097 0.028027823 0.02570706
1.2383808e-05 -0.040117335 0.014754392 -0.01971868 -0.02374313 0.037803024 0.024821658 0.017697897
-0.03014464 -0.016849676 0.03925199 0.030357169 -0.027318293 0.026352076 0.03303068 -0.016379729
-0.00032354085 -0.030602567 0.009949115 0.012297576 -0.0030745133 0.023237715 -0.037336044 0.013513649
0.026715962 0.03680181 -0.039937507 0.007849153 -0.01634634 -0.028061643 0.034051914 -0.009029333
0.039554887 0.011500967 0.0057189194 -0.021900605 -0.005316027 -0.015073091 -0.0025840723 -0.040180422
0.035221055 0.012047889 -0.012593724 0.029996386 0.03956215 -0.011726565 0.03971435 0.036478337
0.0028572425 0.012202274 0.022199864 0.016655382 -0.0391557 0.029971952 0.038656406 -0.016908508
0.0057466556 -0.016403303 0.026313793 -0.03279647 -0.02736182 0.023221834 -0.01094261 0.017536066
0.01225724 0.03030151 -0.03449108 -0.014863133 -0.003709788 0.0031766454 0.03336736 0.018077953
-0.020201283 -0.006011218 0.013188676 0.029507313 -0.020134224 0.0012092668 -0.03625446 -0.014883257
0.00092696544 0.04214895 0.03698629 0.005484109 0.0025169626 -0.032712825 0.0024129604 0.0040764557
0.027121332 -0.04167123 0.008597427 -0.03828132 0.020738991 -0.03761283 0.029594623 0.03174636
-0.026383653 0.00857478 0.00703362 0.0080478 0.017558374 -0.02883183 -0.003084387 -0.010935103
0.0359845 -0.0108324485 -0.040677123 -0.011231956 -0.027232919 0.021260431 -0.038885564 0.013470296
0.024225337 0.011809531 0.007422903 0.023008358 0.017584035 0.027795125 -0.029180745 0.016866777
0.0030954352 0.02798789 -0.010921516 -0.01223996 -0.03493029 -0.032431077 0.036373895 -0.018767623
0.03983873 0.030419808 -0.008443099 -0.04072192 0.021236653 0.017057722 0.017458742 0.036715884
0.020468835 -0.037912395 -0.0074998755 0.0029350652 0.008783106 -0.011808858 0.02691093 0.0029406727
0.0027627163 0.01670872 0.014786998 0.01933784 -0.016317423 -0.023058219 -0.023334756 0.031218834
-0.005474423 0.013564216 0.0142515665 -0.02776052 0.010316389 -0.012989027 -0.023691626 0.0052660154
-0.03819899 0.0094624935 0.01593693 -0.014613663 -0.033739675 0.0054144827 0.013325735 -0.023910498
0.028010167 -0.0404825 0.037465714 0.0039360393 0.02565328 -0.002915343 0.019342272 -0.0017135567
0.025393493 0.015145528 0.013748594 -0.022398138 0.03472681 -0.036522172 -0.03296726 -0.005843858
-0.011988696 0.010872301 0.018076528 0.037813023 0.009410026 -0.03398702 -0.006545758 0.005503008
-0.010547532 0.029484628 -0.013506453 -0.024675313 0.03863511 -0.0395745 0.0053916727 0.020056425
-0.013033624 0.028840853 0.03643157 0.0017453901 -0.034404036 -0.032179244 0.030703498 0.037708584
0.018153144 0.0042356956 -0.031246385 0.018038912 -0.03791846 0.009790761 -0.012725749 -0.038680736
0.03537919 -0.0112927295 -0.0050487868 -0.016039276 -0.02932177 -0.010477821 0.0058346028 0.01588916
0.024276026 0.015780373 -0.015157915 -0.011398935 -0.018703379 0.0060198195 -0.025374794 0.012782626
-0.015816137 -0.04233365 0.006000663 -0.027830485 0.033728097 0.023598049 0.03367406 -0.02314455

bias f4 [128]
00000000: a008 e23c 05ac b93c 5240 c63c 9874 0e3c
00000010: 864f f7ba 9c74 983c c9c1 fd3c 3054 3cbb
00000020: de3b 1c3d c091 90bc 2593 f8bc 9ef0 28ba
00000030: a56b 013d cfa0 acbc 0260 cbbc 9498 7fb9
00000040: f034 eabc e52f a73c 954b 4abc 2e5a 083d
00000050: 0ee4 e43c 95d6 493d f870 ba3c b53c 60bc
00000060: de77 c7bb 755c eaba c71b 16bd eb76 853c
00000070: 4c33 08bd 2531 21bd fe7d ddbb cbb8 0d3d
00000080: 4c6b 013d 238d 0ebd 00da dcba 517c 2cbc
00000090: 0457 d7ba 6112 b5b9 02d8 c1bc 4ba0 af3b
000000a0: f5db 203c 6921 00bd 00ff 72bc 97df f33b
000000b0: b459 bc3c bcb9 06bd f850 6e3c 75d5 03bc
000000c0: 1f08 533c 0c0a 643c 192d fd3c fcb5 f13c
000000d0: 8a74 3fbb 780e 5fbd f90e ba3c 031f 663c
000000e0: 1156 c73b bbc0 f63c 2ae6 a03c b022 19bd
000000f0: 60bf 9b3c 1609 1d3d 57f3 213d 3d0b 08bd
00000100: 65fa 043d 38b6 abbc 7a75 783a 8ce1 653c
00000110: 7ff5 0cbd 7c7e 5a3c 5987 153d 6634 b03c
00000120: 58e5 bbbc 0245 5c3c 74f0 423c ed77 87bc
00000130: 3cb4 a63c a730 df3c 42b2 fdbb ae03 8d3c
00000140: e46a 483c a117 ec3b 91a7 d3ba 07f6 25bd
00000150: 1e2f 173d cc68 3fbb 68ce 75bc 02b3 13bd
00000160: 38d5 da3c 51f2 9fbb 1928 bcbc 3940 20bd
00000170: ced1 52bc a42a a73c b20b 15bd d5bd d73c
00000180: 1d3a 0e3d 06d9 06bd 0bec 01bd dc20 c13c
00000190: b459 1c3d ffc0 343c 1eb5 2c3c 6bab f43c
000001a0: 1157 8cbc 70b4 e43c f975 abbb 45fc 27bd
000001b0: 634a c839 ffea e23b 0ef2 893c f8bd 4bbc
000001c0: 8f38 9bbc cad3 9d3c 07d9 193d 62bd bd3c
000001d0: 02ca fcbb b11d 33bc 1c3d bdbc b9ca 723c
000001e0: 6de3 bbbc 083a cf3c f53c 423c 942e 023d
000001f0: 72c5 25bd ba14 8cbc 3f91 97ba 69c3 b53c
0.027592003 0.022665033 0.024200592 0.00869479 -0.0018868304 0.018610291 0.030976193 -0.0028736703
0.03814303 -0.017647624 -0.030343601 -0.0006444546 0.0315968 -0.021072773 -0.024826054 -0.00024375535
-0.028589696 0.02040858 -0.012347122 0.033289127 0.027940776 0.049276907 0.022758946 -0.013686349
-0.0060872873 -0.0017880338 -0.036647584 0.016292056 -0.033252046 -0.03935351 -0.006759404 0.03460006
0.031596467 -0.034802567 -0.0016849637 -0.010527686 -0.0016429131 -0.00034536704 -0.02366257 0.0053596846
0.009818067 -0.031281862 -0.014831305 0.0074424255 0.022991993 -0.032891974 0.014545672 -0.008046498
0.012880354 0.013918411 0.030905293 0.029505722 -0.002921375 -0.054457158 0.022712218 0.01404548
0.006083258 0.030121198 0.019641 -0.037386596 0.019012153 0.038338743 0.039538708 -0.033213843
0.032465357 -0.020960912 0.00094779546 0.014030825 -0.03441381 0.01333582 0.03650603 0.02150936
-0.022936508 0.013444187 0.011898149 -0.016536677 0.020349614 0.027244879 -0.0077421973 0.017213669
0.012232516 0.007204965 -0.0016147961 -0.040517833 0.03691017 -0.002920675 -0.015002824 -0.036059387
0.026712999 -0.0048811813 -0.022968339 -0.039123747 -0.012867404 0.020406075 -0.036388107 0.026335636
0.03472339 -0.032921813 -0.03171925 0.023575239 0.038171485 0.011032342 0.010541229 0.029866895
-0.01713136 0.02791807 -0.0052325693 -0.041012067 0.00038202395 0.0069249864 0.016839053 -0.012435429
-0.018947868 0.019266028 0.03756049 0.023161594 -0.007714511 -0.010932372 -0.023100428 0.014818841
-0.022935594 0.025296226 0.011855354 0.0317827 -0.0404715 -0.017099727 -0.0011563672 0.022187905

weight f4 [128, 128]
00000000: 2ddb 813d 72c7 f63c 7310 483d ac75 7f3c
00000010: 40b7 87bc 24de b03d c584 873d 5f81 8f3d
00000020: e333 f83c 8ed9 e13c 2c8a 58bd 40ae a53c
00000030: 55f6 663d fda5 503d c690 b3bb 46cd 4bbc
00000040: 8452 b83c 2d5b 36bd 121d 073d aa67 7d3d
00000050: 7fb9 843d 8521 6b3c 110e 183d 9d55 a1bd
00000060: 440e b43d 732b 333d 3398 9dbd a580 dbbc
00000070: cc17 0fbd 848f 8c3d 09a9 a93d 09f0 863d
00000080: 82d2 6d3d f244 3dbd fb95 963d 7b12 94bd
00000090: 42c4 81bc 05a9 83bd 7570 1cbd 53ce 443d
000000a0: f2dd 7b3c df76 923d 5abe 8c3d fac8 2d3d
000000b0: 7d94 2cbd af44 d0bc e887 65bd f2df 493d
000000c0: b925 373d 8673 e6bc 114c 27bd d9d2 6b3d
000000d0: fa47 e53c f217 8dbc b3c9 93bd a6e0 673d
000000e0: 78c3 b2bd 419b a93d fe38 8f3d 735e 983d
000000f0: ed5e a7bd 80e6 f7bc fa91 7bbd ee25 4d3d
00000100: a8b6 353d eb14 a23c 0d29 f7bc db82 7abd
00000110: 8d7a 43bd 25e8 95bd 468a 943c 63f8 37bd
00000120: 7339 333d 5336 aebd 52c3 5dbd ab6d b9bc
00000130: 41b0 60bc 8efb 053d 4da0 a83c 8b25 e83c
00000140: fa43 563d 564c 2cbc 14ae 96bd 007c 65bd
00000150: 21de 6c3d 213d a13d 4982 a4bd 8abf bdb9
00000160: 7e3f 043d 93e9 08bd b2f1 f63c 4778 523d
00000170: 008e 73bd d591 0fbd c0cf 54bd 0da6 dcbc
00000180: b199 3cbd 3290 05ba 8340 a53d 1134 823d
00000190: 293a 903d a5ac f1bc 765e 73bd ce24 72bb
000001a0: 88aa cf3c cdb5 3ebd ce02 f6ba 2f08 be3c
000001b0: 8586 9fbd 09ed 523d 6861 423c f934 133d
000001c0: e514 03bd 919d 703d 7102 743d 47fe cc3c
000001d0: 4b6a 0a3d daed c8bc 240d 6bbd 3d46 85bd
000001e0: dffc 573d 4168 5e3d 8857 cfbc c0e0 fb3c
000001f0: d82a bd3b 300c a63c a656 24bd a7c2 103c
00000200: 8968 e13c 25ef ed3c df12 f3bc 0622 f13b
00000210: e342 4ebc 9288 8fbd 1b11 3e3d 822c 6fbd
00000220: 2bc7 49bd 9922 443d 648d b0bd 8f9a fe3b
00000230: 28a8 a83d 89fd 42bc 8ecf abbc 466f 97bd
00000240: 508c 4c3c 88f2 3fbc 121c d8bc 0709 863d
00000250: f5fe 9c3c d9ad 873c e188 6e3a 0b67 74bc
00000260: 1542 d6bb aca3 153d 8ce2 36bd 38da c03d
00000270: 46fd 223d 6f1f 02bb d810 99bc 9fbd 9f3d
00000280: 9dfd a1bd 6e53 5f3d 227b 44bd 3641 403d
00000290: 8517 043c 9d2a 883d de36 c1bc 4513 9cbc
000002a0: 4251 b43d 3096 983c ef1e 0fbc a00c 573d
000002b0: a579 543d 9fb2 c03b 18a3 9e3d 1d72 98bc
000002c0: 9785 8d3d 7efc 333d 7660 cfba baf3 3ebd
000002d0: dead b3bd 0ad9 30bd 5290 95bd df91 aebd
000002e0: 3079 323b e289 8abc 687d 2d3d 5690 8dbd
000002f0: 1a5e 35bd cdb8 9a3d c6e0 3d3d 0a7d 3d3d
00000300: 915f 51bd 1f23 91bd a92c 843d 7a0c 8abd
00000310: 07ee de3c d74a 5cbd 8976 8c3d 65bd 3b3d
00000320: 9d3b a9bd 0a05 eb3a fa79 b3bc 4858 72bd
00000330: 41ae a23d e12b 56bd 3e09 933d ce60 bebb
00000340: ea08 b0bd a558 c33c 70a7 393d f62e 333d
00000350: 3c8c a13a e161 68bc 6949 4f3d bb2c 8e3d
00000360: 1e10 c5bc 7b68 b2bd b260 a53d f5e0 963c
00000370: 4bba aabd 10ca 9c3c 317d ed3c 951b 883d
00000380: e090 46bc 7b99 2dbd 00ba 91bd 1f0e 92bc
00000390: a86d 98bd 8024 823d 1592 e9bc 5cd8 e8ba
000003a0: 41d8 27bd cec0 2e3d c987 38bd 13e3 653b
000003b0: 6a2f 05bd 2e3d 983d 83b6 d03c 13e7 7a3d
000003c0: 2f55 b8bc bfac 853d f1cd 683d 5f4e d3bb
000003d0: 1e21 9e3c b982 7e3d 2d0e a7bd a660 ad3d
000003e0: 4a4a 043d 0619 81bd d15d e63c 426e 713b
000003f0: 8635 a03c 1c6d 883d cd62 8d3d 90c9 e63c
0.063406326 0.0301244 0.048843812 0.01559202 -0.016566873 0.0863612 0.06617121 0.070070975
0.030298179 0.027569558 -0.052866146 0.02022469 0.056387264 0.05093955 -0.005479905 -0.012439078
0.022500284 -0.044520546 0.032986708 0.06186644 0.06480693 0.014351253 0.03712279 -0.078776576
0.087917835 0.04374261 -0.07695045 -0.02679474 -0.034934804 0.06863311 0.08284194 0.06588752
0.058062084 -0.04620833 0.07352825 -0.07230087 -0.015840653 -0.06428722 -0.038193185 0.04804833
0.01537274 0.07151579 0.06872244 0.042427994 -0.042133797 -0.025423376 -0.056037813 0.049285837
0.04471371 -0.028131258 -0.040844027 0.057574127 0.027988423 -0.017223332 -0.072162054 0.056610726
-0.08728689 0.082815655 0.06993292 0.0743989 -0.081724025 -0.030261278 -0.06141851 0.050085
0.044363648 0.019785365 -0.030170942 -0.06115995 -0.047724295 -0.07319669 0.01813234 -0.044914614
0.04375596 -0.08506455 -0.05414135 -0.022635302 -0.013713897 0.032710604 0.02058425 0.028338214
0.05231092 -0.010516247 -0.073574215 -0.05602646 0.057829026 0.078729875 -0.080326624 -0.00036191597
0.032287113 -0.03342588 0.030144546 0.051384237 -0.059461594 -0.035051186 -0.05195594 -0.026934648
-0.04604501 -0.0005095034 0.08068945 0.06357587 0.07042343 -0.029501269 -0.059416257 -0.0036948207
0.02534987 -0.046560097 -0.0018769146 0.023197262 -0.077893294 0.051495586 0.011864044 0.03593919
-0.03200235 0.058744017 0.05957264 0.025023593 0.033792775 -0.024527479 -0.05738558 -0.065075375
0.05273139 0.054298643 -0.025310293 0.030746818 0.0057729296 0.020269483 -0.040121697 0.008835471
0.027515667 0.029044697 -0.029672084 0.0073587922 -0.012589189 -0.070084706 0.04640303 -0.058392055
-0.049262207 0.047884557 -0.08620718 0.0077698897 0.08235198 -0.011901268 -0.020972993 -0.073942706
0.012484625 -0.011715539 -0.026380572 0.065446906 0.019164542 0.01656239 0.0009099376 -0.0149171455
-0.0065386393 0.036533043 -0.044649646 0.09416622 0.03979232 -0.0019855162 -0.01868479 0.07799839
-0.07909701 0.054522924 -0.04796899 0.04693719 0.008062248 0.06648753 -0.023585733 -0.019052157
0.08804561 0.018626302 -0.0087354025 0.052502275 0.05187382 0.0058806683 0.077459514 -0.018609101
0.06910246 0.043941967 -0.0015821594 -0.046619155 -0.08773397 -0.043175735 -0.073029175 -0.085239165
0.0027232878 -0.01691145 0.042355925 -0.069122955 -0.044279195 0.07554779 0.04635694 0.046261825
-0.05111653 -0.07086777 0.06453831 -0.06740661 0.02721311 -0.05378231 0.06858546 0.045834918
-0.082633235 0.0017930579 -0.021908749 -0.059166223 0.079433925 -0.05228794 0.07179497 -0.00580988
-0.0859545 0.02384598 0.045325696 0.043745957 0.0012325118 -0.014183492 0.05060712 0.069421254
-0.024055537 -0.08711334 0.08075084 0.018417815 -0.08336314 0.01913932 0.02899036 0.06645886
-0.012119502 -0.0423827 -0.07115555 -0.017829 -0.0744279 0.06354618 -0.02851204 -0.0017764675
-0.04097772 0.04266434 -0.04505137 0.0035077974 -0.03251592 0.07433544 0.025477653 0.061255526
-0.022501556 0.06527089 0.056837026 -0.0064485515 0.0193029 0.062136386 -0.08157001 0.084657
0.03229741 -0.06303601 0.028120907 0.00368394 0.019556772 0.06661436 0.069036104 0.028172284

bias f4 [128]
00000000: 2f74 30bc 7de5 4abd 43d1 fabc cdd4 a3bd
00000010: 42dc 573d 0ed5 e13c a952 1fbd 5195 3bbc
00000020: 5398 c1bc 94cc d33c 2eb8 893b 85bf 333d
00000030: 283c 5d3d a388 583d 695b 993d c9e6 d2bd
00000040: d3c0 a73d a8c6 bfbb 8422 913d 4df5 16bd
00000050: 8ab2 503d f8f8 86bd a565 3fbd cffc 8d3c
00000060: 7778 43bd ef73 a8bd 1b19 b33d 72dc 50bd
00000070: 348d a43d b0b5 163d 4d62 08bd 41dc 8c3d
00000080: 64c5 a93c 73da 72bd fb4e 80bd 8dae 86bc
00000090: ded6 803d f83a 91bd f27a 693c 635e b0bd
000000a0: e406 3fbd badd ef3c 41b0 e63c ffdd 24bd
000000b0: 0af6 eb3c 3a0e a93d 5f37 91bd a285 4a3d
000000c0: 2b0a 3c3d 24e8 603d ee7a edbb bf33 0fbd
000000d0: 132b a63d 6eca 193d d4db fe3c abcd dbbc
000000e0: 45a2 7d3d 9b4d 703c 5e47 a0bd 0057 87bb
000000f0: db6a 4c3b 76b0 a73c af35 9dbd 8784 8c3b
00000100: 950c 02bd 797d ae3d 3ad0 123d db35 ac3d
00000110: 974d 583c c179 4cbd a1a8 ae3c 9f77 3e3d
00000120: b816 8a3d d611 433d d73c b2bd 9adc 1e3d
00000130: 0462 f23c 856e f5bc 9506 ab3d 2810 a4bd
00000140: f915 68bc e73e f9bc bdb9 89bd dbbd 993c
00000150: 8486 a9bc c4f1 58bd 080d 0dbc ac1a 9fbc
00000160: 2470 db3c 6c77 a0bd d9d7 1a3d 9c56 9dbc
00000170: 7c58 6abc fe57 953d 6b32 b13c 4ac7 673c
00000180: a63f 803a c962 a73c d481 21bd 2261 793d
00000190: f557 adbc 3857 17bd 7c53 dd3c 023a 203d
000001a0: 0e6d aa3d 9be8 9c3d 3d06 87bd 3c3c 9e3d
000001b0: 111e 9dbd 00c8 f9bc f176 12bd 4dec 873d
000001c0: f884 34bc 923b 86bd d9cb a0bd b58e 953d
000001d0: 049e 86bd bda0 c4bc 707f 19bc 2c9d 213d
000001e0: 605e 73bd 1f2a 523d ba38 56bd 63f2 f33b
000001f0: 6611 503d c6b3 953d 8e31 963d f3ef 803d
-0.010769888 -0.049535263 -0.030617362 -0.07999573 0.05270029 0.027567413 -0.03889719 -0.011449174
-0.023632204 0.025854386 0.004202864 0.04388382 0.054012448 0.052864682 0.07488138 -0.10297925
0.08191075 -0.005852539 0.070866615 -0.03685503 0.050951518 -0.06590456 -0.046727795 0.017332463
-0.047722306 -0.082252376 0.08745023 -0.050991483 0.08034745 0.036794364 -0.033296872 0.068779476
0.020724006 -0.05929036 -0.06265064 -0.016440654 0.06290983 -0.070913255 0.014250504 -0.08611753
-0.04663743 0.029280532 0.028160216 -0.040250774 0.028803844 0.082546666 -0.07090639 0.04944385
0.045908134 0.054908887 -0.0072473204 -0.03496146 0.081136845 0.037546568 0.031110682 -0.026831469
0.06192233 0.01466694 -0.07826112 -0.0041302443 0.003119162 0.020469885 -0.07676255 0.0042882594
-0.03175028 0.08520026 0.03584311 0.084087096 0.013202093 -0.0499208 0.021320643 0.0465008
0.067426145 0.04762443 -0.087030105 0.0387846 0.029587753 -0.029959926 0.08350865 -0.08010894
-0.014165395 -0.030425502 -0.0672488 0.018767288 -0.020694025 -0.05296494 -0.008609064 -0.019421898
0.026786871 -0.07835278 0.037803505 -0.019206338 -0.014303323 0.07292174 0.021630486 0.014146635
0.0009784594 0.020432847 -0.039430454 0.06088365 -0.021160105 -0.036948413 0.027017348 0.03911782
0.08321582 0.076615535 -0.06592987 0.077263325 -0.0767175 -0.030490875 -0.035757963 0.06636868
-0.01101803 -0.06554331 -0.07851381 0.0730261 -0.06573108 -0.024002427 -0.009368762 0.03945653
-0.059416175 0.0513097 -0.052300192 0.0074446662 0.050797842 0.0730968 0.073336706 0.06295767

weight f4 [2, 128]
00000000: acf3 37bd 4be7 dc3d 604d 37bd 9220 88bd
00000010: 818e 2a3b da9a c23d cafa 713d 674d ff3d
00000020: e25a 4c3d 186f 7b3c 0a57 083e 6c17 3dbd
00000030: 05e2 1e3d 0a74 c2bc 1961 15bc c3e6 4ebe
00000040: 1b46 1bbd 4e57 3b3d e099 ab3d f367 5ebe
00000050: 6486 803c 9a13 eebd e332 97bd 8aca 73bc
00000060: d38b 6fbd 505b 3e3d eec7 0a3e 7772 9c3d
00000070: a0c6 033e 429c b6bc 7951 673d bc2a 60bd
00000080: 9df9 89bd ef5f 2a3e 567e a13d f3e7 31bd
00000090: 9d02 b13d a84d 82bd 06e2 573e c959 06be
000000a0: a14e 823d e5e8 babd 6b74 72bd 0a70 c03d
000000b0: 5749 203d 50bc 953d 4462 c2bd 9d69 03be
000000c0: f7d5 cf3d 1f5b 04be b1a8 e0bc 41f3 ffbd
000000d0: 0621 d13d 8922 a3bd aa8f a8bd d927 fabd
000000e0: 4d26 c83b aa9a 813c f244 3a3d d056 9dbb
000000f0: 5628 483d 03e0 ac3d 8eb9 023d c657 7ebd
00000100: 1671 f0bc 8b4e e93c 72cf dfbd 905c c03d
00000110: f01e 963d 886e ddbd 89b5 043e 32b7 1dbe
00000120: 67e5 883d cb52 d1bc e5b3 413d 327c 1f3d
00000130: cec9 003c 483f 33be a6bd 4cbd ea6d 34be
00000140: a999 bcbd b7e9 fcbc 1c2c 763d bf88 0b3d
00000150: 5649 073e 0190 58bd 834e 9e3d e6fb e5bc
00000160: 1181 f9bd 8f5e 863c 8989 87bd a7b1 063e
00000170: 6f84 b53d 4bcd 49bc b692 d2bc 57ff d5bc
00000180: 95d3 04be cdfd 8bbd 173f 333e b8f9 293c
00000190: 9eb4 7c3d c8ec 073c ccee d0bd c0da 84bd
000001a0: 068b e43d 9306 33bd b27c 0a3c 1f8c 253b
000001b0: db93 403c e286 7b3d 7c77 ca3d 6d9e b53d
000001c0: 7882 a6bc b866 db3d e35a a9bd 58fc 013e
000001d0: 3b2c a43d 3228 753d 4aa4 0f3d 51a4 823d
000001e0: 5fac 663c 4c9b 483e 17f2 853d caf1 bb3d
000001f0: 93f9 5bbd 60d3 c03d ff45 293e 02c7 b93d
00000200: 7619 4dbd 5cfe 73bd f704 9dbd c506 33bd
00000210: 7afc 9ebd b3fa b7bd 8037 efbb 2ffd 7bbd
00000220: 0527 4c3d c892 78bc 70f9 28be ee56 d5bb
00000230: 7197 ae3d 2375 02bd e8de 613d 424b 6b3e
00000240: 20b8 163b db37 8cbd 1408 ccbd 0e59 663e
00000250: 6372 a03d 4254 283e b5c0 94bd 0502 923c
00000260: 82a7 863d 8151 653c 3f8a 98bd 098f 12bd
00000270: 1575 fcbc 59aa c5bd 90ec fd3c 0403 25bc
00000280: 6adb 3e3d d60b 3abe 3ab9 5ebc 712a ccbd
00000290: f8d9 8a3d f57f 3c3d 93fd f4bd 406d 013e
000002a0: b9e8 b03c 055a 183d 7484 7f3d 8602 c6bd
000002b0: 7e26 8dbd 0075 7abd 083c 983c 4b17 d53b
000002c0: ae03 3fbe fea1 9d3d 9e09 853c fbaa 013e
000002d0: b977 aabd 0e60 98bc 6a5d 7b3d 37b7 9d3d
000002e0: 9698 9abd 663f 9c3c 3a35 533d c8c2 26bc
000002f0: 856f b1bd 07c4 1f3d ced2 9a3d 3093 aa3d
00000300: 446a 833d 75a2 0bbe 5b29 9c3b b177 acbd
00000310: 6fa3 9fbd 7b19 843d 06c3 5bbd 3ba1 ff3d
00000320: 5c9c a1bd b7aa c2bd 0b34 37bd 540a 8dbc
00000330: 5868 6abb c971 463e 70ac 343d f472 3c3e
00000340: 6ed6 42bc ea05 afbd 74a1 e7bd c9a4 b73d
00000350: 0880 f8bc 0e36 a83b 52f4 80bd 88f5 703c
00000360: b5b4 e53d 211e 19bc 0b12 a33b b18b 24be
00000370: ff91 0dbe a69e 903d 7628 8bbd a473 0f3d
00000380: b29b 753d 8791 babd 1b30 1cbe 2bc4 37bd
00000390: f1c7 8cbd a7a9 9f3d 6e84 153d 2849 153e
000003a0: b305 e23c e5f5 b23c 54d2 52bd 774b 95bd
000003b0: 5457 7b3d 2940 abbd c467 17be 57cc cdbd
000003c0: 2dcd 4dbd 2e27 0f3d 552f 7a3d 6ea6 aabd
000003d0: 8176 463c 13e0 1c3c 0458 4d3b 5867 9b3d
000003e0: dbf8 833c 25a1 38be 6ad0 6bbd eeb5 253d
000003f0: 4434 25bd 3356 43be 7fcf 82bd 79b2 9a3d
-0.044910118 0.10786303 -0.044751525 -0.06646837 0.002602488 0.09502192 0.05907706 0.12465935
0.04989136 0.015346311 0.13314453 -0.046164915 0.038789768 -0.023736972 -0.009117388 -0.20205216
-0.037908655 0.045737557 0.08378959 -0.21719341 0.015689082 -0.116248325 -0.07382753 -0.014879832
-0.058482956 0.0464738 0.1355283 0.0763902 0.12868738 -0.022291306 0.056474183 -0.054728255
-0.06737063 0.16638158 0.07885425 -0.043434095 0.086430766 -0.06362468 0.21082315 -0.13120188
0.063626535 -0.09126452 -0.059193056 0.0939637 0.039132442 0.073113084 -0.09491399 -0.12833257
0.101482324 -0.12925385 -0.027424188 -0.12497569 0.10211377 -0.079655714 -0.08230527 -0.122146316
0.0061080814 0.01582082 0.045475908 -0.0048016086 0.048866592 0.08441164 0.03191524 -0.062095426
-0.029350799 0.028479835 -0.10928239 0.09392655 0.073301196 -0.10812098 0.12959875 -0.15401915
0.0668438 -0.025552174 0.0472907 0.0389368 0.007860614 -0.17504609 -0.04998555 -0.17620054
-0.09208996 -0.030873163 0.06010066 0.034065958 0.13211569 -0.052871708 0.07729819 -0.028074216
-0.121828206 0.01640251 -0.066180296 0.13153706 0.0886315 -0.012317012 -0.025704723 -0.026122732
-0.12971337 -0.06835518 0.17504536 0.010374479 0.061695687 0.008296199 -0.10201797 -0.06487036
0.11159329 -0.04370744 0.008452581 0.002526052 0.0117540015 0.06140793 0.09886071 0.08868108
-0.020325884 0.107129514 -0.082692884 0.12693918 0.08016249 0.059852786 0.035068788 0.06378997
0.014079182 0.19590491 0.065403156 0.09176977 -0.05370481 0.094153166 0.16530608 0.09071161
-0.05007311 -0.059568748 -0.076669626 -0.043707628 -0.07763 -0.08983364 -0.0073003173 -0.06152075
0.0498419 -0.015171714 -0.16501403 -0.006510607 0.08524979 -0.03184999 0.05514422 0.22977927
0.002299793 -0.06846591 -0.09962478 0.22494909 0.078343175 0.16438392 -0.072633184 0.017823229
0.06574918 0.013996483 -0.07448243 -0.03578094 -0.030817548 -0.09651632 0.03099659 -0.01007152
0.04659597 -0.18168578 -0.013593966 -0.099690326 0.067798555 0.046020467 -0.11962428 0.12639332
0.021595346 0.037195224 0.062382177 -0.0966845 -0.068921074 -0.061146736 0.018583313 0.006503021
-0.18653747 0.07696913 0.016239937 0.1266288 -0.083236165 -0.01860049 0.061368383 0.07700961
-0.07548635 0.0190732 0.051564433 -0.010178275 -0.08663849 0.039005306 0.07559739 0.08328855
0.06416753 -0.13636191 0.004765672 -0.08421267 -0.07794844 0.064501725 -0.053652786 0.12481924
-0.07891151 -0.095052175 -0.044727366 -0.017216839 -0.003576776 0.19379343 0.04410976 0.18403226
-0.011891944 -0.0854605 -0.113100916 0.08966977 -0.030334488 0.005133397 -0.062966004 0.014706977
0.11216108 -0.009345562 0.004976516 -0.16068913 -0.13825224 0.0706151 -0.06794827 0.035022393
0.059962936 -0.091097884 -0.15252726 -0.044864815 -0.06874073 0.077960305 0.036503248 0.14578688
0.027590608 0.021845767 -0.051470116 -0.072897844 0.06136258 -0.08361847 -0.14785677 -0.1004874
-0.0502445 0.034949474 0.061080296 -0.08332525 0.0121132145 0.009574908 0.003133298 0.07588071
0.016109874 -0.18030222 -0.057571806 0.040456705 -0.040333048 -0.19075851 -0.06387233 0.07553572

bias f4 [2]
00000000: 7edc 673d 9569 30bd
0.056606762 -0.04306944
