graph2vec_optimization/model/50_mlp_graph2vec_opt_1.pt (torch_old, 382907 bytes, 6 tensors)

weight f4 [128, 600]
000000 53 34 ea bc 37 32 70 3c a5 31 a0 bc 46 d6 59 bc
       -0.028589403 0.01466041 -0.019554922 -0.013295716
000010 27 cd c0 bb b2 2e 0d 3c f8 b1 c6 bc d1 ea d8 bc
       -0.005883831 0.00861709 -0.024254784 -0.026479157
000020 ae 05 aa bc 18 e6 1d bb d4 60 d4 3c b1 31 72 3c
       -0.020754661 -0.0024093445 0.025925077 0.014782355
000030 59 68 c2 3a 65 7b 1e 3d 8a 58 fd bb fc 99 d9 3b
       0.0014832123 0.038691897 -0.007731502 0.006640671
000040 d6 df ef 3c 06 4b e7 3b 67 68 4e 3c 22 5a 65 bc
       0.029281538 0.007058504 0.012598134 -0.01399854
000050 a6 55 80 3c 5e 4d a9 bc 48 46 0e 3d 26 46 31 bc
       0.01566584 -0.020666774 0.034734994 -0.010819947
000060 dd 04 8c bc 1c 28 58 bc b8 c5 26 bb 30 1c 1c 3d
       -0.017092163 -0.013193157 -0.002544744 0.03811282
000070 5a c2 06 3d 07 36 13 ba 15 e1 c4 3c 96 0a 04 bd
       0.03290019 -0.00056156557 0.024033109 -0.032236658
000080 cf 0c ec bc 35 68 94 bc 9b a2 a0 ba 6c f3 10 bc
       -0.028814701 -0.018116096 -0.0012255491 -0.008847099
000090 24 f5 d7 3c 6d 34 e0 ba 98 1b 17 bd 3d 57 1e bc
       0.02636201 -0.0017105468 -0.03689155 -0.009664354
0000a0 1e 7f ba 3b 84 12 1a bc d1 a3 b5 bc 45 f0 be bc
       0.005691423 -0.0094038285 -0.02217284 -0.023307929
0000b0 9f e5 fa 3b 0c 78 e9 bc 4a 6c 21 3c 89 30 9e 3c
       0.0076567675 -0.028499626 0.009852478 0.019310253
0000c0 15 69 52 3c c0 6c 65 bc bd a5 f1 bc e9 21 a6 bb
       0.012842436 -0.014002979 -0.029497975 -0.0050699604
0000d0 5b 34 65 3c 31 5e 13 3d bb b1 05 3d 98 76 21 3d
       0.013989533 0.0359785 0.0326402 0.03941974
0000e0 3f 58 99 3c ed 2b b5 bc ee 5c 04 3d f4 3f 0b bd
       0.018718837 -0.022115672 0.032315187 -0.033996537
0000f0 c6 b6 05 3d 74 02 e8 bb 89 85 d1 bc de 68 a3 bc
       0.03264501 -0.0070803706 -0.02557637 -0.019947466
000100 78 cb cd bc 48 86 3f bc 4f 02 d5 bc 64 f4 1e bd
       -0.025121436 -0.01168973 -0.026002077 -0.038807288
000110 f6 76 09 bd 60 79 7e bc ca 56 11 bd e7 38 f5 bc
       -0.033560716 -0.015531868 -0.03548316 -0.02993436
000120 fb 50 bf bc c5 e0 11 bc 6f 2a 9f bc f6 e4 e3 3c
       -0.023354044 -0.008903687 -0.019429414 0.027819138
000130 fc 30 0c 39 b5 49 93 bc 9a e9 0f 3c 35 45 77 bc
       0.00013369689 -0.017979482 0.008783722 -0.015092184
000140 d1 25 25 3d 18 e2 81 bc 61 c3 04 bd 3c 03 dc 3b
       0.040319268 -0.01585488 -0.03241289 0.0067142528
000150 62 c2 cc 3c 8a c2 ac 3a ff 5a 8a 3c 8b f5 b4 bc
       0.024995033 0.0013180536 0.016889093 -0.02208974
000160 14 b4 25 bd 19 59 a1 3c e5 c7 f2 bc e2 f7 1e 3d
       -0.04045494 0.019695805 -0.029636333 0.03881062
000170 2e fb 0b bd db c9 ba bc 9c 72 02 3c a5 11 0c 3d
       -0.03417509 -0.02280133 0.007961895 0.034196515
000180 03 3d 1c bd 3d f4 07 3d 38 fa 8d bc cf 65 c4 3b
       -0.038144123 0.03319191 -0.017331228 0.005993582
000190 27 28 ff 3c 93 8e ec bc fa 62 04 3c f7 0f dc 3c
       0.031147076 -0.028876578 0.0080802385 0.026863081
0001a0 76 a0 0e bd a1 a2 18 bd c4 49 0d 3c 76 57 09 bd
       -0.034820996 -0.03726447 0.008623544 -0.033530675
0001b0 25 53 19 3d 59 a8 0a 3d 4a a3 c6 38 11 78 fb bc
       0.03743281 0.033851955 9.471791e-05 -0.0306969
0001c0 23 82 15 3d 16 3b c0 3b 3d d0 cc 3b f2 15 4f bb
       0.03650106 0.0058664186 0.00625041 -0.0031598774
0001d0 89 b0 57 3c 55 1b e0 3c 67 5d 05 bd 77 ed bd bb
       0.013164648 0.027356783 -0.03255978 -0.0057961303
0001e0 1a 8e 03 3d 87 25 f8 3c 38 e6 08 3b b3 4d 8f 3c
       0.03211794 0.030291332 0.0020889174 0.017493105
0001f0 86 52 14 bd f8 7f fe 39 29 3a 15 3d 73 ec 45 bc
       -0.036211513 0.00048542 0.03643242 -0.0120803
000200 be fc 9a 3c 6c f8 de bc 2a 4d 26 bc f3 73 85 3c
       0.018919345 -0.027218066 -0.010150233 0.01629064
000210 7d 19 49 3c bc 44 eb 3c 7d d0 1d bd 6d 75 0b bd
       0.012274143 0.028719299 -0.038528908 -0.034047533
000220 c3 11 0a 3d 5b da 94 3c 74 52 cb bb df dc db 3b
       0.033708345 0.018170526 -0.0062048975 0.0067096795
000230 fd 19 0e bc e2 29 e5 bc 1c ae 0b bd ec 6d ab bc
       -0.008673188 -0.027974073 -0.03410159 -0.020926438
000240 72 93 11 bd 92 7d 01 3d c6 d0 b7 bc 3d 9d e7 3c
       -0.035541005 0.031613894 -0.022438418 0.02827322
000250 2e a2 a9 3c 4c b6 8e 3c a0 6c 3f bc 51 6e fe bc
       0.020707216 0.01742091 -0.011683613 -0.031058462
000260 d8 0a 17 bd 07 6a aa 3c 01 51 0d bc 59 3a d2 3b
       -0.036875576 0.02080251 -0.00862527 0.006415647
000270 23 61 9e 3c 27 de 38 bb bd 7d 0d bd b7 68 a0 ba
       0.019333428 -0.0028208585 -0.03454374 -0.0012238239
000280 e5 ef 24 3d 16 4e 8b bc 44 2c c9 3c 47 28 40 3c
       0.040267844 -0.017005008 0.02455724 0.011728353
000290 77 da 4c bb f7 f3 15 bc 93 83 16 bd 57 79 ae bc
       -0.0031258145 -0.009152404 -0.036746573 -0.021298094
0002a0 f8 66 f8 3c a1 26 d6 ba f9 59 16 bc be 63 10 3d
       0.030322537 -0.0016338417 -0.009176725 0.03525137
0002b0 b5 2b dd 3c c5 48 2b bc e6 58 a1 3c 98 90 0b 3d
       0.02699838 -0.010454361 0.01969571 0.034073442
0002c0 18 e0 92 bc 4a d5 03 3b cb 27 0b 3d 95 78 91 bb
       -0.017929122 0.0020116144 0.033973496 -0.0044394233
0002d0 9c 4e 12 3d 8b 30 33 39 d3 5e 01 3c 86 da f4 3c
       0.0357195 0.00017088854 0.007896143 0.029889356
0002e0 88 99 c1 bc c1 24 92 bb 35 49 ee bc 17 1e c2 bc
       -0.02363278 -0.004459948 -0.029087642 -0.023695989
0002f0 0d ef df 3c 62 79 24 bc 3b aa 27 3d bb 69 e5 bc
       0.027335668 -0.010038706 0.04093383 -0.028004518
000300 c1 83 d8 bc 28 1d c1 bc bb e4 64 bb 2f c6 18 bc
       -0.026430013 -0.023573473 -0.0034926373 -0.009324594
000310 36 fa 33 bc 58 ef ea 3c 13 08 d5 3b 00 a1 42 bb
       -0.010984948 0.028678581 0.0065012067 -0.0029698014
000320 0d 74 bc 3b 61 73 70 3b 9e 85 72 bc e9 68 d7 bc
       0.005751139 0.0036689865 -0.014802365 -0.026295142
000330 ea a9 04 bc dc 05 f6 3c 12 a4 e6 3c 5a a6 24 3c
       -0.008097151 0.03003209 0.028154407 0.010049427
000340 5b 46 2a 3d f1 3c 10 bc 5e 0b f8 bc 49 5f 1b 3d
       0.041571002 -0.008803592 -0.030278858 0.037932668
000350 ed b3 a1 bc c6 2e 14 bd 85 31 10 bd ef 3d 57 3b
       -0.019739116 -0.03617742 -0.035203476 0.0032843312
000360 20 8a 39 bc 4e 0d 39 bc 81 da 2e bb 63 af de bc
       -0.0113244355 -0.011294676 -0.0026680531 -0.02718324
000370 e8 9b f2 bb 33 31 09 bd 7c 1d f7 3b 22 3a ee 3c
       -0.0074038394 -0.033494186 0.0075413566 0.029080454
000380 ca 87 93 bb 1f bf 45 ba ea 71 c2 3b f0 26 13 3d
       -0.0045022713 -0.0007543433 0.00593399 0.035925806
000390 ac b1 5a bb 54 2f 25 3d ce e9 23 bd 59 89 7d bc
       -0.003337006 0.04032834 -0.040017895 -0.015474641
0003a0 45 86 d4 bc 89 d6 61 3c f5 4c c2 3c 13 6f 68 bc
       -0.025942931 0.013784059 0.023718337 -0.014186638
0003b0 6f f3 1f 3d f5 f5 aa bc 56 8f 15 3d ca 31 50 bc
       0.039050516 -0.020869235 0.03651365 -0.012707183
0003c0 ba fe 75 bc 16 3a c2 b9 ed 2e 0a 3d 2f 77 ae 3c
       -0.015014345 -0.0003704584 0.03373616 0.021297066
0003d0 2d 8a ab b8 15 87 1d 3d e8 ea 20 bd 19 e2 39 bc
       -8.179653e-05 0.038458902 -0.039286524 -0.01134541
0003e0 06 63 8f bc b7 97 bf 3c 05 da b3 3b 83 64 dd 3c
       -0.017503273 0.023387773 0.0054886364 0.027025467
0003f0 8a bf c7 bc f5 9d 4a 3c 6d ff 16 3d da c4 19 bd
       -0.024383325 0.012366761 0.036864687 -0.037541248

bias f4 [128]
000000 cd 88 08 bb 3c 39 5d ba 51 f5 c8 3a e5 c2 04 bd
       -0.0020833493 -0.00084390095 0.0015331899 -0.03241243
000010 a6 13 da 3c 41 58 c8 3c 30 95 51 3d b4 2a 13 3d
       0.026620697 0.024456145 0.051167667 0.035929397
000020 62 81 22 bd d5 7b 03 bc d0 2f 1c bd 69 10 30 3d
       -0.03967417 -0.008025129 -0.038131535 0.0429844
000030 93 76 48 3c c2 c8 0e bb 62 5d a6 3c 69 5f 0f 3d
       0.012235302 -0.0021787141 0.0203082 0.0350031
000040 4c 07 35 bc 19 b2 58 bc 51 44 14 3c ff ee c8 3a
       -0.011049103 -0.013226056 0.009049491 0.0015330015
000050 22 1f 9c ba 5f cf ce 3c 13 fb ea bc 62 71 a4 3c
       -0.0011911134 0.025245367 -0.028684175 0.020073596
000060 5d bc df bc 32 a5 f9 bc 1a 46 c1 bc 4f 2d b8 3b
       -0.027311498 -0.03047428 -0.023592997 0.0056206356
000070 a3 b8 50 3c 39 77 b5 bc 2b 69 b1 bc e4 8f 20 bc
       0.012739333 -0.022151576 -0.021656593 -0.009799931
000080 a8 e7 bd bc 93 0c af bc d3 cf 0b 3d 25 50 1e bc
       -0.023181751 -0.0213683 0.034133743 -0.009662663
000090 6f 7d 05 3d d7 f0 d8 3c 09 b5 03 3c 9c 9d 63 bc
       0.032590326 0.026482029 0.008038768 -0.0138925575
0000a0 6a 85 0c 3d 42 e7 3b 3c eb 1a d6 3b cc e1 97 3c
       0.03430692 0.01146871 0.0065339706 0.018540286
0000b0 e0 1a db bb f6 62 e7 bc 1c 2f 2b bd 96 23 2c bc
       -0.0066865534 -0.02824543 -0.041792974 -0.010506531
0000c0 c0 b8 ac 3c 48 37 94 3c bf d3 6a bc d5 5d b7 3c
       0.02108419 0.018092766 -0.014332711 0.02238361
0000d0 df 0e 11 3d f8 63 1c bd 68 85 f9 b9 28 0a d4 bc
       0.035414573 -0.038181275 -0.00047592376 -0.02588375
0000e0 03 be a5 bc 2c 14 24 bd 50 ad 6b 3c f8 23 36 3c
       -0.020232206 -0.0400583 0.014384583 0.011116974
0000f0 d4 59 0b bd 69 9a c8 bc 0a a5 c3 3c b7 ce 2a 3d
       -0.034021214 -0.024487691 0.023882408 0.041701045
000100 f5 f8 05 3d 46 4f a1 3c 12 b2 03 bc 6d 4f f1 bb
       0.032708127 0.01969112 -0.008038061 -0.0073642046
000110 3f ca 0f bb d7 f9 9a bb aa 1f 11 3b 12 af 3a 3c
       -0.0021940616 -0.0047294903 0.0022144117 0.011394279
000120 3b 57 aa bc 26 66 bc bc b6 88 af ba b9 79 64 3c
       -0.020793548 -0.022997927 -0.0013392183 0.013945037
000130 66 5f 22 bd c0 d5 16 bc 9a a4 61 bc 4b 24 90 bc
       -0.03964176 -0.009206235 -0.013772154 -0.01759543
000140 45 4e 56 bb 69 0b 0c bd 33 14 be 3c 4d 0c 9a 3c
       -0.003270046 -0.03419057 0.023202991 0.018804694
000150 e5 cf 7c 3c 5c da b4 bc e5 2e 4b bc 9f 2c ab bb
       0.015430425 -0.022076778 -0.012401317 -0.005223825
000160 80 75 b7 ba 62 90 01 bd eb eb 35 bb 22 58 35 ba
       -0.001399681 -0.031631835 -0.0027759026 -0.0006917735
000170 02 d8 e7 bc bb d5 22 ba 04 17 31 3d de a9 0a bd
       -0.028301243 -0.0006211658 0.04323484 -0.033853404
000180 7a 98 69 bc b2 8b c1 3c 00 57 1c 3d 91 95 af 3c
       -0.014257545 0.023626182 0.038168907 0.021433624
000190 52 fa bb bc 1b 9e 79 bc cb 03 63 bc 65 fd ea bc
       -0.02294651 -0.015235449 -0.013855885 -0.028685281
0001a0 65 cc 82 bc ff 0d 01 bd 98 05 c3 3c d8 53 ba 3c
       -0.015966604 -0.03150749 0.023806378 0.022745058
0001b0 2d b0 f5 3c 69 2f 72 b8 76 22 42 bc 1a 68 95 bc
       0.029991234 -5.774145e-05 -0.011849036 -0.018238116
0001c0 32 1d a0 bc 00 cb 2f ba 85 f5 96 bc c9 a1 67 3c
       -0.019545171 -0.00067059696 -0.01842762 0.014137694
0001d0 e9 a3 e0 bc 19 f5 81 3c 11 f4 d0 bb dc e0 41 3c
       -0.027421908 0.015863942 -0.0063767512 0.011833396
0001e0 27 b7 18 3c a8 c6 e2 3c bb 32 b2 3c 00 c4 00 bd
       0.009321011 0.027682617 0.021752706 -0.03143692
0001f0 cf b4 65 bc a7 5a aa 3c 57 29 e9 bc e8 d8 3f bc
       -0.014020159 0.02079518 -0.028462095 -0.011709429

weight f4 [128, 128]
000000 d2 87 2b bd 2a 6c 89 bd 9b ca aa 3b 7c 42 8f 3d
       -0.041877575 -0.06710084 0.0052121407 0.06995103
000010 89 a2 51 3d 43 5f 12 3d 0e a2 a6 3c 66 10 aa bd
       0.051180396 0.03573538 0.020340946 -0.08303909
000020 48 82 9b 3d ea f8 91 bd 9a 60 41 39 da 48 bb 3a
       0.075932086 -0.07127555 0.00018441901 0.0014288679
000030 dd ee bc 3b b3 3a 06 3d a9 64 5b 3d 9d b1 83 bd
       0.0057657794 0.032770824 0.053562794 -0.064303614
000040 e5 99 a1 bd 5a 8c c7 3c a6 55 90 3d 27 79 88 bd
       -0.07890681 0.024358917 0.07047586 -0.06663733
000050 33 a5 8a 3c 93 f8 94 bc 39 fe 96 bc 90 3c 44 bc
       0.016924476 -0.018184936 -0.01843177 -0.01197733
000060 b5 7d cf 3c cd 0b 64 bd bb b6 20 3d 4b 9a ae 3c
       0.025328496 -0.055675317 0.039236765 0.021313807
000070 ad 08 a1 3d 25 e7 59 3d 76 34 bf bc 41 26 a4 3d
       0.07862983 0.053198952 -0.023340445 0.08015109
000080 bc 77 11 3d 09 ca 7f 3d 27 c7 2e 3d 62 8d 8a bd
       0.03551458 0.062448535 0.042670395 -0.06765248
000090 c1 d5 bf bc d2 4b 19 3c 68 d3 0e 3c 5e 20 24 3d
       -0.023417355 0.009356456 0.008717395 0.04006993
0000a0 ef db f8 3c 8d 6b aa bc 50 aa b5 3d 3d 3d 40 3d
       0.03037831 -0.020803237 0.08870375 0.0469334
0000b0 c5 23 84 3c a3 eb a7 3d ff 4e e7 bc 31 cf 96 bd
       0.016130337 0.08199241 -0.02823591 -0.073637374
0000c0 fd 76 75 3d b1 6c e7 3c 32 2f 98 3d 18 25 b8 bc
       0.05992793 0.02825007 0.07430877 -0.022478625
0000d0 88 9e 2e 3c 57 25 98 bc e5 4b 1e 3c 92 e8 08 3d
       0.010657914 -0.018572493 0.009661649 0.03342492
0000e0 07 7c 05 bd d4 4e 9e bc 4d d6 c4 3c 0b d8 5e 3d
       -0.032588985 -0.019324698 0.024027968 0.054405253
0000f0 36 c9 86 3d 76 8f b9 bc 7b a5 99 3d 75 15 13 3d
       0.06581347 -0.022651415 0.07502266 0.035909135
000100 31 62 2c 3c 93 dd 99 bc 4c 37 36 3a 09 27 26 bd
       0.0105214575 -0.018782413 0.0006950989 -0.04056457
000110 70 81 4c 3d 59 35 fd bc e8 92 c7 3c 92 54 66 bd
       0.04992813 -0.030909227 0.024362043 -0.056232996
000120 54 2a 4c 3d 5f 88 97 3d 57 d4 87 bc ad 5b ca 3c
       0.049845055 0.073990576 -0.016580744 0.024701918
000130 17 71 19 bd 6b 84 79 bd cd 43 22 3d 77 83 a4 bd
       -0.037461367 -0.0609173 0.03961544 -0.080328874
000140 40 aa f0 bc dc 6d 94 bd d9 30 3d bd 3e ac 43 bc
       -0.029378057 -0.072475165 -0.046189163 -0.011942921
000150 16 64 84 bc 29 e2 a5 bd be 8e 74 bd 9f 4a 90 bd
       -0.016161006 -0.08099777 -0.059706442 -0.07045483
000160 f2 33 71 bd de e2 c2 3c c4 c2 b2 3d 78 0a 67 3d
       -0.05888743 0.02378982 0.08728555 0.05640647
000170 55 f4 2c bc b1 bd fa bc ec a0 84 bd 0f 1d 2d 3d
       -0.0105563 -0.03060803 -0.06476006 0.04226404
000180 44 8a b3 3d ef 1d eb 3c a3 33 87 3d 2e 55 b0 3c
       0.087666065 0.028700797 0.06601646 0.021524992
000190 b0 42 8c bd 40 3f 22 3c ca 34 5d 3d c5 80 2d bd
       -0.06848657 0.009902775 0.05400542 -0.042359132
0001a0 09 a0 97 3c 53 33 8e 3d 60 07 fe 3b 43 92 f5 3c
       0.018508928 0.06943383 0.007752344 0.02997697
0001b0 45 1e 46 3d 66 12 10 3c 46 a0 66 3b 15 1b a1 3d
       0.04836871 0.008793449 0.0035190745 0.078664936
0001c0 f5 6e 77 3d ce 3e 59 3d f7 9a 9f bd 1c 97 ad bd
       0.06040855 0.05303841 -0.07793229 -0.084760875
0001d0 74 8d 32 bd 20 0d 32 bd b9 6e 5c bd 1d b5 65 bd
       -0.04359193 -0.04346955 -0.05381653 -0.056080926
0001e0 3e 18 82 bd 2b dc 86 3d 02 ec 34 3d 46 98 85 bd
       -0.0635228 0.065849625 0.044170387 -0.065231845
0001f0 28 a9 31 3d 1c 9f 32 3d 7b 68 00 3d e1 cb ac bd
       0.04337421 0.04360877 0.03134964 -0.08437324
000200 d4 fc 55 3d 88 ed 1c bd 24 02 00 3d c6 58 4f bd
       0.05224307 -0.038312465 0.03125204 -0.05062177
000210 c5 69 bb 3c bf d5 19 bd d8 6f 03 3d cf a9 74 3d
       0.022877583 -0.03755736 0.032089084 0.059732255
000220 9c 9c 8d 3d 09 7c 9f bd d0 53 2b 3d 68 ec 1d 3d
       0.069146365 -0.0778733 0.041827977 0.038555533
000230 5b 45 aa bd 74 4b 4e 3d 75 85 5b 3d f2 54 aa bd
       -0.0831401 0.050364926 0.05359407 -0.08316983
000240 79 56 91 3c b2 cc b1 bc c1 be 10 3d 80 fe 8c 3d
       0.017741429 -0.021704052 0.035338167 0.068844795
000250 91 41 fd 3c 86 53 1a 3c f9 e0 5e ba ff e0 9e bd
       0.030915054 0.009419328 -0.00085021515 -0.07757758
000260 02 5f 47 3d d2 9f 5f bd cb 85 35 bd f9 f4 a8 3d
       0.04867459 -0.054595776 -0.044317048 0.0824985
000270 7a f4 a7 3d 93 56 9a bd 52 3d 4d bd 5c a2 f9 3c
       0.08200927 -0.07536044 -0.050107308 0.030472927
000280 c3 24 7b bd 66 af 85 bd ed 3f c0 3d a1 02 77 3d
       -0.061314356 -0.06527595 0.09387193 0.06030524
000290 9a fa d8 bc 3f 1c 40 bd 50 49 de bb 74 14 d1 bc
       -0.026486684 -0.046901938 -0.006783642 -0.025522448
0002a0 8a 84 8b 3d b5 41 86 3d df ae 90 3d 6b 12 22 bd
       0.06812389 0.06555501 0.07064604 -0.039568346
0002b0 71 49 93 bc fc 7a c2 3c 16 28 c4 bd 2f 13 43 bd
       -0.017979356 0.023740284 -0.09577958 -0.047625717
0002c0 6b 72 70 3c f5 48 80 39 25 51 89 3d 60 40 a6 bc
       0.014675717 0.0002446842 0.0670493 -0.020294368
0002d0 0e f6 35 bd 68 97 b4 3d c4 47 8a bc 0e 7a e5 3c
       -0.04442411 0.08817941 -0.016879924 0.028012302
0002e0 79 e0 80 3d c4 6c d5 bc 5a 8a 5c 3c 28 bf 8e bc
       0.06292815 -0.02605284 0.01346072 -0.017425135
0002f0 1e 01 31 3d f2 57 15 bd 4a 26 54 3d dc 2b 5e bd
       0.043213956 -0.036460824 0.051794328 -0.054241046
000300 01 60 42 3d 42 6f a6 3d d0 c0 57 3d 81 b5 d0 3a
       0.047454838 0.081266895 0.052674115 0.0015923233
000310 7b bf cf 3c 51 fc 3b bc fa 91 0a bd c3 40 3d 3d
       0.02535986 -0.011473731 -0.03383062 0.04620434
000320 42 b7 56 bd 97 2c b8 3c 6a c4 9e bc 69 12 90 bd
       -0.052420862 0.0224822 -0.019380767 -0.070347615
000330 29 86 60 3d 26 5e 29 3d 7f 42 04 bc 25 fa 5c bd
       0.054815445 0.041349553 -0.0080724945 -0.053949494
000340 11 3f 9c 3d 65 b3 8e 3d 0e ba f1 3b fd f5 6f bd
       0.076292165 0.069678105 0.007376916 -0.058584202
000350 3e 8b 86 3d 21 d2 eb 3c e3 6a 66 3d ad 56 1d bd
       0.06569527 0.02878672 0.05625428 -0.03841274
000360 c2 1f 7a 3d e8 c4 a6 3d 1e ba 9c 3d 5f db de 3b
       0.061065443 0.08143026 0.076526865 0.0068010534
000370 32 48 b1 3c 23 f1 8b bd 4e 34 4d 3d 56 a1 e9 bc
       0.02164087 -0.068331026 0.05009871 -0.028519314
000380 f6 90 ae 3d 11 b9 76 bd 1b 25 97 3d 10 ff de 3c
       0.08523743 -0.060235087 0.07380124 0.027221233
000390 40 85 84 bd 00 67 86 3d 5f 24 11 bd c2 cb 83 3c
       -0.06470728 0.065626144 -0.035435077 0.01608837
0003a0 2b 85 62 bd bc 0a 64 3c c9 ea 10 bd cd 33 b3 bd
       -0.05530278 0.013918575 -0.03538016 -0.087501146
0003b0 2f 5e 3c bd 17 4f c9 bd e3 b6 c3 3d 93 e4 a3 3c
       -0.045988258 -0.09829538 0.09556367 0.020006454
0003c0 fb 25 4e bd a8 cf 96 bc 27 1d a2 bd c0 dc 76 3d
       -0.05032919 -0.018409565 -0.079157166 0.060269117
0003d0 4a bd 30 3d 80 a6 ce 3c 23 9e 83 bd bc ca 25 bd
       0.04314927 0.025225878 -0.064266466 -0.040476546
0003e0 ee 29 5f 3d e4 e9 b9 3c e7 eb 75 3d 12 a0 70 3d
       0.054483347 0.022694536 0.060039427 0.058746405
0003f0 0a c0 bb bd a7 d4 46 bd 08 34 5d ba aa 35 89 3d
       -0.09167488 -0.048542645 -0.0008438234 0.06699689

bias f4 [128]
000000 8a a3 b9 3c 22 1b fa 3b 9a 35 bf bc 5a 4d db 3c
       0.02266099 0.007632629 -0.023340989 0.026770283
000010 0d 65 7f 3c a6 e5 5a 3d 21 48 c7 3c 7c cc 55 bd
       0.015588057 0.053441666 0.024326386 -0.052196965
000020 03 0c 2e bd 13 82 61 bc 64 c7 36 3c 88 7a 98 3c
       -0.042491924 -0.013763922 0.011155937 0.018613115
000030 c1 fe ab 3c 3d 86 46 bd 5c 87 20 3d 33 1a 94 bd
       0.0209955 -0.048467863 0.03919159 -0.072315596
000040 a5 93 3b 3d 0b 21 7d 3d 0d 9e ab 3d 6e c5 aa 3d
       0.0457951 0.06179909 0.08379755 0.08338438
000050 5e 75 7c bd 96 1a 68 3c 09 02 56 3d 13 6c 57 bd
       -0.061635368 0.014166495 0.052248035 -0.052593302
000060 c8 7b 23 bd 36 50 46 3d 0e cf 2a 3d 13 4b 8b b9
       -0.03991297 0.04841634 0.04170137 -0.0002656808
000070 2d a7 9e bd c9 cb 99 3c 38 bd c3 3d b0 d2 61 bd
       -0.0774673 0.01877393 0.09557575 -0.055132568
000080 2d 13 3e bc e0 d4 8e bd dc 0b 20 bd 8b 5d 89 3d
       -0.011601252 -0.069741964 -0.03907381 0.06707295
000090 9a 2e 11 3c 26 03 83 bd 0a 68 6f 3c 75 b8 6b 3d
       0.008861208 -0.06397085 0.014612207 0.05754896
0000a0 5d e8 97 bd e6 7d 38 bc 78 e1 64 3d b0 41 3d bc
       -0.07417367 -0.011260485 0.055879086 -0.011551306
0000b0 5d a5 9f bd e7 bd 80 bd 40 c1 63 3d 3a fb 3f 3d
       -0.077952124 -0.06286221 0.05560422 0.046870448
0000c0 c1 26 1f 3d 0e 1e 5e bd b9 08 38 bd 2d e6 9d 3c
       0.038855318 -0.05422788 -0.044930194 0.019274795
0000d0 26 52 47 3d 44 2d 45 bd 7f 9e 4f bd e0 4a fa 3c
       0.048662327 -0.04813887 -0.050688263 0.030553281
0000e0 ab 26 f7 3c 7b 03 83 bd 22 24 0a 3d 0d da 7f 3d
       0.030169806 -0.06397148 0.033725865 0.06246381
0000f0 8f e9 6b bd 9c 7b 64 bc 60 54 f0 bb 6e f8 12 3d
       -0.057595786 -0.013945486 -0.007334277 0.035881452
000100 b1 e3 81 bd a2 ed 20 bd 96 51 2b bd 1e a7 6a bd
       -0.06342257 -0.039289124 -0.041825853 -0.05728828
000110 17 5e 28 bd 5a 08 95 bd 6c 77 f1 3c 34 3e 9c bc
       -0.041105356 -0.072769836 0.02947589 -0.01907263
000120 0e ce a0 bb 19 60 7f 3d 13 54 0b bd f0 3a af 3d
       -0.004907376 0.062347505 -0.034015726 0.08556163
000130 78 e9 6f bd 52 41 a4 bd f2 bb 27 3d 71 ab 3b bc
       -0.058572263 -0.08020271 0.040950723 -0.011454449
000140 1b 3e 8d 3d 62 b3 24 3b c2 80 50 bd 56 52 85 3d
       0.06896611 0.0025131335 -0.050904043 0.06509845
000150 e6 01 42 bd 69 1e 42 bc 1a 86 01 bd 9a 8b 82 3c
       -0.04736509 -0.011848071 -0.03162203 0.015935708
000160 0a 7d 15 bd e2 b7 64 3d 92 e2 b3 3c 01 64 a8 bd
       -0.0364962 0.055839427 0.021958623 -0.08222199
000170 4c e0 f5 3b 9a 83 1f bd 6e fb 22 bd 2b e0 c3 3d
       0.007503545 -0.038943864 -0.039790563 0.09564241
000180 18 d1 97 3d 05 fe 98 3c 45 18 83 3d 47 b7 8b 3b
       0.07412928 0.018675813 0.064011134 0.0042637917
000190 2d 77 95 bd a1 23 31 bd 11 ca 12 3c 85 bf ac bd
       -0.072981216 -0.04324687 0.008959309 -0.08434967
0001a0 08 15 63 bd dd 7d 7a bd 63 cd 32 bd d6 a8 3f bd
       -0.05543998 -0.06115519 -0.043652903 -0.046791874
0001b0 65 ec 98 bd df 94 2c 3d f3 73 8d bc f4 31 67 3d
       -0.07466964 0.042134162 -0.017267203 0.056444123
0001c0 d4 21 07 bd 6f 59 7c 3c 2b 89 35 bd 53 fb 0f 3d
       -0.032991245 0.015402182 -0.044320267 0.03515179
0001d0 28 bb 6c 3d a8 f7 cf bc 02 5d 42 3c 35 2c a5 3d
       0.057795674 -0.025386646 0.011862995 0.080650724
0001e0 b4 0e 9b bd f5 40 ad bd f3 0a 82 3c 70 ce 2c bd
       -0.07571164 -0.08459655 0.015874362 -0.04218906
0001f0 ba 69 75 3c 30 f6 a7 bd b5 11 cb bb b1 1e 62 3d
       0.01497882 -0.082012534 -0.006197179 0.05520505

weight f4 [2, 128]
000000 07 7d 30 3d 5e f0 15 3e 6e 58 83 bd de 9a e4 bd
       0.043087985 0.14642474 -0.06413351 -0.11162351
000010 0b f7 99 bc 10 6e 66 bd dc 63 16 be 28 3d de 3d
       -0.018794557 -0.056257308 -0.14686531 0.108515084
000020 01 b9 ff 3c ca 32 dc bd b2 62 3f 3e 6a d8 44 bc
       0.031216146 -0.10751875 0.18689993 -0.012014488
000030 19 63 68 bc da 73 b2 bd 1e e9 a0 bd 56 b7 0e bd
       -0.014183783 -0.08713503 -0.078569636 -0.03484281
000040 f5 57 49 3d 2a 56 8f bd d4 a8 a3 bd 98 c2 ae bc
       0.049156148 -0.06998856 -0.07991186 -0.021333024
000050 83 b9 d7 bc 56 5a b1 bd b2 07 ee 3b 80 e5 90 bd
       -0.026333576 -0.08659808 0.007264101 -0.07075024
000060 91 1e 54 3d 7d eb a6 bd f2 26 00 3c 9f bd 7d 3d
       0.051786963 -0.081503846 0.007821785 0.061948415
000070 f0 d9 40 bd 44 37 0f 3d dd ce 03 3e 24 f6 15 3c
       -0.04708284 0.034964815 0.12871881 0.009152923
000080 f9 d7 f2 bc 0d 5d 69 b8 c0 5f f9 3d 7d 87 53 bc
       -0.029644 -5.563819e-05 0.12176466 -0.012910721
000090 06 bb 4c bc 8a 14 00 3d 83 e8 24 3d 10 f1 be bc
       -0.012495762 0.031269588 0.040260803 -0.023308307
0000a0 7c 0b 95 bd 06 a0 59 3d bd 10 e8 3d 81 9b 2d bd
       -0.07277581 0.053131126 0.113313176 -0.04238463
0000b0 c1 78 1b 3d d0 b8 f1 bb 08 8e 26 bd 61 92 18 3c
       0.037956957 -0.0073767677 -0.040662795 0.009312243
0000c0 31 c8 01 3d ff de 40 bd 96 e1 d2 bd 96 d3 49 3e
       0.031685058 -0.047087666 -0.10296933 0.1970962
0000d0 b5 90 1a 3e 7d fb e0 3c 18 c9 51 3d 06 25 1c 3d
       0.15094264 0.027463669 0.05121717 0.038121246
0000e0 2b 83 4a be 90 16 64 bd ab 5e 38 be 79 f5 08 be
       -0.19776599 -0.05568558 -0.18004863 -0.1337489
0000f0 cc 32 33 3d 69 04 d6 3d db 24 27 bd 7f 49 03 3d
       0.043749616 0.1045006 -0.040806632 0.032052513
000100 7d 78 4b bd 80 cb 91 bb 1f 61 bf bb ff f5 10 3e
       -0.049675453 -0.004449308 -0.005840435 0.1415634
000110 5f 22 98 bd 76 bd ac 3a 7c fa 8e bd 20 38 9e bd
       -0.07428431 0.0013179022 -0.0698137 -0.07725549
000120 da 39 66 bd b8 37 28 bd 46 7f 12 be 1a a9 37 3e
       -0.056207515 -0.041068763 -0.14306363 0.17935601
000130 aa 53 b2 3d 6f c4 92 3c b9 a4 d4 3d 4b f9 4b bd
       0.08707364 0.017915932 0.10382981 -0.04979829
000140 8f a6 15 bc 91 0c 08 be a0 f9 26 bd 67 4f d5 3d
       -0.009133949 -0.13286044 -0.040765405 0.104155354
000150 5e c0 b5 3d 17 a1 12 be 0b 65 4c 3d 5f 3b a8 bd
       0.08874582 -0.14319263 0.04990105 -0.08214449
000160 6a ab db bd 1c 0b b6 3c ef ce d3 bd 44 99 0f bd
       -0.10726054 0.022222094 -0.10342204 -0.035058275
000170 f0 69 b4 3c a0 8b 16 3e 81 00 a9 3d ad 03 e6 3d
       0.022023171 0.147017 0.08252049 0.1123117
000180 c7 2f a4 3c 9a fe c0 bc 83 67 c0 3d 44 58 1b bc
       0.020042313 -0.023558903 0.09394743 -0.009481493
000190 a1 e1 e9 3d 2e a2 28 3c 36 66 b3 bd f4 fe 22 be
       0.114199884 0.010292573 -0.087597296 -0.1591757
0001a0 28 a2 3e 3c eb 6e 9a bd 92 7a 00 3d 99 3c 6b 3d
       0.011635341 -0.07540687 0.031366892 0.057430837
0001b0 14 fd 8f 3d 22 d1 2b 3e 9a 9a 8b 3d 98 72 c5 bd
       0.07030693 0.16778997 0.06816597 -0.09640998
0001c0 1f ea c3 3d 55 b9 64 be 64 b5 18 be dd e9 97 3d
       0.095661394 -0.22336324 -0.14912945 0.07417653
0001d0 44 ec f1 bd 07 28 e1 bd d6 94 fc 3c 5e 5c b5 3c
       -0.11812642 -0.10993963 0.03083269 0.02213877
0001e0 f9 52 77 bd ab 43 ec bc b5 c2 a7 bb 28 e9 0d 3d
       -0.060381863 -0.02884086 -0.0051196464 0.034646183
0001f0 80 e8 55 3d b8 68 8c bc 35 97 b0 bc 9d 25 a8 3d
       0.052223682 -0.017139778 -0.021556476 0.08210299
000200 d4 d0 88 bc 96 74 c0 bd d0 88 1d bd 74 20 20 3d
       -0.01670114 -0.09397237 -0.038460553 0.03909345
000210 6f 19 85 bd 2d d8 87 3d f4 ed e0 3d 91 45 0a bd
       -0.06498992 0.06633029 0.10982886 -0.03375775
000220 cd d9 c6 bd e5 ec d0 3d 4d 19 15 be 53 e4 8a 3d
       -0.09709511 0.10201434 -0.14560433 0.06781831
000230 17 ba ff bb eb 88 25 3d ea ab be 3d 7f b3 9f 3d
       -0.007804166 0.04041378 0.09310134 0.07797908
000240 6a a9 48 bc 71 4f 54 3d 96 e1 5b 3d f9 06 7c 3d
       -0.012247423 0.051833574 0.053681932 0.061530087
000250 46 75 be 3d 0f 78 67 bd c2 f5 39 bd 7e 1e d4 bc
       0.09299712 -0.05651098 -0.04540039 -0.025893446
000260 66 41 9a bd a8 00 3f bd b8 98 9e bd e7 18 da bc
       -0.07532005 -0.046631485 -0.077439725 -0.026623202
000270 2d 0d 92 bb 63 90 27 bb 71 20 02 bd 09 24 05 be
       -0.004457137 -0.002556824 -0.03176922 -0.13002028
000280 d1 12 a2 3d 7b 96 08 3e 0a 10 03 be 29 ca c8 bd
       0.07913745 0.13338654 -0.12799087 -0.09804184
000290 2c 98 b3 3c a3 cf a3 3c 79 ef d2 3d 43 e7 bc 3d
       0.021923147 0.01999647 0.10299582 0.09223797
0002a0 5c 01 80 bd 1f fb a9 bd a9 19 16 be 99 e1 9f bd
       -0.06250259 -0.08299851 -0.14658226 -0.07806701
0002b0 bf 50 f9 bd d1 0b f4 3c d6 aa 0a 3e f5 50 c7 bc
       -0.12173604 0.02979079 0.13541731 -0.024330596
0002c0 4f 2a 8a bc fd 26 b1 3d 4f 04 9b 3d 8e 93 1c be
       -0.016865877 0.086500145 0.07569181 -0.15290663
0002d0 bf 20 f3 bb 95 fc 89 3d 74 13 ae 3b f2 15 6b bd
       -0.007419675 0.06737629 0.0053123776 -0.057393976
0002e0 e3 00 33 3e 33 1c aa 3c db 74 ba 3d fb 19 af 3d
       0.17480807 0.0207654 0.0910432 0.08549877
0002f0 db a1 a8 3d ad 10 3b be 85 06 9d 3d 45 63 06 bd
       0.082339965 -0.1826808 0.07667259 -0.032809515
000300 12 ca a1 bd 3b 42 2a bd a8 32 61 bd d3 c2 3f be
       -0.0789987 -0.04156707 -0.05497995 -0.18726663
000310 73 a7 d5 bc f6 73 f8 3d 5a 66 9d 3d fa 62 97 bd
       -0.026080823 0.12131493 0.07685538 -0.07391925
000320 33 e5 2c bc 2b ea 99 3d e8 a8 32 3e 7c 43 d2 bd
       -0.010552692 0.07515367 0.17447245 -0.10266778
000330 0e 8e 35 bd 81 38 d5 bc 14 5f 11 be a5 1c 29 3c
       -0.044324927 -0.02602792 -0.14196426 0.010321771
000340 e4 2b ba 3d 8c a3 eb 3d 4b c1 a6 bd b4 49 f3 3c
       0.09090403 0.115058035 -0.081423365 0.02969823
000350 11 68 da bd 67 02 12 3e ae 4a 10 3d 13 26 a8 bc
       -0.1066438 0.14258729 0.03522747 -0.020525968
000360 37 c1 14 3e 90 ab c9 bc e7 90 fe 3d dc a8 f8 3d
       0.1452683 -0.02461794 0.12429982 0.12141582
000370 88 41 e9 bd 04 df 0b be fa bd 78 3d 1a 94 14 be
       -0.11389452 -0.13659292 0.06072805 -0.14509621
000380 54 d2 c7 bd 6d 26 c5 3c dc 56 ed bd d8 c8 e8 3d
       -0.09756914 0.024066174 -0.11588833 0.11366433
000390 56 8a 17 be 6b c2 05 be 6e fd e8 3d 59 cd 3b 3e
       -0.14798865 -0.13062446 0.11376463 0.18340053
0003a0 a9 f2 96 ba 12 fe c5 bd 95 8b 0e bc cb 79 ef 3c
       -0.001151641 -0.09667601 -0.008700271 0.02923288
0003b0 20 79 82 bd 1e 41 a4 bd cf f4 08 bd 40 14 11 3d
       -0.06370759 -0.080202326 -0.033436593 0.035419703
0003c0 25 4e 5f bc 71 ed 60 3e 47 8a 44 3d 9f 25 30 bb
       -0.013629471 0.21965577 0.047983434 -0.0026877893
0003d0 63 ff 42 3d 32 bd ab 3c 09 f4 3e 3b 71 33 9d 3d
       0.047606837 0.020964239 0.0029137156 0.07675827
0003e0 d4 39 a5 3d 5b 04 ab bd 69 8d d2 bc 60 cf 89 3a
       0.080676705 -0.0835044 -0.025702195 0.0010514073
0003f0 70 a8 f4 bd 12 be 94 bd 90 cd 50 bd 99 e9 28 bd
       -0.119461894 -0.072628155 -0.05097729 -0.0412384

bias f4 [2]
000000 36 2f de 3d 90 ce 2f be
       0.108488485 -0.17168641
