graph2vec_optimization/model/60_mlp_graph2vec_opt_4.pt (torch_old, 382907 bytes, 6 tensors)

weight f4 [128, 600]
00000000: 5c99 a6bc 5613 89bc 9167 a3bc a78b f2bc
00000010: 5a97 9dbc 897f 313d 335c 05bd e0c9 873b
00000020: 4a5a f13c 2923 023d e49c 843b 8370 09bd
00000030: 524e ea3c 6e11 02bb d725 113a 2f77 0c3d
00000040: 2575 57bc eacc 31bd 8fbf 15bd 3be9 b83c
00000050: 9db6 273d 54f2 2d3c 95eb a63c 6bb3 07bd
00000060: c0ef b73c 2461 1fbd 3fe9 123d 19b4 f13c
00000070: d017 673c ef48 f3bc 8d77 50bb 1a51 b73c
00000080: 08b6 12bc 99ec 053d 8ed4 21bc 549b e63c
00000090: eab1 d23c 37b9 d0bc 93e2 12bd dcf5 f0bb
000000a0: 4a90 073b 23aa c4bc eed4 bc3c 8884 debc
000000b0: 0bdf b239 089d ed3c c794 113d f27a 393c
000000c0: 465e 123c e861 353d 4cae b1bc 1375 cdbb
000000d0: 746c b23c 6a05 0dbd 8541 a23c 6ec1 e6bc
000000e0: b8fc 2b3c d995 c93b 8d5c c23c 9ff6 8abc
000000f0: dceb 26bd 2c1f 9cbc c1c5 24bd 28bc d43c
00000100: 5f98 e0bc 9d9d 29bd 9f69 893b 1665 7c3b
00000110: ca3e df3c e4a9 bdbc 6f3e 873c 9abe 063b
00000120: 8fcb 15bc b662 413c 4204 bb3b 72e0 b4bc
00000130: 2910 6ebc e16f 043d 9bf0 823c 8441 b03c
00000140: 8c38 9fbc 8467 04bd d4ae c6bc e7c8 e9bc
00000150: 423d 0b3d 9ce0 553c b3e1 603d 4467 333d
00000160: d578 b73c 2cc4 aabb 9061 48bc c1ee cd3c
00000170: 376b 3d3d 6c5f 123c 4996 433c e14e 903b
00000180: cae9 8abc 246a a4bc e040 0dbd 3f46 9e3b
00000190: b961 1f3d b292 2bbd f360 f3bc d87e 12bd
000001a0: 6c17 86bc bc8a a2bb 3fdf c53c 04f2 fabc
000001b0: b394 8f3c 95cf c03c 5f42 0f3d 8b64 2f3d
000001c0: 0a2a aa3b 3bbc bc3c b7df 003d 397f ac3c
000001d0: 4bf4 763c fbcc 17bd 1511 78bc de80 883c
000001e0: 817b 04bb 8033 df3c 7905 3abd fdc0 c9bc
000001f0: c28c b1bc ad9f 0dbd 1a89 bdbc 034e bf3c
00000200: 183c f63c f02c 8a3c 4980 043d 7b27 023d
00000210: 7b2e bc3c c307 81bb 2d06 55bc 00f4 baba
00000220: 1142 143c fbfd 87bc 2639 293c c917 8fbc
00000230: a719 84bc aded 03bd 28ff 3a3c bfd2 c63c
00000240: 0f19 ecbb 5b5d 273c 1349 fdbc aab2 f8bb
00000250: 0535 ac3c 4446 21bd cd07 95bc 7193 013b
00000260: 7be3 1d3d 6831 9fbc 8fdf 41bd 2b1a 303d
00000270: 7cf3 96bc e503 253d c9f1 023d 693b 563c
00000280: 704f e5bb 6b4a 83bc c04e 91bb cad3 17bc
00000290: 77aa dfbc 702c 06bc 96c2 3a3d ecc0 9ebc
000002a0: 7508 383c 50ab 363d 53ba 833c e5b9 27bd
000002b0: 7a0a 1abc cc5e d73c d510 a43c 2fe9 9bbb
000002c0: 395f 413c e338 533d bf45 013c fc91 063d
000002d0: 9a75 683c 516f 1eba 5e17 10bd c8e0 1fbc
000002e0: 0e4b 2dbc 5bb8 0dbd 87b3 c63b a622 af3c
000002f0: 5cd7 11bb 58c9 fdbc cb3f 03bb fa69 cbbc
00000300: abff c63c 5c78 f3bc 496c fdbb afc2 2f3d
00000310: 077e cd3c c05d 793c 23b1 c9bc 46a5 ec3c
00000320: 6a15 1c3c 9c85 643b 64dd d5bc 0ddd a43c
00000330: 88b6 9dba ff31 463c 608e c3bc 322c 7bbc
00000340: 174b 683d a2f8 143d 6b54 ae3a 496b 1a3c
00000350: 5d25 19bc 908a ce3c 93cf 0cbd 02c6 7b3c
00000360: 5ff8 42bc 5b27 b1bc fe4c b7bc 0ff4 fdbc
00000370: d4f3 8abc c96b a03c 1f8c aaba 5651 e3bc
00000380: 23ee cbbc cbb9 d1bc 319d 963c da16 193d
00000390: e2d1 2ebd 8eb7 8b3c b0b0 a5bc 61e0 a7bb
000003a0: cbc1 90bc b2b9 cc3b 944f 183d b0b5 f2bb
000003b0: ef91 49bd cbe1 f5bb 9938 68bd 4e7c 113d
000003c0: 2679 fbbc 2402 08bd 015a c0bc d20f 10bd
000003d0: 84eb 07bd 8b32 4cbc a911 8fbc 35d6 53bd
000003e0: 2278 0dbc 276b 8dbb d56a d7bc 6377 14bd
000003f0: c2ed abbb 1b5a f93c 1589 36bd b8cf 78bc
-0.0203368 -0.016732853 -0.019946845 -0.029607607 -0.01923721 0.043334518 -0.03255863 0.0041439384
0.029461998 0.031771813 0.004047023 -0.033554565 0.0286018 -0.0019846815 0.00055369496 0.03429335
-0.013150488 -0.043408312 -0.036559638 0.02257215 0.040945638 0.010616858 0.020376006 -0.03313009
0.022453189 -0.038911 0.035866972 0.029504823 0.014104798 -0.029697863 -0.003180954 0.02237754
-0.008954532 0.03269634 -0.009877337 0.028150238 0.025719602 -0.025478942 -0.03586061 -0.0073535275
0.0020685368 -0.024006909 0.023050752 -0.027162805 0.00034116986 0.029005542 0.035542276 0.011320816
0.008933609 0.044282824 -0.021689557 -0.00627006 0.02178023 -0.03442899 0.019806633 -0.028168406
0.010497265 0.0061518964 0.023725772 -0.016963301 -0.040752277 -0.019057833 -0.040227655 0.025968626
-0.027416406 -0.041410077 0.004193499 0.00385124 0.02725162 -0.0231523 0.016509263 0.0020560385
-0.00914277 0.01180332 0.0057072947 -0.02207968 -0.01453022 0.03233326 0.01598387 0.021515615
-0.019436143 -0.032325283 -0.024253286 -0.02853818 0.033993967 0.013054039 0.054902744 0.043799654
0.022396484 -0.005211374 -0.012230292 0.02513826 0.046244826 0.008933883 0.011937686 0.0044039343
-0.016957182 -0.020070143 -0.034485698 0.0048301513 0.038911555 -0.041887946 -0.029709315 -0.0357655
-0.01636859 -0.004960386 0.024154304 -0.03063298 0.01752696 0.023536483 0.034975406 0.042820495
0.0051929997 0.023038974 0.03146335 0.021056758 0.015072892 -0.03706072 -0.015140791 0.016663011
-0.0020215216 0.027246237 -0.045415375 -0.024628157 -0.021673564 -0.034576107 -0.023136664 0.023352629
0.030057952 0.016867131 0.032348905 0.031775933 0.022971382 -0.003937693 -0.013001961 -0.0014263391
0.009048955 -0.0166006 0.010328567 -0.017467396 -0.016125513 -0.032209087 0.011413373 0.024270413
-0.0072051357 0.010215129 -0.030918634 -0.007589658 0.021021375 -0.03937365 -0.018192196 0.001977172
0.03854702 -0.019432738 -0.047332343 0.042993706 -0.01842665 0.040286917 0.031968866 0.013075688
-0.006997995 -0.016026696 -0.0044344366 -0.009266803 -0.027302964 -0.008189306 0.045595728 -0.019379102
0.011232485 0.04459697 0.016080057 -0.040948767 -0.009401912 0.02629032 0.020027557 -0.0047580223
0.011802488 0.051567923 0.007890164 0.032854065 0.014188195 -0.0006043809 -0.035178535 -0.009758182
-0.010576976 -0.034599643 0.006063882 0.021378826 -0.0022253608 -0.030979797 -0.0020027037 -0.024830807
0.024291834 -0.029720478 -0.007733856 0.042910274 0.025084509 0.015220106 -0.024620598 0.028887402
0.00952659 0.0034869676 -0.026106544 0.020124936 -0.0012032548 0.012096881 -0.0238716 -0.015330361
0.056712236 0.036369927 0.0013300305 0.009424993 -0.009347287 0.025212556 -0.034377646 0.015367033
-0.011900037 -0.021625211 -0.02237558 -0.031000165 -0.01696197 0.019582646 -0.001301173 -0.027748745
-0.024893826 -0.025601288 0.018385502 0.03737531 -0.04268063 0.0170553 -0.020225853 -0.0051231836
-0.017670533 0.0062477225 0.037185267 -0.0074069127 -0.04921144 -0.0075037233 -0.0566946 0.035518937
-0.030697417 -0.033205166 -0.023480417 -0.035171337 -0.03318359 -0.012463222 -0.017464476 -0.051717956
-0.008634599 -0.004315752 -0.026296059 -0.03624667 -0.005246849 0.030438473 -0.044564325 -0.015186243

bias f4 [128]
00000000: bf85 853c e4dd 213d ef3f 2f3c b073 c23c
00000010: 8482 f03c f878 b63c efe7 e7bb 7dc0 bd3b
00000020: 82ca ff3c f937 a43c cc8b fdbc a7be 9eb9
00000030: 6170 50bd 749d 39bd 54fa 35ba 728b 013c
00000040: baa5 4c3d 82cf e83c 222a 78bc 1ec0 dabc
00000050: fa87 e0bc 3957 843c 0e57 8fbc 4926 8cba
00000060: 47f7 983a 5b06 0b3d 7a16 76bc 7f1c f33c
00000070: 24cc 143d eb14 26bd 13f4 253d 8261 9ebc
00000080: e43e a3bb 672d df3c d15b d3bb ecca 523c
00000090: 7b2b dfba ae9b 873c dfbc 6f3b 6437 a93c
000000a0: 220a 1b3d a2bb bc3a 11bc 23bd 560a 98bc
000000b0: 6c8b 1c3c ee15 103d 8bfc 96bc 9037 833c
000000c0: 8b6c 243d 6c6d 863c 8304 0dbd 3653 a4bc
000000d0: 4052 0fbc 9a75 c23b 0ce9 08bb 0a66 91bc
000000e0: e2ac dcbc 4d3b 203d a65e 023d 6840 103c
000000f0: 1f58 83bc a185 0dbd f9a6 273d 1e35 afbb
00000100: 8954 163d f116 89bc b419 c13c 9220 23bd
00000110: 2a0b ac3c 2831 58bb e0d1 62bb 869e 0f3d
00000120: d621 9c3b b182 29bd 0db1 023b 7015 393c
00000130: 726a bbbc 18eb 09bc 1f74 45bc 3f55 12bd
00000140: 3b79 4dbc 2196 03bc d134 00bc 81d6 063d
00000150: fa8e 13bd 9a31 123d 21b1 013d d82e d23b
00000160: c897 3ebc 2c14 0d3d 271b 013d 9b1f fdbc
00000170: fcdb 4cbc 037b afbc bf21 b1ba 2dc2 3aba
00000180: f456 acbc a126 1abc cb77 14bc 0933 73ba
00000190: 0ae7 c23c 5ea1 1bbd 621b 91ba 92e6 063d
000001a0: d209 8b3c 2b9b 73bc 44e9 153d a4a1 2dbd
000001b0: 7fe6 e23c 6cb8 87bb 15ea a53c 805d 1bbd
000001c0: baaf e53b 27b3 273c 8ab9 f7bc 7e8e bdbc
000001d0: 5cfe 173d cac7 333c ebc1 32bc a788 03bd
000001e0: 4273 893c 7cc0 293d 493d b63c 5338 2c3c
000001f0: 6838 0a3d 6816 7fbc 94b4 1e3d 3235 e9bc
0.016299127 0.039518252 0.010696395 0.023736805 0.02935911 0.02227448 -0.007077209 0.0057907687
0.031224493 0.020046221 -0.03095045 -0.00030278155 -0.050888423 -0.045316175 -0.0006941904 0.0079067815
0.049962737 0.02841926 -0.015146764 -0.026702937 -0.027408589 0.016154872 -0.017497566 -0.0010692562
0.0011670374 0.033941608 -0.015020007 0.029676674 0.036327496 -0.040547293 0.04051597 -0.019333605
-0.0049818624 0.02724333 -0.0064501544 0.012865763 -0.0017026508 0.016553726 0.0036581082 0.020656295
0.03785146 0.0014399181 -0.039974276 -0.018559616 0.009554725 0.035177164 -0.018430969 0.016017705
0.040142577 0.016409598 -0.03442813 -0.02005921 -0.008747637 0.0059344294 -0.002089086 -0.017748851
-0.026937906 0.039119054 0.031828545 0.008804418 -0.01603323 -0.034551267 0.040930722 -0.0053469082
0.036701713 -0.016734572 0.023571827 -0.039825983 0.021001417 -0.0032988284 -0.0034609959 0.03506329
0.0047647757 -0.041384403 0.0019941956 0.011296615 -0.022877906 -0.008417867 -0.012051611 -0.03572583
-0.012541111 -0.008031399 -0.007825092 0.03291941 -0.036025025 0.035691835 0.031663064 0.0064142756
-0.011632867 0.034443066 0.031520035 -0.03089886 -0.01250362 -0.021420961 -0.0013514085 -0.00071242714
-0.021037556 -0.009408624 -0.009061764 -0.0009277319 0.023791809 -0.03799569 -0.0011070783 0.032934733
0.016972456 -0.014868538 0.036599413 -0.04239048 0.0276978 -0.004141858 0.02025322 -0.037930965
0.0070094736 0.010235584 -0.03023984 -0.023139235 0.03710781 0.010972926 -0.010910491 -0.032112744
0.016778592 0.041443333 0.02224602 0.010511476 0.0337452 -0.015569307 0.03874643 -0.028467748

weight f4 [128, 128]
00000000: 3ab6 57bd f219 d93b b786 5e3d 5bb7 903d
00000010: 0726 053d 90cb b0bb dc9c 6e3d 139f ab3d
00000020: 54ad 35bd 7659 7f3d c6d2 093d dcba 2d3b
00000030: 59d5 953d 09a3 9d3c 87af 283c b666 60bd
00000040: e70e 58bc b400 a43d 1ea4 283d 888e cfbc
00000050: 32ca a73c a34f 9cbd d7ab 553d 73ee 8b3d
00000060: 33ee 923d 386e b1bd 96c8 66bc 6f75 99bc
00000070: 573f 5ebd c643 6bbd e414 123d 215a 9a3d
00000080: 1ad5 6fbd 4687 653d ede9 b73c 0147 883d
00000090: 068d 353d cfba 7dbd 4dc3 ad3d efe5 36bc
000000a0: fb82 48bd 01fe e1bc b484 ecbc 933f 27bd
000000b0: fe0b 7bbc 6fd8 39bd 79e9 803d 8348 3bbc
000000c0: 1c21 3cbc e636 84bd 10e4 fd3c 12a5 223d
000000d0: 82b3 acbd 42ab 0fbc 57ea ef3c 05f6 37bd
000000e0: 999f 93bd 0b0e 33bc a53b e23c a153 0c3d
000000f0: fd2b 82bc 6c87 e93c 30eb f7bc d455 253d
00000100: a247 b5bc 207a 233d 7a23 abbd ef56 54bd
00000110: 6f5e e0bc e2ac d8ba be84 a53b 7c10 b1bd
00000120: 11c2 98bd e139 073d 5fba 13bd 062e 823d
00000130: 6381 4dbd 61b7 353d a4ae 87bd da14 b73c
00000140: 2550 aabd c968 8a3c 0159 633d 115f 00bd
00000150: ba8f adbd f411 8fbd aa69 87bd d00d 463c
00000160: 3e56 9abd 830e 91bd 28a6 5a3a 942c 2e3d
00000170: 2d07 9abd 75fa 86bd 6b63 2b3d 9f1c 19bd
00000180: 0dc9 a1bd 9f35 543d 45e7 503c 3946 7ebd
00000190: b466 2fbd 9957 b0bd cf0f ecbc a1f3 e43c
000001a0: ac74 e23c 0f01 8dbc 34c9 d2bc 02ca b8bc
000001b0: 465e 9b3d f798 ff3c 2544 c63c 1474 ed3c
000001c0: d664 3f3c 999f c4bc 5894 4bbd b1b0 823a
000001d0: e9d7 63bd 49f8 ac3d 36a9 46bd 4c5c 72bd
000001e0: 5e57 acbd ab6f 533d 2ecc 753d 27c5 c3bc
000001f0: faad 86bd 8668 713d ccce 59bd dcf1 423d
00000200: f810 923d 3caa 273d 5456 cb3c 2bb1 a7bd
00000210: 0af3 d13c eb57 07bc 2e3f 953d 175e 7b3c
00000220: 9d97 4f3d 71f2 77bd fffa 823d 4469 d9bc
00000230: 5871 a2bd 03af e53c 7284 3cbd d877 90bd
00000240: 2c4c 6d3d affa c7bc 0d3c b13d 8b59 f5bb
00000250: 6271 84bd 24ae f73c a13c 0ebd 95a1 4e3d
00000260: 9550 bb3c 6de6 043d c1c2 0dbb c24d 0ebc
00000270: 2987 9cbd 4ec1 9abd eb58 f3ba bfa6 103c
00000280: 9aea a43d 43d5 21bd 0418 8bbd 195a c53c
00000290: 5560 743d 31a3 6bbd eb53 923c b412 c9bc
000002a0: ef7c ae3d 3520 50bc e0d7 57bc 0313 93bc
000002b0: 0c4d d7bb 79f7 413d 5978 abbd 8f86 16bc
000002c0: 323d 803b bbf4 b0bc 2d6c 0a3d 1ffd 99bd
000002d0: 7c59 9cbd 8690 a13d fe11 9d3c 6115 373d
000002e0: cad8 78bd 3f07 c93b 058a b6bc 3209 9fbd
000002f0: 8671 283c bdcb 7a3d 4d64 12bd 1d73 8d3d
00000300: d88a 023c 720b a23d 09b6 2e3d b4d3 cfbc
00000310: e5d2 593c 75cd a23c 3a2d a5bd 02ab 653c
00000320: bb76 3f3d 0cfe 393d 7bbd ab3d 2674 e83c
00000330: 8d31 893d fe44 0fbd 9ad1 9fbd e697 8f3d
00000340: cdc9 193d de25 46bc 0087 40bd dc32 d43c
00000350: 7ad5 d6bc f29a d23c ec19 5d3d 00d6 aabb
00000360: bac0 5bbd af48 8f3d b8bd 883d 723a 50bd
00000370: 3414 91bc bf19 abbd 4e0e a33d b246 683c
00000380: 1d30 973d 64a1 783d 6683 97bd 68f8 673d
00000390: 3454 87bd 07d2 93bd 2171 963d 836d 4b3d
000003a0: d4e6 30bd b757 5b3c dac7 43bc 6bf6 c1bc
000003b0: 2e30 a43c d53b f5bc 541b a4bd f44f 01bd
000003c0: dde4 abbd 55f7 19bd f171 84bd 7563 133d
000003d0: 0f65 5d3b cfa7 56bd 3d69 bf3c 5209 423c
000003e0: 6e97 0fbd b1ad 5a3c 4de7 b4bc 4f9e 2c3d
000003f0: 051c 9c3c 9688 04bd eb27 c43c 1b7f 5e3d
-0.05266402 0.0066254074 0.054327693 0.07066222 0.03250697 -0.0053953603 0.05825506 0.083799504
-0.04435475 0.062341176 0.033648275 0.0026509082 0.073160835 0.01924278 0.010295755 -0.054785453
-0.013187147 0.080079466 0.04117214 -0.025336519 0.020482156 -0.07632377 0.052165832 0.0683259
0.07174339 -0.08663601 -0.014085909 -0.018732755 -0.054259624 -0.05743768 0.035664454 0.07536722
-0.05855284 0.05603721 0.022450412 0.06654168 0.044323944 -0.061945733 0.08484516 -0.011163219
-0.048953038 -0.027586939 -0.028871872 -0.040832113 -0.015322683 -0.045372423 0.062945314 -0.011430862
-0.011482503 -0.064557835 0.030992538 0.039708205 -0.08432676 -0.008768858 0.029286547 -0.044912357
-0.07208175 -0.010928641 0.027616331 0.034259442 -0.015890116 0.028506957 -0.030263513 0.040365055
-0.022128884 0.03991139 -0.08356376 -0.05184072 -0.02738878 -0.0016531015 0.0050512245 -0.08645722
-0.0745889 0.033014182 -0.03606641 0.063564345 -0.05017222 0.044364337 -0.06625107 0.02234881
-0.083160676 0.016895669 0.055504803 -0.031340662 -0.08474679 -0.06985846 -0.06611951 0.012088254
-0.07535981 -0.07082846 0.0008340799 0.04252298 -0.075209 -0.0659074 0.04184286 -0.03738081
-0.078996755 0.05180895 0.012750451 -0.06207869 -0.042822555 -0.08610458 -0.028816132 0.027948203
0.027643524 -0.017212419 -0.025730707 -0.022557262 0.075863406 0.031200869 0.024202416 0.028986014
0.011681756 -0.024001883 -0.04970202 0.0009970871 -0.05562583 0.08445794 -0.048501216 -0.059170052
-0.084151015 0.051620167 0.060009174 -0.02389772 -0.06576152 0.058937572 -0.053175732 0.047593936
0.07132143 0.040933833 0.024821438 -0.08188089 0.025628585 -0.008260707 0.07287441 0.015342257
0.0506817 -0.060533945 0.0639553 -0.026539452 -0.07931775 0.028037554 -0.046024747 -0.070541084
0.05793397 -0.024411527 0.08654032 -0.007487481 -0.064669386 0.030234404 -0.03472579 0.050447065
0.022865573 0.032446314 -0.0021630975 -0.008685531 -0.07642967 -0.07556401 -0.0018565928 0.008828818
0.08052559 -0.039510023 -0.0679169 0.024090813 0.059662182 -0.05752868 0.01786228 -0.024545051
0.08519923 -0.012702991 -0.013174027 -0.017953401 -0.006570464 0.04735515 -0.08372564 -0.009187355
0.003913545 -0.021601072 0.03379457 -0.07518982 -0.07634255 0.07888894 0.019173618 0.044698123
-0.06075362 0.006134897 -0.02228261 -0.07765426 0.010280972 0.061229456 -0.035740186 0.06906722
0.007967673 0.07912339 0.04265407 -0.025369503 0.01329491 0.01987336 -0.08065267 0.014017822
0.04674409 0.045408294 0.0838575 0.028375696 0.06698904 -0.034977905 -0.0780365 0.07011394
0.037545968 -0.012093989 -0.047003746 0.025903158 -0.02622484 0.02570865 0.0539798 -0.005213499
-0.053650595 0.06996285 0.06676811 -0.050836988 -0.017709829 -0.0835452 0.07961713 0.014177011
0.07382224 0.06070079 -0.07398109 0.056633383 -0.06607857 -0.07217794 0.073457964 0.049664985
-0.043188885 0.013387612 -0.011949504 -0.023677072 0.020042505 -0.029935757 -0.08013025 -0.03157039
-0.083932616 -0.03758939 -0.06467045 0.03598352 0.003378216 -0.05240613 0.023365611 0.011843042
-0.035056524 0.013347075 -0.022082949 0.042143162 0.01905633 -0.03235682 0.023944816 0.054320436

bias f4 [128]
00000000: 40be 0b3c 97d3 94bd 3443 27bd 3e8b a1bd
00000010: 534b af3d 7495 44bd 0be1 27bb be35 8f3d
00000020: aa1e ffbc 9547 15bd f4a5 5e3d 6dda 8cbc
00000030: 3739 2fbd 8632 2dbd 4ca4 fc3c 0c6c 84bd
00000040: bcfb 26bc 3859 11bc 9f6e 84bc b931 c0ba
00000050: 8a0b af3d 30a8 353c 32e8 3e3d 1f8d db3d
00000060: 1bca 1c3d f3a3 163d 6098 3abd 56a8 6cbd
00000070: f232 7dbd d12f 6a3c 44a9 98bd 05b5 93bd
00000080: fec8 58bd e0d0 b2bc 217d 39bd eea9 8cbd
00000090: 1ae2 163d 5ab6 c73a cb03 7fbc 6877 5d3c
000000a0: 4d02 6c3d 84d6 95bc 9baf aebd 5cad 0abd
000000b0: 0659 323d c3ad f6bc 8a50 36bb 07a4 8cbb
000000c0: 3fb0 8ebd 6407 39bc 6ea4 70bd 07ef 40bd
000000d0: c7e5 123d 19ea 9f3d 1806 86bd 7cf2 263d
000000e0: c723 b8bd efa8 b3ba 65cb c03c fa2d 78bd
000000f0: c2a3 0f3d 827f 0d3d a5e1 04bd ede2 b03d
00000100: 61c7 0dbd 535d 69bd b78f 6cbd 58c1 293c
00000110: 9f25 92bd f209 3cbd e8e0 ce3c 157b 863c
00000120: 1cb9 8038 f31e a73d d2e9 803c 2f72 913d
00000130: ef1e 843d 21bd adbd f62c 8bbd 44a4 363d
00000140: 768c 313d 3e48 27bd c6ff 7ebd fa0d 923d
00000150: dbe9 b43d d248 003d 8537 60bd 7bb9 5e3d
00000160: 06d5 303d 2967 eb3c a2fc 92bc e3e0 acbc
00000170: 595e 6e3d b0b4 833d de04 2dbc f8bc d83c
00000180: c5bd 1a3d ba43 423c 1c56 0c3d de72 8abd
00000190: 3192 50bc 1939 7a3d d51a 813c ff80 a83d
000001a0: c229 d33c cd33 97bc d41e fa3c 39da a73d
000001b0: 93c6 81bc e627 5dbc 3d6f 82bd 2fb4 36bd
000001c0: ca56 50bd 6c89 5bbb 2b12 67bd 62d9 8c3d
000001d0: fce8 893d 673c a83d f932 83bd 83f0 9ebd
000001e0: 9f3d 223d 6b27 a3bd 536e 9bbd 3728 993d
000001f0: 55e8 11bd b5e6 7abd 2c0f aabd c016 7c3c
0.008529246 -0.0726692 -0.040835574 -0.078878865 0.08559289 -0.047994092 -0.0025616314 0.069926724
-0.031142551 -0.03644522 0.054357484 -0.017193997 -0.042779174 -0.04228451 0.030840062 -0.06465921
-0.010191854 -0.008871369 -0.01616603 -0.0014663256 0.08547123 0.011087462 0.046608157 0.10720276
0.03827868 0.036777448 -0.045555472 -0.057777725 -0.061816163 0.014293627 -0.0745416 -0.07212261
-0.052926056 -0.021828115 -0.045285348 -0.06868349 0.03683672 0.001523684 -0.015564869 0.013517238
0.05761938 -0.018290766 -0.08529588 -0.033856735 0.04354193 -0.030112153 -0.0027819 -0.0042920145
-0.0696721 -0.011293266 -0.058750562 -0.047102954 0.035863664 0.078083225 -0.06544131 0.040758595
-0.08991199 -0.0013706962 0.023534486 -0.06059072 0.03506828 0.03454543 -0.032441754 0.08637033
-0.03461397 -0.056973767 -0.057754245 0.010361038 -0.07136082 -0.045907922 0.025253728 0.016416112
6.137995e-05 0.081602 0.015736494 0.07101857 0.064512126 -0.08483339 -0.06795685 0.04459025
0.043346845 -0.04084038 -0.062255643 0.07131572 0.08833667 0.031319447 -0.054740448 0.054376107
0.043171905 0.028735714 -0.01794273 -0.021103328 0.058195446 0.06430948 -0.010560242 0.026457295
0.037778635 0.011856968 0.034261808 -0.067601904 -0.012730167 0.06108961 0.015759865 0.08227729
0.025776748 -0.018457318 0.030532278 0.081959195 -0.015841758 -0.013498282 -0.06368873 -0.04460543
-0.05086402 -0.0033498658 -0.05641381 0.068774 0.06733891 0.08214646 -0.06406207 -0.07760718
0.039609548 -0.07966503 -0.07589402 0.074783735 -0.03562196 -0.061255176 -0.08303675 0.015386283

weight f4 [2, 128]
00000000: d3f7 82bd 79a9 923d 546e 75bd adde 5e3d
00000010: 0db7 32ba d628 943c 61f8 453d 26e5 9dbd
00000020: c7dc c2bc 090e 4bbc fb1f 3a3d a8b8 573d
00000030: f825 9cbd 8079 05be 6147 bdba c76c a13d
00000040: 6eaa 97bd ea0f b63d 2c26 39bd f98f 52bd
00000050: 17ca 8bbd 823c 71bd a66d a13d 9af3 683e
00000060: 34d8 1c3d 15d3 5cbd 6684 df3c 9889 0b3c
00000070: b4cb 63bd 594e f63d d151 de3d 365c 3a3d
00000080: 5142 71bd 7405 a1bc 696f d43c 2732 99bc
00000090: eefd b93d 751e a13d ef6b 943d 661d 463d
000000a0: a40d adbd f0e0 9cbb c564 88bd 457f 86bd
000000b0: a20c 6b3c cc96 b93d b7e1 f1bc a9bd a03d
000000c0: 33e4 04bd a671 a53d 9eab e83c feae 47bc
000000d0: e43a 103d 96fa 553b 7b72 a2bd 9b22 383d
000000e0: 0f9b b8bd a693 09bd 89d6 0a3d 7fb8 b0bd
000000f0: b93b 1b3e b552 443e a439 5b3b 9641 32bd
00000100: 89ce b33c 228d 823d e7e4 4bbd a070 a13d
00000110: 52ea 033e 9fa2 8d3d 813c 803d 85b7 d7ba
00000120: 6f83 193e fc3c b53d 1d70 953c 5635 f2bc
00000130: fdac 153e 7bd9 00be 97c6 103d c4ec b13b
00000140: b297 fd3b b250 80bd b6c2 bebd 0f29 9b3d
00000150: 6096 f23c cf60 9cbd b3cb 57bd 6b39 6ebe
00000160: af29 8b3d f6a5 aabc d7a4 043d 3fea ab3d
00000170: c168 8ebc 281b 1b3d 9e56 debd c5d2 b0bd
00000180: 7687 e9bd 12b5 513d ae76 3e3d a0ab fb3d
00000190: 47d2 743c bd35 113e d335 953c c8ee 953d
000001a0: bf10 86be e524 b6bc d641 85bd b09e 053d
000001b0: 7d2a 68bd 88da e7bc ee0e 81bd 3cc2 933c
000001c0: 44c3 59bd 677d a4bc a778 25be 80af 02be
000001d0: 82cd 62bc 8fe4 fc3d 14ab 3f3c 7015 66be
000001e0: c8cf 37be 907f c4bc 8294 533d 5daf 673d
000001f0: 0bcd 80bd d175 993c b44f 06bc 8da5 823d
00000200: 1d5f febc a4ba 6bbb 00c7 d4bb 4563 503d
00000210: 8aeb 84bd a9c6 36bd fc7e b33d b7fa dcbc
00000220: 605c 9f3d 5f39 17bd de69 1cbe 834c 79bd
00000230: 8071 863d a370 193e 69c9 a4bd 15b7 0dbd
00000240: a008 683d fb40 04be 66fa 9c3d d896 973d
00000250: 2c0a 2ebc 5c43 f23c 8657 39bc 9bb8 5abe
00000260: 7cec afbd 64fa 193b b895 aabd ef5f 143d
00000270: 5eb9 a7bd 1c6d e1bd 4048 19be 6505 40ba
00000280: d8e1 783d 2af5 1b3d e49a 903d 9f14 90bd
00000290: c447 a8bd 30d3 913d f986 31bd 4443 0abd
000002a0: 6493 d43c 3c54 8e3c eb63 bd3d 82ea 193d
000002b0: 6f0e b1bd e2f1 6f3c d6c9 37bd 7cb7 94bd
000002c0: 9066 853c 4bf2 40bd 2c8d adbd b0d8 38bd
000002d0: 9d01 a73c ce06 183d cc14 2e3d 4e74 acbd
000002e0: 7682 0b3e 1677 adbd dde2 1f3c 93fc 76bd
000002f0: a72a fcbd b943 2fbe 6594 51bd 10d4 633d
00000300: 6e31 55bd 355e a73d 1804 ecbc 9b8e cebd
00000310: d2e4 85bd 1dd5 e4bd d0bd 4d3d c7e5 67bd
00000320: 4e18 12be 51b5 fb3c 2127 03bd d10d eabc
00000330: e99e 68bc 3bc9 983d 2d48 ad3d 509f d2bd
00000340: 30e4 d9bd d214 2d3d 5194 c53d 2ceb 07bd
00000350: 5e97 f4bb 362b 2b3d 9e76 acbd 1537 663e
00000360: aa28 473d f8ff aebd c82d b6bd a5aa 5d3d
00000370: 6ae8 853c 8789 a4bc 5d88 0abd 8043 bfbc
00000380: 592d e23d f051 47bd fa52 9a3d 842f d4bc
00000390: a295 833c 8a88 c2bd c0e6 753d 38f3 213c
000003a0: 1e9b 8a3e bb12 a53d 02fc 803c 24da 61bd
000003b0: 460d 6f3d c586 953d 95d1 99bd 8466 8d3c
000003c0: 3812 4bbd 965c 613d fe8c 1e3e 8746 a83d
000003d0: 86c1 013e 07ab a0bd 4cf3 d23d dd0e 833e
000003e0: 9bd5 bd3d 742e d9bd 9c6d da3c f285 a83d
000003f0: 79e3 033e 701c 14bc 1a62 2dbd 576a 16bd
-0.06394925 0.071612306 -0.05991967 0.05441158 -0.0006817438 0.018085878 0.048332576 -0.07709722
-0.023786915 -0.012393483 0.045440655 0.052666336 -0.076244295 -0.1303463 -0.0014440828 0.07882076
-0.07405554 0.08889754 -0.04520242 -0.051406834 -0.06825655 -0.058895595 0.07882242 0.22749177
0.038292125 -0.05391224 0.027284812 0.008516692 -0.05561419 0.120266624 0.10855449 0.045498095
-0.058901135 -0.01965592 0.02593203 -0.018700672 0.09081636 0.07867137 0.07247149 0.04836788
-0.08449867 -0.004787557 -0.06659845 -0.065672435 0.014346274 0.09061965 -0.029526575 0.07848675
-0.03244419 0.08078317 0.028402146 -0.0121877175 0.035212412 0.0032650582 -0.07931992 0.044954877
-0.0901395 -0.033588074 0.033896003 -0.0862894 0.15159501 0.19172175 0.0033451105 -0.04351958
0.02194907 0.06374575 -0.049778845 0.0788281 0.12882355 0.06915783 0.0626154 -0.0016457891
0.14991544 0.088495225 0.018241936 -0.029566448 0.14616771 -0.12582962 0.03534564 0.005429836
0.0077390308 -0.062653914 -0.09314482 0.07576191 0.02961272 -0.07635652 -0.052684497 -0.2326409
0.0679506 -0.02083109 0.032383766 0.08394288 -0.017383935 0.037867695 -0.10856365 -0.08633951
-0.1140279 0.051198073 0.0464999 0.12288594 0.014942712 0.14180656 0.018214142 0.073209345
-0.2618465 -0.02223439 -0.06506698 0.03262204 -0.056681145 -0.028302446 -0.06301676 0.018036954
-0.053164735 -0.020079328 -0.16159306 -0.1276226 -0.013842942 0.123482816 0.011698503 -0.22469115
-0.17950356 -0.023986608 0.0516553 0.056563724 -0.06289109 0.018732937 -0.008197714 0.063792326
-0.031051213 -0.00359694 -0.006493449 0.05087592 -0.06490238 -0.04462305 0.08764455 -0.026975019
0.07781291 -0.036919948 -0.1527476 -0.060863983 0.06564617 0.14984374 -0.080462284 -0.03459843
0.05664885 -0.12915413 0.07664947 0.07401818 -0.010622542 0.029573135 -0.011312371 -0.21359484
-0.08590028 0.0023495192 -0.08329338 0.036224302 -0.08189653 -0.11007139 -0.14968967 -0.00073250226
0.060762256 0.038075604 0.07060793 -0.07035183 -0.08216813 0.07120359 -0.04334161 -0.033755556
0.025949188 0.01737415 0.092475735 0.03757716 -0.08645331 0.014645072 -0.04487022 -0.07261559
0.016284257 -0.04710607 -0.08474192 -0.045128524 0.020386511 0.037115864 0.042500302 -0.08420621
0.13623986 -0.084699795 0.009758678 -0.060299467 -0.12312823 -0.17115678 -0.05116691 0.05562216
-0.052049093 0.081722654 -0.028810546 -0.100857936 -0.06537785 -0.11173461 0.050229847 -0.056615617
-0.14267084 0.030726107 -0.032019738 -0.028571041 -0.014198043 0.07460257 0.08461032 -0.10284293
-0.106392264 0.042256184 0.0964743 -0.03318326 -0.0074643334 0.041789256 -0.08421062 0.2248195
0.048622765 -0.08544916 -0.08895451 0.054117817 0.016346175 -0.02008511 -0.033821452 -0.023347616
0.11043806 -0.048662126 0.07535358 -0.025901563 0.016062561 -0.09498699 0.060034513 0.009884648
0.2707147 0.08060213 0.015745167 -0.055139676 0.058362268 0.07301096 -0.07510678 0.017260797
-0.04957792 0.055019937 0.15483472 0.08216577 0.1267148 -0.07845121 0.103003114 0.25597277
0.09269258 -0.10604563 0.026663594 0.08228673 0.12879743 -0.009039983 -0.042329885 -0.036722507

bias f4 [2]
00000000: 087c 2d3e 8156 9639
0.16941845 0.0002867468
