graph2vec_optimization/model/60_mlp_graph2vec_opt_1.pt (torch_old, 382907 bytes, 6 tensors)

weight f4 [128, 600]
0	0xbcd28b92	-0.025701318
1	0x3c68374b	0.014173339
2	0xbbd7b03b	-0.0065822876
3	0x3c6dfc00	0.0145254135
4	0x3ce6bbc2	0.028165702
5	0xbc2f9698	-0.010717057
6	0xbc4a2716	-0.01233842
7	0xbc835ed4	-0.016036429
8	0xbcaabee3	-0.020842975
9	0xbcf2e61b	-0.029650738
10	0x3cb8f564	0.022577949
11	0xbcc879bb	-0.024472108
12	0xbce993b6	-0.028512817
13	0x3ca4cf7a	0.020118464
14	0x3ce10022	0.027465884
15	0xbc866554	-0.016405739
16	0xbceab3da	-0.028650213
17	0x378c79ad	1.674596e-05
18	0x3d1b92bf	0.037981745
19	0xbcd88aed	-0.026433432
20	0xbc9a39ab	-0.018826326
21	0xbc954800	-0.018222809
22	0x3d18a76e	0.03726905
23	0xbb71afea	-0.0036878535
24	0x3c3623d8	0.011116944
25	0xbcf9b216	-0.030480426
26	0x3d1b90ff	0.037980076
27	0xbcd91e9e	-0.026503857
28	0x3c71eaee	0.014765484
29	0x3cad806c	0.0211794
30	0x3d427c24	0.04748167
31	0x3c6e3fd2	0.014541583
32	0xbcdee6ed	-0.027209723
33	0x3ca71466	0.020395469
34	0x3cd32ab7	0.025777204
35	0x3d08c811	0.033393923
36	0xbd218b77	-0.039439645
37	0xbcd81ab9	-0.02637993
38	0x3b70e0a8	0.0036755
39	0xbc584cbf	-0.013201891
40	0xbc131b12	-0.008978622
41	0x3d2b1e48	0.041776925
42	0xbd137cd5	-0.03600772
43	0xbcaef583	-0.021357303
44	0x3c5791ac	0.0131572895
45	0x3c2121ef	0.009834751
46	0x3bc78d9d	0.0060898797
47	0x3a7ebd91	0.00097175787
48	0xbc9754b4	-0.018473007
49	0xbbe4cd06	-0.0069824485
50	0x3d2ffaf1	0.042963926
51	0x396246e4	0.00021579448
52	0xbd2f6e99	-0.042830084
53	0x3c5b9767	0.013402796
54	0x3cf29732	0.029613111
55	0xbcc129cc	-0.0235795
56	0xbc394e8b	-0.01131023
57	0xbcfd3211	-0.030907663
58	0x3d193f54	0.03741391
59	0xbd2bd9cb	-0.04195575
60	0xbd2a3d5e	-0.04156243
61	0x3ce067b9	0.027393209
62	0xbb3528f8	-0.0027642827
63	0x3d008888	0.031380206
64	0xbc94a7d4	-0.018146433
65	0xbc9170bd	-0.017753953
66	0xbc243b8a	-0.010023961
67	0xbc90120b	-0.017586729
68	0xbb84f53d	-0.004057555
69	0xbc91ab8d	-0.017781997
70	0xbd15afdb	-0.036544662
71	0xbcdadf52	-0.026717816
72	0x3c7f5f23	0.015586647
73	0xbd1205ef	-0.03565019
74	0xbb055632	-0.0020345566
75	0xbc04e994	-0.00811233
76	0xbcefa98d	-0.029255653
77	0x3d121d4c	0.03567247
78	0xbc95a137	-0.01826535
79	0x3a7b7dcd	0.0009593636
80	0xbc118632	-0.008882092
81	0x3cd214ea	0.025644738
82	0x3c67159e	0.014104275
83	0xbcb71ab0	-0.022351593
84	0x3cb63f6f	0.022247044
85	0xbd2982f9	-0.04138467
86	0xbcf3972a	-0.029735167
87	0xbc8c4e6c	-0.017127238
88	0x3cf08b50	0.029363304
89	0x3d2481c1	0.040162805
90	0x3d23d345	0.039996404
91	0xbd20c799	-0.03925285
92	0xbbadf7c2	-0.005309076
93	0xbbae0887	-0.005311075
94	0xbd3883c3	-0.045047533
95	0xbc7b350b	-0.015332471
96	0xbd0b8398	-0.034061044
97	0x3d08c27c	0.0333886
98	0xbd0d70d6	-0.034531437
99	0x3d29d05a	0.041458465
100	0xbbb464a9	-0.0055051637
101	0xbced8f45	-0.02899898
102	0xbc5a0a98	-0.01330819
103	0x3b807d2f	0.003921173
104	0x3b0435fa	0.0020173774
105	0x3d2a3fe0	0.041564822
106	0x3c990eb7	0.018683774
107	0xbcb939c7	-0.022610558
108	0xb9dfebf1	-0.00042709665
109	0xbd08a73b	-0.03336261
110	0x3d033b00	0.03203869
111	0x3ce7a3b9	0.028276311
112	0x3d113eb5	0.035460193
113	0xbca66535	-0.020311931
114	0xbc5673a7	-0.013089097
115	0xbc07c810	-0.008287445
116	0x3d0f7fe7	0.035034087
117	0xbcff5a6a	-0.031171042
118	0x3b932fa6	0.004491764
119	0x3ca50df8	0.020148262
120	0xbca09a06	-0.019604694
121	0xbab88208	-0.0014076838
122	0xbba72cc7	-0.0051017734
123	0x3babd4ef	0.0052438895
124	0xbcd5082c	-0.026004873
125	0x3d09e9ac	0.033670112
126	0x3cc552fa	0.024087418
127	0xb9b5070f	-0.0003452827
128	0xbcbcf1b4	-0.023064472
129	0xbc480927	-0.012209213
130	0xbcf81cb1	-0.030287119
131	0x3b9d5db7	0.0048024314
132	0x3ccfd876	0.025371771
133	0x3d1af1f3	0.037828397
134	0x3ccd8b3d	0.025090808
135	0x3b49e7c4	0.003080831
136	0xbb47d99c	-0.0030494696
137	0x3c464a47	0.01210267
138	0xbd06fbfd	-0.03295516
139	0xbcdbc7a3	-0.026828593
140	0xbc2209cb	-0.00989003
141	0x3cd076d1	0.025447281
142	0x3c9112a8	0.017709091
143	0x3d1ab8ec	0.03777401
144	0x3c0d7049	0.008632728
145	0x3c299378	0.010350101
146	0xbcae7a20	-0.021298468
147	0xbcebc859	-0.028782057
148	0xbc22e17c	-0.009941455
149	0xbcc474fd	-0.023981566
150	0x3c68725a	0.01418742
151	0x3cd673fd	0.026178354
152	0xbd00f32b	-0.031481903
153	0xbc82f290	-0.015984803
154	0xbcd6b196	-0.026207726
155	0x3ccd38d0	0.025051504
156	0xbb84eddc	-0.0040566754
157	0xbc7d7f2a	-0.015472213
158	0xbd19e35d	-0.037570346
159	0xbd418d39	-0.04725382
160	0x3cac34d1	0.021021279
161	0xbd0d6ebe	-0.03452944
162	0xbc8ff031	-0.017570587
163	0xbce5f21d	-0.02806955
164	0x3d1ba70d	0.03800111
165	0x3cb7aa87	0.022420181
166	0x3c057a25	0.008146797
167	0x3c6a6abb	0.014307673
168	0x3c0a9c2e	0.008460088
169	0xbc95e0b4	-0.018295623
170	0x3bbeec03	0.0058264746
171	0x3cf42b46	0.02980579
172	0x3cc6759e	0.024226006
173	0xbc64dfd5	-0.013969381
174	0xbd24aa42	-0.040201433
175	0x3d19107f	0.037369248
176	0xbce10f96	-0.027473252
177	0x3ccc5e7d	0.0249474
178	0x3be840a4	0.007087784
179	0x3cd8e2db	0.02647536
180	0x3aa800a1	0.001281757
181	0xbbf10e33	-0.007356429
182	0x3cdb13b2	0.02674279
183	0x3c9780c6	0.018494021
184	0xbd187cd0	-0.037228405
185	0x3cb5327d	0.022118801
186	0x3d3ca011	0.04605109
187	0xb7de28b2	-2.6483413e-05
188	0xbcb3a95c	-0.021931343
189	0xbcbcd965	-0.02305288
190	0x3d0db155	0.034592945
191	0x3cf40fcc	0.029792689
192	0x3ccf7510	0.025324374
193	0x3c7525cc	0.014962625
194	0xbccd69e0	-0.0250749
195	0x3cb8f363	0.022576993
196	0x3c330219	0.010925793
197	0xbd2d9a6a	-0.04238359
198	0x3cbd0f4a	0.02307858
199	0x3bc5e1f1	0.006038897
200	0x3ba01331	0.0048851003
201	0x3c6bfce6	0.014403557
202	0x3c2f3024	0.01069263
203	0x3ca0cbb7	0.019628389
204	0x3ce9d07f	0.028541801
205	0xbc4aa323	-0.012367996
206	0x3ccb3c11	0.024808915
207	0x3ce1f3d2	0.027582083
208	0xbc961adc	-0.018323354
209	0xbc155882	-0.00911534
210	0x3c198d00	0.009371996
211	0x3c01bd0d	0.007918608
212	0x3ca67b28	0.020322397
213	0xbb40e818	-0.0029435214
214	0x3d350f64	0.04420413
215	0x3c9a4f5d	0.018836671
216	0xbc065714	-0.008199472
217	0xbb33fc9a	-0.0027463795
218	0x3cbedf28	0.023299769
219	0xbc513089	-0.012767919
220	0x3c224a7c	0.009905454
221	0x3d0847ca	0.03327159
222	0xbd3fce88	-0.046827823
223	0xbc1345a9	-0.008988776
224	0x3c9168b8	0.01775013
225	0x3d0f71ca	0.035020627
226	0xbd2a3faa	-0.04156462
227	0x3d1820f7	0.037140813
228	0xbcf6c5c7	-0.030123604
229	0x3cee14e5	0.029062698
230	0x3c22629a	0.009911204
231	0x3c085a72	0.008322345
232	0xbc95a0d7	-0.018265171
233	0xbc796bbb	-0.015223439
234	0xbc86c590	-0.016451627
235	0xbcf8c1ef	-0.030365912
236	0xbc80adfa	-0.015707958
237	0x3d1746b0	0.036932647
238	0xbcae2e62	-0.021262351
239	0xbcd3546b	-0.02579709
240	0x3d0839e3	0.03325833
241	0xbd107970	-0.03527206
242	0x3c2d35ca	0.010571906
243	0xbc82bc8e	-0.01595905
244	0xbcfacb3d	-0.03061449
245	0xbb162cad	-0.0022914812
246	0xbc5b28c0	-0.013376415
247	0xbce0eb38	-0.027455911
248	0xbb794fc4	-0.0038041929
249	0x3c896633	0.016772365
250	0xbcc0f8f6	-0.023556214
251	0x3c913a5c	0.017728023
252	0xbcb03afa	-0.021512497
253	0xbcbcdeb7	-0.023055417
254	0x3ce8938a	0.028390665
255	0x3ca2c51d	0.019869382

bias f4 [128]
0	0xbcc72158	-0.024307892
1	0x3c8f71fd	0.017510409
2	0x3ca54c32	0.020177934
3	0x3bc4d4fd	0.0060068355
4	0x3d209cfc	0.039212212
5	0x3c93ebdf	0.018056808
6	0xbc5de413	-0.013543147
7	0xbd5646f6	-0.052313767
8	0xbc9befe6	-0.01903529
9	0x3c7e5660	0.015523523
10	0xbd6cd9d0	-0.05782491
11	0xbd38a4c2	-0.045079
12	0xbc33d303	-0.010975602
13	0xbd09f048	-0.033676416
14	0xbc4e92c9	-0.0126082385
15	0x3d0b7d43	0.034055006
16	0xbca56121	-0.020187916
17	0x3d1ceae9	0.038309965
18	0xbbc4a20f	-0.006000764
19	0xbcb57ae2	-0.022153322
20	0xbcd55047	-0.026039256
21	0xbc3f7596	-0.0116857495
22	0x3c1eab54	0.0096844025
23	0x3c8a3758	0.016872093
24	0xbca6fbe8	-0.02038379
25	0xbc03ec2a	-0.008051911
26	0xbc97b13c	-0.01851713
27	0xbb7e75c8	-0.0038827527
28	0xbb737560	-0.0037148818
29	0xbaf26b28	-0.001849507
30	0x3c88b3a6	0.016687226
31	0xbcd9bc79	-0.026579129
32	0x3cd03965	0.025417993
33	0xbc05e0ad	-0.008171243
34	0xbd217014	-0.039413527
35	0xbc19a5d0	-0.009377912
36	0xbc589a4d	-0.013220382
37	0x3cd5f090	0.026115686
38	0x3c2112cd	0.009831143
39	0x3b78338a	0.0037872517
40	0x3d08624c	0.03329687
41	0x3d08eabc	0.033426985
42	0xbc53e16e	-0.012932165
43	0x3d16f871	0.036858026
44	0xbc6acfdd	-0.014331785
45	0x3af211c7	0.0018468433
46	0xbc8bc95e	-0.017063793
47	0x3d1b6903	0.037941944
48	0x3c138109	0.009002932
49	0x3c8d44d2	0.01724473
50	0x3cc7ac63	0.024374193
51	0xbcc0a9a0	-0.023518384
52	0x3cf93403	0.030420309
53	0x3d087d3b	0.033322554
54	0xbcca980b	-0.024730703
55	0x3cd40ba0	0.02588445
56	0xbd271f82	-0.040801533
57	0xbce933d3	-0.028467095
58	0xbd0aa479	-0.03384826
59	0x3ce74c26	0.028234553
60	0x3beba25c	0.0071909856
61	0xbcebf104	-0.028801449
62	0x3ced258b	0.028948566
63	0x3c09794c	0.008390736
64	0xbd11d97b	-0.035607796
65	0xbcc823a8	-0.024431065
66	0x3c94ff71	0.01818821
67	0x3c6f6ae7	0.01461289
68	0x3cb7bce1	0.022428932
69	0x3c2e0d0b	0.010623227
70	0xbc6f6cee	-0.014613373
71	0xbd141855	-0.036156017
72	0x3ce9afc0	0.028526187
73	0xbcb6d573	-0.022318577
74	0x3cac1dc0	0.02101028
75	0x3d0e9a43	0.034815084
76	0xbca86d24	-0.020559855
77	0xbcba9b08	-0.022779003
78	0x3bc03c9e	0.005866601
79	0x3c0fe3bb	0.0087823225
80	0x3ced2551	0.028948458
81	0x3d146e9a	0.03623829
82	0xbc0b1285	-0.008488302
83	0xbca90a14	-0.020634688
84	0x3ce47372	0.02788708
85	0xbd0f8a9a	-0.03504429
86	0x3cd133ad	0.025537336
87	0x3bee2f51	0.007268824
88	0x3c5b5b74	0.013388503
89	0x3bd4417f	0.0064775343
90	0xb98d17aa	-0.00026911247
91	0xbd1557cd	-0.036460686
92	0x3cac9d7f	0.021071194
93	0x3c5b74cc	0.013394546
94	0x39a20c5e	0.00030908262
95	0xbd244cae	-0.04011219
96	0x3c9f4783	0.01944328
97	0x3d1d22e9	0.03836337
98	0x3d1a36af	0.037649807
99	0x3cecb288	0.028893724
100	0xbc2abcb8	-0.010420971
101	0xbc2d9c20	-0.010596305
102	0xbcb0520f	-0.021523504
103	0x3cc7f634	0.024409391
104	0x3c9bfbcb	0.019040963
105	0xbbf9c3d4	-0.0076222215
106	0x3ceabd65	0.028654763
107	0xbc720a59	-0.014772975
108	0x3bde9b3d	0.006793408
109	0x3c355e41	0.011069835
110	0x3d0ea7ba	0.034827925
111	0xbcf51dbe	-0.029921409
112	0x3c5a4bda	0.0133237485
113	0xbc792530	-0.01520662
114	0x3c7dd804	0.015493397
115	0x3cbcf5ef	0.023066489
116	0xbaa7e2e7	-0.0012808711
117	0x3ccb6627	0.024828983
118	0x3c85ca17	0.016331716
119	0xbcb8117c	-0.022469275
120	0xbc6a68d5	-0.0143072205
121	0x3cfbd5b3	0.030741548
122	0x3a0e24cd	0.0005422354
123	0xbcf59b41	-0.029981257
124	0xbca1da9d	-0.019757563
125	0xbcd1b03c	-0.02559673
126	0xbcc64e63	-0.0242073
127	0x3d1e1090	0.038590014

weight f4 [128, 128]
0	0xbdb73c53	-0.08947053
1	0x3d538377	0.051639047
2	0xbce975ba	-0.02849852
3	0x3cd33d2c	0.025786005
4	0x3da61634	0.08109704
5	0x3ce4ae7f	0.027915237
6	0x3cace7f9	0.021106707
7	0xbcfed56e	-0.03110763
8	0x3d97fd4d	0.0742136
9	0xbd033ad4	-0.032038525
10	0x3ad37a68	0.0016134502
11	0x3da8193f	0.0820794
12	0x3dadfc67	0.084954076
13	0x3d466448	0.04843548
14	0xbcfa9fdd	-0.030593807
15	0x3d8e5e32	0.0695156
16	0xbdab8112	-0.083742276
17	0xbdb46917	-0.08809107
18	0x3d1eb45f	0.038746234
19	0xbd3fd2a7	-0.046831753
20	0xbc924938	-0.017857179
21	0x3da14c38	0.07875866
22	0xbcb189cb	-0.02167215
23	0xbda5f55e	-0.08103441
24	0xbb991e3e	-0.0046727946
25	0x3d24f1e3	0.040269744
26	0x3d9c3ada	0.076284125
27	0xbdadcc2a	-0.08486207
28	0x3ce2e0aa	0.027695019
29	0x3db17793	0.08665385
30	0xbca705fa	-0.020388592
31	0x3d3f2588	0.046666652
32	0xbdb131e9	-0.08652098
33	0xbcdb9249	-0.026803153
34	0xbd5d89ad	-0.054086376
35	0xbca8a5e8	-0.020586923
36	0x3ca79561	0.020456972
37	0x3d381cd3	0.044949364
38	0xbdac6025	-0.084167756
39	0x3d2e522f	0.042558845
40	0x3d88f0ba	0.0668654
41	0x3da25208	0.079258025
42	0xbaf1358f	-0.0018402803
43	0xbd12487f	-0.03571367
44	0xb72152cf	-9.615628e-06
45	0xbd5487b2	-0.05188722
46	0x3d6c48da	0.057686664
47	0x3d28a468	0.041172415
48	0x3d9aca58	0.07558125
49	0xbd6b4ee1	-0.05744827
50	0x3d27cacf	0.040964898
51	0xbd2152d8	-0.039385647
52	0x3ae67ff0	0.0017585736
53	0x3ccc7a3f	0.024960635
54	0xbcfd1bb1	-0.030896993
55	0x3d664b72	0.056224294
56	0x3d3e0b96	0.046397768
57	0xbd6587ff	-0.0560379
58	0x3d4d9671	0.0501923
59	0xbc835254	-0.016030468
60	0x3d4b5a4f	0.04964667
61	0x3d89e30f	0.06732761
62	0x3d239181	0.039933685
63	0xbd562142	-0.05227781
64	0xbdb97386	-0.090552375
65	0x37fae021	2.990669e-05
66	0xbcd0fe58	-0.025511906
67	0xbc622ef0	-0.013805136
68	0xbc2df7d5	-0.01061817
69	0x3d0bc78c	0.03412585
70	0xbb27e75e	-0.0025620083
71	0x3d5ed7ed	0.05440514
72	0xbd16b99d	-0.03679811
73	0xbd4bd9df	-0.049768325
74	0xbd15442f	-0.036441978
75	0x3d666475	0.056248147
76	0xbdc4b314	-0.09604469
77	0xbd6c637d	-0.057712067
78	0xbd487e78	-0.048948735
79	0x3da1be6c	0.07897648
80	0x3d67e6e5	0.056616683
81	0x3d9a7224	0.07541302
82	0x3c493207	0.012279994
83	0x3d36d508	0.044636756
84	0xbd39b313	-0.045336794
85	0x3d7247a2	0.059150346
86	0xbcf7efc6	-0.0302657
87	0x3b9835b6	0.0046450747
88	0x3da9bc07	0.082878165
89	0x3d9326f8	0.07185167
90	0xbda58895	-0.080826916
91	0xbcf567c5	-0.029956708
92	0x3d4a2a9b	0.049357038
93	0xbb9ae19c	-0.0047266018
94	0xbda69fe6	-0.08135967
95	0xbd092f5c	-0.03349243
96	0xbda7a7ec	-0.081863254
97	0x3c4c1ebb	0.012458499
98	0x3d405362	0.04695452
99	0xbd9bf390	-0.07614815
100	0xbda0f2bb	-0.07858797
101	0xbd91e897	-0.07124441
102	0x3c71f669	0.014768221
103	0xbd6f5d62	-0.058438666
104	0x3d99f36c	0.07517132
105	0x3d6170da	0.055039264
106	0x3d99a4c6	0.07502131
107	0x3d2039b8	0.039117545
108	0xbd94b281	-0.072606094
109	0x3d575a03	0.052576076
110	0xbda1ad78	-0.07894415
111	0x3da1592b	0.078783356
112	0xbd252b0c	-0.040324256
113	0x3cc13372	0.023584101
114	0x3da68d8e	0.08132468
115	0x3d6e9b97	0.05825385
116	0xbd1fdf32	-0.039031215
117	0xbd827ba7	-0.06371241
118	0x3d358a52	0.044321366
119	0xbcc06092	-0.023483548
120	0xbc972a37	-0.018452747
121	0x3da76f74	0.08175555
122	0xbd69b885	-0.057060737
123	0x3d391614	0.04518707
124	0xbda46e7b	-0.08028885
125	0x3ce51fa8	0.027969196
126	0x3dae2cb1	0.08504618
127	0x3d6d7d66	0.057980917
128	0x3c57e312	0.013176696
129	0x3c7dfbcf	0.01550193
130	0x3c6a4b00	0.014300108
131	0x3ba351d4	0.00498412
132	0xbbf46583	-0.00745839
133	0x3d8388ac	0.064225525
134	0x3dafe7e7	0.08589154
135	0xbd2c2ff3	-0.042037915
136	0xbd477e6c	-0.04870455
137	0xbcbc6583	-0.022997623
138	0x3cc93f20	0.024566233
139	0xbd979904	-0.07402232
140	0xbb40100d	-0.0029306442
141	0x3d8bb67a	0.06821914
142	0xbd01aba6	-0.031657837
143	0x3d11394f	0.035455044
144	0xbc0d242f	-0.008614584
145	0xbdb42252	-0.087956086
146	0xbd7251e5	-0.059160132
147	0x3c122b08	0.008921392
148	0x3d85817a	0.06518836
149	0xbda23578	-0.079203546
150	0xbd655004	-0.055984512
151	0xbdaf8206	-0.08569722
152	0xbda33244	-0.07968572
153	0x3be6c1cb	0.007042145
154	0x3d9fc931	0.07802046
155	0xbd6f4982	-0.058419712
156	0x3d84d731	0.06486357
157	0x3d74a07e	0.05972337
158	0xbd8d3e4c	-0.06896648
159	0xbd1b0f89	-0.037856612
160	0x3c7a3cd5	0.015273293
161	0x3d054ffb	0.03254698
162	0xbcdf68e6	-0.0272717
163	0xbd616436	-0.05502721
164	0x3dad0d73	0.08449831
165	0xbd964ced	-0.07338891
166	0xbd87bf81	-0.06628323
167	0x3cb494e6	0.022043657
168	0xbcfe63c0	-0.031053424
169	0xbd8e4df4	-0.06948462
170	0x3c3ed58e	0.011647595
171	0xbd3cbe4b	-0.046079915
172	0xbd8abe54	-0.067745835
173	0xbdae5fdb	-0.08514377
174	0x3d73338a	0.059375323
175	0x3d0d9373	0.034564447
176	0x3db2229d	0.08698008
177	0x3b855410	0.004068859
178	0x3db0cea0	0.086331606
179	0x3d1f47ab	0.038886707
180	0x3d3a266f	0.04544681
181	0x3da77231	0.08176077
182	0x3d80866a	0.062756374
183	0xbd400dcf	-0.04688817
184	0x3d20b4c1	0.03923488
185	0xbd7c6510	-0.06161982
186	0x3bb79350	0.005602278
187	0x3d8ee430	0.06977117
188	0xbda09482	-0.078408256
189	0xbd3eca6d	-0.046579767
190	0xbda0a853	-0.07844605
191	0xbd36b00c	-0.044601485
192	0xbda29dfe	-0.07940291
193	0x3dac9c31	0.08428229
194	0xbd508015	-0.0509034
195	0x3d23ee33	0.040022086
196	0x3acd4d76	0.0015663344
197	0xbc887cd5	-0.016661087
198	0xbd03470b	-0.032050174
199	0x3be58780	0.0070046782
200	0xbc97b5a8	-0.018519238
201	0x3c849f4b	0.016189238
202	0xbc2f1e68	-0.010688402
203	0x3db069e9	0.08613951
204	0xbd96f4a6	-0.07370882
205	0xbd3c964e	-0.04604178
206	0xbd19e4d3	-0.03757174
207	0x3d37fc51	0.044918362
208	0xbce4da85	-0.02793623
209	0x3d05899a	0.03260193
210	0x3d18f6e8	0.037344843
211	0x3cd5f00c	0.02611544
212	0xbdade3a9	-0.08490688
213	0x3c3032f8	0.010754339
214	0xbd25224f	-0.040315922
215	0x3d78bb6a	0.060725607
216	0xbd9f271f	-0.07771134
217	0xbc160b50	-0.009157971
218	0xbd075927	-0.033044007
219	0x3cc5c732	0.024142835
220	0xbc7b4755	-0.015336831
221	0x3da697e7	0.08134442
222	0x3d41053b	0.04712413
223	0xbd9650e7	-0.0733965
224	0x3db3df82	0.08782865
225	0x3d96e594	0.07368007
226	0xbb60bf24	-0.0034293616
227	0x3b620c49	0.0034492186
228	0x3c827e8c	0.015929483
229	0xbd9f2469	-0.077706166
230	0xbdaf5e69	-0.08562929
231	0xbd5dcdc6	-0.05415132
232	0x3dadc339	0.084845014
233	0x3d523800	0.051322937
234	0x3ca6ce06	0.020361912
235	0xba332faa	-0.00068354106
236	0xbc2373d5	-0.009976347
237	0xbd3145fa	-0.043279625
238	0x3d77e347	0.060519483
239	0x3d4f48cb	0.05060653
240	0xbd73c7ab	-0.05951659
241	0xbd968eec	-0.07351479
242	0xbd0ac6fc	-0.033881173
243	0x3d85eb43	0.06539013
244	0x3d3dbb92	0.04632146
245	0xbd6b05c8	-0.05737856
246	0xbcd34a79	-0.025792347
247	0x3d5b76f3	0.053580236
248	0x3d0efbbd	0.034908045
249	0x3dadc7e5	0.084853925
250	0x3bebcf4d	0.007196343
251	0x3d5a7a80	0.05333948
252	0x3d018152	0.03161747
253	0x3d5b2822	0.05350507
254	0x3cb8e16b	0.022568425
255	0x3ca4b412	0.020105395

bias f4 [128]
0	0xbda621dc	-0.08111927
1	0xbd803ad1	-0.06261218
2	0x3b740bda	0.003723851
3	0x3d806b69	0.06270487
4	0xbd85aa60	-0.06526637
5	0x3c2af084	0.01043332
6	0x3d48bc06	0.049007438
7	0x3c41b610	0.011823192
8	0x3a77c506	0.0009451661
9	0x3c452cd0	0.01203461
10	0xbd8394af	-0.064248435
11	0xbdb03d95	-0.08605496
12	0x3d8be29d	0.068303324
13	0xbd3e96f6	-0.046530686
14	0xbc56cf89	-0.013111004
15	0xbd02b424	-0.031910077
16	0x3d017bc4	0.031612173
17	0xbd09cfc1	-0.033645395
18	0xbd9bb8e2	-0.07603623
19	0xbda0c725	-0.07850484
20	0xbd75e316	-0.06003102
21	0x3d47ba33	0.048761558
22	0xb993f7b1	-0.0002822257
23	0x3b7070cb	0.0036688324
24	0x3da0e059	0.07855291
25	0x3d82b652	0.06382431
26	0xbcb60f09	-0.022223966
27	0xbd962937	-0.0733208
28	0x3d9b0dc3	0.07570984
29	0xbd24bc0e	-0.040218405
30	0xbd97f928	-0.0742057
31	0xbcf6de93	-0.030135429
32	0xbd995d3c	-0.07488486
33	0x3d0aecd8	0.033917278
34	0x3cab779f	0.020931063
35	0xbdad3a9e	-0.08458446
36	0x3ba8aa7c	0.0051472764
37	0x3c8f778a	0.017513055
38	0xbd134c1b	-0.03596125
39	0xbbb0e5f7	-0.0053985077
40	0x3d13eb62	0.03611315
41	0xbdb680a5	-0.08911256
42	0xbca4c8cc	-0.020115279
43	0xbd070939	-0.03296778
44	0x3bb7d0b3	0.0056095957
45	0x3cb21d56	0.021742504
46	0xbdc8edc3	-0.098109744
47	0x3d3da50d	0.046299983
48	0x3be879de	0.007094606
49	0x3d8ec3b7	0.069709234
50	0xbd14e95d	-0.036355365
51	0xbd95bdb4	-0.073115736
52	0x3d9b82c6	0.075933024
53	0xbcc34c86	-0.0238402
54	0xbd2c73c4	-0.04210259
55	0x3d06f18a	0.032945193
56	0x3db1a243	0.08673527
57	0xbd538298	-0.051638216
58	0x3d21a626	0.039465092
59	0x3d1e51b5	0.03865214
60	0x3d9c59f1	0.076343425
61	0x3ced9c38	0.029005155
62	0xbc4fbf15	-0.012679835
63	0xbc52edd8	-0.012874089
64	0xbd74e2a4	-0.059786454
65	0x3c0e0245	0.008667533
66	0xbce6665c	-0.02812498
67	0xbce69a80	-0.028149843
68	0x3d790302	0.060793884
69	0x3d6f1ca8	0.058376938
70	0xbcedb457	-0.029016657
71	0x3d59b820	0.05315411
72	0x3d5227e9	0.051307593
73	0xbbb5f733	-0.00555315
74	0x3db4c9ec	0.08827576
75	0xbd8ef990	-0.06981194
76	0x3d967603	0.07346728
77	0x3c57f729	0.013181486
78	0xbd3cee3c	-0.046125636
79	0xbd3f489f	-0.046700116
80	0xbd8f4d91	-0.069972165
81	0xbd3547e6	-0.04425802
82	0x3d0dd464	0.03462638
83	0xbd4d5b2e	-0.050135784
84	0x3d32162b	0.043478172
85	0xbcbb38b9	-0.022854196
86	0x3d5c8b7a	0.053843953
87	0x3da156f1	0.07877911
88	0xbc6fd792	-0.014638798
89	0xbd7ab8bb	-0.06121133
90	0x3d8256c9	0.06364209
91	0xbc836dce	-0.01604357
92	0xbcd50a8f	-0.026006011
93	0xbd3f8285	-0.046755332
94	0x3ca34df3	0.01993463
95	0xbd43a24d	-0.047762204
96	0x3d57344a	0.0525401
97	0x3d5a8493	0.05334909
98	0x3cc9a91d	0.024616772
99	0x3d690949	0.05689362
100	0xbdaa2911	-0.08308614
101	0x3d938df6	0.07204811
102	0x3d21b3ae	0.039477997
103	0x3b80fea5	0.003936606
104	0xbc4b9179	-0.01242482
105	0x3d4afad9	0.049555633
106	0xbb1bb4cb	-0.0023758884
107	0x3d92b05b	0.071625434
108	0x3d93a8d1	0.072099335
109	0x3d73dd5c	0.059537277
110	0x3bd88d82	0.006608666
111	0x3b8f3a3b	0.0043709553
112	0xbd8a48f9	-0.067522
113	0x3d99f8bc	0.075181454
114	0x3d15210e	0.036408477
115	0x3d4661c8	0.048433095
116	0x3c94dbfb	0.018171301
117	0x3d80a0e5	0.06280688
118	0x3cb08c3e	0.021551248
119	0x3dac957c	0.084269494
120	0x3d7bce08	0.061475784
121	0x3dddfd45	0.10839323
122	0x3d8ac30a	0.06775482
123	0x3d9065e3	0.07050683
124	0xbccd606f	-0.025070397
125	0x3d000cfb	0.03126238
126	0xbcb389fc	-0.021916382
127	0xbaee33ca	-0.0018173393

weight f4 [2, 128]
0	0x3d3d1594	0.046163157
1	0xbd599829	-0.053123627
2	0x3d1889ca	0.03724078
3	0x3d53588e	0.051598124
4	0xbd402d0b	-0.046917956
5	0x3c20698d	0.00979079
6	0x3c295e4a	0.010337422
7	0x3d49dcae	0.049282722
8	0xbd02fade	-0.031977527
9	0x3d0702b8	0.032961577
10	0x3be0cac9	0.0068601114
11	0x3da62220	0.081119776
12	0x3ca24f8e	0.019813325
13	0x3dbdbaba	0.09264131
14	0xbd32ae60	-0.04362333
15	0x3c85c962	0.016331378
16	0x3e041cf8	0.12901676
17	0x3d41735a	0.04722915
18	0xbdd3f6c9	-0.10349805
19	0x3c4c9eb8	0.012489013
20	0xbe08c14c	-0.13354987
21	0x3d9a13f9	0.07523341
22	0xbdaddd61	-0.0848949
23	0x3d24be80	0.040220737
24	0x3b898c10	0.004197605
25	0xbb5823d7	-0.0032980347
26	0x3d1fe9f9	0.039041493
27	0x3d5117ce	0.051048093
28	0xbd2e5bb8	-0.04256794
29	0xbd86c008	-0.06579596
30	0x3d914a80	0.07094288
31	0x3d892c82	0.06697942
32	0x3d9bc0cd	0.07605133
33	0xbd9d805e	-0.076905
34	0x3dd6d659	0.10490102
35	0xbd31cb66	-0.043406866
36	0xbd56eea8	-0.052473694
37	0xbe22a185	-0.15881927
38	0xbd1990b8	-0.03749153
39	0xbccba903	-0.024860865
40	0xbe1a6dde	-0.15080974
41	0xbdc4492e	-0.095842704
42	0x3dbca615	0.09211365
43	0xbe1a1a2a	-0.15049043
44	0xbd12da40	-0.03585267
45	0xbd014918	-0.03156385
46	0xbe27d099	-0.16388167
47	0xbd8e8e34	-0.06960717
48	0xbe34ae3a	-0.17644587
49	0x3e2bf2dd	0.16791864
50	0x3d614444	0.054996744
51	0x3d41d25a	0.047319748
52	0xbd67e527	-0.05661502
53	0xbc0c462c	-0.008561652
54	0xbd4513b1	-0.048114482
55	0x3d7709f5	0.06031223
56	0x3cad8c2b	0.021185001
57	0xbcd6dfd4	-0.026229776
58	0x3dda45a7	0.106578164
59	0x3d8eb0ab	0.069672905
60	0x3d1695f2	0.036764093
61	0xbdb73190	-0.08945
62	0xbd47d707	-0.04878905
63	0xbd6e35d8	-0.05815682
64	0xbe00d860	-0.1258254
65	0x3c8cb52c	0.017176233
66	0x3c64f3db	0.013974155
67	0xbe0fb6a7	-0.1403452
68	0xbcd6503a	-0.026161302
69	0x3d69548c	0.056965396
70	0xbc3c5576	-0.011494985
71	0xbcf0e3cb	-0.029405495
72	0x3c712f76	0.014720788
73	0xbd8d1dbb	-0.06890436
74	0x3c621b9c	0.013800528
75	0x3d90b116	0.070650265
76	0xbd5dd49c	-0.05415784
77	0x3d3ea320	0.046542287
78	0x3c454918	0.012041353
79	0xbdd35ed8	-0.103208244
80	0xbd24f0cc	-0.040268704
81	0x3cef27b0	0.02919373
82	0xbd9f06fd	-0.07765005
83	0xbd8a5f99	-0.06756515
84	0xbcf22f18	-0.029563472
85	0xbce9722c	-0.028496824
86	0xbd190df7	-0.037366834
87	0xbdb359fb	-0.08757397
88	0xbd8ad5aa	-0.067790344
89	0x3c95725a	0.018243004
90	0xbda4347d	-0.08017824
91	0x3d913083	0.07089331
92	0xbda40252	-0.08008255
93	0x3c99a0d6	0.01875345
94	0xbd33a025	-0.043853898
95	0x3c327b07	0.01089359
96	0xbb8b35d2	-0.0042483592
97	0x3e14d22d	0.145333
98	0x3daaa8fe	0.08333014
99	0xbc9426bb	-0.018084874
100	0xbe30370e	-0.17208502
101	0xbd64340b	-0.055713695
102	0xbcf9828c	-0.030457757
103	0xbd37eb9a	-0.04490242
104	0xbd4648b4	-0.04840918
105	0xbe3e70bc	-0.18597692
106	0x3e1bc472	0.15211657
107	0x3c000a73	0.007814991
108	0x3df088a6	0.117448136
109	0xbd854621	-0.06507517
110	0x3e3bd6f1	0.18343712
111	0xbd909b82	-0.07060911
112	0xbd87bc6d	-0.06627736
113	0x3d87afeb	0.066253506
114	0x3d996b0d	0.074911214
115	0xbda22687	-0.07917505
116	0x3da836f8	0.082136095
117	0x3c06a5b2	0.008218216
118	0x3d709f62	0.05874575
119	0x3d24adbf	0.04020476
120	0xbdce9313	-0.10086646
121	0x3e63e02f	0.22253488
122	0x3e11d885	0.14242752
123	0xbd0bdb42	-0.034144647
124	0xbbc64e3a	-0.006051806
125	0xbcfe7ce4	-0.031065412
126	0x3e0a5348	0.13508332
127	0x3d284e04	0.041090026
128	0xbc861d8b	-0.016371509
129	0xbd33c50e	-0.043889098
130	0xbde91ac2	-0.11382057
131	0x3d36c18e	0.044618182
132	0x3d9efe6d	0.077633716
133	0x3c934589	0.017977493
134	0xbd161f6b	-0.036651056
135	0x3cc89677	0.02448581
136	0xbdae2b4b	-0.08504351
137	0xbd3b09c7	-0.04566362
138	0x3d05ae99	0.032637212
139	0x3d982164	0.07428244
140	0xbcd36cec	-0.025808774
141	0xbc879b38	-0.016553506
142	0x3c768490	0.015046254
143	0xbd667b13	-0.056269716
144	0xbdd0d00b	-0.10195931
145	0xbd4df798	-0.050284952
146	0x3d9d25a3	0.07673194
147	0x3d1bf19b	0.03807221
148	0x3e32bcbd	0.1745481
149	0x3d3fbc7f	0.046810623
150	0x3d99bf6e	0.075072154
151	0xbca1a16b	-0.01973029
152	0xbdaa3dae	-0.08312546
153	0xbd9a73b2	-0.075415984
154	0xbc00ac58	-0.00785359
155	0x3d02f3db	0.03197084
156	0xbaefe720	-0.0018303134
157	0xbc85cd29	-0.01633318
158	0xbdf92115	-0.12164513
159	0xbda9872b	-0.08277734
160	0xbc57e120	-0.013176233
161	0x3d0e7560	0.034779906
162	0xbdb920f5	-0.09039489
163	0x3da5460b	0.0807
164	0x3d0d933d	0.034564245
165	0x3dc5e2ed	0.09662423
166	0x3d63ed96	0.0556465
167	0xbda6eeb0	-0.08150995
168	0x3e0f801c	0.14013714
169	0x3e008cba	0.12553683
170	0x3ba9c5e7	0.0051810625
171	0x3e05baca	0.13059536
172	0x3e1d9c6a	0.15391698
173	0x3de1bf9b	0.11022874
174	0x3e38974a	0.18026462
175	0xbdb3aabd	-0.087728
176	0x3e3a22cb	0.18177335
177	0xbe317599	-0.17330016
178	0x3d05ee24	0.03269781
179	0xbccacd38	-0.024756059
180	0x3de7932a	0.11307366
181	0x3cb82266	0.02247734
182	0x3a9aa45f	0.0011798254
183	0x3d6f82c2	0.05847431
184	0xbd521028	-0.05128494
185	0xbdb14db8	-0.08657402
186	0x3bd22557	0.0064131427
187	0xbc528714	-0.012849588
188	0x3c6b4f88	0.014362223
189	0xbd9677c2	-0.07347061
190	0x3da29696	0.07938878
191	0xbd4b3dbd	-0.049619425
192	0x3dacd035	0.0843815
193	0x3dc3d027	0.09561186
194	0x3d7ae498	0.06125316
195	0x3d61bbd9	0.055110786
196	0xbcb69573	-0.02228806
197	0x3db83d54	0.089960724
198	0xbe0531ef	-0.1300733
199	0x3e06ecef	0.1317632
200	0x3d617b58	0.05504927
201	0x3bb0978b	0.005389159
202	0x3d2c15e5	0.042013068
203	0x3d8ff295	0.07028691
204	0x3df92e42	0.12167026
205	0xbdbc2ea2	-0.09188582
206	0xbbfdc5b0	-0.0077445135
207	0x3d81a0cd	0.063294984
208	0x3c5620b7	0.013069323
209	0xbd72b420	-0.05925381
210	0xbcccbf00	-0.02499342
211	0xbba3cd60	-0.004998848
212	0x3d4e889b	0.050423246
213	0xbd4412f0	-0.047869623
214	0x3d06d595	0.03291853
215	0x3c2eb2f6	0.010662785
216	0x3d85c2d4	0.06531301
217	0x3da743cc	0.08167228
218	0x3dec129c	0.11526987
219	0xbe3ea15a	-0.18616238
220	0x3e1b693f	0.15176867
221	0xbb4b5729	-0.0031027293
222	0xbc80a8b1	-0.015705438
223	0xbdb9134a	-0.09036882
224	0x3d27bb2d	0.04094999
225	0xbdcdbdde	-0.1004598
226	0x3d428ca1	0.047497395
227	0xbbddf7e5	-0.006773936
228	0x3e532139	0.20618142
229	0x3d9b65ff	0.075878136
230	0x3d78c23e	0.06073212
231	0xbd5b2360	-0.053500533
232	0x3d91db85	0.07121948
233	0x3e5570d7	0.20843826
234	0xbe4311fc	-0.19049829
235	0x3b6de25b	0.0036298248
236	0xbd347ef5	-0.04406639
237	0x3cb1770d	0.021663213
238	0xbe300fe0	-0.17193556
239	0x3bf27f63	0.0074004396
240	0x3d917ca6	0.07103853
241	0x3db3a445	0.08771566
242	0x3d045f41	0.032317404
243	0x3ddfd151	0.10928596
244	0x3da79260	0.08182216
245	0x3dd9a7a2	0.106276765
246	0x3d4fcfa4	0.05073513
247	0x3d879704	0.06620601
248	0x3cf3cd94	0.029761113
249	0xbe48a9f9	-0.1959609
250	0xbe40528b	-0.18781488
251	0x3d843a27	0.06456404
252	0x3d8d9b09	0.06914336
253	0x3de62a2b	0.11238512
254	0xbddf80df	-0.10913252
255	0x3da1fa8e	0.07909118

bias f4 [2]
0	0x3c8e5b9f	0.017377673
1	0xbddc954b	-0.10770663
