graph2vec_optimization/model/60_mlp_graph2vec_opt_5.pt (torch_old, 382907 bytes, 6 tensors)

weight f4 [128, 600]
000000 35 b4 8a bc b4 39 01 bc 49 49 e8 39 ad c4 e8 bc
       -0.016931633 -0.007887293 0.0004430509 -0.028414095
000010 11 ae fd 3c 1f 49 ba 3b 29 4c eb bc cd d0 77 bb
       0.03096679 0.0056849862 -0.02872284 -0.0037813664
000020 22 40 09 bd 1d a8 bc bc c9 25 8a bb f5 b0 48 3c
       -0.033508427 -0.023029381 -0.00421593 0.012249221
000030 11 39 1d bd 20 20 02 bd d9 20 bc bc 18 d8 1f ba
       -0.0383845 -0.031768918 -0.022964882 -0.0006097569
000040 7a 3d b3 3b 9d c2 80 3c 16 bb ba bc 97 68 2b bb
       0.005469975 0.015717799 -0.022794288 -0.002615487
000050 ee 07 31 bb 56 22 fd bb 11 d5 87 bc 5d 9e 0b bd
       -0.0027012783 -0.0077250404 -0.01658109 -0.034086574
000060 65 b9 39 3c d5 6a 4d bb f8 8b 05 3d 11 ff d4 3c
       0.011335705 -0.0031344194 0.032604188 0.026000531
000070 f1 3e e9 3b dd 7b c3 bc 6d bf be 3c 32 4f 6e 3c
       0.007118099 -0.023862774 0.023284638 0.014545249
000080 ad 13 b7 bc 77 fa b9 bb a7 cd 85 bc 53 da e7 bc
       -0.02234825 -0.0056756097 -0.016333414 -0.028302347
000090 dd 64 01 3d 5c e8 b1 bc e6 f3 a8 3c 52 d7 1f 3d
       0.03159033 -0.021717243 0.020624112 0.039023705
0000a0 db 32 b9 3c 1e 49 12 3d 78 9d 07 3d cf 93 0f bd
       0.022607258 0.03571426 0.03310916 -0.03505307
0000b0 3b ab 00 3d 3a 02 03 3c f0 79 6b bb 7c 99 bc 3c
       0.031413298 0.007996136 -0.0035930835 0.023022406
0000c0 2a f8 c6 3c d5 58 00 bd 5d f7 c5 bb 2d e9 1b bd
       0.024288256 -0.031334717 -0.006041451 -0.03806417
0000d0 da 38 e5 3c 92 c9 1e bd 78 90 a7 3c 1b da cc b9
       0.02798121 -0.03876645 0.02045463 -0.00039072413
0000e0 0d 21 02 bc b1 f4 30 3c 47 6a 0e bd 8c a9 dc bc
       -0.00794245 0.0108005265 -0.034769323 -0.026936315
0000f0 bc 1a c5 bb a3 70 80 bc 1f 32 a5 3c e3 a1 a4 bc
       -0.00601515 -0.01567871 0.020165501 -0.020096725
000100 c6 2c de bc 19 92 91 bc 3c 2b 1e 3d 20 b2 96 bc
       -0.027120959 -0.01776986 0.03861545 -0.018395483
000110 03 ca e7 bc 25 de 12 3d c7 37 52 3c c8 5e dc 3c
       -0.028294569 0.035856385 0.012830681 0.026900664
000120 ce 98 9c 3b 4b f8 06 3d 98 a0 10 bd 42 0d 6a 3c
       0.004778958 0.032951634 -0.035309404 0.0142853875
000130 2b 41 b2 3c 0d 61 05 bd 59 93 19 3d f5 e4 0e bd
       0.02175959 -0.032563258 0.037494037 -0.03488632
000140 18 89 1a 3c 63 07 ad 3b 7f be 78 3c c6 56 61 bc
       0.0094321 0.0052804216 0.015182137 -0.013753599
000150 ef e1 df 3c 21 a3 85 3b f1 47 15 bd 9d 9f ea bc
       0.027329413 0.0040782844 -0.03644556 -0.028640563
000160 aa b8 a8 bc 80 f7 9c 3c 29 41 1c bd 01 82 11 bd
       -0.020595867 0.019160986 -0.03814808 -0.035524372
000170 1f 7c 22 bd 25 f1 95 3c 1e 37 11 bb 1e 4c e5 3c
       -0.039669152 0.018303463 -0.0022158097 0.027990397
000180 50 03 58 3c 02 b3 0e 3d 4f ae 85 3c 93 25 04 3b
       0.0131843835 0.034838684 0.016318468 0.0020163998
000190 bc ef f3 bb 4b 42 c6 bb a0 9a 14 bd a5 89 d3 3c
       -0.00744435 -0.006050383 -0.036280274 0.02582247
0001a0 9d 55 19 3b b7 16 19 bb 42 23 05 bb ba 17 d4 bc
       0.0023396977 -0.0023359486 -0.0020315205 -0.02589022
0001b0 00 12 ea 3c f5 2d da 3c a2 67 01 bc a9 98 f4 bc
       0.028573036 0.026633242 -0.007898243 -0.02985795
0001c0 34 ab fd bc fd c6 f8 3c 1c 73 f4 bc 90 8b 70 bc
       -0.030965425 0.030368323 -0.029840045 -0.014681712
0001d0 51 a4 08 3d 7d c9 bb 3c be c8 70 3c 95 41 9f bc
       0.03335983 0.022923226 0.014696298 -0.019440452
0001e0 e9 fd 3a bd dc 34 10 bd 2c 2a c1 bb 1a dc 01 bb
       -0.045652304 -0.03520666 -0.00589492 -0.0019815029
0001f0 d8 2c 15 bd 9f c9 01 3b df c5 af bb 69 51 7f ba
       -0.03641972 0.0019804013 -0.0053641642 -0.0009739609
000200 b5 24 c1 3b 55 39 b0 bc 31 9a 26 bd 38 00 27 bc
       0.0058942684 -0.021511713 -0.040674392 -0.010192923
000210 4e db c5 bc 95 63 e6 3c d4 71 d0 bc 9f 5b e3 3c
       -0.024152424 0.028123656 -0.025444902 0.02775365
000220 99 2e 4a 3c d5 ad cb bc 02 26 8e 3c e9 f7 ea 3b
       0.012340211 -0.024863163 0.017352108 0.0071706665
000230 35 c8 ed 3b ee 5e 1b bd f6 e2 1d bc a2 05 e1 3c
       0.0072565326 -0.03793233 -0.009636631 0.027468506
000240 e3 2b 3b 3c 61 e5 f9 3c db 46 a7 3c 42 5f 07 bd
       0.011424038 0.030504884 0.020419529 -0.03304983
000250 51 28 0e bd 9b 60 b2 bc 6b 87 fd bc 06 56 c3 3c
       -0.034706417 -0.02177458 -0.030948361 0.02384473
000260 ce cd 90 3c 2a e1 44 bc 87 70 17 3a 34 dd 97 bb
       0.01767626 -0.012016574 0.0005776961 -0.0046345238
000270 ab 0a 10 bd ef 6c 39 bb ee f6 f2 3c 55 55 80 3c
       -0.035166424 -0.002829369 0.02965876 0.01566569
000280 56 51 21 bd 9f 47 d3 bc 07 87 6b 3c 7f 91 14 bc
       -0.03938421 -0.025790988 0.014375455 -0.009067892
000290 c7 f7 89 3c f0 92 33 bc 3e 68 2a 3a 5c f4 ba 3c
       0.016841782 -0.010960326 0.00065005186 0.022821598
0002a0 5c e4 49 3c 33 d5 86 3c ee c7 02 3c 61 df 3f 3c
       0.0123225115 0.016459083 0.007982237 0.0117109725
0002b0 d5 fd b2 37 ef 20 f6 bc 66 37 39 3d 43 6d a4 3c
       2.1337453e-05 -0.030045 0.045218848 0.020071631
0002c0 1c 65 8d bc 8c a4 d9 bc 76 32 fd bc a1 b6 b9 3c
       -0.017260127 -0.02656772 -0.03090785 0.022670092
0002d0 f0 71 26 3c 04 9c 87 bc f1 79 88 bc 1b 85 e0 3c
       0.010159001 -0.016553886 -0.016659709 0.02740722
0002e0 a4 51 a0 3c 81 c1 01 bd 6e ee b4 bc da 33 54 bc
       0.01957018 -0.03167868 -0.022086348 -0.0129518155
0002f0 d8 8a 16 bc 48 58 dd bc aa dc e3 3c c1 c8 a9 3c
       -0.009188376 -0.027019635 0.027815182 0.02072561
000300 5e 2b fb bc 7d df f3 3c 62 19 94 3c 91 6a 10 bd
       -0.030660328 0.029769653 0.01807851 -0.03525788
000310 6b e0 0c bb d8 04 20 3d 14 5b ab bc 76 96 7f 3c
       -0.0021496068 0.03906712 -0.020917453 0.0155998375
000320 60 3c 81 bc 37 19 92 3b dd e0 ff bc 1a 34 02 bc
       -0.01577586 0.0044585722 -0.031235153 -0.007946992
000330 6c c0 8b 3c 6f e7 8c bb bc d3 7b 3c 5c 6d 8d bc
       0.017059527 -0.00430005 0.015370306 -0.01726406
000340 17 a4 56 bb 5e 8e ec bb 0d d4 2c 3b 68 96 0e 3d
       -0.0032751614 -0.00721912 0.002637151 0.034811407
000350 57 20 31 3d db 58 a7 bc 73 bc 31 bc 5e 0e 2d 3b
       0.043243732 -0.020428112 -0.010848152 0.0026406269
000360 2e c8 37 3c 5b 17 44 bb cd 58 26 bd e8 9b 8d bc
       0.01121716 -0.0029921148 -0.04061203 -0.017286256
000370 46 c0 90 bb 3d 90 f6 3c 5c d9 0a bd 33 0a 91 bc
       -0.004417452 0.030098075 -0.033898696 -0.017705059
000380 3f 66 f2 3b 0b 7f 82 bc fb 4a ac bc 05 31 4c bc
       0.0073974426 -0.01592972 -0.021031847 -0.012462859
000390 d3 ca 13 bd c5 06 cb bb d2 0a 86 3c a9 c5 81 bc
       -0.0360821 -0.0061958754 0.016362581 -0.015841322
0003a0 c3 e9 f5 3c 4d 7b fe bc 33 c7 cc bc 0f 2d 82 ba
       0.030018693 -0.031064654 -0.02499733 -0.0009931641
0003b0 30 61 c9 ba 32 0c bc bc 07 ea d8 bc 06 2e 95 3c
       -0.0015364047 -0.022955034 -0.02647878 0.018210422
0003c0 18 a8 e1 bc 94 0b 30 bc fe 11 35 3d 60 15 99 bc
       -0.027545974 -0.010744948 0.04420661 -0.01868695
0003d0 54 a6 93 3c b4 d6 14 3d 6c 13 80 3c a6 af c3 3b
       0.018023647 0.03633757 0.015634261 0.0059718667
0003e0 91 84 3b 3c f7 f2 32 bd bc 92 de 3c 00 d0 28 3d
       0.0114451805 -0.04368874 0.027169578 0.04121399
0003f0 23 f0 d8 3c 23 69 10 bd 6d a8 18 3c 32 f0 de 3b
       0.026481694 -0.035256516 0.0093175 0.006803536

bias f4 [128]
000000 4a e7 17 bd 7d 5c 2a 3d 18 74 ff 3c 45 bb 10 3d
       -0.03708581 0.04159211 0.031183288 0.035334844
000010 5e 4d 90 3c 7b b9 7f 3c d3 d9 83 bc 76 7c c4 b9
       0.017615017 0.015608187 -0.016095078 -0.00037476764
000020 db de 7b 3c b6 ba 11 bd ae c1 1f bd 79 00 41 3c
       0.015372957 -0.035578452 -0.039003067 0.011779898
000030 2e e6 87 3c 62 e9 05 bb 00 2b 35 3b f7 31 26 bc
       0.01658925 -0.0020433296 0.0027644038 -0.0101437485
000040 b5 38 73 bc eb 73 cb 3c b4 30 f8 3c 69 f1 cb bc
       -0.014845063 0.024835547 0.030296661 -0.024895387
000050 4c 51 01 3d 41 a9 ea bc 5f e9 be bc da e7 ca bb
       0.03157167 -0.02864516 -0.02330464 -0.0061921896
000060 04 b5 fd 3c 9b 55 85 3c f0 e6 82 3c b8 89 bb 3c
       0.030970104 0.016276171 0.01597926 0.022892818
000070 a1 b2 b5 bb d7 c2 e4 bc 73 a6 2c 3c 7b 7b f4 bc
       -0.005544976 -0.027924938 0.010537731 -0.029844036
000080 e4 d3 cd 3c 2d 84 80 3c 9d 99 28 3d c2 20 09 bd
       0.025125451 0.015688026 0.041162122 -0.033478506
000090 ca 4e df bc f7 02 2e bb 6f e1 8e 3c 42 df 0d 3d
       -0.02725925 -0.002655206 0.01744148 0.034636743
0000a0 10 14 b7 bc bf f6 e3 3c db 35 20 bd 7a 7c bf bc
       -0.022348434 0.027827619 -0.03911386 -0.023374785
0000b0 71 64 76 3c 74 b0 c9 3c 52 4d e0 3c 40 51 81 3c
       0.015038596 0.024620272 0.02738062 0.015785813
0000c0 d1 a1 1f bc bd 63 d9 b9 3e 47 d2 bc 95 86 a7 bc
       -0.00974317 -0.00041463776 -0.025668737 -0.020449916
0000d0 dd cc 6d 3c 32 fc 5e bc 71 32 8a 3c 70 be 89 bc
       0.014514175 -0.013609933 0.016869755 -0.01681444
0000e0 7d 40 0a bd b3 6f 83 3c 3c 44 34 3c 8b 63 c1 bc
       -0.033752907 0.016044473 0.0110025965 -0.023607036
0000f0 53 21 f1 3c 9d 86 cf 3c 3f ed 1c 3d a6 ab 7f bb
       0.029434836 0.025332743 0.038312193 -0.0039012223
000100 0d 29 10 3d 80 c0 0b 3d 01 38 c0 bc 01 27 0a 3d
       0.0351954 0.03411913 -0.023464205 0.033728603
000110 69 87 fc bc e2 7c a6 3c 05 3b 49 bc 8d dc c6 3c
       -0.030826287 0.02032322 -0.012282138 0.024275089
000120 3a 8a d0 bc 4f e6 02 bd 6a f7 2a 3c b0 cf 3d 3c
       -0.025456537 -0.03195792 0.010434965 0.011585161
000130 84 3e d9 ba a5 24 f6 bc 16 76 c8 3c 32 af 5d 3c
       -0.0016574417 -0.03004677 0.02447037 0.013530539
000140 cb e7 f7 bc 0c 58 b4 bc 23 87 ce 3c d3 05 8b bc
       -0.030261895 -0.02201464 0.025210923 -0.01697055
000150 82 6c 5d bb 0a 08 19 bd 31 6e 00 3c 85 fc 6c bc
       -0.00337866 -0.037361182 0.007838772 -0.014464502
000160 58 8e 91 bc cd 23 1e bd 9a e5 e4 3c 18 b1 06 3d
       -0.01776807 -0.03860836 0.027941514 0.032883734
000170 e2 50 12 bd fc 15 f0 bc 18 e9 b1 3b 32 50 0c 3d
       -0.035721667 -0.029307358 0.0054293983 0.034256168
000180 e0 e8 57 3b 2a 8a db 39 ef 02 3d bc bf 64 ba 3c
       0.00329452 0.00041873875 -0.011536344 0.022753118
000190 07 ef 2a 3a 89 6f c1 3c 50 aa 7a bb cc ab 84 3c
       0.0006520603 0.023612754 -0.0038248487 0.0161952
0001a0 34 05 dd 3b 6d f3 93 bb f7 4d b2 bc de 3d e5 3c
       0.006745005 -0.0045151026 -0.021765692 0.027983602
0001b0 b4 47 22 3d dc e8 d7 bc 4f e5 73 3c ca 26 1b bd
       0.039619163 -0.026356153 0.014886214 -0.03787879
0001c0 87 16 9b bc dd 45 26 bc dc a3 9d bc c9 23 24 bc
       -0.01893164 -0.010148493 -0.019243173 -0.0100182975
0001d0 e3 92 04 bc f6 54 77 bc 0b 28 56 3c cf 23 28 3c
       -0.008091661 -0.01509594 0.01307107 0.010262444
0001e0 53 d1 08 3d c0 e4 f1 3c 6a 51 a2 3c 18 03 dd bb
       0.033402752 0.029528022 0.019814212 -0.0067447536
0001f0 42 25 60 bc cb 82 21 bd 18 88 c7 3a c8 e8 0f bd
       -0.013680758 -0.039431375 0.0015223054 -0.035134107

weight f4 [128, 128]
000000 5a 63 78 bb b8 c1 3d bd 89 c0 12 3d 7d 49 0f 3d
       -0.0037901015 -0.046327323 0.035828147 0.034982193
000010 47 c9 e5 bc 3b 88 22 bd 1e a6 0c bd 24 e9 1e bd
       -0.028050078 -0.0396807 -0.03433811 -0.03879656
000020 98 c0 f9 3c 93 c4 2b bd 27 6f 42 bd 0c c4 97 3d
       0.030487344 -0.041935515 -0.047469284 0.0741044
000030 e0 9a ad 3b fe 55 42 3d 06 f1 72 3d 04 78 9f ba
       0.0052980036 0.04744529 0.05931189 -0.0012166505
000040 1d 88 e8 ba 90 45 eb 3b 72 21 16 3d c0 46 29 3d
       -0.001774076 0.0071799234 0.03665299 0.041327238
000050 47 de 3c 3d f6 60 ad bb c2 27 3e bc d6 4c a6 3d
       0.046110418 -0.0052910997 -0.011606159 0.08120124
000060 b8 b7 63 bd e1 66 42 bc 2e ab 28 bd 49 bd 83 bd
       -0.05559513 -0.011865349 -0.041178875 -0.06432588
000070 4f 68 ea 3c 29 3f b3 bc 29 1c d5 3c 1a 88 59 3c
       0.028614191 -0.021880703 0.026014404 0.013277078
000080 01 df 85 bc a3 e8 11 bd 90 24 31 bc 0e 4c 71 3d
       -0.016341688 -0.03562225 -0.01081194 0.058910422
000090 a2 49 94 3d 86 d3 b4 3d 39 81 8f bd 24 7b 63 bd
       0.07240607 0.088294074 -0.07007069 -0.055537358
0000a0 03 57 50 bd 74 ea 93 3d 57 f6 a6 bd de a3 82 3c
       -0.05086423 0.07222453 -0.08152454 0.015947279
0000b0 0d d4 23 bd 87 ad ac bc 05 3f a4 bd 80 7d 0d 3b
       -0.03999715 -0.021078838 -0.080198325 0.0021589696
0000c0 9a 94 b8 3b 21 16 8b 3d 93 0c b0 3d 48 79 5c bd
       0.005632949 0.0679133 0.08596148 -0.0538266
0000d0 4d 80 68 bd 50 dc 93 3d 15 0a 63 3d dc 42 29 3d
       -0.056762982 0.07219756 0.055429537 0.041323528
0000e0 9a 4e 9e 3d 51 9f b9 3c 18 b6 10 3a 8c 13 8f bd
       0.07729836 0.022658976 0.0005520298 -0.0698615
0000f0 98 81 31 3c 60 d6 c8 bc 1e a2 79 bd f1 b2 1f 3d
       0.01083412 -0.024516284 -0.060945623 0.03898901
000100 7d b2 a9 39 28 c2 41 bc c6 ff 78 bd 8e 16 87 3d
       0.00032367176 -0.011826076 -0.0607908 0.06596099
000110 f3 a1 af bc 69 f6 b4 3d 39 e9 01 3c 2e fd 88 3d
       -0.021439528 0.088360615 0.00792914 0.06688915
000120 06 dc 14 3c 64 fa 6a 3d e7 dd af 3d 3c a6 98 3d
       0.009085661 0.057367697 0.085872464 0.07453582
000130 0e f3 8e bd 8d 04 5b bb c2 c8 f9 3c f6 97 34 3d
       -0.06979953 -0.003341946 0.030491237 0.044090234
000140 28 9e 00 bd 4f 6c 4a 3d 57 9f 6d 3c e3 d5 e6 3b
       -0.03140083 0.049419697 0.014503322 0.0070445403
000150 3c aa 8e 3d 9c df 1a bd c3 73 cf 3a 2a 6d 42 bd
       0.069660634 -0.037810907 0.0015827346 -0.04746739
000160 13 10 3d bd 2a 67 5a 3d 16 53 50 3d 78 1b 5a bd
       -0.046157908 0.05332104 0.050860487 -0.053248852
000170 20 2c a8 bb 09 64 07 bd 16 b7 88 bd 06 c3 64 bd
       -0.0051322132 -0.033054385 -0.06675546 -0.05585005
000180 93 38 32 bd be a9 c6 3c 8c 17 ac 3c e4 52 a3 3d
       -0.043510985 0.024250861 0.021007322 0.079747945
000190 e6 2e 58 3d 60 ae 11 3d db 2f 02 bd 37 89 81 bd
       0.0527791 0.035566688 -0.03178392 -0.06325
0001a0 c2 b6 8b bc 08 1b 2a 3b 0f 5c f5 bc 07 96 32 bd
       -0.01705492 0.0025956053 -0.029951124 -0.04360011
0001b0 0b ac 6f 3d d2 58 57 bb 1f 47 76 3c 7a 6b 49 3d
       0.058513682 -0.0032859338 0.015031605 0.049174763
0001c0 a9 51 8f bd 0b f2 77 bc 62 36 dd 3c 47 1a d3 bc
       -0.06997997 -0.015133391 0.02700347 -0.025769366
0001d0 95 af 1c 3c 1c b6 56 3d a6 cd 95 bd a1 ec 6c bd
       0.009563346 0.052419767 -0.07314615 -0.057842854
0001e0 e8 c2 9c bd 76 58 91 bd af c1 a2 bc 74 58 0f 3d
       -0.07654363 -0.07096951 -0.019867746 0.034996465
0001f0 5e 77 49 bd 75 9c 00 bd 38 f4 35 3d 5b 13 5b 3d
       -0.049186103 -0.03139921 0.04442236 0.053485256
000200 50 a8 94 bc 40 5f c4 bc 09 d5 85 bd e1 9d 9a 3d
       -0.018146664 -0.0239712 -0.06534774 0.07549644
000210 de f6 87 bd a0 2b 09 bb 84 0b df bc d0 70 7d bd
       -0.06638883 -0.0020930544 -0.02722717 -0.061875165
000220 14 97 92 bc 20 cd 3f bc 6c ad 97 bd 20 51 09 3b
       -0.017894305 -0.01170662 -0.074061245 0.0020952895
000230 80 e4 56 3c 08 15 5a 3c 01 c7 9a 3d a6 e9 b1 bd
       0.013116002 0.013310678 0.07557488 -0.08687143
000240 a8 5b d3 3c f0 f4 b7 3c 34 20 c4 bc 00 2b 0c bb
       0.025800541 0.022455662 -0.023941137 -0.0021387935
000250 84 e0 a7 3c 95 58 9f bd e0 99 af bc e3 90 88 3d
       0.0204928 -0.077805676 -0.021435678 0.0666826
000260 78 61 01 3c 88 ef 5c 3c ed e4 5d bd 4a 21 2e 3d
       0.0078967735 0.013484843 -0.0541734 0.042512216
000270 30 d3 a5 bd 74 48 cf bc 20 a7 da bb 78 b6 0a 3d
       -0.080969214 -0.025303103 -0.006672755 0.033865422
000280 8a 30 56 bd 40 20 11 3b e1 54 6b bd 8c 37 64 bd
       -0.052292384 0.0022144467 -0.057453994 -0.055717036
000290 0d b6 b3 bd 5c be 91 bc 2e 0a 4d 3d f1 56 8a 3d
       -0.08774958 -0.017790966 0.050058536 0.06754864
0002a0 40 9d 12 3b 46 5a 7a 3d c7 ac a9 3d 66 09 51 bd
       0.002237156 0.061121248 0.08284908 -0.051034354
0002b0 90 26 c8 bb a4 fb 72 bd 84 31 d8 bc 9a 45 d8 bc
       -0.0061081126 -0.059322014 -0.026390798 -0.026400376
0002c0 ba 64 2d bd ad 38 98 3d ed b9 aa 3d 16 9a 64 3d
       -0.04233239 0.07432685 0.08336244 0.05581101
0002d0 c0 58 41 bb 32 c1 46 3d c0 37 f0 ba 8f 8b 5e bd
       -0.0029502362 0.04852409 -0.0018327162 -0.054332312
0002e0 76 48 42 3d 08 57 56 bd 20 78 49 bd bc 89 fc bc
       0.047432385 -0.052329093 -0.049186826 -0.030827396
0002f0 41 68 59 bd a5 45 b1 3d d0 a8 11 3d 7c f8 8e 3c
       -0.05307794 0.08655862 0.035561383 0.017452471
000300 38 f8 ba bc cf 32 aa bd 9e 6f 04 3d 50 95 76 bd
       -0.022823438 -0.08310472 0.03233301 -0.06020099
000310 92 31 65 3d 44 87 91 bd 3a 55 f4 bc b2 8e 30 bd
       0.055955477 -0.07105878 -0.029825795 -0.043104835
000320 98 d7 0f 3d 31 82 8f 3d c0 9a 2d bc 18 47 92 bd
       0.035117716 0.07007254 -0.010595977 -0.07142466
000330 e4 e7 8f bc e8 d8 0c bc c8 e1 43 bd 3c 16 0a bd
       -0.017566629 -0.008596636 -0.047822744 -0.03371261
000340 c0 f1 04 3c 3b e0 33 bd 3d 0f 1b bd fe 31 52 3d
       0.008114278 -0.043915015 -0.03785633 0.051317208
000350 c9 02 9a 3d d8 15 90 bd 92 0f 59 3d 67 d7 33 bd
       0.075200625 -0.07035416 0.052993365 -0.043906596
000360 a0 e4 e3 bb 45 5d 8c 3d 35 56 b0 3d 1a 37 28 3d
       -0.0069547445 0.06853727 0.08610193 0.041068174
000370 5e f7 21 3d 78 59 17 bc ca e2 65 3d b8 5a 4c bd
       0.03954255 -0.00923764 0.056124486 -0.049891204
000380 e8 13 65 bc f4 67 e7 3c 41 9b 9f bd 1f 18 a8 bd
       -0.013981797 0.02824781 -0.07793284 -0.08207726
000390 20 20 34 3c 38 5e 72 bd 23 b5 9b 3d e6 18 1c 3d
       0.010993987 -0.059171885 0.076029085 0.038109683
0003a0 b6 d4 56 bd 0a 98 82 bd 93 c8 8f 3d dc b2 66 bd
       -0.05244895 -0.063766554 0.07020678 -0.056322917
0003b0 50 9e 7c bc 36 99 53 3d 68 29 61 3c b6 f0 80 bd
       -0.015418604 0.051659785 0.013742782 -0.06295912
0003c0 16 6e 05 3d 43 74 9e bd d1 76 b0 3d 38 61 e2 3c
       0.03257569 -0.07737019 0.086164124 0.027634248
0003d0 3c 2d c4 3c 8b 84 04 bd 72 e9 35 3d 6e d6 22 bd
       0.02394735 -0.032352965 0.044412084 -0.039755277
0003e0 a5 b3 94 3d 58 c9 02 3c 46 4e 82 bd 30 f9 a5 bc
       0.07260827 0.007982574 -0.06362586 -0.020260423
0003f0 5c 08 91 bd e0 86 a2 3c 90 95 b4 bc ca 1f 67 bd
       -0.070816725 0.019839704 -0.022043973 -0.0564268

bias f4 [128]
000000 ab c9 68 bd 9e 5c 85 bd d0 2d 0b 3d 8f 76 08 bb
       -0.05683295 -0.06511806 0.033979237 -0.002082262
000010 ea b7 e7 bc 36 a3 9c 3c 5d e2 48 3d 25 8c 8f 3d
       -0.02828594 0.019120794 0.049044 0.07009152
000020 5f 39 f3 3b aa cf 02 3d 0b fe 37 bd 71 0d 8f 3a
       0.0074226107 0.031936325 -0.04492001 0.001091404
000030 4f 2c e6 3c 6d a4 dd 3b bb 4d b4 3c ab f6 79 3d
       0.0280973 0.006763986 0.022009721 0.061026257
000040 d7 e6 b0 bd c9 8b 47 bd 14 5a 72 3c d8 4c 6d bd
       -0.08637779 -0.048717294 0.014791984 -0.057934612
000050 c5 52 9d 3d 12 fc 0e 3d 26 c2 b1 3a d7 22 16 3d
       0.07681803 0.03490836 0.0013561889 0.03665432
000060 d6 bb 32 bc 77 36 ac 3d 65 61 4a 3d 72 a2 20 3d
       -0.010909041 0.08408826 0.04940929 0.03921742
000070 e2 17 4b bd 16 9c 9e 3d ee 6e d8 bc 44 66 84 bb
       -0.049583323 0.07744615 -0.026420083 -0.0040405113
000080 5a 11 a1 3a 04 06 a9 bd da 8d 93 bd 94 61 77 bd
       0.0012288496 -0.082531005 -0.072047904 -0.060395792
000090 52 aa 74 3d 57 33 cd 3d a7 31 8e 3d 4d 75 6e 3d
       0.059732743 0.10019558 0.06943064 0.058217335
0000a0 2e 3d 82 3d 60 5b c3 3d 98 a0 36 3d cf bd 92 3c
       0.06359325 0.09538913 0.044586748 0.017912773
0000b0 75 90 08 3c 6b 82 0c bd 20 4b 25 bd 91 a4 ba bc
       0.0083352225 -0.034304064 -0.040354848 -0.02278355
0000c0 3f 85 0e bd a2 1f 7b 3c cb fe a5 3d 94 4f cb 3d
       -0.034795042 0.015327366 0.081052385 0.09927288
0000d0 e7 bd 72 bd 03 72 c5 3c fd 68 94 3d ec f0 30 3d
       -0.059263136 0.024102217 0.072465874 0.04319851
0000e0 42 46 33 bd 3a c7 85 3d 19 02 44 3d a6 dd 42 3d
       -0.043768175 0.0653214 0.047853563 0.04757466
0000f0 ec 7d 62 bd 06 a0 6b bd 66 de 98 3d c4 2f 7a 3d
       -0.05529587 -0.057525657 0.07464294 0.06108071
000100 d3 d6 12 bd e2 38 e7 3c 40 c0 72 3b 16 2f 47 3d
       -0.035849404 0.028225366 0.003704086 0.04862889
000110 d7 91 33 bd d3 78 63 bd 0e 59 01 3d 03 f1 33 3d
       -0.043840256 -0.05553515 0.03157907 0.04393102
000120 f4 a9 98 3d 21 84 be bd 22 5c e4 bb 10 f9 10 bd
       0.07454291 -0.09302545 -0.006968991 -0.035393775
000130 cb 00 90 3d a5 0f d9 bc ce f7 9b bd 4d 00 a1 bd
       0.07031401 -0.026496718 -0.07615624 -0.078613855
000140 c4 be 95 3c 64 af 59 bd 33 02 5b bd f4 5b 86 bc
       0.01827944 -0.05314578 -0.053468894 -0.016401269
000150 f8 8c 0e bd be 5c 59 3d 8b 95 0f 3d fa 1e 1b bc
       -0.034802407 0.05306696 0.035054725 -0.009467835
000160 94 52 4a 3d 39 37 9f 3d e3 7c ac bd d8 51 b0 bd
       0.04939516 0.07774205 -0.08422258 -0.086093605
000170 1e 81 64 3d 08 b3 83 bd 60 bd da 3c 85 7f b1 3d
       0.0557872 -0.06430632 0.02670163 0.086669005
000180 0c f9 78 3c 26 a7 0c 3d d2 1f 0d 3d 81 9a 91 3b
       0.015196096 0.034339093 0.034454174 0.004443467
000190 9c 0d 02 bd 37 7f a3 bd 9e 9f ea bc 49 ef 24 3d
       -0.03175126 -0.07983249 -0.028640565 0.040267263
0001a0 ae f7 64 3d af db 1d 3d 50 4e 50 3d 2d 32 98 3d
       0.05590027 0.038539585 0.050855935 0.07431445
0001b0 57 c2 61 3d 13 b4 a0 bc 96 37 21 bd 7e a2 82 bd
       0.055116978 -0.019617116 -0.03935965 -0.06378649
0001c0 f6 67 81 3d e1 6a e9 bc e7 bf 76 bd 53 60 63 3c
       0.06318657 -0.028493347 -0.060241606 0.013877946
0001d0 f1 d9 88 3d ba 7c a6 3c bc da f7 bb 28 f3 51 bc
       0.06682194 0.020323146 -0.007563917 -0.012814321
0001e0 8f b6 b1 3c 75 6e 29 bd 98 97 98 bd 81 13 4e 3d
       0.021693496 -0.041365106 -0.07450789 0.05031157
0001f0 8a fc 90 bd 9b 1d a8 bc 9b 2d a2 3d e4 5a a3 bd
       -0.07079418 -0.02052193 0.07918855 -0.079763204

weight f4 [2, 128]
000000 4f f5 20 3d d9 5d 2e bd 24 7f f3 3c f7 8c ae bd
       0.039296445 -0.04256997 0.029723711 -0.08522981
000010 fd c9 8e 3d a4 7a 8b 3c 1b 44 cf bd 28 4e 51 3c
       0.0697212 0.017026253 -0.10120412 0.012774982
000020 60 85 6a 3d fe 23 0c be 99 86 5a 3d e2 37 93 bd
       0.057256103 -0.13685605 0.05335102 -0.07188393
000030 00 52 a1 bc ea 5a ba 3b 5b 38 3e bd f5 ae f7 bd
       -0.019692421 0.0056871073 -0.046440464 -0.12093917
000040 66 21 dd bc 6f b9 67 3c c8 1b 59 3d 62 3c 8f bd
       -0.026993465 0.014143332 0.05300501 -0.06993939
000050 94 0f 4d 3e 07 d6 16 bd 71 8e 53 bc 3e 5a 97 3c
       0.20025474 -0.036825206 -0.012912379 0.018475648
000060 21 ca 59 bd bc de 27 3c f9 4d 7b 3d 24 7f cf 3c
       -0.05317128 0.010245975 0.061353657 0.02532918
000070 b5 f7 17 be f2 09 e4 3d 52 db 86 3d b4 4c 29 3e
       -0.14840586 0.111347094 0.06584801 0.16533166
000080 e2 04 98 bd 39 5c 5c 3d 66 50 3b bd d6 e8 0d 3d
       -0.07422806 0.053798888 -0.04573097 0.034645878
000090 d0 7c 30 3d 3f 2f c5 3d 14 f6 ba bd 02 54 4a 3c
       0.04308778 0.09628152 -0.09128967 0.012349131
0000a0 be 5a e0 bb 56 4a d5 3d 1e 81 c9 3d c0 30 79 bb
       -0.006846755 0.10414569 0.0983908 -0.0038023442
0000b0 2b a0 5b bd 2d ef 4c bd e4 36 40 3c 2f 80 6d 3d
       -0.053619545 -0.050032783 0.011731837 0.057983574
0000c0 b3 67 fe 3d d4 79 1c 3e b1 75 28 3d a6 da 70 3e
       0.12422123 0.15280849 0.041127864 0.23520908
0000d0 f6 83 9b bb 29 a4 cc bc da d1 84 3d 38 c2 fa 3d
       -0.0047459556 -0.024980621 0.064853385 0.122440755
0000e0 07 51 8e bd 87 91 27 3e d3 91 d0 3c c5 21 51 3e
       -0.069490485 0.16364108 0.02546016 0.20423038
0000f0 2f cf d8 bc 2d 62 b7 bd ac ef 9c bd 70 93 13 be
       -0.02646598 -0.089542724 -0.07662901 -0.14411712
000100 c5 a3 91 bd dc bd 3a 3d 5c aa cc 3c 16 3e aa 3d
       -0.07111315 0.04559122 0.024983577 0.08312623
000110 b8 36 32 3d 13 e8 22 3d d0 31 83 bd 65 40 0b bd
       0.043509215 0.039772104 -0.06405985 -0.03399696
000120 b0 fb 47 3d 82 b2 2b be 52 7c d5 3d aa d4 48 bd
       0.048824012 -0.16767314 0.10424103 -0.049030937
000130 6c 19 24 bd 33 c1 e9 bc 5e 73 1f bc 75 ee 14 bd
       -0.040063307 -0.028534507 -0.0097320955 -0.036360223
000140 1b 9f bb 3d 58 86 64 bd 8f 19 d5 bd 32 c4 17 bd
       0.09161206 -0.055792183 -0.104052655 -0.03705234
000150 b5 55 8a bd 86 f7 83 3d 98 7f a5 bd be 7d c1 bc
       -0.067546286 0.06443696 -0.08080977 -0.023619529
000160 a8 93 92 bc 60 32 80 bc d1 57 56 bd 98 c3 ab bd
       -0.017892674 -0.01564902 -0.052329842 -0.08386916
000170 d8 98 a2 bd be c2 3f 3d 80 a7 2a bd 9c 7e 2e 3c
       -0.07939309 0.04681658 -0.041663647 0.010650303
000180 54 cf 4d be 83 e9 f9 3d 0c 96 54 bd 88 2d 85 3d
       -0.2009862 0.12202742 -0.05190091 0.06502825
000190 a4 5d 5c 3c 95 51 95 bd 58 5e d7 3d 2c 22 21 bc
       0.01345006 -0.07290951 0.105160415 -0.009834807
0001a0 f9 c4 3c be 7f d8 b4 3d f4 04 c3 bd e8 d2 9c bd
       -0.18434514 0.08830356 -0.09522429 -0.07657415
0001b0 53 e2 c3 3d 68 0c 6b bc 81 7e 97 bc a9 ce 56 3d
       0.09564652 -0.01434622 -0.018492939 0.05244318
0001c0 63 36 9e bc 01 bb 16 bd 3c b6 4e bd 39 2f 2b 3d
       -0.019313043 -0.036799435 -0.05046676 0.041793082
0001d0 a7 d7 60 bd b0 02 a8 3d ab 1d ed bd 16 19 15 bc
       -0.054893162 0.082036376 -0.11577924 -0.009100219
0001e0 a6 c7 94 bd d6 76 a7 3c a8 ae 8e 3d 3a 5c 0a 3e
       -0.072646424 0.020442408 0.06966907 0.13511744
0001f0 d7 23 87 bd 29 e6 37 bd 6c 6b 13 bd 5b 73 67 bb
       -0.06598633 -0.044897232 -0.035991117 -0.003531656
000200 1c 67 42 bd a8 e7 fe 3c df 99 78 bd 9c 5f 88 3d
       -0.047461614 0.031116322 -0.060693618 0.06658861
000210 3e 38 5b 3b ff 54 33 bd 29 f5 d7 3d 05 4a 83 3d
       0.003345027 -0.04378223 0.105448075 0.064106025
000220 1e 87 e1 bc 43 4f d6 3d a9 32 0f 3d 2c e9 3a 3b
       -0.02753025 0.10464337 0.034960423 0.002852033
000230 ae 10 a4 3d 9f 9c 81 3d 3a fb 62 3c f8 14 b9 3c
       0.08010994 0.06328701 0.013853842 0.022593006
000240 3a 00 01 3e 88 40 dc bd 48 6c 53 bd df 32 fb 3d
       0.12597743 -0.10754496 -0.051616937 0.12265562
000250 bc b6 3b be ba a8 98 3d d1 85 5c bd db 60 fc bc
       -0.18331426 0.07454057 -0.053838555 -0.030807903
000260 af 06 02 3e 91 b8 a8 bc 6d 46 56 bc 0e 3e c9 3c
       0.12697862 -0.02059582 -0.013078314 0.024565723
000270 16 2e 00 3e c3 a5 45 be b4 8c 3d 3d b1 8b 1a be
       0.1251758 -0.19301514 0.046276763 -0.1509235
000280 f5 28 d4 3d cc eb ff 3c 01 42 d6 bc 56 59 89 bd
       0.103593744 0.031240366 -0.02615452 -0.067064926
000290 f4 e0 e5 3c de 8d 1e be 4e 0f 17 3d 73 e1 52 3d
       0.028061368 -0.15483806 0.03687983 0.051484536
0002a0 14 80 5e 3d d1 11 75 bd af 64 f3 bd 00 f6 b8 3c
       0.054321364 -0.059831444 -0.11884438 0.02257824
0002b0 70 71 4f 3c d9 32 1d 3d b9 c7 96 bc c7 b5 66 3d
       0.012661323 0.03837857 -0.018405782 0.0563257
0002c0 2f 4b 03 be 49 82 f9 bd fb e9 dd 3c 32 b6 7d be
       -0.12821649 -0.12183053 0.02708911 -0.24776533
0002d0 de af 14 3d 11 fb d3 ba 10 09 d4 3c f3 8d 1c 3d
       0.036300533 -0.0016172846 0.025883228 0.03822131
0002e0 1f 15 98 bd d4 58 1b be 1d 96 0d 3d ea 18 52 be
       -0.074259035 -0.15170604 0.034566987 -0.20517316
0002f0 09 1a 83 3d 33 e3 b0 3d 65 50 ad 3c c7 4b 0e 3e
       0.0640145 0.08637085 0.0211565 0.13896094
000300 44 a5 6c bc 27 32 f2 ba 42 7d 8c bd a4 72 1d be
       -0.014443699 -0.0018478081 -0.068598285 -0.15375763
000310 f4 3a d5 bd 66 14 8c 3d a4 53 14 ba 06 dc a4 bd
       -0.10411635 0.06839828 -0.00056582154 -0.08049779
000320 c2 9a f7 3c 01 0a 15 3e fe 54 8d bd ad 71 94 3d
       0.030225161 0.14554597 -0.069009766 0.072482444
000330 d4 50 91 bd 5a 2d 2c bd 8a f7 ab 3d fb 10 4e 3c
       -0.07095495 -0.042035438 0.08396824 0.012577291
000340 5e d2 be bd e6 53 35 bc a7 ea 20 bd a2 5a 1e 3d
       -0.09317468 -0.011067366 -0.039286282 0.038660653
000350 4a 59 24 3d 4a 98 95 bd 07 a3 1a 3e 4e df 33 bd
       0.040124215 -0.073044375 0.15101252 -0.04391413
000360 96 e2 03 3c 98 8a 97 bc 4f b8 21 bd ad a6 26 3e
       0.008049628 -0.018498704 -0.03948241 0.1627452
000370 ad c0 9e 3d 9a 1c 44 bd 46 68 eb bc e5 61 3a 3d
       0.07751594 -0.04787884 -0.028736245 0.045503516
000380 4d 77 fb 3d bb 43 1e bd a4 fe 9a bc 7a c9 00 be
       0.12278614 -0.03863881 -0.01892025 -0.12576857
000390 b6 00 69 bb 8c 81 5f 3d a4 3f ce bd be 91 53 3d
       -0.0035553402 0.054566905 -0.10070732 0.051652662
0003a0 e7 34 48 3e 65 a3 51 3d b6 46 1b 3e 92 6e ca 3d
       0.1955143 0.051181216 0.15163693 0.09884371
0003b0 a3 5a 3d bd d7 fa d7 3d 97 e1 8b bd de 93 15 bd
       -0.046229016 0.10545891 -0.06830137 -0.03651797
0003c0 65 44 90 3d 79 ac 90 3d 19 26 9c 3d 54 43 2b bc
       0.07044295 0.070641465 0.07624454 -0.010453064
0003d0 a9 3b d0 bc 91 79 90 3d d4 81 cb 3d 99 d7 e5 3d
       -0.025419073 0.07054437 0.09936872 0.112227626
0003e0 f4 1d 48 3d da 9d 16 bd b3 4a c9 3c 1e 2c 68 bd
       0.04885669 -0.036771633 0.024571752 -0.0566827
0003f0 67 e7 6d bd 58 af 80 3d 60 7b 01 bd fe 52 07 3d
       -0.05808201 0.06283444 -0.0316118 0.033038132

bias f4 [2]
000000 a2 b9 85 3c 20 2c 9f bd
       0.016323868 -0.07772088
