graph2vec_optimization/model/60_mlp_graph2vec_opt_3.pt (torch_old, 382907 bytes, 6 tensors)

weight f4 [128, 600]
0	0xbd1064f9	-0.035252545
1	0xbd07a1bb	-0.033113223
2	0xbcffd77a	-0.031230677
3	0xbceed2b4	-0.029153205
4	0x3cc75aee	0.02433535
5	0xbcb1bf29	-0.021697598
6	0xb84e1237	-4.913119e-05
7	0xbd13a75e	-0.036048286
8	0x3d06084a	0.03272275
9	0xbcd29fab	-0.025710901
10	0xbaf48e20	-0.0018658079
11	0xbcf5f5ec	-0.030024491
12	0x3c1b1220	0.009464771
13	0x3d1d3561	0.038380984
14	0xbccb01ec	-0.02478119
15	0xbd279426	-0.04091277
16	0xbcf342f4	-0.029695012
17	0xbc6f1001	-0.014591218
18	0xbbf7b2b2	-0.007559144
19	0xbcc39f8d	-0.02387979
20	0xbc1a9abc	-0.009436306
21	0xbcf7693e	-0.03020155
22	0xbce0b549	-0.027430193
23	0x3cc022e0	0.02345413
24	0xbcee1416	-0.029062312
25	0xbcf5175d	-0.029918367
26	0x3bb3e3a9	0.0054897857
27	0xbd128c68	-0.035778433
28	0x3cefad95	0.029257575
29	0x3ca3fee9	0.020019012
30	0x3c5412ba	0.012943918
31	0x3968cb5e	0.00022201004
32	0xbcfe8582	-0.03106952
33	0xbd0dd1a2	-0.03462375
34	0x3d296e84	0.04136516
35	0xbd11db25	-0.035609383
36	0xbc506b5b	-0.012720908
37	0x3ccec482	0.025240187
38	0xbc9b103d	-0.018928641
39	0xbce29c49	-0.027662413
40	0xbca6516f	-0.020302502
41	0xbd1097a0	-0.03530085
42	0x3c9b34d5	0.01894609
43	0x39742b38	0.00023285754
44	0x3cce4244	0.025178082
45	0xbcd1915c	-0.025582008
46	0x3cfcd808	0.03086473
47	0xbc958c89	-0.018255489
48	0xbcb4daf1	-0.022077056
49	0x3d1a4e43	0.037672292
50	0x3d1a68e4	0.037697688
51	0xbcff51bd	-0.031166906
52	0xbc9b4038	-0.01895152
53	0xbd08b99f	-0.033380147
54	0x3d07fc6d	0.033199716
55	0x3cf7f29d	0.030267054
56	0xbc914b54	-0.017736115
57	0xbcd7b5cf	-0.02633181
58	0x3d107e1b	0.035276514
59	0x3c2fae8b	0.010722767
60	0x3c188517	0.009309075
61	0xbcf88f4d	-0.030341769
62	0x3beaa1ca	0.0071604
63	0xbc44e5c5	-0.012017672
64	0x3ca6700d	0.020317102
65	0xbd1aaa2d	-0.03775995
66	0x3ca323ff	0.019914625
67	0x3d164dde	0.036695354
68	0x3d14c20a	0.036317863
69	0x3cc48e18	0.023993537
70	0x3d23bacf	0.039973076
71	0x3d0e3c61	0.03472555
72	0x3c132d19	0.00898292
73	0xbd16408e	-0.036682658
74	0xbc65eaf4	-0.014033068
75	0x3b6d8529	0.00362427
76	0xbc55920e	-0.01303531
77	0xbd023e32	-0.031797595
78	0xbc961735	-0.018321613
79	0xbd0fd572	-0.035115667
80	0xbd158512	-0.03650386
81	0x3cc632ec	0.024194203
82	0x3ca47dc2	0.020079497
83	0xbc5c8bc0	-0.013461053
84	0xbd0e2cb8	-0.034710616
85	0xbcdc227f	-0.026871918
86	0xbb10d2f2	-0.002209839
87	0xbcd5804c	-0.026062153
88	0x3c7872e8	0.015164115
89	0xbca40892	-0.020023618
90	0xbcaf3e8f	-0.021392135
91	0x3bd86b85	0.006604614
92	0x3c4f053c	0.012635525
93	0x3d14e03f	0.03634667
94	0x3d166ebf	0.03672671
95	0xbc5a2a1b	-0.013315703
96	0x3d2a05f8	0.0415096
97	0xbba14ed0	-0.0049227253
98	0x3cb27655	0.02178494
99	0x3cd9d370	0.02659008
100	0xbac65f3d	-0.0015134584
101	0xbc484277	-0.012222878
102	0xbcacd6c0	-0.021098495
103	0x3cca570c	0.02469971
104	0xbd05d384	-0.03267242
105	0x3c8d5553	0.0172526
106	0xbcddb134	-0.027062036
107	0x3d1281cf	0.035768326
108	0xbabcd77a	-0.0014407479
109	0xbd0e21b9	-0.03470013
110	0x3d0241bd	0.031800974
111	0xbc5a1db0	-0.013312742
112	0xbd10966a	-0.035299696
113	0x3ce63ec5	0.028106103
114	0x3aae0ef0	0.0013279598
115	0xbca48e51	-0.020087393
116	0x3d1d4028	0.038391262
117	0x3cf96f73	0.030448651
118	0x3cf811f0	0.03028199
119	0x3cadbaa5	0.021207163
120	0xbd2a1192	-0.041520663
121	0x3b01585b	0.0019736502
122	0xbcd8896a	-0.026432712
123	0x3c93a51a	0.018023062
124	0xbd0c27eb	-0.034217756
125	0xbc606ccd	-0.013697815
126	0xbc8cd151	-0.017189654
127	0xbbfa479f	-0.0076379324
128	0xbc81bcbc	-0.015837066
129	0xbd19fcfb	-0.037594777
130	0xbd0cd427	-0.03438201
131	0xbd1c32e9	-0.03813449
132	0x3bff2507	0.0077863964
133	0xbc374120	-0.011184961
134	0xbd1ac6dc	-0.037787303
135	0x3cad1f3e	0.021133061
136	0x3bcfbd22	0.006339685
137	0xbd0f9980	-0.0350585
138	0xbb58a548	-0.00330575
139	0x3d1632a0	0.036669374
140	0xbc220ef1	-0.009891258
141	0xbcf5247b	-0.029924622
142	0x3c6853d1	0.01418014
143	0xbc6582d4	-0.014008243
144	0x398fea54	0.00027449674
145	0x3cfd7a47	0.030942095
146	0xbcad6371	-0.021165581
147	0xbc576756	-0.013147196
148	0x3cd55a67	0.026044084
149	0x3d038c65	0.032116313
150	0x3cc0442a	0.023470003
151	0xbd09d585	-0.033650894
152	0x3cb0ee17	0.021597905
153	0x3b570e54	0.0032814937
154	0x3c9b1b80	0.018934011
155	0x3c953b85	0.018216858
156	0x3c197ae1	0.0093676755
157	0x3be8d446	0.007105383
158	0xbccb0ee3	-0.024787372
159	0xbcf4c3e6	-0.029878568
160	0xbc6d2a40	-0.014475405
161	0xbc750b65	-0.01495633
162	0xbd019c82	-0.031643398
163	0xbc9398f5	-0.018017272
164	0xbc2b95b3	-0.010472703
165	0x3c9a1034	0.018806554
166	0x3d0ad50f	0.033894595
167	0x3b807ab1	0.003920876
168	0x3d176281	0.036959175
169	0x3cfe29d3	0.031025803
170	0x3d02fa6c	0.031977102
171	0xbcbffdcb	-0.023436448
172	0xbc905527	-0.017618729
173	0xbc96dbe2	-0.018415395
174	0xbcbb9317	-0.022897286
175	0x3c839598	0.016062543
176	0x3d02f1af	0.03196877
177	0xbcd492d0	-0.025948912
178	0xbd207329	-0.039172325
179	0xbc27e001	-0.010246278
180	0x3bd6bce3	0.006553279
181	0x3c6d4a1d	0.014483002
182	0x3b60d8c2	0.0034308885
183	0xbcef1b83	-0.029187923
184	0xbd071600	-0.032979965
185	0xbcc25b51	-0.023725184
186	0x3cf95969	0.030438142
187	0xbc93acd9	-0.018026756
188	0xbd1655a1	-0.036702756
189	0x3c4f4caa	0.0126525555
190	0xbd124b9b	-0.035716634
191	0x3ca7e3e9	0.020494418
192	0xbccca843	-0.024982577
193	0x3cff29b7	0.03114782
194	0xbca9fca2	-0.020750348
195	0xbd1ca216	-0.038240515
196	0x3d017a0e	0.03161054
197	0xbd029f64	-0.031890288
198	0x3ac5ce9e	0.0015091484
199	0xbd1011ff	-0.035173412
200	0xbb411a12	-0.0029465002
201	0xbc98fb42	-0.018674497
202	0x3cd8add0	0.026450068
203	0x3d0f4e0a	0.034986533
204	0x3cd57c3a	0.026060212
205	0xbd069280	-0.032854557
206	0x3c2f83f2	0.010712611
207	0x3ccefc89	0.025266903
208	0x3c06f6b7	0.008237532
209	0xbbf5f4f0	-0.0075060055
210	0x3d1c6beb	0.038188856
211	0x3b49869c	0.00307504
212	0xbcba464b	-0.022738596
213	0x3cbbb5f4	0.02291391
214	0xbbd35928	-0.0064498372
215	0xbd1b1536	-0.037862025
216	0x3d265d0b	0.040616076
217	0xbce13f09	-0.027495878
218	0xbceed2ff	-0.029153345
219	0xbd0ff25f	-0.035143252
220	0x3d21a364	0.039462462
221	0xbd13631e	-0.035983197
222	0xbad97c5a	-0.0016592846
223	0x3c9c9db7	0.019118173
224	0x3b2b84ea	0.0026171752
225	0xbd09466b	-0.03351442
226	0xbb1f74a4	-0.0024330998
227	0x3d125e3e	0.035734408
228	0xbcb8fe6c	-0.022582255
229	0xbc9d8deb	-0.01923271
230	0xbb96f6d3	-0.0046070605
231	0xbd13143f	-0.03590798
232	0xbcab1f9f	-0.020889102
233	0xbc1c45d9	-0.009538137
234	0xbb871c9a	-0.0041232826
235	0xbcbd423b	-0.02310287
236	0xbd160ba0	-0.03663218
237	0x3c327059	0.010891044
238	0xbc0098a4	-0.007848892
239	0x3c24baf7	0.0100543415
240	0x3cec3581	0.028834106
241	0xbbea078a	-0.007142012
242	0x3c9c2b0d	0.019063497
243	0x3c8cbcd7	0.01717989
244	0x3c31c274	0.010849584
245	0x3b7c2fdd	0.0038480677
246	0x3d17b69b	0.03703938
247	0x3c26b6d3	0.010175425
248	0xbcf7da3f	-0.030255435
249	0x3c6317fd	0.0138607
250	0xbc72c21e	-0.014816789
251	0xba939090	-0.0011258293
252	0x3c601334	0.013676453
253	0xbd0f7be6	-0.035030268
254	0xbcb74341	-0.022370936
255	0xbcec6d63	-0.028860753

bias f4 [128]
0	0x3d002723	0.031287324
1	0x39901e13	0.00027488227
2	0xbd0cd4b7	-0.03438255
3	0xbcdf714b	-0.027275702
4	0x3c5cb89c	0.013471749
5	0xbcee0c97	-0.029058738
6	0x3b95ca40	0.004571229
7	0x3ceab0e5	0.028648803
8	0x3ba866ab	0.005139192
9	0xbc98a7ff	-0.018634794
10	0x3b06d52b	0.0020573835
11	0xbc935c2e	-0.01798829
12	0xbd051cce	-0.032498173
13	0x3c2070b1	0.009792493
14	0x3c70eb6a	0.014704565
15	0xbd1126c7	-0.03543737
16	0x3cfc76dc	0.030818395
17	0xbcd79aea	-0.026318986
18	0x3acf93d5	0.0015836904
19	0x3d2716c0	0.04079318
20	0xbd0d68ab	-0.034523647
21	0xbcd735b2	-0.026270721
22	0xbbd98bb2	-0.0066389674
23	0xbd2f5755	-0.042807896
24	0x3c9926e6	0.018695306
25	0x3a8c3220	0.0010696091
26	0x3cd78264	0.026307292
27	0x3b992a05	0.0046741986
28	0x3ce2ea5a	0.027699638
29	0xbc94755d	-0.01812237
30	0xbd037d0b	-0.032101672
31	0xbd1c9aa4	-0.038233414
32	0xbcb335ff	-0.021876333
33	0xbc87f575	-0.016596535
34	0xba9baad4	-0.0011876472
35	0xbb33f84f	-0.0027461236
36	0x3c82d174	0.015969016
37	0xbc96e684	-0.018420465
38	0x3a9438a6	0.0011308386
39	0x3b35c720	0.0027737096
40	0x3cd037a1	0.02541715
41	0x3c7d408e	0.015457286
42	0x3cc7405d	0.024322683
43	0xbd1648f6	-0.036690675
44	0xbbbc415f	-0.0057450975
45	0xbc3511b2	-0.011051582
46	0x3c09fd7f	0.008422255
47	0x3cf8319f	0.030297099
48	0x3cde4cce	0.027136233
49	0xbd152bb5	-0.036418635
50	0x3b7d0510	0.0038607754
51	0x3c3ee4b0	0.011651203
52	0xbd2352cd	-0.039873887
53	0xbb7a5eca	-0.0038203471
54	0x3afa97cd	0.0019118726
55	0x3d01983d	0.031639326
56	0x3cdaacf8	0.026693806
57	0x3c1afc26	0.009459531
58	0xbcee7a18	-0.029110953
59	0x3b98004c	0.0046387073
60	0xbc3e7e37	-0.011626772
61	0x3cc37f3b	0.02386438
62	0x3cd667d9	0.026172565
63	0x3d1242ee	0.03570836
64	0xbcd7f0cf	-0.026359944
65	0xbc688445	-0.014191692
66	0x3beb8f68	0.007188726
67	0xbc0cdd48	-0.008597679
68	0x3c0c7dac	0.008574884
69	0x3caa12fc	0.020761006
70	0xbbe265e5	-0.0069091194
71	0x3ca68b9e	0.020330247
72	0xbd1db0b7	-0.038498607
73	0x3c824783	0.01590324
74	0xbcd773a6	-0.026300263
75	0x3c865006	0.01639558
76	0xbd0565aa	-0.032567658
77	0x3c032c44	0.008006159
78	0xbbb972c0	-0.005659431
79	0x3cafe711	0.021472486
80	0x3d1e8333	0.03869934
81	0x3ceb62c4	0.028733619
82	0x3cf93c2e	0.030424204
83	0xbce45039	-0.027870284
84	0xbcb66265	-0.022263715
85	0xbd3b56fc	-0.04573725
86	0x3d0069be	0.031350844
87	0x3c1af52e	0.009457869
88	0xbd0d7ef2	-0.034544893
89	0x3ba46d89	0.0050179404
90	0xbc11f577	-0.008908621
91	0x3b5498b4	0.003243965
92	0xbca5e037	-0.020248516
93	0x3b078d67	0.0020683648
94	0x3c986cdf	0.018606601
95	0xbc889287	-0.016671432
96	0x3c81f24a	0.015862603
97	0x3cf52491	0.029924663
98	0xbca48018	-0.020080611
99	0x3d0a34c1	0.033741716
100	0x3c3d9ee5	0.011573528
101	0xbc601880	-0.013677716
102	0xbc6f0432	-0.014588403
103	0x3b8599fd	0.0040771947
104	0x3b2c3acb	0.002628016
105	0x3c0e41b8	0.008682661
106	0x3c81f310	0.015862972
107	0xbd05e37f	-0.03268766
108	0xbc1b6433	-0.009484339
109	0xbd02a56b	-0.031896036
110	0xbd108db3	-0.035291385
111	0xbc60712f	-0.01369886
112	0xbce20d6d	-0.027594293
113	0x3c2a207e	0.010383723
114	0x3cb52af0	0.0221152
115	0x3d15114d	0.036393452
116	0x3b6bb8c5	0.0035968286
117	0x3d070258	0.03296122
118	0xbc9ef76c	-0.01940509
119	0xbcfbbd8a	-0.030730028
120	0x3c564680	0.013078332
121	0x3cfdc5b6	0.030978065
122	0xbcb5ac09	-0.02217676
123	0x3c2c8cdd	0.010531631
124	0x3c6b50a0	0.014362484
125	0x3cf23964	0.029568382
126	0xbcdbd55d	-0.026835138
127	0x3d01030f	0.031497058

weight f4 [128, 128]
0	0x3c9712aa	0.018441517
1	0xbd6a650a	-0.057225265
2	0x3db055cb	0.08610114
3	0x3d9b850f	0.07593738
4	0x3d50d73c	0.050986513
5	0x3da0f094	0.07858387
6	0x3c6a78e0	0.014311045
7	0xbce06929	-0.027393894
8	0xbd4e43ea	-0.050357737
9	0x3ce24ce6	0.027624559
10	0x3c8efe78	0.017455325
11	0xbd33fbaf	-0.043941196
12	0x3d530af2	0.05152411
13	0x3c9b9f14	0.018996753
14	0x3daba619	0.0838129
15	0xbdaaa0ab	-0.08331426
16	0xbc31913e	-0.010837851
17	0xbd440212	-0.047853537
18	0x3d97512b	0.073885284
19	0x3c8382f0	0.016053647
20	0x3c04f33f	0.008114635
21	0xbcc187bb	-0.023624292
22	0x3cd330fc	0.025780194
23	0x3da4ea96	0.08052556
24	0x3d2bc502	0.04193593
25	0x3cad4f90	0.021156102
26	0x3d52a78f	0.051429328
27	0x3d6bfc40	0.05761361
28	0x3c815ff9	0.015792834
29	0x3d550062	0.05200232
30	0xbbb9ff70	-0.0056762025
31	0x3d13b72b	0.036063354
32	0x3d9ebff0	0.07751453
33	0xbd14e292	-0.036348887
34	0xbd3fb0df	-0.046799537
35	0x3d0c0225	0.034181733
36	0xbccf64e7	-0.025316669
37	0x3cb05410	0.02152446
38	0xbd0b1a5f	-0.033960696
39	0xbd1669d7	-0.03672203
40	0xbc977590	-0.018488675
41	0x3da934e9	0.08262045
42	0x3c8c028e	0.017091062
43	0x38b87c00	8.7969005e-05
44	0xb91f6375	-0.00015200472
45	0xbd9e98b5	-0.0774397
46	0xbab47a13	-0.0013769291
47	0x3d9ce75f	0.07661318
48	0x3d458df6	0.048231088
49	0xbcca1bec	-0.024671517
50	0xbd82477c	-0.06361291
51	0xbca13868	-0.019680217
52	0x3d54bd1b	0.051938158
53	0xbda7bf6d	-0.081908084
54	0xbcda3603	-0.026637083
55	0x3d129a0c	0.03579144
56	0xbd2536c0	-0.040335417
57	0xbb0e5d44	-0.002172307
58	0x3d1c2d72	0.038129278
59	0x3d833837	0.064072065
60	0x3bb9093b	0.0056468523
61	0xbd080915	-0.033211786
62	0xbda8d0a3	-0.08242919
63	0xbd964d2b	-0.07338937
64	0xbc7abe7b	-0.015304203
65	0x3d83fc10	0.064445615
66	0x3d2932ce	0.041308217
67	0x3c76bbb8	0.015059404
68	0xbc3d78e8	-0.011564471
69	0x3cd236a0	0.025660813
70	0xbd999c28	-0.075004876
71	0xbdb328e8	-0.087480366
72	0x3b93ee1e	0.0045144698
73	0xbd84b643	-0.06480076
74	0x3d18bdd6	0.037290417
75	0x3d5d409d	0.0540167
76	0x3c3f20e9	0.011665561
77	0xbd8ae36d	-0.06781659
78	0x3d95a8a9	0.0730756
79	0xbd959c0a	-0.07305153
80	0xbb35e96b	-0.0027757536
81	0xbcbdf290	-0.023186952
82	0xbdb283d7	-0.08716553
83	0x3a26e96a	0.0006367179
84	0x3d31be91	0.04339463
85	0xbb5c91ff	-0.0033656356
86	0x3d4831e0	0.04887569
87	0xbd9b274d	-0.075758554
88	0x3bc9e1d7	0.0061609554
89	0xbcfecf1c	-0.031104617
90	0xbdb1d941	-0.08684016
91	0x3d75afc6	0.059982084
92	0x3d5b30de	0.0535134
93	0xbd329deb	-0.043607634
94	0x3d86882b	0.06568941
95	0xbdad9cc1	-0.08477164
96	0x3cef52b8	0.029214248
97	0x3d792217	0.060823526
98	0xbdae8002	-0.08520509
99	0x3d4fa5fb	0.0506954
100	0xbcc75ac4	-0.024335273
101	0xbd06c426	-0.032901905
102	0xbd8fb5f7	-0.07017129
103	0x3cb4de54	0.02207867
104	0xbd05e5b8	-0.03268978
105	0xbbaf598b	-0.0053512505
106	0xbbb19810	-0.0054197386
107	0xbc232890	-0.009958401
108	0xbda96e71	-0.08273018
109	0xbd0d5ea0	-0.03451407
110	0xbd4792bb	-0.048723917
111	0x3b88c4c4	0.004173847
112	0x3b9b31e0	0.00473617
113	0xbc8b89a5	-0.017033407
114	0xbd4a0b33	-0.049327087
115	0xbd74161e	-0.059591405
116	0xbd09a297	-0.033602323
117	0x3d104004	0.0352173
118	0x3d50fefa	0.051024415
119	0xbcd7efd3	-0.026359474
120	0x3d8333fb	0.06406399
121	0x3d1d3eca	0.03838996
122	0x3d21f99c	0.039544687
123	0x3d982539	0.07428975
124	0x3d58dd26	0.05294528
125	0xbd2920f4	-0.041291192
126	0xbd5f3810	-0.054496825
127	0x3db4875d	0.08814881
128	0x3d49ce1b	0.049268823
129	0xbb86f6a4	-0.0041187573
130	0xbbe11431	-0.006868862
131	0xbd93fdea	-0.07226165
132	0xbd2b3332	-0.04179687
133	0xbc9b4277	-0.018952591
134	0xbd14afe6	-0.036300562
135	0xbcb2d67c	-0.02183079
136	0x3da431aa	0.08017285
137	0x3d085018	0.03327951
138	0x3d92f174	0.0717496
139	0x3d82898c	0.06373891
140	0xbbcd1bbe	-0.0062594106
141	0x3c3872c0	0.011257827
142	0xbdab0c4d	-0.083519556
143	0xbd985440	-0.074379444
144	0x3d9d55dd	0.07682393
145	0xbd3b25e8	-0.045690447
146	0xbd07dbb6	-0.033168517
147	0xbd500639	-0.050787184
148	0xbceb36c9	-0.028712647
149	0x3a245b6c	0.00062697264
150	0x3dae45ca	0.08509405
151	0x3d0641e0	0.032777667
152	0xbda7046a	-0.08155139
153	0x3d92c001	0.07165528
154	0xbd855c1c	-0.06511709
155	0x3d92760c	0.07151422
156	0xbd5e500d	-0.05427556
157	0x3d985190	0.07437432
158	0x3db0d269	0.086338826
159	0xbd3a874a	-0.045539178
160	0x3db25fe0	0.08709693
161	0x3b801982	0.003909291
162	0xbc7af651	-0.0153175155
163	0xbc680dee	-0.014163477
164	0x3db2b8a7	0.08726626
165	0x3d0017e5	0.031272788
166	0x3da60319	0.081060596
167	0x3cdd6663	0.02702636
168	0xbd88f8f0	-0.06688106
169	0x3d12ad8e	0.035810046
170	0x3cd24eab	0.025672277
171	0xbd72c577	-0.05927035
172	0x3d48ad51	0.048993412
173	0x3da4e7cd	0.08052025
174	0xbd82a3cc	-0.06378898
175	0xbdb2c89a	-0.08729668
176	0x3d16f437	0.036853995
177	0x3d8a7b61	0.06761814
178	0xbd4bbb03	-0.049738895
179	0xbd7f2d79	-0.062299225
180	0x3d5d543d	0.054035414
181	0x3bb3573c	0.0054730456
182	0x3d2b215c	0.04177986
183	0xbd160c31	-0.03663272
184	0xba96d6f3	-0.0011508152
185	0xbd74dcc7	-0.059780862
186	0xbd03c654	-0.032171562
187	0x3d947742	0.07249309
188	0x3d7b81a3	0.061402928
189	0xbcbed9f3	-0.023297286
190	0xbd875f69	-0.06609995
191	0x3d739d27	0.059476044
192	0x3cb8aeb1	0.022544237
193	0x3aee9beb	0.0018204426
194	0x3d351a56	0.04421457
195	0xba91de81	-0.0011128933
196	0xbdb3685e	-0.08760141
197	0x3cf51224	0.029915877
198	0x3dac575a	0.084150985
199	0xbd71746a	-0.05894891
200	0x3da97ce1	0.08275772
201	0xbcb6847b	-0.022279968
202	0x3d9d2cc3	0.07674553
203	0xbd0abff4	-0.033874467
204	0xbd7ee9f7	-0.062234845
205	0x3ccc047c	0.024904482
206	0x3d0ed1b1	0.034867946
207	0xbc68eaf4	-0.014216173
208	0x3bcc0057	0.0062256265
209	0xbdb0e3f8	-0.086372316
210	0x3da87c8a	0.08226879
211	0x3c6c4502	0.01442075
212	0x3d0b6765	0.03403415
213	0x3d03fd77	0.032224145
214	0x3d8742b0	0.066045165
215	0x3d93e630	0.07221639
216	0x3b91d559	0.004450482
217	0x3d8bcb23	0.06825855
218	0xbd62af52	-0.05534298
219	0xbd2b3016	-0.041793905
220	0x3d8b5058	0.06802434
221	0xbd17f4cd	-0.037098695
222	0xbd84689e	-0.06465267
223	0x3cc51718	0.024058864
224	0x3c615d30	0.013755128
225	0xbcec4e43	-0.028845912
226	0x3c85a16c	0.016312324
227	0x3d8a5f93	0.067565106
228	0x3d4cc0d9	0.0499886
229	0x3d64926c	0.0558037
230	0xbd82877c	-0.06373498
231	0xbdafde34	-0.08587304
232	0xbd3af570	-0.045644224
233	0xbd9e9546	-0.077433154
234	0xbdb0194e	-0.085985765
235	0xbd823cb7	-0.06359237
236	0x3d857a74	0.06517497
237	0xbd3b1d4c	-0.045682237
238	0x3d1c45d8	0.038152546
239	0x3dab4755	0.08363215
240	0xbd831b53	-0.06401696
241	0xbd2d64e0	-0.04233253
242	0xbd278c89	-0.04090551
243	0x3d668517	0.056279268
244	0x3cc39879	0.023876416
245	0xbcd6da37	-0.0262271
246	0x3d1c68ae	0.038185768
247	0xbd7b18ab	-0.061302822
248	0xbda668e3	-0.08125474
249	0x3d2a346b	0.041553896
250	0xbd95d886	-0.07316689
251	0x3d1c7659	0.038198803
252	0x3d89298f	0.0669738
253	0xbda63e9c	-0.081174105
254	0xbd170360	-0.036868453
255	0x3d82b3fe	0.06381987

bias f4 [128]
0	0xbdabff74	-0.08398333
1	0xbcd3abc1	-0.025838735
2	0x3d5e0a0b	0.054208796
3	0xbd5efd54	-0.05444081
4	0xbd79b0ad	-0.060959507
5	0x37b02239	2.0996771e-05
6	0xbb1f1ca4	-0.0024278546
7	0x3c9be3c5	0.019029507
8	0xbc329994	-0.010900874
9	0xbd7326aa	-0.059363045
10	0x3d3836c3	0.0449741
11	0xbcf5ab04	-0.029988773
12	0x3bbb6d17	0.0057197916
13	0xbd8e8577	-0.0695905
14	0x3d2b39aa	0.04180304
15	0xbd465834	-0.04842396
16	0x3d008e5c	0.031385764
17	0x3d46455c	0.04840599
18	0xbd8f306d	-0.06991658
19	0xbc8dcf51	-0.01731077
20	0xbc806eab	-0.01567777
21	0xbc137fc6	-0.0090026315
22	0x3d8ca629	0.0686763
23	0xbd6e4edf	-0.058180686
24	0xbdb51686	-0.08842187
25	0x3d740a1b	0.05957995
26	0xbd16fd6f	-0.036862787
27	0xbd9560e4	-0.07293871
28	0xbd80ddf1	-0.06292332
29	0x3b27a695	0.0025581468
30	0xbcdbf6a7	-0.026851011
31	0xbce1ae26	-0.02754886
32	0x3da4f0ba	0.080537274
33	0xbcf5e529	-0.030016499
34	0xbc70f869	-0.014707663
35	0x3d8ee299	0.06976814
36	0xbc8b9ee1	-0.017043533
37	0xbc40f502	-0.011777164
38	0xbd97c2c6	-0.07410197
39	0xbcdc3cab	-0.026884397
40	0xbc4b135f	-0.012394755
41	0xbc70d11f	-0.014698296
42	0x3d2b191d	0.041771997
43	0x3d026323	0.031832825
44	0xbd9436e7	-0.07237034
45	0xbd32e2b4	-0.043673232
46	0x3b9d14ad	0.0047937245
47	0xbd88eb50	-0.06685507
48	0x3d9b64b7	0.07587569
49	0x3daa439b	0.08313676
50	0x3c677ca4	0.014128838
51	0xbd809cae	-0.06279884
52	0x3b9d217d	0.004795252
53	0x3d89d0d6	0.067292854
54	0xbd8bdb2e	-0.068289146
55	0xbdae5a43	-0.0851331
56	0x3da84e61	0.082180746
57	0x3da32441	0.07965899
58	0x3d65c672	0.056097455
59	0x3d8f03d9	0.06983156
60	0xbd8cc96b	-0.06874355
61	0x3d694e37	0.056959357
62	0x3a48df52	0.0007662672
63	0x3d17f361	0.03709734
64	0xbd2fde96	-0.042936884
65	0xbd0cb958	-0.034356445
66	0xbd965d89	-0.07342059
67	0x3db12cb7	0.08651107
68	0xbcb0b47e	-0.02157044
69	0xbc9d366d	-0.019190991
70	0xbd8f4123	-0.06994846
71	0x3d174fec	0.036941454
72	0xbda51314	-0.080602795
73	0xbd9b5fcb	-0.075866304
74	0x3c9fc3b9	0.019502508
75	0xbcd3ef66	-0.02587099
76	0xbd10c8de	-0.035347812
77	0xbd12b3ca	-0.03581599
78	0xbd8c0abc	-0.06837985
79	0x3dab06a6	0.083508775
80	0x3dbb5a78	0.09148115
81	0xbadd8fe9	-0.001690385
82	0xbd8bf136	-0.06833117
83	0xbca9d0da	-0.020729471
84	0xbb852305	-0.0040630125
85	0xbc28122e	-0.010258241
86	0x3dabeff2	0.08395375
87	0xbc916287	-0.017747177
88	0x3d30b8ff	0.043145176
89	0x3d99b92f	0.07506024
90	0xbcd997a1	-0.02656156
91	0x3b814a51	0.003945627
92	0x3c47b5cc	0.01218934
93	0x3c15cf8e	0.009143723
94	0xbcd682a0	-0.026185334
95	0xbdad2024	-0.08453396
96	0xbd944449	-0.07239587
97	0xbd08ab30	-0.033366382
98	0x3dadc5c1	0.08484984
99	0x3d19b932	0.03753013
100	0xbc91c78f	-0.017795352
101	0x3d13608b	0.035980742
102	0xbd0fe4f5	-0.03513046
103	0x3bdd2bc3	0.0067496016
104	0xbd8250e0	-0.06363082
105	0x3c85ae93	0.016318595
106	0xbb8fc9bd	-0.0043880627
107	0x3d6065a8	0.054784447
108	0xbd8327b5	-0.06404058
109	0xbd4f31b9	-0.05058453
110	0xbaf0cc62	-0.0018371458
111	0x3cde20f4	0.027115323
112	0x3d5e9e45	0.054350156
113	0xbd829554	-0.06376138
114	0xbd873435	-0.066017546
115	0x3d8981fd	0.067142464
116	0xbd9236d7	-0.07139366
117	0xbcdd8e31	-0.027045341
118	0xbcf01dbb	-0.029311052
119	0xbda23ba4	-0.07921532
120	0x3cdff18d	0.02733686
121	0xbd3a81f9	-0.045534108
122	0x3ce98009	0.028503435
123	0xbd9636b7	-0.07334655
124	0x3bf8b422	0.007589833
125	0x3b4ccd47	0.0031250285
126	0x3d38dab1	0.045130435
127	0xbd6a6799	-0.057227705

weight f4 [2, 128]
0	0xbd4a2b4b	-0.049357694
1	0x3ada1d6d	0.001664085
2	0x3e0feb4e	0.14054605
3	0xbd48658c	-0.048924968
4	0x3e897fb5	0.26855245
5	0x3e17d228	0.14826262
6	0x3d2c2be8	0.04203406
7	0x3cd22e3f	0.025656817
8	0x3ce1ce5c	0.02756422
9	0x3cf237e4	0.029567666
10	0xbdb953fd	-0.090492226
11	0xbd9c1b52	-0.076223984
12	0x3c933afa	0.017972458
13	0x3c07ac19	0.008280777
14	0xbd381171	-0.04493851
15	0x3d1eea48	0.038797647
16	0x3d770083	0.060303222
17	0xbdc58842	-0.0964513
18	0x3d66075a	0.056159355
19	0xbd6de913	-0.058083605
20	0x3dbc9b18	0.09209269
21	0x3d100be1	0.03516758
22	0xbd9ecc9c	-0.0775387
23	0x3da614f8	0.08109468
24	0xbdfcdf7a	-0.12347312
25	0xbb0df16c	-0.0021658791
26	0x3e005b18	0.1253475
27	0x3da79b2d	0.08183894
28	0x3d150736	0.03638383
29	0xbdad8853	-0.084732674
30	0xbdf558bd	-0.11979816
31	0x3cfba725	0.03071935
32	0x3dc2729d	0.09494517
33	0xbcc94b30	-0.024571985
34	0xbdb3538e	-0.08756171
35	0x3ca7d1bd	0.020485753
36	0xbe0aa5a7	-0.13539754
37	0xbd122bbe	-0.035686247
38	0xbda09710	-0.07841313
39	0xbd82fb7f	-0.06395625
40	0xbe3f1a27	-0.1866232
41	0xbce41540	-0.027842164
42	0xbe010242	-0.12598518
43	0x3e40f1df	0.18842266
44	0x3d04b91c	0.032403097
45	0x3cb5be03	0.022185331
46	0xbd0742f4	-0.033022836
47	0xbd044586	-0.032292865
48	0x3d8605b7	0.06544059
49	0x3d2da76c	0.042395994
50	0xbce0efa5	-0.027458021
51	0x3ba9f00b	0.005186086
52	0x3aa172df	0.001231756
53	0x3d8bb5d0	0.06821787
54	0x3cbb61b9	0.022873746
55	0xbcf93d5d	-0.030424768
56	0xbbdce0ee	-0.006740681
57	0xbdb2f047	-0.087372355
58	0x3dab4507	0.08362775
59	0x3dafbf80	0.085814476
60	0xbdcfdc1c	-0.101494044
61	0xbce02353	-0.027360594
62	0x3d8aa562	0.067698255
63	0x3d093e31	0.033506576
64	0x3d50d9a3	0.050988805
65	0x3d9e28fd	0.07722662
66	0xbc9f982b	-0.019481739
67	0x3e2ea61f	0.17055558
68	0xbdcf2aa0	-0.10115552
69	0x3e380767	0.17971574
70	0x3c1df826	0.009641683
71	0xba86af43	-0.0010275621
72	0xbd2abd5e	-0.0416845
73	0xbced9c33	-0.029005146
74	0xbc70c855	-0.0146962
75	0x3d0f9dbc	0.035062537
76	0x3df7c7d6	0.120986626
77	0x3becaac7	0.0072225067
78	0xbe0d7dd8	-0.13817537
79	0x3d05ccb5	0.032665927
80	0x3e036d18	0.12834585
81	0xbe16b54f	-0.14717601
82	0xbbba94b5	-0.005693997
83	0xbe086bab	-0.13322322
84	0xbd921c87	-0.071343474
85	0x3c012ccd	0.0078842165
86	0x3aba7a07	0.0014227041
87	0x3c1173cd	0.008877707
88	0xbca85741	-0.020549418
89	0x3d8e93e2	0.069618
90	0xbda20414	-0.07910934
91	0xbd824248	-0.063602984
92	0xbd99aec5	-0.07504038
93	0x3d35c394	0.04437597
94	0xbe00aa3c	-0.1256494
95	0x3be7450e	0.0070577925
96	0xbddb882d	-0.10719333
97	0xbba1458e	-0.0049216216
98	0x3d4cdc17	0.05001458
99	0x3c8c9209	0.017159479
100	0x3d776024	0.06039442
101	0x3d8e4cb3	0.06948223
102	0x3a8de9f5	0.0010827171
103	0x3d375669	0.04476014
104	0x3dd1dccd	0.102471925
105	0xbd77576d	-0.06038611
106	0x3dc86306	0.09784512
107	0xbd000cf4	-0.031262353
108	0x3d03fd07	0.032223728
109	0xbdb7a9c7	-0.08967929
110	0x3e20d4da	0.15706196
111	0xbdf44abc	-0.11928317
112	0xbd4012f5	-0.04689308
113	0xbe006050	-0.1253674
114	0xbd8c38e4	-0.068467885
115	0x3d96a396	0.0735542
116	0x3d63f192	0.0556503
117	0x3d3a2c71	0.04545254
118	0x3b879409	0.00413752
119	0xbcc80a61	-0.024419012
120	0xbd7f7b24	-0.062373295
121	0xbd9078a5	-0.07054261
122	0xbcbc82ca	-0.023011584
123	0xbd0f5efb	-0.03500269
124	0x3d68b727	0.056815293
125	0xbd107080	-0.03526354
126	0x3a495de5	0.0007681533
127	0xbb833208	-0.004003767
128	0x3d566c28	0.05234924
129	0xbda97e21	-0.0827601
130	0xbdef5770	-0.11686599
131	0x3d1da9e6	0.038492106
132	0xbe6b59b8	-0.22983444
133	0xbe112086	-0.14172563
134	0x3d8302ed	0.063970424
135	0x3dd76f56	0.105192825
136	0x3d8a8cae	0.06765114
137	0xbc5ed350	-0.0136001855
138	0xbce9799a	-0.028500367
139	0x3e40260e	0.18764517
140	0x3d0547e5	0.032539267
141	0xbcfdbcbb	-0.030973783
142	0xbd8209d9	-0.063495345
143	0x3d8e3807	0.0694428
144	0xbda92e9f	-0.082608454
145	0x3d4eaac1	0.050455812
146	0xbcedf6f9	-0.02904843
147	0xbd8638a8	-0.06553775
148	0xbca3eeaa	-0.020011265
149	0x3ce8c15e	0.028412517
150	0xbd7ebbb9	-0.062190745
151	0xbdae8bc7	-0.08522754
152	0x3d877ae3	0.06615236
153	0x3db34262	0.08752896
154	0xbd967529	-0.07346565
155	0xbcac13f5	-0.02100561
156	0xbca38e82	-0.019965414
157	0xbd0f37e6	-0.03496542
158	0x3db22e3a	0.08700223
159	0x3d611806	0.05495455
160	0x3d69460a	0.05695156
161	0xbd18500c	-0.037185714
162	0xbd1351eb	-0.035966795
163	0x3db0ecb6	0.08638899
164	0x3e1e08a8	0.1543299
165	0xb92fb6df	-0.00016757425
166	0x3dee64cd	0.1164032
167	0xbd176fba	-0.036971785
168	0x3e226604	0.15859228
169	0x3dbec025	0.093139924
170	0x3e1d13a6	0.15339527
171	0xbdb208dd	-0.08693097
172	0x3d048e8d	0.03236251
173	0xbcf020c4	-0.029312499
174	0x3d2fefe6	0.042953394
175	0x3d9b58fe	0.07585333
176	0xbddd14f0	-0.10795009
177	0x3d1e3ca3	0.038632046
178	0x3cd4b5e5	0.02596564
179	0x3da59bb4	0.08086339
180	0xbc591762	-0.013250204
181	0x3d9554d0	0.07291567
182	0x3cb2a709	0.021808164
183	0xba1243c9	-0.0005579559
184	0x3d9ee964	0.077593595
185	0xbcad7a3a	-0.021176446
186	0xbe03feb1	-0.12890126
187	0xbdb55c3e	-0.088554844
188	0x3e097594	0.13423759
189	0xbd63e02e	-0.055633716
190	0x3d60097d	0.05469655
191	0xbdf0cc35	-0.117576994
192	0xbdb4bbfd	-0.088249184
193	0xbd12aea7	-0.035811093
194	0x3cb7b4a7	0.022425009
195	0xbe3d2aa7	-0.18473302
196	0x3dbd7ce2	0.09252335
197	0xbe27292b	-0.16324298
198	0xbcb73c95	-0.022367755
199	0xbd0dbf99	-0.03460655
200	0x3db6d365	0.08927039
201	0x3a9d9dbc	0.0012025158
202	0x3d46ac40	0.048504114
203	0xbd8df5a7	-0.0693162
204	0xbd9e06d9	-0.0771615
205	0x3c4c43b5	0.0124673145
206	0x3e17a3a3	0.14808516
207	0x3da9dfca	0.082946375
208	0xbe03c6dc	-0.12868828
209	0x3e0b1757	0.13583122
210	0x3d994979	0.07484717
211	0x3bafd523	0.005365984
212	0x3daf7c65	0.08568648
213	0xbddfe3f4	-0.109321505
214	0x3c906358	0.017625496
215	0x3cd14560	0.025545776
216	0xbd1ee870	-0.03879589
217	0xbdb3a0ce	-0.087709054
218	0x3da69a66	0.08134918
219	0x3c5228c1	0.012827099
220	0xbcd838f1	-0.02639434
221	0xbd95a064	-0.07305983
222	0x3db9b6c8	0.09068066
223	0x3d8c024b	0.06836375
224	0x3e08b530	0.13350368
225	0x3db49308	0.088171065
226	0xbb82efda	-0.0039958777
227	0xbc60e36f	-0.013726099
228	0x3ca2491d	0.019810254
229	0xbc89103d	-0.016731376
230	0x3d2f15cf	0.042745408
231	0xbd398137	-0.045289245
232	0xbe3440e9	-0.17602886
233	0xbcba51f5	-0.022744158
234	0xbdbb265d	-0.091381766
235	0x3d63c5b6	0.055608474
236	0xbd4ddf4f	-0.05026179
237	0x3dd24d2b	0.10268625
238	0xbe535511	-0.20637919
239	0x3dc99857	0.0984351
240	0x3dd5643d	0.104195096
241	0x3e18c957	0.14920555
242	0xbaecc023	-0.0018062632
243	0x3dab1f46	0.08355574
244	0x3d220ad2	0.0395611
245	0xbd39864a	-0.045294084
246	0xbe25d4f5	-0.16194518
247	0xbd718eea	-0.058974184
248	0x3d12157d	0.035665024
249	0x3d332418	0.043735594
250	0xbc2d19c1	-0.010565222
251	0xbcdf4325	-0.027253697
252	0x3d9dedf1	0.07711399
253	0x3d49c74d	0.049262334
254	0xbcb26c5d	-0.021780187
255	0x3d7a0e57	0.06104883

bias f4 [2]
0	0x3d4967cb	0.04917125
1	0xbdf9c7ae	-0.12196289
