graph2vec_optimization/model/60_mlp_graph2vec_opt_2.pt (torch_old, 382907 bytes, 6 tensors)

weight f4 [128, 600]
0	0xbcd6266c	-0.026141368
1	0xbbce8a30	-0.0063030943
2	0xbc359f90	-0.011085406
3	0x3cd4e534	0.025988199
4	0x3c6bfdf0	0.014403805
5	0x3cc10ac8	0.023564711
6	0x3cec25c4	0.028826602
7	0xbc2be598	-0.010491751
8	0xbd0e833d	-0.034793127
9	0x3ca4e04e	0.020126488
10	0x3c42bb48	0.011885472
11	0x3ce608b4	0.028080322
12	0x3c874054	0.016510166
13	0x3cec9e70	0.028884143
14	0x3d0bdc2e	0.034145527
15	0x3c28f2a4	0.010311756
16	0x3b9ecdb8	0.004846301
17	0x3cc90708	0.024539486
18	0xbd0319d0	-0.03200704
19	0xbcf9ca6e	-0.030492034
20	0x3c54a1c8	0.012978025
21	0x3d231e68	0.03982392
22	0xbd1cc2ff	-0.0382719
23	0xbc92ccca	-0.017919917
24	0x3cb37c1c	0.021909766
25	0xbd17f254	-0.037096336
26	0xbc7551ec	-0.014973145
27	0x3c9a89b6	0.018864494
28	0x3d0a90b0	0.03382939
29	0xbcb1b377	-0.02169202
30	0x3c9a1642	0.018809441
31	0xbcc293c9	-0.02375211
32	0xbc62a2a2	-0.01383272
33	0x3c81c410	0.01584056
34	0x3c19b880	0.009382367
35	0xbbb13428	-0.005407829
36	0xbc3c53d6	-0.011494597
37	0xbd1f3ff1	-0.03887934
38	0xbc151570	-0.009099349
39	0xbc8004a7	-0.015627218
40	0xbcc7d3d4	-0.024393
41	0xbc97f56b	-0.018549642
42	0x3c60aca8	0.013713039
43	0xbcc20cfe	-0.023687836
44	0x3b4935f0	0.0030702315
45	0xbba6f5f8	-0.0050952397
46	0x3ba2fc08	0.004973892
47	0x3ce565d4	0.028002657
48	0x3d077ee0	0.03307998
49	0x3d060056	0.032715164
50	0xbba72698	-0.0051010363
51	0xbc97a35d	-0.018510515
52	0xbcfb6b72	-0.030690882
53	0xbc02cb10	-0.007982984
54	0x3ae281a0	0.0017281063
55	0xbcaec5b3	-0.021334505
56	0x3bb90bc8	0.0056471564
57	0x3c06fbc4	0.008238737
58	0x3d24eefe	0.040266983
59	0x3cb580d0	0.02215615
60	0x3bf1a3a8	0.0073742457
61	0x3d1fe86c	0.039040014
62	0x3b8b51d8	0.0042517
63	0x3cbf5010	0.023353606
64	0xbc8260b3	-0.01591525
65	0xbca22d74	-0.019797064
66	0xbcb4c80f	-0.022068052
67	0xbd24b789	-0.040214095
68	0x3c8ef66e	0.017451491
69	0x3cca0764	0.024661727
70	0xbc9e7b4f	-0.019345907
71	0x3cbece50	0.023291737
72	0xbc172568	-0.009225227
73	0x3d0aff2e	0.033934765
74	0xbb404850	-0.0029339977
75	0x3c9d6cac	0.019216858
76	0x3a7266c0	0.00092468783
77	0x3cb549b8	0.022129878
78	0xbcf244a2	-0.029573742
79	0xbb3b1130	-0.002854418
80	0xbcde2dce	-0.02712145
81	0x3cc2326c	0.023705684
82	0x3d117488	0.035511523
83	0xbd21eb3f	-0.03953099
84	0x3b1c7b30	0.0023877136
85	0xbc4280cc	-0.011871528
86	0x3c7fc9cc	0.015612077
87	0xbc379b0e	-0.0112064015
88	0x3cc41634	0.023936369
89	0xba7a38c0	-0.00095451996
90	0x3c3dff54	0.0115965195
91	0xbcda1346	-0.026620518
92	0xbd0b00b1	-0.033936206
93	0x3ce059e8	0.02738662
94	0x3c9d9ebc	0.01924073
95	0xbc977681	-0.018489124
96	0xbad91ce0	-0.0016564392
97	0x3cce2690	0.025164872
98	0x3ae8f300	0.0017772615
99	0x3a4f7b00	0.0007914752
100	0x3acdc860	0.0015699975
101	0xbcf14ed4	-0.029456533
102	0x3c8793e8	0.01655002
103	0xbb8f2ed0	-0.004369594
104	0x3c00d978	0.007864349
105	0x3d26f458	0.040760368
106	0xbbbef698	-0.005827736
107	0x3c9df12e	0.019280042
108	0xbcf6b05c	-0.030113392
109	0xbc15f718	-0.00915315
110	0x3d0ab0cc	0.033860013
111	0xbc1e9794	-0.009679694
112	0x3d128e66	0.035780333
113	0x3cb71f90	0.022353917
114	0xbd05fa1a	-0.03270922
115	0x3d233a6a	0.03985063
116	0xbaea1400	-0.0017858744
117	0x3c22e9c4	0.009943429
118	0xbcc366c2	-0.02385271
119	0xbb070580	-0.0020602643
120	0x3a65da00	0.0008768141
121	0x3ca81ad8	0.020520613
122	0x3b92a030	0.0044746622
123	0x3b17dcd0	0.0023172386
124	0xbc8775c4	-0.016535647
125	0xbbcbeb20	-0.0062230974
126	0x3cbe0a84	0.023198374
127	0xbccbe10e	-0.024887588
128	0xbc80b7c6	-0.01571263
129	0x3cdcd884	0.026958711
130	0x3b6bc830	0.0035977475
131	0xbcb0b719	-0.021571683
132	0xba5aa440	-0.0008340515
133	0x3cdd4f14	0.027015246
134	0x3c359cec	0.011084776
135	0xbc21d072	-0.009876357
136	0x3d0f5342	0.03499151
137	0xbc8cf64b	-0.017207285
138	0x3c7e19c0	0.015509069
139	0xbc4c8c80	-0.01248467
140	0xbcbcb451	-0.0230352
141	0xb9c10880	-0.00036818162
142	0x3cc0cd90	0.02353552
143	0xbc553d94	-0.01301517
144	0x3c9f1f40	0.01942408
145	0xbd15f64c	-0.03661184
146	0xbcd76091	-0.026291164
147	0xbd0752e4	-0.033038035
148	0x3c8476dc	0.016169958
149	0xbbf52a88	-0.0074818768
150	0xbc0e2174	-0.008674968
151	0x3cc0054c	0.023440026
152	0xbc8293ef	-0.01593968
153	0xbd012092	-0.031525202
154	0x3d168c20	0.036754727
155	0xbcb21fc9	-0.021743672
156	0x3c994fe6	0.018714856
157	0x3cc3a008	0.02388002
158	0xbd061499	-0.032734487
159	0x3cd98a70	0.02655527
160	0x3d06cf4a	0.03291253
161	0xbcd662a3	-0.02617008
162	0x3cdc86e0	0.026919782
163	0x3c6da874	0.014505494
164	0x3c8b5392	0.017007623
165	0x3cfd3c3c	0.030912511
166	0x3c42f780	0.011899829
167	0xbbeca678	-0.007221993
168	0xbc5b65b4	-0.013390947
169	0xbd106ecf	-0.035261925
170	0x3bbe3060	0.0058041066
171	0xbd20ba91	-0.039240424
172	0x3c3c4804	0.011491779
173	0x3c0c321c	0.008556869
174	0xbbaf8f28	-0.0053576417
175	0xbcced272	-0.025246833
176	0x3c2e4698	0.010636948
177	0x3b8cee38	0.004300859
178	0xbcf11724	-0.02942998
179	0xbc2b2b64	-0.010447357
180	0xbc065ac0	-0.008200347
181	0x3cbdc224	0.023163863
182	0xba94b580	-0.0011345595
183	0x3b1bb950	0.0023761578
184	0xbc659e9c	-0.014014866
185	0x3cd67444	0.026178487
186	0xbb9801e8	-0.004638899
187	0xbc4940d0	-0.012283519
188	0xbc4dc272	-0.012558566
189	0x3d02cd90	0.03193432
190	0x3c210dc0	0.009829938
191	0x3c1a9108	0.009433992
192	0x3ce34bc8	0.027746096
193	0xbc5354c8	-0.012898631
194	0x3cad62c6	0.021165263
195	0xbc1eea36	-0.009699395
196	0x3d0bf8be	0.034172766
197	0x3d007e5e	0.031370513
198	0xbcb0d010	-0.021583587
199	0x3bd5d030	0.006525062
200	0xbcb18ecc	-0.021674536
201	0xbd1d582c	-0.038414165
202	0xbd07f39e	-0.033191316
203	0xbc0d4f84	-0.008624915
204	0x3c81829e	0.015809353
205	0x3ce50e04	0.027960785
206	0xbcfa78de	-0.030575212
207	0xbcb6ce30	-0.022315115
208	0x3cde5e50	0.027144581
209	0x3c2d8bb0	0.010592386
210	0xbd143c51	-0.036190335
211	0x3d04cb1e	0.03242027
212	0xbd1137d2	-0.035453625
213	0x3cdc9428	0.026926115
214	0xbcced69a	-0.025248814
215	0xbcda6457	-0.026659174
216	0xbcca3af3	-0.024686312
217	0x3c85f4a8	0.016352013
218	0x3bf79950	0.007556118
219	0xbcfbb9fc	-0.030728333
220	0x3c60785c	0.013700571
221	0xbc517f66	-0.012786722
222	0xbd22a49a	-0.039707758
223	0x3d1e4faa	0.038650192
224	0xbd203b6c	-0.03911917
225	0xbd07d585	-0.033162612
226	0xbcd1075c	-0.025516205
227	0x3b56f940	0.0032802373
228	0xbcbc3cf5	-0.022978285
229	0xbc9a2fdb	-0.018821647
230	0x3b46e990	0.0030351616
231	0xbc62ae64	-0.013835523
232	0xbd0d3e78	-0.034483403
233	0x3cef9d60	0.029249847
234	0x3cdfe254	0.027329601
235	0xbcbff479	-0.023432003
236	0x3c922f2a	0.017844755
237	0x3cdb54bc	0.026773803
238	0x3c8e9cb8	0.017408714
239	0x3bb1fe70	0.0054319426
240	0xba0f9d00	-0.0005478412
241	0x3afaff20	0.001914952
242	0x3d1a16ae	0.037619285
243	0x3c8ca5b2	0.017168853
244	0x3d17caf0	0.03705877
245	0x3d02954e	0.03188067
246	0x3c805acc	0.015668295
247	0xbc90174c	-0.017589234
248	0xbd0e55ed	-0.034749914
249	0x3d09d84c	0.033653542
250	0xbbeab3f0	-0.0071625635
251	0x3b85bef8	0.004081603
252	0xbd1d4ddd	-0.038404334
253	0xbd06ba8b	-0.032892745
254	0x3c929fa8	0.017898396
255	0x3cd2972c	0.02570685

bias f4 [128]
0	0xbc28f3fe	-0.0103120785
1	0xbc820aba	-0.015874255
2	0x3c0ec1c9	0.008713194
3	0xbd00e56f	-0.031468805
4	0x3c74b713	0.014936226
5	0xbc55723a	-0.013027722
6	0x3c83c2a0	0.016084015
7	0xbc80bbf4	-0.015714623
8	0x3cc79624	0.024363585
9	0xbc941cdb	-0.018080166
10	0x3ceae2ca	0.028672595
11	0x3ccdce40	0.025122762
12	0x3d2899bc	0.041162238
13	0x3bc08cd3	0.0058761626
14	0x3ca0963f	0.019602893
15	0x3c1b67e7	0.0094852215
16	0x3ce2aa1d	0.027669007
17	0xbcf1f306	-0.029534828
18	0xbbe9a138	-0.0071298145
19	0x3c9e29e6	0.019307088
20	0x3d153d0c	0.036435172
21	0x3d23b153	0.03996403
22	0xbd199a4b	-0.03750066
23	0xbd227e1d	-0.039671052
24	0x3d19b1bb	0.037523013
25	0x3c92f1e2	0.017937604
26	0xba1638ac	-0.00057304907
27	0x3cc027d8	0.023456499
28	0xbc3d328c	-0.011547696
29	0x3cc8804e	0.024475243
30	0xbc9aee41	-0.018912436
31	0xbc55286e	-0.0130101275
32	0x3d0b0ef7	0.03394982
33	0xbc9d12ab	-0.01917394
34	0xbbfea7a2	-0.007771448
35	0xbcdd2059	-0.026992964
36	0x3c7844af	0.015153094
37	0x3cbc42b6	0.022981029
38	0x3c4e2807	0.012582785
39	0x3cb04fed	0.021522487
40	0xbbe9b39e	-0.0071320077
41	0xbcfbb577	-0.030726178
42	0xbc79272b	-0.015207092
43	0x3ceb102a	0.028694231
44	0xbc4b8ea3	-0.012424144
45	0xbcc99280	-0.02460599
46	0x3ce14c38	0.027502164
47	0x3c2d17a6	0.01056472
48	0xbae72180	-0.0017633885
49	0xbba68b0c	-0.0050824936
50	0x3c4df341	0.012570203
51	0x3c9b1206	0.018929493
52	0xbb77b0e1	-0.0037794637
53	0x3d0f6380	0.035007
54	0xbd16a5ea	-0.03677932
55	0xbced3534	-0.028956033
56	0x3969df34	0.00022303761
57	0xbbd9c077	-0.006645258
58	0xbbb582f6	-0.0055392934
59	0xbc2a54e5	-0.010396217
60	0xbc45d712	-0.012075203
61	0x3bda7dce	0.006667829
62	0x3d224cc7	0.039624
63	0xbc955601	-0.018229486
64	0x3af23dd7	0.0018481564
65	0xbc8344eb	-0.016024074
66	0x3c1fc20b	0.009750853
67	0xbcfc5782	-0.030803446
68	0x3d26081c	0.040535077
69	0x3c913f70	0.017730445
70	0x3d32161b	0.043478113
71	0xbd3fe9ac	-0.046853706
72	0xbc44f796	-0.01202192
73	0x3d1f0e0a	0.038831748
74	0x3c3c38f0	0.011488184
75	0xbc9e21cd	-0.019303227
76	0xbc82885f	-0.015934167
77	0xbcbbf5ca	-0.02294435
78	0xbacfedc7	-0.001586371
79	0xbd1902b2	-0.037356086
80	0x3d136c99	0.03599224
81	0x3ce50f3c	0.027961366
82	0xbcaa1441	-0.020761611
83	0xbbfc8666	-0.007706451
84	0x3c45a6e8	0.012063719
85	0xbb1fedb6	-0.0024403161
86	0x3cb5e199	0.0222023
87	0xbc86d402	-0.016458515
88	0xbb97cb57	-0.0046323943
89	0xbca08132	-0.019592855
90	0xbc507cb7	-0.012725047
91	0x3d19bf4a	0.037535943
92	0xbc64f11e	-0.013973502
93	0xbd112701	-0.035437588
94	0x3c3674b1	0.01113622
95	0xbce9f125	-0.02855737
96	0x3c0597bf	0.008153855
97	0x3cdb4869	0.026767926
98	0x3d23e7b7	0.040015902
99	0xbcb9a991	-0.022663863
100	0xbcdf918b	-0.02729108
101	0xbc70898e	-0.014681233
102	0xbcdac1b8	-0.0267037
103	0xbbe3550b	-0.006937628
104	0x3c8b3881	0.016994717
105	0xbd046b83	-0.032329094
106	0x3c9dd563	0.01926679
107	0x3ca90253	0.020630991
108	0xbd2ed3ad	-0.04268234
109	0x3b0818d4	0.0020766752
110	0x3ccb6ac3	0.024831181
111	0x3c79f2f4	0.015255678
112	0x3d1b8b6b	0.037974756
113	0xbcced4bf	-0.02524793
114	0x3ca20050	0.01977554
115	0xbbc49ec5	-0.006000372
116	0xbd02343d	-0.0317881
117	0xbc12b07c	-0.00895321
118	0xbd05a655	-0.03262933
119	0x3ce300b4	0.027710296
120	0x3ba91dba	0.0051610144
121	0xbd4b00b7	-0.04956123
122	0x3cd39f49	0.025832789
123	0xbbb36ba4	-0.0054754782
124	0xbc7047dc	-0.01466557
125	0xbbdf38ee	-0.0068122065
126	0xbbe7a47b	-0.007069168
127	0x3ceda4b3	0.029009199

weight f4 [128, 128]
0	0xbda87522	-0.08225466
1	0xbd19b750	-0.037528336
2	0x3db97b4d	0.09056721
3	0xbd2f5952	-0.042809792
4	0x3dbe24c5	0.09284357
5	0xbd216888	-0.03940633
6	0xbb94f6e0	-0.0045460314
7	0xbca29fae	-0.019851532
8	0x3d46d8db	0.048546653
9	0x3da5f006	0.081024215
10	0x3d7c7028	0.061630398
11	0xbd53d585	-0.0517173
12	0x3d99c93e	0.07509087
13	0x3d349675	0.0440888
14	0x3d40dd26	0.047085904
15	0x3d9fd2b8	0.07803863
16	0xbd511f16	-0.051055036
17	0x3c667960	0.014067024
18	0xbda077c6	-0.07835345
19	0x3d7d3185	0.061814804
20	0x3db189f5	0.08668891
21	0x3d1559f8	0.036462754
22	0x3da98a1b	0.08278295
23	0xbbb29a22	-0.005450503
24	0x3b29e04d	0.0025921047
25	0xbd323f69	-0.043517504
26	0xbd6994b8	-0.057026595
27	0x3dad9f1c	0.08477613
28	0x3d9f453a	0.07776876
29	0xbc1543c3	-0.009110394
30	0xbdac8649	-0.0842405
31	0xbc3cd2f8	-0.011524908
32	0x3c186acd	0.009302807
33	0x3cdbb0ef	0.026817767
34	0x3ce54708	0.027987972
35	0xbc770331	-0.0150764445
36	0x3ccb3678	0.024806246
37	0x3c750746	0.014955347
38	0x3d1e55df	0.03865611
39	0x3d33dd8f	0.043912467
40	0xbd037e86	-0.032103084
41	0x3c5b8dcf	0.013400509
42	0xbd741ed0	-0.059599698
43	0x3d1ae103	0.037812244
44	0xbc437557	-0.0119298315
45	0x3d5399e4	0.051660433
46	0x3d8f8f00	0.07009697
47	0x3d768fa0	0.060195565
48	0x3d198eaa	0.03748957
49	0xbd968613	-0.073497914
50	0x3da75e42	0.08172275
51	0xbdc336f7	-0.09531968
52	0xbd2a402e	-0.041565113
53	0xbcc8d033	-0.02451334
54	0x3d9a59b0	0.07536638
55	0xbc81a83a	-0.015827287
56	0x3c6bea67	0.014399148
57	0xbd8e2684	-0.0694094
58	0xbcbb47e3	-0.022861427
59	0xbd9f1b66	-0.07768898
60	0x3d3ab67f	0.045584198
61	0xbdaa223e	-0.083073124
62	0xbda15332	-0.07877196
63	0xbd828731	-0.06373442
64	0xbb459c38	-0.0030152928
65	0xbd4b6c64	-0.049663916
66	0xbd61b318	-0.055102438
67	0xbd3e4591	-0.046453062
68	0x3dc2e0e7	0.09515553
69	0x3db051d2	0.08609356
70	0x39ee0e92	0.00045405753
71	0x3d12c5a7	0.035833027
72	0xbcf7ebba	-0.03026377
73	0xbdadca94	-0.08485904
74	0xbd97560b	-0.07389458
75	0xbca5bffe	-0.02023315
76	0x3d6cd25f	0.057817813
77	0x3d9cde61	0.07659603
78	0x3d6fc32c	0.05853574
79	0xbce8b366	-0.028405856
80	0x3d6d3ead	0.0579211
81	0xbda4275e	-0.08015321
82	0x3d820690	0.06348908
83	0xbd4eb1d4	-0.05046256
84	0x3d6bf723	0.057608735
85	0x3c75a244	0.0149923
86	0x3cd088e8	0.025455907
87	0x3db3a027	0.08770781
88	0x3d8bc2ec	0.06824288
89	0x3d17e89c	0.037087068
90	0x3d93580b	0.07194527
91	0x3d48417e	0.048890583
92	0x3c130ce4	0.008975241
93	0xbdafb78b	-0.0857993
94	0xbdaf84ab	-0.08570226
95	0xbd2fabdc	-0.042888507
96	0xbd12d01d	-0.035843004
97	0x3c026751	0.007959203
98	0x3d7df9a6	0.06200566
99	0x3dc4db49	0.09612138
100	0x3d256046	0.040375017
101	0xbbd0218f	-0.0063516567
102	0x3c9d821a	0.019227076
103	0xbd8fddb0	-0.070247054
104	0xbd082733	-0.03324051
105	0x3d9b68ee	0.07588373
106	0xbd7b0934	-0.061288074
107	0xbc9639c2	-0.018338088
108	0x3ca6efd9	0.02037804
109	0x3c6ca422	0.014443429
110	0xbd5444b4	-0.051823333
111	0xbd0bf675	-0.034170587
112	0xbcfbe66c	-0.030749522
113	0x3db0a241	0.086246975
114	0x3da71a41	0.081593044
115	0x3d417889	0.047234092
116	0x3d83543d	0.064125516
117	0x3d4dcbaf	0.050243076
118	0xbd9f5fc6	-0.07781939
119	0xbcd8e2cb	-0.02647533
120	0xbdaf08a5	-0.08546571
121	0xbd668148	-0.056275636
122	0x3ab197d7	0.001354928
123	0x3d195501	0.03743458
124	0x3d7d2a30	0.06180781
125	0xbd0f81ea	-0.035036005
126	0xbd874b91	-0.0660621
127	0x3cbabb3a	0.022794355
128	0xbd9bee22	-0.076137796
129	0xbd0ca8bb	-0.0343406
130	0x3cb77c52	0.022398148
131	0x3cdf97c3	0.027294045
132	0x3db3a944	0.08772519
133	0xbd4e9763	-0.050437342
134	0x3d851678	0.06498426
135	0xbcd0eacf	-0.02550259
136	0xbcc31e0b	-0.023818037
137	0x3d5c89a1	0.05384219
138	0xbd5d0abb	-0.05396531
139	0x3d118998	0.03553161
140	0xbc31e983	-0.010858896
141	0xbd35a062	-0.044342406
142	0x3cb47065	0.02202625
143	0x3b8bf34d	0.004270947
144	0xbc4e6e0e	-0.012599481
145	0xbd9fb6ec	-0.077985615
146	0xbb7f189c	-0.003892458
147	0x3d032c6b	0.032024782
148	0xbcb28341	-0.021791102
149	0xbcc977ff	-0.024593351
150	0x3d8623af	0.06549775
151	0x3d9adb2b	0.07561334
152	0x3d7c801e	0.06164562
153	0x3d1196e4	0.03554429
154	0xbd8b68d2	-0.06807102
155	0x3d524577	0.051335778
156	0xbdac6406	-0.084175155
157	0xbd9dbd55	-0.07702128
158	0x3d30364a	0.043020524
159	0x3d9e9291	0.07742799
160	0x3c903c33	0.01760683
161	0x3d8ed98e	0.06975089
162	0x3d645f15	0.05575474
163	0xbd076583	-0.033055793
164	0x3bee0f21	0.007264987
165	0x3d330101	0.04370213
166	0xbc6971ab	-0.014248292
167	0xbd926ae0	-0.07149291
168	0x3bd3c16c	0.0064622667
169	0x3bc8f731	0.006132983
170	0x3d0c491c	0.03424941
171	0x3d0c0c85	0.034191627
172	0x3d3e5cf3	0.046475362
173	0x3d43a8be	0.047768347
174	0x3d728746	0.059211038
175	0xbcb0e1d4	-0.021592058
176	0x3d05486c	0.03253977
177	0xbd31e738	-0.043433398
178	0xbd1cff4e	-0.038329415
179	0x3c863bc5	0.016385922
180	0xbc93430d	-0.017976308
181	0xbda768b8	-0.081742704
182	0x3cfad500	0.030619144
183	0x3cf8299a	0.030293275
184	0xbcc05179	-0.02347635
185	0xbd4c475d	-0.049872745
186	0xbd042bea	-0.032268442
187	0x3d81407e	0.06311129
188	0xbc8ea0e5	-0.017410705
189	0x3daf6489	0.085640974
190	0x3d8d586a	0.06901629
191	0xbd16398a	-0.036675967
192	0xbd9fbd58	-0.07799786
193	0x3da0d0f3	0.07852354
194	0xbd82e3e3	-0.06391122
195	0xbbe9e524	-0.0071379114
196	0xbda5760a	-0.08079155
197	0x3d386c00	0.04502487
198	0xbd62ea0e	-0.055398993
199	0xbc82daa7	-0.015973402
200	0xbcd7e0a7	-0.02635224
201	0x3d88cdc3	0.06679871
202	0xbcf5e998	-0.030018613
203	0xbd6ff8e1	-0.05858696
204	0x3d57630a	0.052584685
205	0xbd21ad05	-0.039471645
206	0xbd5c5489	-0.053791557
207	0xbc6891f9	-0.014194959
208	0x3cbab574	0.022791602
209	0xbd765409	-0.060138736
210	0xbc74afb2	-0.014934467
211	0x3da2ebc7	0.07955127
212	0xbd98adad	-0.07455001
213	0xbc8d8d85	-0.017279396
214	0x3d21333e	0.03935551
215	0xbcecaf3d	-0.028892154
216	0x3d0fe05f	0.035126086
217	0xbc76af8f	-0.015056505
218	0x3b80c850	0.003930129
219	0xbd7b59c4	-0.061364904
220	0x3d7dbdeb	0.061948698
221	0xbd8388c0	-0.06422567
222	0x3b034c4e	0.0020034495
223	0x3d88749e	0.06662868
224	0xbd561e99	-0.052275274
225	0xbd2c96a1	-0.04213584
226	0x3c9e691c	0.01933723
227	0x3ced71e0	0.028984964
228	0xbd8e8a1e	-0.069599375
229	0xbd266a70	-0.04062885
230	0xbcc6e25c	-0.024277858
231	0x3d63f0aa	0.055649437
232	0xbb044dc4	-0.0020187953
233	0x3bd68685	0.0065467977
234	0xbd9b2ac3	-0.075765155
235	0xbd9cb9bc	-0.076526135
236	0x3d2100d5	0.039307434
237	0xbd72fccf	-0.05932313
238	0xbd574520	-0.052556157
239	0xbbd3c9c4	-0.0064632613
240	0xbd560073	-0.052246522
241	0xbc280b98	-0.01025667
242	0xbb94ca30	-0.004540704
243	0x3c8b910c	0.017036937
244	0xbcb582f5	-0.022157172
245	0xbcf38bf2	-0.029729817
246	0xbdb2ee89	-0.08736903
247	0x3d3d8e6a	0.046278395
248	0xbd083c2b	-0.033260506
249	0x3da0af14	0.078458935
250	0xbd8d90d3	-0.06912389
251	0x3dae3ec3	0.085080646
252	0xbd8f6936	-0.07002489
253	0x3c9f7060	0.019462764
254	0x3d1012dc	0.035174236
255	0xbdaf9d1a	-0.085748866

bias f4 [128]
0	0xbd5f8a4c	-0.05457525
1	0xbdaf753a	-0.08567281
2	0xbd938e0e	-0.07204829
3	0x3db3d0fc	0.08780095
4	0x3d3e65be	0.046483748
5	0xbca86e51	-0.020560415
6	0x3da892bd	0.08231113
7	0x3c977141	0.01848662
8	0x3cf87196	0.0303276
9	0x3d8b60da	0.06805582
10	0xbd9c8b98	-0.07643813
11	0x3db89bd2	0.09014095
12	0x3da2da14	0.07951751
13	0xbd123704	-0.035697
14	0x3d77ff4b	0.0605462
15	0x3cc7d8b1	0.024395319
16	0xbd3ce3cb	-0.046115678
17	0x3d5b15f3	0.05348773
18	0x3d68f604	0.056875244
19	0xbd73c17b	-0.05951069
20	0xbd16ba10	-0.036798537
21	0xbdaa00b3	-0.083009146
22	0x3da6ffdd	0.08154271
23	0xbcd68877	-0.026188118
24	0x3c52ff31	0.012878225
25	0xbcec3a80	-0.028836489
26	0xbc66106d	-0.014042002
27	0xbd1fa8c1	-0.038979296
28	0x3c698289	0.014252313
29	0x3d68d29d	0.05684148
30	0x3d0dfb58	0.03466353
31	0xbca8224c	-0.020524167
32	0x3ca89dea	0.020583112
33	0xbba3fc05	-0.0050044083
34	0x3c16838d	0.009186638
35	0xbdb7bb04	-0.08971217
36	0x3cd1b635	0.025599578
37	0x3d02a85c	0.03189884
38	0x3d9a8500	0.07544899
39	0x3da7fe4b	0.082027994
40	0x3d4af855	0.049553234
41	0x3d5ec5fb	0.054388028
42	0xbbbed263	-0.00582342
43	0x3dc0f83b	0.09422346
44	0xbcb6d74b	-0.022319457
45	0x3d4df123	0.050278794
46	0x3c3183d8	0.010834657
47	0x3d5cc38c	0.053897426
48	0x3d71ac46	0.059002183
49	0xbdb13ba6	-0.08653955
50	0x3d99aacc	0.0750328
51	0x3d9c239f	0.07623982
52	0x3da6594d	0.081225015
53	0x3c598d15	0.0132782655
54	0x3d633b21	0.05547631
55	0x3bf9d584	0.00762433
56	0xbd8d3455	-0.06894747
57	0x3d9d6114	0.07684532
58	0xbd5c8a35	-0.053842742
59	0xbd9711d2	-0.07376446
60	0x3d9a1e58	0.07525319
61	0x3d345b12	0.044032164
62	0xbc7ef3e0	-0.015561074
63	0x3cb5bd22	0.022184912
64	0xbd885fe9	-0.066589184
65	0x3c37dd87	0.01122225
66	0x3dc9634b	0.09833392
67	0xbd1b8a5b	-0.037973743
68	0xbd1d346c	-0.03838007
69	0x3d16e719	0.036841486
70	0x3bb5b8bd	0.005545704
71	0x3d8abf7b	0.06774803
72	0xba349e9a	-0.00068900886
73	0xbd210549	-0.03931168
74	0x3d180f24	0.037123814
75	0xbc6eef20	-0.014583379
76	0x3d6eda5f	0.058313724
77	0xbca43d0b	-0.020048639
78	0x3d52a704	0.05142881
79	0x3d8a2a69	0.0674637
80	0x3cdf937d	0.027292008
81	0xbd091026	-0.033462666
82	0x3d977b69	0.073965855
83	0x3d2c276a	0.042029776
84	0x3cb01a27	0.021496845
85	0xbd03ac11	-0.032146517
86	0xbd9cd4dc	-0.07657787
87	0xbd279e17	-0.04092225
88	0x3d39fe84	0.04540874
89	0xbcc59b84	-0.024122007
90	0xbd9906e0	-0.074720144
91	0xbd7b77da	-0.061393596
92	0xbc8fc11a	-0.017548133
93	0x3d62f928	0.055413395
94	0x3a8c9460	0.0010725372
95	0x3da955c8	0.082683146
96	0x3d75aab0	0.059977233
97	0x3daf9314	0.08572975
98	0x3c01e8d6	0.007929048
99	0xbc8fd2d9	-0.017556595
100	0x3c953c93	0.01821736
101	0xbd8b72f0	-0.06809032
102	0x3da3d212	0.07999052
103	0xbccd3366	-0.025048923
104	0x3cbe67e0	0.02324289
105	0xbd8b5b1a	-0.068044856
106	0xbd6b679c	-0.057471856
107	0x3d806f19	0.0627119
108	0xbd4be962	-0.049783118
109	0xbd61c79c	-0.055122003
110	0xbd323877	-0.04351088
111	0x3da4fd74	0.08056155
112	0xbd10096e	-0.035165243
113	0x3c62a16c	0.013832431
114	0xbb37ec28	-0.0028064344
115	0xbd59baaf	-0.05315655
116	0x3d5b9181	0.05360556
117	0xbd288d8d	-0.04115062
118	0x3dd6ba14	0.1048471
119	0x3c3cf0e4	0.011532042
120	0xbd925454	-0.071449906
121	0x3d29cfde	0.041458003
122	0xbccc75ed	-0.024958575
123	0xbd73dfab	-0.05953948
124	0xbd913378	-0.07089895
125	0x3d979468	0.07401353
126	0x3c7d298f	0.015451803
127	0xbda0fe93	-0.07861056

weight f4 [2, 128]
0	0x3dba610a	0.0910054
1	0x3bd7a169	0.006580521
2	0x3de17675	0.11008922
3	0xbd878b95	-0.0661842
4	0x3cad54f4	0.021158673
5	0x3da4c275	0.08044902
6	0xbbf1e5e7	-0.007382143
7	0xbd00f068	-0.03147927
8	0x3d86b672	0.065777674
9	0xbd16af18	-0.036788076
10	0x3d8b6de2	0.06808068
11	0x3dd46061	0.10369945
12	0x3e0b1710	0.13583016
13	0x3d701bac	0.05862014
14	0xba2056b3	-0.0006116435
15	0xbc3aafd8	-0.0113944635
16	0x3def35f0	0.1168021
17	0xbd57db17	-0.052699175
18	0x3d8a8a57	0.067646675
19	0xbc6e446c	-0.01454268
20	0xbd57888d	-0.05262046
21	0x3d8cc145	0.06872801
22	0xbd605bd6	-0.05477508
23	0xbdc6ec2d	-0.09713016
24	0xbcd7334a	-0.026269574
25	0x3d98d72d	0.074629165
26	0x3cd96a64	0.026539989
27	0xbd769c40	-0.060207605
28	0xbdb538a1	-0.08848692
29	0xbd12a5ce	-0.035802655
30	0xbd625714	-0.055258825
31	0x3e3ed77d	0.1863689
32	0x3dd1c693	0.10242953
33	0xbd24cd1a	-0.040234663
34	0x3e39a5d0	0.18129659
35	0xbe0d3dde	-0.13793132
36	0x3d0dd650	0.034628212
37	0x3df8cccd	0.12148438
38	0xbe19ee9c	-0.15032429
39	0x3c86c7e1	0.016452732
40	0xbd9bc597	-0.07606047
41	0xbcc488e2	-0.023991052
42	0xbcc0ae65	-0.023520658
43	0x3dbbbe2e	0.09167133
44	0x3e387af5	0.18015654
45	0x3d052646	0.032507204
46	0xbd82020a	-0.06348045
47	0x3c975ad5	0.01847593
48	0x3ce52837	0.027973277
49	0xbbea04e9	-0.0071416986
50	0xbd4b0430	-0.04956454
51	0x3d77dbc6	0.060512327
52	0x3ca74284	0.02041746
53	0xbe18e09e	-0.14929435
54	0xbd3a9241	-0.045549635
55	0xbca38c3d	-0.019964332
56	0x3b2dec70	0.0026538633
57	0xbd64d740	-0.05586934
58	0x3da05a6a	0.07829745
59	0x3ca3939d	0.019967848
60	0x3d2e7af5	0.04259773
61	0xbe01a604	-0.12660986
62	0x3cd3c675	0.025851468
63	0x3c0ab3df	0.008465736
64	0x3d01ca05	0.0316868
65	0x3cc93035	0.02455912
66	0x3e1931f4	0.14960462
67	0xbd4140e3	-0.04718102
68	0xbc8c17ff	-0.017101286
69	0xbe4b4ea2	-0.19854215
70	0xbc66f3ff	-0.014096259
71	0x3dddb8f1	0.108262904
72	0xbce6c1e0	-0.028168619
73	0xbd972181	-0.07379437
74	0xbd7c7317	-0.061633196
75	0x3d5fe98e	0.054666094
76	0x3db3b047	0.087738566
77	0xbe283ec9	-0.164302
78	0x3e09652b	0.13417499
79	0x3e0978c8	0.1342498
80	0x3c4f9966	0.01267085
81	0xbd1c8008	-0.038208038
82	0xbdb063c4	-0.08612779
83	0x3d9df9de	0.07713674
84	0xbcd53350	-0.026025444
85	0xbc88a180	-0.016678572
86	0x3c522551	0.01282628
87	0x3d820eb0	0.06350458
88	0xbdb854f7	-0.09000581
89	0x3d6d3a66	0.05791702
90	0xbe57523d	-0.21027465
91	0x3c1cb6b0	0.0095650405
92	0x3d84e961	0.06489826
93	0x3b754207	0.0037423389
94	0x3e2b4d37	0.16728674
95	0xbd9514a2	-0.07279326
96	0xbd3bef69	-0.045882616
97	0x3d888269	0.06665499
98	0xbd7a4c4c	-0.06110792
99	0x3d2749f8	0.040842026
100	0x3da61a20	0.08110452
101	0xbd633b7e	-0.055476658
102	0x3ca525c9	0.020159619
103	0xbcee7bc1	-0.029111745
104	0x3dc472da	0.09592219
105	0xbd95abb4	-0.073081404
106	0x3d706ae8	0.058695704
107	0x3e0121a5	0.1261049
108	0x3b7af27a	0.00382915
109	0x3d9731ae	0.073825225
110	0xbd8ce5cf	-0.0687977
111	0x3cf9b78f	0.030483035
112	0x3d4d9e2b	0.05019967
113	0x3e28f858	0.16500986
114	0x3e0ff0cf	0.14056705
115	0xbd9330fb	-0.07187077
116	0xbd38015f	-0.044923183
117	0x3da395e6	0.07987575
118	0x3e51ab5e	0.20475528
119	0xbd5ed4b3	-0.054402065
120	0xbd463222	-0.048387654
121	0x3d29c1f6	0.04144474
122	0x3d39ac72	0.045330472
123	0xbe2f8096	-0.17138895
124	0xbe081157	-0.13287865
125	0x3d1a927b	0.03773735
126	0x3e1c7446	0.1527873
127	0x3db2a230	0.08722341
128	0xbd1aac2b	-0.03776185
129	0xbc458f07	-0.012058026
130	0x3c242a85	0.010019903
131	0x3cf2bd0d	0.029631162
132	0xbda92d5f	-0.08260607
133	0xbd44e4ab	-0.048069637
134	0xbdd02f2b	-0.101652466
135	0xbcce69c5	-0.02519692
136	0xbd5122f4	-0.051058725
137	0x3d9071a1	0.07052923
138	0xbd882ad2	-0.06648792
139	0xbdc1074e	-0.094252214
140	0xbe1f2056	-0.15539679
141	0xbdb2a3fc	-0.08722684
142	0xbd9263d4	-0.07147947
143	0xbb87156b	-0.0041224263
144	0xbdcecbb9	-0.10097451
145	0x3de758a9	0.112962075
146	0xbdc043a3	-0.09387901
147	0x3c268762	0.010164114
148	0xbd826e2c	-0.0636867
149	0x3a155680	0.00056967884
150	0xbd8fa9c9	-0.07014806
151	0x3dac4588	0.084116995
152	0xbe1136cb	-0.14181058
153	0x3d6cbfe9	0.057800207
154	0x3b7479f3	0.0037304133
155	0x3dcfdef8	0.1014995
156	0xbd97374c	-0.07383594
157	0x3df19dc5	0.1179767
158	0x3d16e5a2	0.03684009
159	0xbe23209b	-0.15930407
160	0xbd8e49d1	-0.06947673
161	0x3da9c688	0.0828982
162	0xbddaff9d	-0.106932856
163	0x3d17d505	0.037068386
164	0xbd91c538	-0.071176946
165	0xbe1d283c	-0.1534738
166	0x3cfef216	0.031121295
167	0xbd3fee9c	-0.046858415
168	0xbd3c511a	-0.045975782
169	0x3d2dd6c3	0.04244114
170	0xbdd6b092	-0.10482897
171	0xbdc0d170	-0.09414947
172	0xbdc48697	-0.095959835
173	0x3ce36600	0.027758598
174	0x3bf6c800	0.007531166
175	0xbdd38982	-0.10328962
176	0x3db9458f	0.090464704
177	0xbda8b88c	-0.082383245
178	0x3d918e3c	0.07107207
179	0xbe185286	-0.1487523
180	0xbde8c818	-0.1136629
181	0x3de47c52	0.11156525
182	0x3d53410e	0.051575713
183	0x3db3c218	0.08777255
184	0xbe01c19c	-0.12671512
185	0xbb970c0c	-0.0046095904
186	0xba86ec2f	-0.0010293777
187	0x3d938b5e	0.072043166
188	0x3c269ef9	0.010169738
189	0xbcd492fe	-0.025948998
190	0x3d31e8be	0.04343485
191	0x3e126ada	0.14298573
192	0xbd2a1d50	-0.04153186
193	0xbd84c2a2	-0.06482436
194	0xbe127a52	-0.14304474
195	0xbd8ffa76	-0.070301935
196	0xbd8e5d44	-0.06951383
197	0x3e6aa224	0.22913414
198	0xbc896846	-0.016773354
199	0xbcdfc1c2	-0.02731407
200	0xbcc62510	-0.024187595
201	0x3d624d44	0.055249467
202	0x3d8ebae9	0.06969244
203	0x3cffbf6a	0.031219203
204	0x3d057192	0.032579012
205	0x3e06bfbb	0.13159077
206	0xbe1b7cea	-0.1518437
207	0xbd03e5dc	-0.032201633
208	0xbcb6d316	-0.02231745
209	0x3d363eca	0.044493474
210	0xbccce3f8	-0.025011048
211	0x3adc4cbd	0.0016807538
212	0xbd46cc57	-0.048534717
213	0xbd3ffb2e	-0.046870403
214	0x3dcf7079	0.10128874
215	0xbcd6892c	-0.026188456
216	0x3e19eedb	0.15032522
217	0xbd8bb738	-0.068220556
218	0x3e574417	0.21022068
219	0x3d0c4582	0.034245975
220	0xbe274809	-0.16336073
221	0xbbbae8ef	-0.0057040374
222	0xbe1bec17	-0.1522678
223	0xbd25702e	-0.040390186
224	0xbd996b65	-0.07491187
225	0xbd6181a0	-0.05505526
226	0x3c8003db	0.015626838
227	0xbd5a7342	-0.053332575
228	0xbc8db686	-0.017298948
229	0xbd8d46b2	-0.0689825
230	0x3d5b35fe	0.053518288
231	0xbd0bd512	-0.034138747
232	0x3bb2a481	0.0054517393
233	0xbd1c0d93	-0.038098883
234	0xbb958be4	-0.0045637954
235	0xbd3ea01c	-0.04653941
236	0xbc88eae4	-0.016713567
237	0xbd90d697	-0.0707218
238	0xbd59def3	-0.053191137
239	0xbc785951	-0.015158013
240	0x3de249d6	0.11049239
241	0xbd462261	-0.04837263
242	0xbd6e4a9e	-0.05817663
243	0x3dde2e77	0.10848706
244	0xbdc55768	-0.09635812
245	0xbd9a5e7f	-0.07537555
246	0xbe6570e6	-0.22406349
247	0xbd4aee1a	-0.049543478
248	0x3c19ecb0	0.00939481
249	0x3cf68b80	0.030095816
250	0x3bc941a9	0.0061418605
251	0x3e392e72	0.18084124
252	0x3bf66ce2	0.007520304
253	0x3cbd0431	0.023073288
254	0xbe328584	-0.17433745
255	0xbcfdfa59	-0.031003164

bias f4 [2]
0	0x3d29fb9a	0.04149971
1	0xbc976200	-0.018479347
