graph2vec_optimization/model/70_mlp_graph2vec_opt_3.pt (torch_old, 382907 bytes, 6 tensors)

weight f4 [128, 600]
0.03960769 0.00082041393 -0.019803451 0.03122679 -0.030856956 -0.035958584 -0.0348204 0.029227989
-0.017406465 -0.010723971 -0.012572653 0.012061028 -0.038798753 -0.023091884 -0.03680394 0.0053397245
0.013258789 -0.018845066 0.001065999 0.019235421 -0.032698587 0.009560875 -0.007992107 0.015593709
0.017469186 0.013821261 -0.03894401 -0.035694312 0.030746467 0.014153324 -0.0012186534 -0.0016086565
0.029039714 0.035443943 -0.0009463492 0.013736034 -0.020758588 0.011237916 0.02291274 0.014233513
-0.033237908 -0.037195057 0.034366265 -0.037585348 -0.017812273 -0.0016647223 -0.020948945 0.015343651
-0.020376302 0.028226392 0.0038543765 -0.024523534 0.004315926 -0.003227621 0.030084398 0.034644023
-0.004663085 0.036107033 -0.029010033 0.00012029831 0.02541393 0.003081032 0.028396865 -0.00056847103
0.020983595 -0.016490411 0.0072108544 0.033175983 -0.0027057878 0.040713884 -0.0030727752 0.0116909165
-0.038673084 -0.009853526 -0.017482372 -0.0046574273 -0.026330613 0.016688475 -0.024160396 0.022539765
-0.010254742 0.011039622 0.013473182 -0.020032968 0.043345902 0.025120733 -0.025541754 -0.0006548951
0.027382754 0.025333889 0.02835468 -0.023569655 -0.010442065 -0.008810475 0.03266978 0.039604217
-0.023188408 -0.015400945 0.018121423 -0.02887285 0.004169309 -0.03392519 0.027668064 0.019645523
-0.031170338 0.037225075 -0.028147088 -0.01609299 0.013798811 0.026477978 -0.015952785 0.011567613
-0.026122587 0.026009036 0.03158602 -0.03355997 -0.020126993 -0.02057373 -0.030331459 -0.0036032314
-0.03636836 0.019381093 0.03379128 0.0037338042 0.03563116 -0.011648166 0.018956246 0.0026537841
-0.007187856 0.02636447 0.00075539533 0.039670255 -0.02289609 0.016225811 -0.024520168 0.016310733
-0.030659873 0.022353178 0.021537857 -0.03546487 -0.015054531 0.012761867 0.027278673 0.0054287906
-0.031346664 -0.004300545 0.017711852 0.03532258 0.016461125 -0.025447257 -0.022650206 -0.017456532
-0.018984558 0.0336344 0.015726691 -0.006456437 -0.02740013 -0.031404886 0.028623406 0.018586949
-0.0052094413 0.032494508 0.023134856 -0.018873177 0.03837931 -0.034708057 -0.0066273175 -0.019010246
0.0036714077 0.014083862 -0.033262726 0.014867375 0.013766975 -0.018088443 -0.01523891 -0.0029598058
0.025284296 0.004985174 -0.019685475 0.03417122 -0.0016470858 0.0064942418 -0.023193195 -0.03510559
-0.028299319 -0.041373372 0.012948139 -0.030674787 0.04174239 -0.023537664 0.037314065 -0.025092306
0.034005843 0.0031012218 0.033064682 -0.008738948 0.007697507 -0.0015671597 0.0065407483 0.041994564
-0.02378289 0.03261467 -0.011960032 0.03314511 -0.037308533 0.018894002 0.008172278 0.028182894
0.031893883 0.004871788 -0.028697498 -0.026706265 0.0045518735 0.022760794 0.034388658 0.02700359
0.03273727 0.019478403 -0.009803295 0.006495301 0.038436912 0.025246477 -0.008835747 -0.010491502
0.0112795755 0.014481234 0.029149225 0.03518799 -0.03648282 0.014752068 0.024027282 -0.015854614
-0.006237151 0.034546025 -0.017578036 0.025793662 0.022291094 0.02068074 -0.012353851 0.0058035073
0.022869715 -0.036092337 -0.0039544706 0.009283415 -0.017347833 -0.040885184 0.022650212 -0.036167484
0.040123515 -0.031647995 0.042578354 -0.031320028 0.024757134 -0.0075499495 0.006052458 0.025433764
00000000: ac3b 223d 0c11 573a d93a a2bc 53cf ff3c
00000010: bac7 fcbc 4f49 13bd d69f 0ebd 896f ef3c
00000020: 0198 8ebc 98b3 2fbc 87fd 4dbc 9e9b 453c
00000030: 71eb 1ebd 312b bdbc babf 16bd dbf8 ae3b
00000040: 643b 593c f860 9abc feb8 8b3a 9a93 9d3c
00000050: f4ee 05bd 37a5 1c3c 54f1 02bc c27c 7f3c
00000060: 8a1b 8f3c 9272 623c c183 1fbd 3334 12bd
00000070: 04e0 fb3c 58e3 673c 39bb 9fba 8ed9 d2ba
00000080: b2e4 ed3c ab2d 113d 6b14 78ba 1a0d 613c
00000090: ea0d aabc 3c1f 383c 80b3 bb3c ae33 693c
000000a0: 7924 08bd d859 18bd a4c3 0c3d 18f3 19bd
000000b0: 0beb 91bc d032 daba 1f9d abbc f063 7b3c
000000c0: 34ec a6bc 093b e73c b599 7c3b 94e5 c8bc
000000d0: 9d6c 8d3b 7f86 53bb 8e73 f63c e4e6 0d3d
000000e0: cbcc 98bb f8e4 133d 73a6 edbc aa48 fc38
000000f0: e030 d03c 24eb 493b 8ba0 e83c 7205 15ba
00000100: cae5 ab3c e616 87bc 0849 ec3b 8ae3 073d
00000110: 9653 31bb 9ac3 263d 9d60 49bb 428b 3f3c
00000120: ab67 1ebd af70 21bc 3137 8fbc 559d 98bb
00000130: 4cb3 d7bc 45b6 883c 06ec c5bc 50a5 b83c
00000140: 8103 28bc 88df 343c 9fbe 5c3c 2e1c a4bc
00000150: 798b 313d ffc9 cd3c f13c d1bc 44ad 2bba
00000160: cc51 e03c 0489 cf3c 1348 e83c 2615 c1bc
00000170: 3215 2bbc cf59 10bc bfd0 053d 0838 223d
00000180: 9ef5 bdbc 3f54 7cbc 6173 943c c186 ecbc
00000190: b39e 883b 24f5 0abd 23a8 e23c a6ef a03c
000001a0: f058 ffbc 5279 183d b994 e6bc 72d5 83bc
000001b0: 6814 623c 58e8 d83c 6aaf 82bc 1686 3d3c
000001c0: 09ff d5bc e710 d53c 5860 013d 2e76 09bd
000001d0: 5de1 a4bc 3d8a a8bc ae79 f8bc 3124 6cbb
000001e0: fdf6 14bd 19c5 9e3c ba68 0a3d d7b2 743b
000001f0: fbf1 113d f3d7 3ebc 214a 9b3c 1ceb 2d3b
00000200: 1b88 ebbb 4dfa d73c b905 463a 477d 223d
00000210: 9590 bbbc feeb 843c 85de c8bc 169e 853c
00000220: 6a2a fbbc 031e b73c 2970 b03c 9d43 11bd
00000230: 48a7 76bc 2617 513c 8677 df3c ffe3 b13b
00000240: 5c65 00bd 96eb 8cbb 7218 913c 69ae 103d
00000250: 7bd9 863c c476 d0bc ed8c b9bc 0001 8fbc
00000260: 8185 9bbc 3ac4 093d 43d5 803c 8590 d3bb
00000270: 3d76 e0bc 69a2 00bd a27b ea3c a843 983c
00000280: f6b3 aabb f618 053d 4f85 bd3c ec9b 9abc
00000290: a033 1d3d 092a 0ebd f829 d9bb 60bb 9bbc
000002a0: 009c 703b 00c0 663c 7f3e 08bd 4a96 733c
000002b0: e18e 613c 372e 94bc 9fac 79bc 4df9 41bb
000002c0: 0321 cf3c ac5a a33b 6f43 a1bc 1ff7 0b3d
000002d0: 07e3 d7ba a6cd d43b a8ff bdbc e1ca 0fbd
000002e0: f9d3 e7bc 2077 29bd 6e24 543c b149 fbbc
000002f0: 11fa 2a3d 0fd2 c0bc a2d6 183d 618e cdbc
00000300: b649 0b3d de3d 4b3b d56e 073d ce2d 0fbc
00000310: 5e3b fc3b 2769 cdba c653 d63b 7e02 2c3d
00000320: 56d4 c2bc f696 053d 03f4 43bc 2bc3 073d
00000330: d5d0 18bd 98c7 9a3c 05e5 053c d0df e63c
00000340: 29a3 023d 85a3 9f3b 0417 ebbc 19c7 dabc
00000350: e227 953b d874 ba3c 1fdb 0c3d a236 dd3c
00000360: 8417 063d 2c91 9f3c 009e 20bc 89d6 d43b
00000370: 0670 1d3d b3d1 ce3c cfc3 10bc 8ce4 2bbc
00000380: f8cd 383c b342 6d3c 5bca ee3c 4821 103d
00000390: 026f 15bd a8b2 713c ddd4 c43c 89e1 81bc
000003a0: 0461 ccbb 2280 0d3d d0ff 8fbc 3b4d d33c
000003b0: d09b b63c a86a a93c cf67 4abc 592b be3b
000003c0: 4559 bb3c 8fd5 13bd 8194 81bb 7719 183c
000003d0: 0b1d 8ebc 3977 27bd f08c b93c 5b24 14bd
000003e0: 8e58 243d 54a1 01bd a466 2e3d 6e49 00bd
000003f0: 79cf ca3c 9165 f7bb b353 c63b 785a d03c

bias f4 [128]
-0.037677564 0.016085727 0.007743185 0.021962283 0.02213277 -0.0026403756 -0.024854496 -0.025120636
0.037947696 0.018831845 -0.04810462 -0.0010272261 -0.023372432 -0.0022454343 -0.023431014 0.0316015
-0.023846867 -0.011793066 0.00087994547 -0.014356933 -0.04065629 0.0031590865 -0.026730195 0.029844398
-0.010299938 -0.034869198 0.034169424 0.03672734 -0.018337496 -0.021004468 -0.04007944 0.03476079
-0.0068789925 0.009065303 -0.030725587 0.02292953 0.033918723 0.013950766 -0.034162357 0.019879628
-0.020018272 -0.031293526 0.014571186 -0.04545002 -0.010129769 -0.040241692 0.038796578 -0.020939548
-0.047158618 -0.0045432784 -0.0055678785 0.04491452 0.011626814 -0.004348704 -0.008969428 -0.030816743
-0.014667213 -0.04411035 -0.03599469 0.02025542 0.020196807 0.010984925 0.04190559 -0.024089994
0.018801147 0.02967556 -0.02663815 0.03623071 0.020986106 -0.032428354 -0.032680932 0.037870463
-0.006325236 -0.026503544 0.01764491 0.020000078 -0.011026956 -0.0033929462 0.008144032 0.033916224
-0.03276407 -0.040102042 0.0028483903 0.035793614 -0.00010685029 0.0138268005 -0.013873427 0.01807568
0.0209984 0.031401098 0.02188561 0.024131265 -0.010184253 -0.02625425 0.024782756 0.030780891
-0.021744395 -0.017354436 -0.0224226 0.008556032 0.030527959 0.027756376 0.02591713 -0.0058966437
-0.03809877 -0.025020512 0.032522332 -0.011615987 0.029492844 -0.03972959 -0.007847059 -0.005070938
-0.029641323 0.011198941 -0.013273387 0.035931125 0.01141406 -0.04057188 0.018190462 0.025013708
-0.04605103 0.033018135 0.02697675 0.013123372 0.0006665506 0.016184442 -0.0015343165 0.013811204
00000000: ca53 1abd 37c6 833c 8bba fd3b 3fea b33c
00000010: c84f b53c 270a 2dbb a89b cbbc cbc9 cdbc
00000020: 0b6f 1b3d 3e45 9a3c 5a09 45bd fda3 86ba
00000030: 8b77 bfbc 2328 13bb 66f2 bfbc 9370 013d
00000040: 815a c3bc b437 41bc 24ac 663a 5739 6bbc
00000050: 3687 26bd ad08 4f3b 48f9 dabc 3d7c f43c
00000060: 12c1 28bc 01d3 0ebd 3df5 0b3d 686f 163d
00000070: 8438 96bc 9011 acbc 572a 24bd 5561 0e3d
00000080: 2c69 e1bb a386 143c 3ab4 fbbc b6d6 bb3c
00000090: 5cee 0a3d c191 643c d4ed 0bbd 9ada a23c
000000a0: 5cfd a3bc a42d 00bd fcbb 6e3c cd29 3abd
000000b0: 55f7 25bc 79d4 24bd 29e9 1e3d 6a89 abbc
000000c0: 6529 41bd c8df 94bb c072 b6bb 4af8 373d
000000d0: 647e 3e3c 937f 8ebb 82f4 12bc 6573 fcbc
000000e0: c04e 70bc 0ead 34bd 2b6f 13bd b2ee a53c
000000f0: c673 a53c 1dfa 333c 32a5 2b3d 6158 c5bc
00000100: dd04 9a3c 291a f33c 4038 dabc a766 143d
00000110: 0eeb ab3c 98d3 04bd 71dc 05bd 0f1e 1b3d
00000120: ed43 cfbb f61d d9bc 0f8c 903c 34d7 a33c
00000130: 68aa 34bc 315c 5ebb 8c6e 053c bdeb 0a3d
00000140: 9e33 06bd 0a42 24bd 0fac 3a3b 539c 123d
00000150: d014 e0b8 ce89 623c 5f4d 63bc 7313 943c
00000160: d604 ac3c 709e 003d 7349 b33c eeae c53c
00000170: dadb 26bc 2713 d7bc 3505 cb3c 3528 fc3c
00000180: 4d21 b2bc e42a 8ebc 9aaf b7bc 992e 0c3c
00000190: c515 fa3c 5761 e33c 2950 d43c a238 c1bb
000001a0: 750d 1cbd d1f7 ccbc 2336 053d fb50 3ebc
000001b0: fa9a f13c 7fbb 22bd f390 00bc 1c2a a6bb
000001c0: 5cd2 f2bc c37b 373c 9f78 59bc 842c 133d
000001d0: 0a02 3b3c b32e 26bd 2a04 953c 8ce9 cc3c
000001e0: 01a0 3cbd 063e 073d 58fe dc3c 6903 573c
000001f0: 74bb 2e3a 3c95 843c 1e1b c9ba 6348 623c

weight f4 [128, 128]
-0.030628966 0.056408394 0.051075757 0.06059091 -0.061777726 -0.03739341 0.029696591 -0.05303125
-0.08254888 0.03578893 0.027095906 0.032089315 0.0365581 0.09286778 -0.0081431875 -0.012480758
-0.05748324 0.06879453 0.017482638 -0.019693747 -0.060626555 -0.077390075 -0.020152658 0.04320862
-0.01727098 0.031152193 0.031287737 0.016174212 0.0059036925 -0.009488192 0.07318058 -0.08683761
0.014288457 -0.058869578 -0.029969886 0.05929404 0.07906155 -0.05484957 0.012765975 0.023353102
-0.011718809 0.07708261 0.012065964 0.047766235 0.0056801913 -0.06312511 -0.07167876 -0.06541801
0.009836877 0.05119095 -0.02833007 -0.015134588 0.030944204 -0.078351036 -0.02387359 -0.01762186
-0.020277835 -0.051953368 0.06797563 -0.043548528 -0.034933064 0.08423036 -0.023251338 0.05883481
0.069917366 0.07704244 0.026473805 0.059644137 0.07143756 -0.087035656 -0.055976942 0.032436732
0.053782724 0.06249715 0.007746678 -0.08488165 0.027650733 0.050438777 0.03604516 -0.020601483
-0.020681016 0.050547563 -0.035505347 -0.016371729 0.041980878 0.08327898 -0.035386138 0.039578434
-0.023661641 0.07441602 0.027591739 -0.05322387 0.03153305 0.07791145 0.07906957 -0.0778407
-0.013964821 -0.028952777 0.06884667 0.055406816 -0.005247063 -0.009221681 0.08215255 -0.049455725
0.060064234 0.004645616 0.0553513 0.028487984 0.0446275 0.058693394 0.07915864 -0.09554571
0.05760499 0.0884795 0.0061987517 0.022667019 -9.902719e-05 -0.06260727 -0.040418584 0.027645163
-0.022552822 -0.018140195 0.0769225 0.08240952 0.062343817 0.06785441 -0.047923803 -0.0713043
0.043986883 -0.06417249 0.059646517 0.0066795573 0.063061915 -0.08015044 -0.022061244 0.08427503
0.043849044 -0.009183756 -0.07340167 -0.009962534 0.062437784 0.051190116 -0.04450995 -0.08237021
-0.061575294 -0.062100418 0.07102869 0.06300756 0.049111284 -0.0499435 -0.08474259 0.031446554
0.06157341 -0.07939993 -0.0739793 -0.011338398 0.039345678 -0.060507733 -0.0124837905 -0.026575465
-0.012484982 -0.08384582 0.00024815634 0.037209164 0.028757047 -0.060518723 -0.084527075 -0.010472693
-0.04838526 0.06830339 -0.058850102 -0.025398847 0.079828925 0.07198778 0.06580604 -0.06598857
0.07887262 -0.02271378 -0.025020884 0.034583356 0.0045194686 0.07802959 0.048341665 0.05772008
-0.06058132 -0.04751957 -0.02355076 0.008281401 -0.005556127 0.028883466 -0.084534906 -0.022392232
0.044727776 -0.06583319 -0.04841533 0.06279919 -0.015638124 0.08696797 0.00022699531 0.011188947
-0.06967398 -0.020059563 -0.07151529 -0.013688482 0.029471315 -0.08533583 -0.05438276 -0.026857175
0.028098736 -0.062158763 0.059928738 0.060305532 -0.023128143 0.07261416 0.06582439 0.05806767
0.07389498 -0.081282966 -0.031797733 0.06122015 0.023549305 -0.05268348 -0.06791011 -0.06340072
-0.016823795 0.07130312 0.073367566 -0.033927646 0.030509135 -0.07189647 -0.057734806 0.029553853
0.03717902 -0.04249143 0.043297105 0.056450985 -0.007964109 -0.07155086 0.021106943 0.062175006
-0.08666131 -0.007842208 -0.03615753 0.08821124 0.035074763 0.0389828 -0.03678739 -0.07617536
0.009741686 0.04507006 0.04921923 0.029219693 -0.06628316 0.0065115727 -0.020415517 0.010115783
00000000: 99e9 fabc 7d0c 673d d034 513d 2d2e 783d
00000010: a40a 7dbd d529 19bd 4446 f33c 4c37 59bd
00000020: 630f a9bd 6a97 123d 3cf8 dd3c 1670 033d
00000030: f2bd 153d 7631 be3d 016b 05bc 187c 4cbc
00000040: 8c73 6bbd 26e4 8c3d c037 8f3c c854 a1bc
00000050: 8d53 78bd b07e 9ebd 3017 a5bc 86fb 303d
00000060: df7b 8dbc e232 ff3c 9227 003d c87f 843c
00000070: c373 c13b 5d74 1bbc b3df 953d ebd7 b1bd
00000080: 221a 6a3c 3a21 71bd 6883 f5bc 4fde 723d
00000090: 06eb a13d f1a9 60bd 6128 513c 014f bf3c
000000a0: 3f00 40bc 7ddd 9d3d 52b0 453c 87a6 433d
000000b0: e620 ba3b bd47 81bd 50cc 92bd e1f9 85bd
000000c0: da2a 213c 9aad 513d 7714 e8bc 10f7 77bc
000000d0: b37e fd3c 8276 a0bd 8c92 c3bc b85b 90bc
000000e0: b41d a6bc 0ecd 54bd cf36 8b3d f15f 32bd
000000f0: f915 0fbd f880 ac3d 9779 bebc c5fc 703d
00000100: d630 8f3d 6dc8 9d3d 98df d83c 694d 743d
00000110: db4d 923d c03f b2bd 1448 65bd 61dc 043d
00000120: 464b 5c3d 03fd 7f3d d8d7 fd3b 6ed6 adbd
00000130: ca83 e23c e498 4e3d 17a4 133d 71c4 a8bc
00000140: 3c6b a9bc f60a 4f3d 0e6e 11bd 011e 86bc
00000150: 24f4 2b3d 2b8e aa3d 0ef1 10bd ff1c 223d
00000160: 0fd6 c1bc 6d67 983d 1208 e23c 4601 5abd
00000170: cd28 013d 0a90 9f3d 3aef a13d f26a 9fbd
00000180: b4cc 64bc 602e edbc 7cff 8c3d 42f2 623d
00000190: 8eef abbb 8916 17bc 993f a83d 1692 4abd
000001a0: ea05 763d 403a 983b 0bb8 623d a25f e93c
000001b0: 53cb 363d 7c68 703d ed1d a23d 78ad c3bd
000001c0: 36f3 6b3d bd34 b53d e61e cb3b 2fb0 b93c
000001d0: d1ac cfb8 3e38 80bd f58d 25bd 1c78 e23c
000001e0: b2c0 b8bc bf9a 94bc 8b89 9d3d 53c6 a83d
000001f0: 3b5c 7f3d 41f7 8a3d c04b 44bd fd07 92bd
00000200: 972b 343d de6c 83bd e84f 743d 30e0 da3b
00000210: 9b26 813d ea25 a4bd c8b9 b4bc 6398 ac3d
00000220: 0e9b 333d 7777 16bc 9d53 96bd e539 23bc
00000230: c3be 7f3d baac 513d 1150 36bd b6b1 a8bd
00000240: 6036 7cbd 025d 7ebd 7d77 913d 1c0a 813d
00000250: ea28 493d 8e91 4cbd 868d adbd 1ace 003d
00000260: 6634 7c3d 6e9c a2bd 7682 97bd b0c4 39bc
00000270: ef28 213d f5d6 77bd d088 4cbc cab4 d9bc
00000280: cf8d 4cbc 5bb7 abbd fb1a 8239 a368 183d
00000290: e693 eb3c 7be2 77bd 881c adbd a895 2bbc
000002a0: 9f2f 46bd a6e2 8b3d ce0c 71bd 3e11 d0bc
000002b0: 597d a33d 546e 933d 51c5 863d 0425 87bd
000002c0: f887 a13d 4012 babc 99f8 ccbc 47a7 0d3d
000002d0: 0d18 943b facd 9f3d e901 463d e46b 6c3d
000002e0: 1e24 78bd e1a3 42bd 86ed c0bc b7ae 073c
000002f0: 2c10 b6bb 059d ec3c a320 adbd ea6f b7bc
00000300: 7934 373d 8dd3 86bd 274f 46bd dd9c 803d
00000310: 861b 80bc 431c b23d 9705 6e39 d851 373c
00000320: 3bb1 8ebd f453 a4bc 9c76 92bd a845 60bc
00000330: d46d f13c 8dc4 aebd 75c0 5ebd 9403 dcbc
00000340: 522f e63c 309a 7ebd d677 753d ef02 773d
00000350: 3b77 bdbc bcb6 943d f0ce 863d 5dd8 6d3d
00000360: 4056 973d af77 a6bd 573e 02bd fbc1 7a3d
00000370: 79ea c03c a2ca 57bd 7514 8bbd 3dd8 81bd
00000380: 0ed2 89bc 5f07 923d bc41 963d b7f7 0abd
00000390: 4bee f93c 753e 93bd 557b 6cbd ec1a f23c
000003a0: 0749 183d 7e0b 2ebd 4e58 313d 2639 673d
000003b0: e57b 02bc 4289 92bd 78e8 ac3c 38ab 7e3d
000003c0: 7c7b b1bd 9b7c 00bc eb19 14bd 18a8 b43d
000003d0: 8eaa 0f3d 6eac 1f3d 60ae 16bd d401 9cbd
000003e0: 989b 1f3c 629b 383d 1a9a 493d 235e ef3c
000003f0: 77bf 87bd 085f d53b 713e a7bc abbc 253c

bias f4 [128]
-0.055255394 0.014745016 -0.04853822 -0.029924145 -0.07628554 0.027605727 0.019527495 -0.0100205
0.052510068 -0.03666933 0.048336968 -0.054906923 0.06975217 0.08298817 0.054542407 0.06968981
-0.024017803 0.005520989 -0.018382737 -0.035241198 -0.05726334 -0.03570408 0.07940756 0.024241578
0.08741402 0.042206988 0.02534395 0.0010212436 0.0369462 -0.053940985 0.06092554 0.040101536
-0.031998973 0.0026493128 -0.009046352 0.07654842 -0.010541313 -0.04426404 0.07721449 0.024828486
-0.06742561 -0.048691984 0.044391114 0.033086497 -0.031260684 -0.029213639 -0.057228748 -0.06560282
-0.08610867 -0.06885637 -0.032049604 0.0008379793 -0.0849894 -0.01873216 0.00402691 0.07520269
-0.016435198 -0.05153507 -0.03362936 -0.015887644 0.08284371 0.03422949 0.08169041 -0.08222222
-0.024826001 0.0700378 -0.08841856 -0.041094467 -0.024105096 0.07996194 -0.046891555 -0.055817407
0.027289929 0.07687489 0.019543177 -0.00030860383 -0.051564876 0.008544048 -0.02110834 0.023618974
0.016114134 0.0300286 -0.07061086 -0.043769337 -0.071731314 -0.020196797 -0.061249286 0.044781446
-0.043544356 -0.035519734 0.080261305 -0.008537645 0.06812171 0.03627263 0.05994105 -0.06104211
0.058526352 -0.07822065 0.00050437986 0.030722741 0.100746684 -0.021683872 -0.03702588 0.053558495
-0.035259463 -0.015601307 -0.083158575 -0.047141913 0.022141421 -0.034243837 -0.043214068 -0.020806376
0.045247197 -0.052329317 0.050108504 -0.073472865 0.0812264 -0.057738043 0.061366986 0.0066816583
0.016057523 -0.009683676 -0.034362327 0.056163643 -0.07989583 0.040946856 -0.047413934 -0.09362604
00000000: 7b53 62bd 1495 713c 03d0 46bd 7b23 f5bc
00000010: 983b 9cbd 6825 e23c 20f8 9f3c 062d 24bc
00000020: cc14 573d 9432 16bd fcfc 453d 15e6 60bd
00000030: 3ada 8e3d b4f5 a93d dc67 5f3d 88b9 8e3d
00000040: fcc0 c4bc 6ae9 b43b 6597 96bc 1359 10bd
00000050: f78c 6abd 713e 12bd 6ea0 a23d 4696 c63c
00000060: 1f06 b33d 3ce1 2c3d 1e9e cf3c 40db 853a
00000070: e654 173d 39f1 5cbd 0f8d 793d 8241 243d
00000080: 5b11 03bd 18a0 2d3b 2637 14bc 6bc5 9c3d
00000090: 79b5 2cbc 364e 35bd a122 9e3d 1c65 cb3c
000000a0: 7016 8abd 3f71 47bd 75d3 353d b585 073d
000000b0: 340b 00bd 7151 efbc b168 6abd c55a 86bd
000000c0: be59 b0bd 9204 8dbd 7246 03bd d7ab 5b3a
000000d0: ec0e aebd 3074 99bc 2bf4 833b de03 9a3d
000000e0: 1ca3 86bc 7016 53bd f1be 09bd ce26 82bc
000000f0: f7a9 a93d 3934 0c3d 4d4d a73d 2064 a8bd
00000100: e65f cbbc fa6f 8f3d ca14 b5bd ac52 28bd
00000110: 0d78 c5bc 16c3 a33d 5c11 40bd cba0 64bd
00000120: 218f df3c 9570 9d3d 0319 a03c 1bcc a1b9
00000130: b135 53bd 56fc 0b3c 66eb acbc 947c c13c
00000140: ca01 843c 8afe f53c 6d9c 90bd 7a47 33bd
00000150: dee7 92bd c173 a5bc 88e0 7abd c06c 373d
00000160: 915b 32bd 247d 11bd 0a60 a43d 7be1 0bbc
00000170: 6583 8b3d 9c92 143d bf84 753d 4b07 7abd
00000180: 54b9 6f3d 2632 a0bd 5c38 043a 42ae fb3c
00000190: 4754 ce3d 60a2 b1bc 73a8 17bd 2760 5b3d
000001a0: 3a6c 10bd a09c 7fbc 0b4f aabd e117 41bd
000001b0: ed61 b53c 4443 0cbd 3c01 31bd 2272 aabc
000001c0: 2055 393d 4457 56bd 933e 4d3d f178 96bd
000001d0: 075a a63d ba7e 6cbd f35b 7b3d d0f1 da3b
000001e0: 118b 833c 48a8 1ebc 83bf 0cbd d90b 663d
000001f0: 6da0 a3bd e4b7 273d 1d35 42bd 02bf bfbd

weight f4 [2, 128]
0.07404055 0.08213662 0.07899621 0.099993415 -0.056748595 -0.09755295 -0.0812333 -0.08253
-0.056449946 0.023800177 0.081014775 0.021943096 0.09293279 0.06371921 0.13734391 -0.0151328
-0.04445594 -0.015487977 0.040181197 -0.0045440546 -0.0049808724 0.06344427 0.043093774 -0.0782852
0.02484656 0.05783872 0.02039735 -0.023376403 -0.0957798 -0.07925752 -0.003810567 0.075135596
0.041702088 0.052149948 -0.031203968 -0.00028215328 0.086518675 -0.038785912 -0.05330814 0.21872325
-0.101992786 0.0076121558 -0.16816846 -0.06543306 -0.042736374 -0.16494218 -0.06574583 0.11038089
-0.17524466 -0.041187294 -0.19257855 -0.034730107 0.00897885 0.07607083 0.09892291 0.059468545
0.076000564 0.078396 -0.14265497 0.06437606 0.1437724 0.06454577 0.015490209 0.03353065
-0.17331283 0.08855964 -0.02462001 -0.009678182 -0.08133509 -0.033032786 -0.02514015 0.019549018
0.05946779 0.13550094 -0.06333007 -0.043935224 0.063374154 0.17767985 -0.03612963 -0.010414506
-0.05005492 -0.021413658 -0.028916478 -0.14742157 0.030536044 -0.085533835 0.03048425 0.024337823
0.010599278 0.03533906 -0.04949452 0.0594369 -0.08809251 0.025149085 0.1008896 0.15634273
-0.0576221 -0.05149254 0.11985049 -0.069079764 0.1624931 -0.010649428 0.08328634 -0.081756674
-0.0287102 -0.087054625 -0.040009983 -0.123962276 0.08558223 0.086506955 0.029364355 -0.07801696
0.027939143 0.059019603 0.16444679 -0.10968575 0.045002338 -0.03857876 -0.039713137 0.040066354
0.013403366 0.14448416 -0.044570856 -0.121900275 -0.029826233 0.11979209 0.0027258033 -0.19003402
0.017001618 0.019340983 -0.039950345 -0.14242356 0.04964776 0.14207542 0.04583104 -0.046079475
0.105015576 -0.08110564 -0.02658558 -0.024377126 -0.023715677 0.07833339 -0.047882248 -0.014063524
-0.047042705 0.05336852 -0.09005893 -0.006498292 0.014337776 0.032952875 -0.04745608 0.08765658
-0.0027914874 0.011482068 -0.032833885 -0.074821234 0.07634482 0.01956485 0.015824158 -0.019898957
-0.05396893 -0.076581165 -0.018764067 -0.014466473 -0.04291266 -0.016966002 0.14223479 -0.22327174
0.097772226 -0.056549888 0.09545408 0.077321894 0.13280137 0.045493383 0.030813966 -0.104487225
0.15044814 -0.08238668 0.19509551 -0.011313399 0.06761939 0.013408345 -0.03302804 0.009229975
0.061728377 -0.04754014 0.14956872 0.04410047 -0.09943377 -0.060565513 0.049805842 -0.05570355
0.079526074 -0.06306031 0.06851059 -0.060374327 0.05365257 -0.081266336 0.015867932 -0.010505955
0.05648483 -0.18698974 0.062722586 -0.061272908 -0.0049627796 -0.18380448 0.047577295 -0.048130468
0.11177811 -0.012134961 0.003661789 0.17493255 0.0064861947 0.0586579 0.07049207 -0.091890104
-0.049578395 0.11363035 0.015891768 -0.06345006 -0.0027177364 0.076235354 0.0025450203 -0.09600108
-0.035390433 0.08478884 -0.08102379 -0.020640409 -0.15497912 0.048575103 -0.028204154 0.008217672
-0.023211418 0.040071487 0.048625905 0.1416596 0.04006153 -0.016025553 0.0140254935 -0.07702345
-0.10363061 -0.08550934 -0.12061724 0.12286988 -0.05165125 0.056604624 -0.0635168 0.050540604
-0.058106586 -0.18233629 -0.043252375 0.047187246 -0.07527527 -0.12734582 0.05328716 0.16858906
00000000: 92a2 973d 3f37 a83d c4c8 a13d 59c9 cc3d
00000010: 3771 68bd d7c9 c7bd a55d a6bd 7d05 a9bd
00000020: 0f38 67bd 97f8 c23c 13eb a53d 02c2 b33c
00000030: 8c53 be3d 387f 823d e2a3 0c3e 90ef 77bc
00000040: 6f17 36bd 49c1 7dbc 0a95 243d 4be6 94bb
00000050: 9636 a3bb 12ef 813d 1983 303d fe53 a0bd
00000060: 038b cb3c 4be8 6c3d 5818 a73c df7f bfbc
00000070: 3328 c4bd c451 a2bd b5ba 79bb b1e0 993d
00000080: cfcf 2a3d 2f9b 553d 779f ffbc f9ed 93b9
00000090: b430 b13d fadd 1ebd a359 5abd fdf8 5f3e
000000a0: 98e1 d0bd 646f f93b 5a34 2cbe c501 86bd
000000b0: 560c 2fbd 9ae6 28be c0a5 86bd 600f e23d
000000c0: 5673 33be 02b4 28bd 5033 45be 2841 0ebd
000000d0: 071c 133c 06cb 9b3d 1898 ca3d 4a95 733d
000000e0: 2fa6 9b3d 158e a03d 2514 12be 99d7 833d
000000f0: 1239 133e 9330 843d a5ca 7d3c 6f57 093d
00000100: eb78 31be c25e b53d e7af c9bc 3d91 1ebc
00000110: 0393 a6bd 634d 07bd b7f2 cdbc 4325 a03c
00000120: 7f94 733d c2c0 0a3e 32b3 81bd 6cf5 33bd
00000130: 4fca 813d b5f1 353e aafc 13bd 9ba1 2abc
00000140: 6306 4dbd b26b afbc 40e2 ecbc aef5 16be
00000150: ba26 fa3c 5d2c afbd 1bba f93c 1d60 c73c
00000160: 98a8 2d3c b1bf 103d c4ba 4abd 1b74 733d
00000170: d969 b4bd 7405 ce3c 359f ce3d 4f18 203e
00000180: 2705 6cbd d7e9 52bd 2c74 f53d b179 8dbd
00000190: 9764 263e f07a 2ebc 0792 aa3d 0b70 a7bd
000001a0: a731 ebbc b249 b2bd 82e1 23bd efdf fdbd
000001b0: bc45 af3d 8f2a b13d 848d f03c 5bc7 9fbd
000001c0: a1e0 e43c 8abe 713d bd64 283e eca2 e0bd
000001d0: 5f54 383d c304 1ebd 3eaa 22bd 9e1c 243d
000001e0: cb99 5b3c a8f3 133e ee8f 36bd daa6 f9bd
000001f0: 2556 f4bc 8e55 f53d 64a3 323b 4798 42be
00000200: fa46 8b3c fb70 9e3c f9a2 23bd 7bd7 11be
00000210: 735b 4b3d 387c 113e 54b9 3b3d d5bd 3cbd
00000220: 6812 d73d b71a a6bd 01ca d9bc 8ab2 c7bc
00000230: 6147 c2bc 426d a03d 2d20 44bd b26a 66bc
00000240: daaf 40bd f398 5a3d d170 b8bd a0ef d4bb
00000250: fee8 6a3c 98f9 063d 4e61 42bd 4b85 b33d
00000260: 63f1 36bb 491f 3c3c d37c 06bd e03b 99bd
00000270: ac5a 9c3d 7746 a03c aaa1 813c 2303 a3bc
00000280: 860e 5dbd 96d6 9cbd 1ab7 99bc c904 6dbc
00000290: 2fc5 2fbd 49fc 8abc ffa5 113e 59a1 64be
000002a0: ce3c c83d dba0 67bd 6e7d c33d f15a 9e3d
000002b0: 15fd 073e 4557 3a3d 926d fc3c 66fd d5bd
000002c0: 140f 1a3e 59ba a8bd 1ec7 473e d65b 39bc
000002d0: 097c 8a3d adae 5b3c 6948 07bd 5239 173c
000002e0: e5d6 7c3d 73b9 42bd 8b28 193e b2a2 343d
000002f0: efa3 cbbd 8b13 78bd 3601 4c3d 6829 64bd
00000300: 91de a23d c425 81bd 484f 8c3d 124b 77bd
00000310: ccc2 5b3d f76e a6bd 77fd 813c 2b21 2cbc
00000320: a35c 673d 3d7a 3fbe b374 803d 4df9 7abd
00000330: d09e a2bb 3e37 3cbe 69e0 423d 7424 45bd
00000340: eceb e43d b7d1 46bc a0fa 6f3b 8521 333e
00000350: 258a d43b 4443 703d 255e 903d e130 bcbd
00000360: b712 4bbd 07b7 e83d 742f 823c 1bf2 81bd
00000370: 0d1c 32bb 4821 9c3d 5bca 263b 379c c4bd
00000380: 8ff5 10bd c5a5 ad3d cdef a5bd 1316 a9bc
00000390: d9b2 1ebe b0f6 463d 660c e7bc 6aa3 063c
000003a0: df25 bebc 0022 243d f52b 473d 370f 113e
000003b0: 8f17 243d 0548 83bc 2fcb 653c 78be 9dbd
000003c0: 493c d4bd 851f afbd 2c06 f7bd 34a3 fb3d
000003d0: 4390 53bd 40da 673d 1915 82bd aa03 4f3d
000003e0: 2c01 6ebd 5db6 3abe 6729 31bd 6a47 413d
000003f0: ec29 9abd f166 02be a343 5a3d 9ca2 2c3e

bias f4 [2]
0.14243717 -0.096841745
00000000: 0ddb 113e f754 c6bd
