graph2vec_optimization/model/70_mlp_graph2vec_opt_1.pt (torch_old, 382907 bytes, 6 tensors)

weight f4 [128, 600]
0	0x3d499bb2	0.04922075
1	0x3baac3ac	0.005211314
2	0x3c2a9e41	0.010413707
3	0xbc2e47bc	-0.01063722
4	0xbd041cfd	-0.032254208
5	0x3c8de567	0.017321302
6	0xbcd5e19d	-0.026108557
7	0xbb5057b4	-0.0031790556
8	0x3d14a458	0.036289543
9	0xbc4180b3	-0.011810469
10	0xbc3b7b95	-0.0114430385
11	0x3d095c53	0.033535313
12	0xbb65b44a	-0.0035050088
13	0x3d3afd5c	0.04565178
14	0xbb72ab6e	-0.003702845
15	0xbc21bf5b	-0.009872283
16	0xbb77a7fd	-0.0037789338
17	0xbab78a89	-0.0014003079
18	0x3d4010db	0.046891075
19	0x3d0a7390	0.033801615
20	0xba845654	-0.0010096529
21	0xbd061666	-0.032736205
22	0xbcff34f0	-0.031153172
23	0x3d0cb3a4	0.034351006
24	0xbc84c0d8	-0.016205236
25	0x3c6daeda	0.01450702
26	0x3b71f40b	0.0036919143
27	0xbd0e2e6b	-0.034712236
28	0x3c331206	0.01092959
29	0xbccf1551	-0.02527872
30	0xbca13554	-0.01967875
31	0x3c7fbddc	0.015609231
32	0xbc1270c7	-0.008938021
33	0x3b86fde7	0.004119623
34	0xbc1d576f	-0.009603365
35	0x3c7eb847	0.015546865
36	0xbcc4f296	-0.024041455
37	0x3d037f1b	0.03210364
38	0x3bcb557c	0.006205259
39	0x3cd58b00	0.026067257
40	0x3c47eec5	0.012202923
41	0xbd198cca	-0.037487783
42	0x3d3572d4	0.04429896
43	0xbc8cec04	-0.017202385
44	0x3ccaa461	0.024736585
45	0x3c2e8b6b	0.010653357
46	0x3c49da2b	0.012320082
47	0xbcd2b056	-0.02571885
48	0xbd30d391	-0.043170515
49	0xbcff19ad	-0.031140173
50	0xbcb6d2ee	-0.022317376
51	0xbc2785f1	-0.010224805
52	0xbd2d289a	-0.04227505
53	0x3d0130b7	0.0315406
54	0xbce84a50	-0.028355747
55	0xbca1eeff	-0.019767283
56	0x3c4fbf87	0.012679941
57	0x3c830ec8	0.01599826
58	0x3aea6805	0.0017883783
59	0xbd0aa211	-0.033845965
60	0xbd1b8d92	-0.03797681
61	0xbc92ac55	-0.01790444
62	0xbbb6f0a9	-0.005582888
63	0x3b99b560	0.004690811
64	0xbd3d9134	-0.046281055
65	0xbd231ac2	-0.03982044
66	0xbd03d3e6	-0.032184504
67	0xbcea9708	-0.02863647
68	0xbc86ea72	-0.016469214
69	0xbbc25864	-0.005930947
70	0xbc98c6e1	-0.01864952
71	0x3cb52848	0.022113934
72	0xbcbff736	-0.023433309
73	0x3c824af9	0.01590489
74	0x3cfbf1ce	0.03075495
75	0x3cf9a2c9	0.03047313
76	0x3b8cfbac	0.0043024626
77	0xbb300362	-0.0026857485
78	0xbb53f3c9	-0.0032341352
79	0x3c37ad0e	0.011210693
80	0x3cf07ede	0.02935737
81	0xbd0d7b58	-0.034541458
82	0xbcbdecb0	-0.02318415
83	0xba3ac3df	-0.0007124524
84	0x3d25e92b	0.04050557
85	0xbd024072	-0.03179974
86	0x3cd2dce0	0.025740087
87	0x3c41cc64	0.011828516
88	0x3ca033cc	0.019555949
89	0xbcfba2c9	-0.03071727
90	0x3c1159f9	0.008871549
91	0xbd02497b	-0.031808358
92	0x3d2e285b	0.042518955
93	0xbcf95777	-0.030437214
94	0xbcde56c1	-0.027140977
95	0x3b9d803d	0.004806547
96	0x3bbbb8ef	0.005728833
97	0xbb22e30c	-0.0024854569
98	0xbba433b3	-0.005011046
99	0x3ba09c78	0.004901465
100	0xbc6d7797	-0.0144938445
101	0xbc9b1bf1	-0.018934222
102	0x3c817911	0.0158048
103	0xbc81b638	-0.015833959
104	0x3cf6ae27	0.03011234
105	0xbbffb4d6	-0.0078035397
106	0x3c8c9f5b	0.01716583
107	0x3d0647d9	0.032783363
108	0x3cdcfec2	0.026976947
109	0xbabe71d7	-0.0014529777
110	0x3cb9ff3a	0.02270471
111	0xbc787fe8	-0.015167214
112	0x3bf2654c	0.0073973294
113	0x3bc76ef6	0.0060862256
114	0xbd154f34	-0.036452487
115	0x3ad10f3c	0.0015949975
116	0xbb1b3796	-0.0023684255
117	0x3c98e260	0.018662632
118	0x3bd327aa	0.0064439373
119	0xbcd1431e	-0.0255447
120	0x3c0bad1b	0.008525158
121	0xbb33e9a7	-0.00274525
122	0xbc4c3c2b	-0.012465517
123	0x3c17e30a	0.009270439
124	0x3d23e61c	0.04001437
125	0xbd05c342	-0.032656915
126	0x3ceeea0b	0.029164335
127	0x3ceefc1c	0.02917295
128	0xbcab6de8	-0.02092643
129	0x3be683db	0.0070347614
130	0x3d02a303	0.03189374
131	0xbbbc9b8e	-0.0057558483
132	0x3d3314b1	0.043720905
133	0x3b19b5a4	0.0023454214
134	0xbcda39e6	-0.026638936
135	0x3d3836fc	0.044974312
136	0xbd1243e8	-0.03570929
137	0xbc0775cb	-0.00826783
138	0xbc80dbf8	-0.01572989
139	0x3d15e1b3	0.036592197
140	0xbcd469f4	-0.025929429
141	0x3c0d98a3	0.008642348
142	0xbc0fad47	-0.00876934
143	0x3ca572c4	0.020196326
144	0x3cc0f80e	0.023555782
145	0xbcbdd1b1	-0.023171278
146	0xbd25abbc	-0.04044698
147	0x3cfcc772	0.030856822
148	0x3ce41799	0.027843283
149	0x3ca98231	0.020691963
150	0x3ca7f0a2	0.020500485
151	0xbd2743c0	-0.040836096
152	0x3cb8b1aa	0.022545654
153	0x3d3d0c6f	0.046154436
154	0xbca79180	-0.020455122
155	0xbc3144bc	-0.01081961
156	0xbccc976d	-0.02497455
157	0x3c91e5d7	0.017809791
158	0x3c76ab52	0.015055494
159	0x3cb0db53	0.021588957
160	0x3d238533	0.03992195
161	0xbc2359bb	-0.009970124
162	0x3c343690	0.010999337
163	0x3a22826e	0.0006199245
164	0xbab3cfcf	-0.0013718548
165	0x3d023a15	0.031793673
166	0x3bd43a0d	0.0064766468
167	0xbce5c0a5	-0.028045962
168	0xbcb79a63	-0.022412485
169	0xbcc306d2	-0.023806963
170	0xbcafbe0d	-0.021452928
171	0x3ce02825	0.027362892
172	0xbce2d75f	-0.027690588
173	0x3c8aabdb	0.01692765
174	0xbcae57c5	-0.021282086
175	0xbbc18f4c	-0.005906975
176	0x3cae886a	0.021305282
177	0x3d68065e	0.056646697
178	0x3c9fe033	0.019516086
179	0x3c643199	0.013927841
180	0xbc0431d8	-0.008068524
181	0xbc6ed37f	-0.014576792
182	0x3a1ab8a0	0.0005902145
183	0x3d237416	0.03990563
184	0x3c62e353	0.013848144
185	0xbcd7ceed	-0.026343787
186	0x3c7c5729	0.01540164
187	0x3d17d21c	0.03706561
188	0x3c66335d	0.014050332
189	0xbd105d46	-0.035245202
190	0x3ca8de30	0.02061376
191	0x3d2c96c5	0.042135973
192	0x3c6f53af	0.014607354
193	0x3cb5739a	0.02214985
194	0x3c883828	0.01662834
195	0x3cefdc5b	0.029279878
196	0xbc0e1ee1	-0.008674354
197	0xbcba7cb3	-0.02276454
198	0x3b83d7ba	0.0040235193
199	0x3c46ff61	0.012145848
200	0xbc35d786	-0.011098748
201	0x3c98ea5b	0.018666437
202	0x3b3e8fb4	0.0029077353
203	0x3ccc1fcd	0.024917508
204	0x3b8ea6c8	0.004353378
205	0x3cad713e	0.021172162
206	0x3c2da5b0	0.010598585
207	0x3b237f4c	0.00249477
208	0x3c93a5ef	0.01802346
209	0xba94c2e2	-0.0011349584
210	0x3cd83a0e	0.02639487
211	0x3c9bac33	0.01900301
212	0xbbe69497	-0.0070367563
213	0xbc4d848a	-0.012543807
214	0x3cde4319	0.027131604
215	0xbc13566b	-0.008992772
216	0x3c160e71	0.009158717
217	0x3a0fb0b9	0.0005481351
218	0x3d348051	0.044067685
219	0x3cbeb89c	0.023281388
220	0xbbed61d4	-0.007244328
221	0xbb7e43cc	-0.0038797734
222	0x3c1ae70f	0.009454503
223	0xbd2dec29	-0.042461548
224	0xbd046152	-0.032319374
225	0x3d2e5f76	0.042571507
226	0xbd2b8e5e	-0.04188382
227	0x3c6abf1f	0.014327793
228	0xbd03e1d8	-0.032197803
229	0x3bc61ac3	0.0060456707
230	0xbd1c9fae	-0.03823822
231	0x3ca35e4d	0.019942427
232	0xbce6230a	-0.02809288
233	0xbc21bedf	-0.009872167
234	0x3d13949e	0.036030404
235	0x3c9edf61	0.019393625
236	0x3c1bb8d1	0.009504513
237	0xbc9a3773	-0.018825268
238	0x3acd8ac5	0.0015681615
239	0x3cdea85c	0.02717989
240	0x3ac505bb	0.0015031615
241	0x3c8037c7	0.015651597
242	0x3b0e4d0d	0.0021713406
243	0x3bd36431	0.0064511527
244	0xbc44f7b4	-0.012021948
245	0x390eb99b	0.00013611319
246	0xbca7b14c	-0.020470284
247	0xbc7aad2a	-0.015300075
248	0xbc22f7a1	-0.009946735
249	0xb8f5d55a	-0.0001172225
250	0x3c379c08	0.011206634
251	0xbce2438c	-0.0276201
252	0x3c8d6108	0.017258182
253	0x3cb17705	0.021663198
254	0x3cc6ceb5	0.024268487
255	0x3b9701fe	0.004608392

bias f4 [128]
0	0x3bee4492	0.007271358
1	0x3d1924f5	0.03738876
2	0xba62fb93	-0.00086587033
3	0xbd17e17e	-0.03708028
4	0xb99b7b04	-0.00029655558
5	0xbb8686bd	-0.0041054175
6	0x3caf1117	0.021370454
7	0xbcb21268	-0.021737292
8	0x3d11eba6	0.035625122
9	0x3c7b78a9	0.015348592
10	0x3c450cbf	0.012026965
11	0xbc2509e2	-0.010073157
12	0xbb0532df	-0.002032451
13	0x3d323da9	0.043515835
14	0x3cc28058	0.02374284
15	0x3d05b9bc	0.032647833
16	0xbd1fe192	-0.03903348
17	0x3cdb7186	0.02678753
18	0x3d1fcca8	0.039013535
19	0xb9d25630	-0.00040118536
20	0x3c199d00	0.009375811
21	0xbc978907	-0.018497957
22	0x3ca20ce1	0.019781532
23	0x3c886e81	0.016654255
24	0xbd105714	-0.035239294
25	0xbb2caed1	-0.0026349316
26	0x3bcc8103	0.0062409653
27	0x3b4fb060	0.003169082
28	0xbb57e504	-0.00329429
29	0x3bb916d0	0.0056484714
30	0xbd30b004	-0.04313661
31	0x3c92a634	0.017901517
32	0x3cd485a5	0.025942633
33	0x3cf94e42	0.030432824
34	0x3d159391	0.036517683
35	0x3cd5fa83	0.02612043
36	0x3ce357e3	0.027751869
37	0x3c6bd5f7	0.014394275
38	0xbceafd59	-0.028685259
39	0xbd1a3a43	-0.03765322
40	0xbc8a4e4e	-0.016883042
41	0x3d0329d5	0.032022316
42	0x3d40e0a3	0.04708923
43	0xbc4fdab3	-0.012686419
44	0x3d0de95d	0.03464638
45	0x3d0a30b3	0.03373785
46	0x3c852d15	0.016256848
47	0xbc4ae78a	-0.012384305
48	0xbc401c95	-0.0117255645
49	0xbd296fe0	-0.041366458
50	0x3ca31023	0.019905156
51	0xbd40cac2	-0.047068365
52	0x3d0db4fd	0.034596432
53	0xbd04fb92	-0.03246648
54	0x3ca44794	0.020053662
55	0x3d45ea79	0.048319314
56	0x3c7e3733	0.01551609
57	0xbca8fbcd	-0.02062788
58	0xbd072355	-0.03299268
59	0x3d203e9b	0.039122205
60	0x3d14f909	0.03637031
61	0x3bb467ba	0.005505529
62	0xbc0f2feb	-0.008739452
63	0x3c4be2b1	0.012444184
64	0xbcbe3091	-0.023216518
65	0xbcea0b9b	-0.028569987
66	0x3d155596	0.036458574
67	0xbcecbb76	-0.028897982
68	0xbcb1d97b	-0.021710148
69	0xbc2e3679	-0.0106331045
70	0x3cc0c38e	0.023530748
71	0xbbc7f499	-0.0061021564
72	0x3d38ff92	0.045165606
73	0xbcef3e53	-0.029204523
74	0xbd230f4d	-0.039809514
75	0xbd10e12e	-0.035370998
76	0xba342ede	-0.0006873439
77	0x3c810926	0.015751433
78	0x3d29e775	0.0414805
79	0x3d232453	0.039829563
80	0xbcb964b4	-0.022631027
81	0xbcca9b54	-0.02473227
82	0xbbb6d114	-0.0055791233
83	0x3c666cc0	0.014064014
84	0xbac392c3	-0.0014921058
85	0x3cbd2eb8	0.023093566
86	0x3d09a5c4	0.033605352
87	0x3ba5fc4e	0.0050654775
88	0xbc4be8a2	-0.012445601
89	0x3c979913	0.018505609
90	0x3cca4e1e	0.024695452
91	0xbb1a7686	-0.002356918
92	0xbc003439	-0.007824951
93	0x3c3d8218	0.011566661
94	0xbcb98bf7	-0.022649748
95	0xbd0e0d57	-0.03468069
96	0x3cac71e8	0.021050408
97	0x3c6644f9	0.01405453
98	0xbce6ee98	-0.028189942
99	0x3aae38e1	0.0013292098
100	0x3cc82553	0.02443186
101	0x3c7e8898	0.015535496
102	0x3c1388b7	0.009004763
103	0x3c4d3d8a	0.012526879
104	0xbd1c65a8	-0.038182884
105	0x3c78ad1b	0.01517799
106	0x3d01c436	0.031681262
107	0x3d1ea167	0.038728144
108	0xbd191ebd	-0.03738283
109	0xbd0b32e8	-0.033984095
110	0xbcbe92a3	-0.023263281
111	0xbc4d80a0	-0.012542874
112	0x3c8aa6d6	0.016925257
113	0xbcb8af44	-0.02254451
114	0x3cad82f6	0.021180611
115	0x3d25cb53	0.04047711
116	0xbc994bc5	-0.018712888
117	0xbd1f9cee	-0.03896802
118	0x3d0321ad	0.032014538
119	0xbd18d85d	-0.037315715
120	0xbc987d56	-0.018614452
121	0x3c7b2321	0.0153282
122	0xbd1e2c5c	-0.038616523
123	0x3d070840	0.032966852
124	0xbbe6aed7	-0.0070398855
125	0xbc882f80	-0.016624212
126	0x3ce213b1	0.02759728
127	0xbd0a0f2b	-0.03370587

weight f4 [128, 128]
0	0x3c8d6c7a	0.01726364
1	0xbc89722f	-0.01677808
2	0x3d41bfbe	0.047302
3	0xbd890195	-0.06689755
4	0xbd52d7d2	-0.051475354
5	0xbd0c61f6	-0.03427311
6	0xbcdd8aed	-0.027043784
7	0x3cfbe308	0.030747905
8	0xbcaf5d71	-0.021406861
9	0x3d33183a	0.043724276
10	0xbd6753f0	-0.056476533
11	0xbc429255	-0.011875709
12	0x3d09009f	0.033447858
13	0x3d95abc3	0.073081516
14	0xbb124140	-0.0022316724
15	0xbda0f0ae	-0.07858406
16	0xbd87ac53	-0.06624665
17	0x3cf74975	0.030186394
18	0xbca3eaf1	-0.02000949
19	0x3d7dfeea	0.062010683
20	0x3db8c043	0.09021046
21	0x3db76525	0.08954839
22	0x3cca282c	0.024677359
23	0xbda962cb	-0.082707964
24	0x3d7d8426	0.061893605
25	0xbd3427f6	-0.043983422
26	0xbd359b31	-0.044337455
27	0x3d952cd2	0.072839394
28	0xbdb89e19	-0.0901453
29	0xbc5c34c7	-0.0134403175
30	0xbbf2a2a3	-0.0074046417
31	0x3d06fe98	0.032957643
32	0x3d0dd460	0.034626365
33	0xbd677882	-0.05651141
34	0xbd99d5be	-0.07511471
35	0xbd0a4e28	-0.03376594
36	0x3d587dfe	0.05285453
37	0xbd5b5ea7	-0.053557064
38	0xbdaa0200	-0.08301163
39	0x3d37133f	0.04469609
40	0xbd70a43f	-0.058750387
41	0xbd0b90f1	-0.034073774
42	0x3d9932cb	0.07480391
43	0x3cb0d14f	0.021584181
44	0xbd357190	-0.044297755
45	0x3d21383b	0.039360266
46	0x3d017e29	0.031614456
47	0x3d08dacd	0.03341179
48	0x3d9bb212	0.076023236
49	0xbd1cfe22	-0.038328297
50	0xbd986988	-0.074420035
51	0x3c9bd031	0.019020172
52	0x3da1050c	0.07862291
53	0x3bc7c106	0.0060960082
54	0x3d936b27	0.07198172
55	0x3daa4713	0.083143376
56	0x3d60e0ea	0.054901995
57	0xbc2622a4	-0.010140095
58	0xbd64341c	-0.055713758
59	0xbc1e11ca	-0.009647796
60	0xbd5b2056	-0.053497635
61	0x3da2b3e4	0.07944468
62	0x3d1f0387	0.038821723
63	0x3d263bcb	0.040584367
64	0xbd82ab5d	-0.06380341
65	0xbd12e277	-0.035860505
66	0x3d21cbf6	0.039501153
67	0x3d0887b9	0.03333256
68	0xbcdcf4be	-0.02697217
69	0xbd913fa3	-0.07092216
70	0x3d940617	0.07227724
71	0x3c593a71	0.013258562
72	0xbd229fe2	-0.039703257
73	0x3d37a40c	0.04483418
74	0x3d126d93	0.03574903
75	0x3d087754	0.033316925
76	0xbcb50edd	-0.022101814
77	0xbca6afd4	-0.020347513
78	0xbd70efa9	-0.058822308
79	0x3d4aa3b7	0.049472537
80	0xbd8f9cd7	-0.07012337
81	0x3caaae80	0.020835161
82	0x3d774fbd	0.06037878
83	0x3d16dc51	0.036831204
84	0xbc694cf3	-0.0142395375
85	0x3d797ab7	0.060908046
86	0x3d93822c	0.07202563
87	0xbdaf049f	-0.08545803
88	0xbd63c0e6	-0.055603884
89	0xbd77892a	-0.060433544
90	0x3d2d6dc5	0.042341013
91	0xbd43e173	-0.047822427
92	0x3d82e354	0.06391016
93	0x3d87270e	0.06599246
94	0x3d97b5a0	0.07407689
95	0x3da1d6fc	0.07902333
96	0x3ce091f4	0.027413346
97	0x3d130f5f	0.03590333
98	0xbd9ff95f	-0.07811236
99	0x3ce9d737	0.028545005
100	0xbd754244	-0.05987765
101	0x3c2f822a	0.010712186
102	0xbb83a3a0	-0.0040173084
103	0xb9e7ad77	-0.00044188995
104	0xbd794df4	-0.060865358
105	0xbd05b96e	-0.032647543
106	0x3dbc52f9	0.09195513
107	0xbbba4282	-0.005684198
108	0xba404555	-0.000733455
109	0x3d30a425	0.04312529
110	0xbd9aa241	-0.07550479
111	0xbc31c370	-0.010849819
112	0x3d84acf9	0.064783044
113	0x3d9b2379	0.07575125
114	0xbd345cab	-0.044033688
115	0xbd28f99f	-0.041253682
116	0x3db89b3a	0.09013982
117	0x3caea6a8	0.021319702
118	0x3dba383b	0.09092756
119	0xbd982060	-0.0742805
120	0x3da5ff88	0.08105379
121	0x3cc63e7e	0.02419972
122	0x3d84ebd3	0.064902924
123	0xbd010b14	-0.031504706
124	0xbd8cfd97	-0.06884306
125	0x3d8ae820	0.067825556
126	0xbc18f959	-0.009336793
127	0x3c0a7e85	0.008453016
128	0x3db5d981	0.08879376
129	0x3d00d50a	0.03145317
130	0xbc67e471	-0.014153586
131	0x3c1c5671	0.009542094
132	0x3da47b03	0.08031275
133	0xbc7826c0	-0.0151459575
134	0x3cab70ec	0.020927869
135	0xbdced743	-0.10099652
136	0xbc36af32	-0.011150168
137	0x3cdcb446	0.02694143
138	0x3b95ce73	0.00457173
139	0xbda9183d	-0.08256576
140	0x3b086c77	0.0020816603
141	0xbd9b5416	-0.075843975
142	0xbda5d4a1	-0.08097196
143	0x3dce70f5	0.100801386
144	0xbcc8ba26	-0.024502825
145	0xbc4a2961	-0.012338967
146	0xbd9fbc0a	-0.077995375
147	0xbc2e97a8	-0.010656275
148	0x3d2fccb9	0.042919848
149	0xbc9d5721	-0.019206585
150	0xbd3e7c08	-0.046505004
151	0x3d529373	0.05141015
152	0x3dbea857	0.09309452
153	0x3ce578d2	0.028011713
154	0x3c98098f	0.018559245
155	0xbd3fe534	-0.046849445
156	0x3d544f3a	0.05183337
157	0x3dafacbb	0.085778676
158	0xbd50e2ad	-0.050997425
159	0x3d3bffcd	0.045898248
160	0xbcb2e063	-0.021835512
161	0x3d59d93a	0.05318568
162	0x3d82704f	0.063690774
163	0xbd8b5ad6	-0.06804435
164	0xbca3921e	-0.019967135
165	0x3d78b290	0.060717165
166	0xbd316d6c	-0.043317243
167	0x3cad3e1b	0.021147778
168	0xbd14ce86	-0.03632977
169	0xbb6cc01a	-0.0036125244
170	0xbbcc4e96	-0.006234954
171	0x3d8dce31	0.069240935
172	0xbd9df607	-0.077129416
173	0xbd7575c8	-0.059926778
174	0xba0f1eb0	-0.000545959
175	0x3d94966d	0.07255254
176	0xbc2bf129	-0.010494509
177	0x3cb20a3f	0.021733401
178	0xbcd1353b	-0.025538078
179	0x3d1b64d8	0.03793797
180	0xbca5995c	-0.020214729
181	0x3c8407e4	0.016117044
182	0xbd3fee45	-0.04685809
183	0xbcb0fea0	-0.02160579
184	0x3cf0e401	0.029405596
185	0xbc3491e6	-0.011021113
186	0xbcd48252	-0.025941048
187	0xbd481cf6	-0.048855744
188	0x3c877343	0.016534453
189	0x3d17c33a	0.037051417
190	0x3cd4905c	0.025947742
191	0x3dab19e2	0.08354546
192	0xbda819d6	-0.08208053
193	0xbc82acc4	-0.015951522
194	0xbc61394d	-0.013746572
195	0x3d438d81	0.04774237
196	0x3c87801b	0.016540578
197	0x3d284329	0.041079674
198	0xbc326308	-0.010887869
199	0xbd3b18f1	-0.045678083
200	0xbd9b953f	-0.07596826
201	0x3cc3d335	0.023904422
202	0x3d250553	0.04028828
203	0x3db90ff5	0.09036247
204	0xbd9479df	-0.072498076
205	0xbda41e7a	-0.080136254
206	0x3c4b6034	0.012413073
207	0x3da4ea96	0.08052556
208	0xbc90a4d2	-0.017656717
209	0xbcb49c9f	-0.022047339
210	0xbd50a01b	-0.05093394
211	0x3d4460cc	0.047943875
212	0x3d9f7099	0.07785148
213	0x3da0c5be	0.07850216
214	0xbd9e8673	-0.07740488
215	0x3d797270	0.06090015
216	0x3d4ac419	0.04950342
217	0x3db267a2	0.08711173
218	0x3d93b646	0.072125
219	0xbd7f92cf	-0.062395867
220	0xbd0437a3	-0.03227962
221	0xbd562adb	-0.052286964
222	0x3cd57700	0.02605772
223	0x3d628e98	0.05531177
224	0xbd88f8d3	-0.066880845
225	0xbda5d3e9	-0.08097059
226	0x3d982341	0.07428599
227	0x3c791136	0.015201857
228	0x3cf63d12	0.030058417
229	0x3c1c5f57	0.009544215
230	0x3d4c95f6	0.0499477
231	0xbc0eca42	-0.008715214
232	0xbd579152	-0.052628823
233	0xbc86f4df	-0.016474186
234	0x3c9b353f	0.018946288
235	0x3da82e11	0.082119115
236	0x3dbb04ed	0.09131799
237	0x3d8a3194	0.067477375
238	0x3ccd3e5e	0.025054153
239	0x3d886dbe	0.06661557
240	0xbc77f770	-0.015134677
241	0x3d2ac5be	0.041692488
242	0x3d735ce1	0.059414748
243	0x3d0bca9b	0.034128767
244	0xbd32ad58	-0.043622345
245	0x3db92c04	0.090415984
246	0x3d61e11f	0.055146333
247	0x3d50aa4e	0.050943665
248	0xbd9e68fb	-0.07734867
249	0xbd31b8fc	-0.043389305
250	0xbd552b9b	-0.05204354
251	0xbd9c3e05	-0.07629017
252	0x3b77155b	0.0037701938
253	0xbd373f01	-0.04473782
254	0xbd44dd98	-0.04806289
255	0x3d79b63c	0.060964808

bias f4 [128]
0	0xbd097403	-0.033557903
1	0xbcd723d7	-0.026262207
2	0xbd7a0891	-0.061043326
3	0x3d5f3285	0.05449154
4	0xbda8bd3c	-0.082392186
5	0x3cac5604	0.02103711
6	0xbdab6a72	-0.08369912
7	0xbd8d97c2	-0.06913711
8	0xbd1edd47	-0.038785245
9	0xbda59569	-0.08085138
10	0x3d50e16b	0.050996225
11	0x3d255a44	0.040369287
12	0xbd59c20a	-0.053163566
13	0xbd1459c8	-0.036218435
14	0x3d855b21	0.06511522
15	0x3d92754a	0.07151277
16	0xbd9ad09e	-0.07559322
17	0x3dbb844e	0.091560945
18	0xbd4b1904	-0.049584404
19	0x3d380da3	0.04493488
20	0xbc9909e4	-0.018681474
21	0xbd9070d4	-0.0705277
22	0xbd8da1fa	-0.0691566
23	0x3dc8ba9b	0.09801217
24	0x3d23d2f9	0.03999612
25	0x3d58f3c4	0.052966848
26	0xbd8ac707	-0.06776243
27	0x3d9486b9	0.07252259
28	0xbd9a96cb	-0.07548293
29	0xbb5ae083	-0.003339798
30	0xbd81252e	-0.063059196
31	0xbd056ee6	-0.032576464
32	0x3d66c044	0.056335703
33	0xbd4106eb	-0.047125738
34	0xbd4802bb	-0.04883073
35	0xbcc1238b	-0.023576519
36	0x3d6f71da	0.058458187
37	0xbcc5056a	-0.024050433
38	0xbdac9d36	-0.08428423
39	0xbca30cfd	-0.019903654
40	0x3d1ee9e0	0.03879726
41	0xbda9d9bd	-0.082934834
42	0x3d75c356	0.06000074
43	0xbcb5afe9	-0.022178607
44	0x3be3ed5a	0.0069557847
45	0x3d0a697e	0.03379201
46	0xbcab74fb	-0.020929804
47	0xbc35ce20	-0.011096507
48	0x3c94576f	0.018108098
49	0xbda25e85	-0.079281844
50	0x3c29057e	0.010316251
51	0xbc17ef72	-0.009273397
52	0xbdab3c71	-0.08361138
53	0x3d7c1a99	0.061548803
54	0xbd91a5db	-0.071117125
55	0xbda1f7c3	-0.07908585
56	0xbda3d18f	-0.079989545
57	0xbd9dd21c	-0.07706091
58	0x3d728b95	0.059215147
59	0x3d0ec029	0.034851227
60	0xbd54a33c	-0.051913485
61	0x3d8e6b59	0.06954069
62	0xbd3ea9be	-0.046548598
63	0xbd6f670a	-0.058447875
64	0xbda135e9	-0.07871611
65	0xbb4bf964	-0.003112399
66	0x3d8c8e9d	0.06863139
67	0xbd4ed068	-0.05049172
68	0xbd61ca2b	-0.055124443
69	0xbcecc58e	-0.028902795
70	0xbdc795b8	-0.097453535
71	0xbcff640a	-0.031175632
72	0x3cd1f949	0.025631564
73	0x3bf7a49b	0.0075574643
74	0xbdad8dcc	-0.08474311
75	0x3d993870	0.07481468
76	0xbcf35cba	-0.029707301
77	0x3caf7722	0.021419112
78	0x3d6ed811	0.058311526
79	0x3c89e055	0.016830603
80	0x3d02d58e	0.031941943
81	0xbd2b62df	-0.041842338
82	0xbcdb50ad	-0.026771868
83	0x3ab2e620	0.0013648905
84	0x3d9fbb75	0.077994265
85	0xbcc10584	-0.0235622
86	0xbca34f40	-0.01993525
87	0x3ce8e940	0.028431535
88	0x3d76fb8c	0.060298488
89	0xbd495ee5	-0.049162764
90	0x3d8cc8bf	0.06874227
91	0x3bef75a6	0.007307726
92	0xbcbffd1c	-0.023436122
93	0xbcb5952b	-0.022165855
94	0x3da7f099	0.08200187
95	0x3c94e499	0.01817541
96	0x3d2777e7	0.040885832
97	0xbc9faf8c	-0.019492887
98	0xbcc4869c	-0.023989968
99	0xbbd9802b	-0.0066375933
100	0x3c8ee17a	0.0174415
101	0xbc552887	-0.013010151
102	0x3d3cc0b0	0.0460822
103	0x3c881a84	0.016614206
104	0xbd7bd836	-0.06148549
105	0xbd0f3143	-0.03495909
106	0x3d717576	0.05894991
107	0x3d96c776	0.07362263
108	0xbc1eb358	-0.009686314
109	0x3d2667f4	0.04062648
110	0xbd93b04a	-0.07211359
111	0x3d00389b	0.031303983
112	0x3d8968bf	0.06709432
113	0xbd14890b	-0.036263507
114	0x3b09785f	0.0020976288
115	0x3c948682	0.018130545
116	0xbd97660f	-0.07392513
117	0x3cd47c92	0.025938306
118	0x3d472d4a	0.048627175
119	0xbda43261	-0.080174215
120	0x3da57c2a	0.08080323
121	0xbca271e7	-0.019829703
122	0x3db033c3	0.08603623
123	0xbd8082d7	-0.06274956
124	0xbd8cdd0b	-0.06878098
125	0xbd1d0f38	-0.03834459
126	0xbd16a1ab	-0.036775272
127	0xbd95eefe	-0.07320975

weight f4 [2, 128]
0	0x3d5da19d	0.054109205
1	0xbe0cf243	-0.1376429
2	0x3d70fadf	0.058833
3	0x3e3cc355	0.18433888
4	0xbd60546b	-0.054768007
5	0x3c6a5300	0.014302015
6	0xbd3628a9	-0.04447237
7	0xbc84d0b4	-0.016212799
8	0x3ce100c2	0.027466182
9	0x3d4bc0f2	0.049744554
10	0x3d13d46d	0.036091257
11	0xbcca8a7e	-0.024724241
12	0x3cdeae4c	0.02718272
13	0x3cda3743	0.026637679
14	0x3c6cadaa	0.014445702
15	0x3c857e4d	0.016295576
16	0xbd1ec897	-0.038765516
17	0x3d9dd823	0.077072404
18	0xbe018d6f	-0.12651609
19	0xbe1997a3	-0.14999251
20	0x3d7e0b47	0.062022474
21	0x3d412244	0.04715182
22	0x3da2fdb0	0.07958543
23	0x3e3a291f	0.18179749
24	0x3e39931f	0.18122528
25	0xbd42b8ba	-0.04753945
26	0xbcaa3f47	-0.020782126
27	0xbe0774dd	-0.13228174
28	0xbd02843f	-0.0318644
29	0xbdca2a15	-0.09871308
30	0x3d071e52	0.0329879
31	0x3cbb6380	0.022874594
32	0x3d36aae5	0.04459657
33	0xbde5f792	-0.11228861
34	0x3e2583c3	0.16163544
35	0xbd99e755	-0.07514826
36	0xbc6cbc3d	-0.014449176
37	0x3d0308f3	0.031990957
38	0x3c3ef502	0.011655094
39	0x3de0b9ac	0.10972914
40	0xbc52ea1b	-0.012873198
41	0x3d8ef940	0.069811344
42	0x3da27222	0.07931925
43	0xbe0e4d40	-0.13896656
44	0xbe3b77b2	-0.18307379
45	0xbd9d03dc	-0.07666752
46	0x3d99957d	0.07499216
47	0x3c09f7e8	0.008420922
48	0x3d4a4cd0	0.04938966
49	0xbd9f0a42	-0.077656284
50	0xbe012b9f	-0.12614296
51	0x3d9b3276	0.07577984
52	0x39df59cb	0.00042600775
53	0xbe07f71c	-0.13277858
54	0xbd1f16a3	-0.038839947
55	0xbcdc79f9	-0.02691363
56	0x3d8c74a4	0.06858185
57	0x3ca05679	0.019572483
58	0xbd6c8b15	-0.057749826
59	0x3e094504	0.13405234
60	0x3bdff43a	0.006834534
61	0x3ba8bb87	0.005149308
62	0x3d829fa5	0.06378106
63	0xbd814033	-0.06311073
64	0xbd44ec07	-0.048076656
65	0x3d86e7cc	0.065871805
66	0xbd172e28	-0.036909252
67	0xbd82fd86	-0.06396012
68	0xbd339a52	-0.043848343
69	0x3d9c312f	0.076265685
70	0xbe3517a4	-0.176848
71	0x3d4ddbd6	0.05025848
72	0x3e1c023b	0.15235226
73	0xbd29dac7	-0.041468408
74	0xbdab9c0d	-0.08379374
75	0x3dc30d69	0.09524042
76	0x3ca3e3fa	0.020006169
77	0xbd2b4ab3	-0.041819286
78	0xbda0b56e	-0.07847105
79	0x3d80faf3	0.06297865
80	0xbd4366e6	-0.047705553
81	0x3da65d0d	0.08123217
82	0x3dbe1528	0.09281379
83	0x3e423365	0.18964918
84	0x3dc5c452	0.09656586
85	0x3de5d07a	0.112214044
86	0x3d7e7ac2	0.06212879
87	0xbd63b63d	-0.055593718
88	0x3d88069b	0.06641885
89	0x3c984c82	0.01859117
90	0xbb8c4b3e	-0.0042814305
91	0xbd568172	-0.052369542
92	0xbcce76d8	-0.025203153
93	0xbdba5d60	-0.09099841
94	0x3d91228c	0.070866674
95	0x3cd70a0e	0.026249912
96	0xbe06f1ba	-0.13178149
97	0xbd473b39	-0.048640464
98	0xbda2e072	-0.07952966
99	0xbd568717	-0.052374925
100	0xbdf75236	-0.12076227
101	0xbdb82715	-0.08991829
102	0xbdfcd4b6	-0.12345259
103	0x3dad32a4	0.084569246
104	0xbe024989	-0.12723364
105	0x3d8a3923	0.06749179
106	0x3ce70069	0.028198438
107	0xbd9c6312	-0.07636084
108	0xbd0e8e6d	-0.034803797
109	0x3c8ddf6d	0.017318452
110	0x3e3c30e7	0.1837803
111	0x3b3893db	0.00281643
112	0xbca9e7b9	-0.020740377
113	0x3d9d3499	0.07676048
114	0x3cc87dc1	0.024474027
115	0x3d4f5bb2	0.050624557
116	0xbda39796	-0.07987897
117	0xbcdc49e3	-0.0268907
118	0x3e0d0791	0.13772418
119	0x3cf5322d	0.029931152
120	0x3c01d42e	0.007924123
121	0xbb4d8f9c	-0.0031366115
122	0xbd7e2a9e	-0.06205236
123	0xbd637e27	-0.05554023
124	0x3dd45a9c	0.10368845
125	0x3d3e44cd	0.046452332
126	0x3d8c7e9c	0.06860086
127	0xbdecf9ed	-0.11571107
128	0xbe0c269a	-0.136866
129	0x3e2fa677	0.17153345
130	0xbd191411	-0.037372652
131	0xbe36424d	-0.17798729
132	0x3d55665e	0.052099578
133	0xbd88ae5c	-0.066738814
134	0x3bf4f1e6	0.0074751256
135	0x3a6a0b7d	0.00089281035
136	0xbe0d1070	-0.13775802
137	0xbc058306	-0.008148914
138	0xbd017f45	-0.031615514
139	0x3d1573ee	0.036487512
140	0xbc0f12ea	-0.008732537
141	0x3b7bf0cb	0.0038443084
142	0x3dda76f3	0.10667219
143	0x3d900bcf	0.07033502
144	0x3cf16b38	0.029470071
145	0xbca65ac2	-0.020306949
146	0x3e234efe	0.15948102
147	0x3d963c9a	0.073357776
148	0xbdb59efb	-0.08868214
149	0x3d33b1f4	0.04387088
150	0xbd35578a	-0.044272937
151	0xbe376328	-0.17908919
152	0xbe2b7c5f	-0.16746663
153	0x3d5f3dd5	0.054502327
154	0xbdbe9023	-0.09304836
155	0x3dcdaa66	0.100422665
156	0x3d92a9bf	0.07161283
157	0x3e060e3a	0.13091365
158	0x3d4fbe3b	0.050718527
159	0x3d069d5f	0.032864925
160	0x3db277b9	0.087142415
161	0x3dd7275a	0.105055526
162	0xbd43ac70	-0.04777187
163	0xbc944e26	-0.01810367
164	0xbcb3b956	-0.021938961
165	0x3c70f0e6	0.014705872
166	0xbcfa9b7f	-0.030591724
167	0xbdbc723c	-0.09201476
168	0x3d8c995f	0.06865191
169	0xbd86969e	-0.06571697
170	0x3d9440c5	0.07238916
171	0x3d9cf410	0.07663739
172	0x3e566ccf	0.20939945
173	0x3df70bb3	0.12062778
174	0xbd55ac3e	-0.052166216
175	0x3d872221	0.065983064
176	0x3dc9184a	0.09819086
177	0x3cfbc99b	0.030735781
178	0x3cf78bda	0.030218054
179	0x3daa1061	0.08303905
180	0xbd249027	-0.040176537
181	0x3e146f34	0.14495546
182	0x3c00b4d5	0.007855614
183	0x3c6ecd79	0.014575356
184	0xbcaea6d6	-0.021319788
185	0xbcf08ff5	-0.029365519
186	0x3c98e86d	0.018665517
187	0xbd927673	-0.07151499
188	0xbd238112	-0.039918013
189	0x3bfec737	0.007775213
190	0xbd0f6dc3	-0.035016786
191	0x3d802f37	0.062590055
192	0xbdb6e754	-0.08930841
193	0x3c122c09	0.008921632
194	0x3d992bab	0.07479032
195	0x3d11b786	0.035575412
196	0xbd8f98da	-0.07011576
197	0x3c79ffa2	0.0152587015
198	0x3ddbbbe2	0.10729195
199	0x3b665c00	0.003515005
200	0xbe448c81	-0.19194223
201	0xbd462a9d	-0.048380483
202	0x3d80b60b	0.06284722
203	0xbe3932f8	-0.1808585
204	0xbdace19d	-0.0844147
205	0xbda54e36	-0.08071558
206	0xbd0fcf70	-0.035109937
207	0xbd327c5f	-0.04357564
208	0xbd626169	-0.05526868
209	0x3c85fee4	0.016356893
210	0xbcbcf089	-0.023063915
211	0xbe424e80	-0.18975258
212	0xbd0ee545	-0.034886617
213	0x3cf68f0b	0.030097505
214	0xbd98464c	-0.07435283
215	0xbad7d9e2	-0.0016468132
216	0xbd611394	-0.05495031
217	0xbd981888	-0.07426554
218	0xbdacf073	-0.084442995
219	0x3dc29536	0.09501116
220	0xbd044c26	-0.032299183
221	0xbd01750c	-0.031605765
222	0x3d32614e	0.04354983
223	0x3cfa96ad	0.030589426
224	0x3dbe9ae6	0.09306888
225	0x3d136e1a	0.035993673
226	0xb8936800	-7.028878e-05
227	0x3d7295de	0.059224956
228	0x3e07e0cb	0.13269345
229	0x3d308e7c	0.043104634
230	0x3d2897d4	0.04116042
231	0x3d27b5b2	0.040944763
232	0xbb998a7b	-0.0046856976
233	0xbdbe5190	-0.092929006
234	0x3c84b582	0.01619983
235	0x3e09d6aa	0.13460794
236	0xbd84bec0	-0.06481695
237	0x3cf848f7	0.03030823
238	0xbe0bafe1	-0.13641311
239	0x3c5d2e29	0.013499775
240	0x3dca3a29	0.098743744
241	0xbd423f54	-0.047423676
242	0xbd0904f2	-0.03345198
243	0xbd5f8e87	-0.054579284
244	0xbd8cdd31	-0.068781264
245	0x3c1b5ce3	0.009482595
246	0xbd8dab9a	-0.06917496
247	0x3dc2d405	0.09513096
248	0xbdaaa6a6	-0.08332567
249	0x3d80fb59	0.06297941
250	0x3d986599	0.07441253
251	0xbd49fa74	-0.049311116
252	0xbd9daa6b	-0.0769852
253	0x3d359af1	0.044337217
254	0x3c4802eb	0.012207727
255	0x3e2b7403	0.16743474

bias f4 [2]
0	0x3d9cf662	0.07664181
1	0xbdd990a4	-0.10623291
