graph2vec_optimization/model/70_mlp_graph2vec_opt_4.pt (torch_old, 382907 bytes, 6 tensors)

weight f4 [128, 600]
000000 45 9b 19 bc 2f 20 bc 3c 48 63 fa bc 0d 7d 9e 3b
       -0.009375398 0.022964565 -0.03056492 0.0048366846
000010 0b f8 a4 bc c1 58 8b bc 01 83 a5 bb d3 18 a1 3c
       -0.020137807 -0.017010095 -0.0050510173 0.019665157
000020 a6 7e 59 3b fe 30 2d 3d 92 c8 3a 3c e1 08 03 3c
       0.003318706 0.04228305 0.011400359 0.007997722
000030 11 52 cf 3c 1a 9b c4 3c e7 25 a1 bc 6b 94 ec bc
       0.025307687 0.02399974 -0.019671394 -0.028879365
000040 b5 e4 f0 3c 53 eb 02 3d 4b 05 c4 3c 5a 2a 66 3a
       0.029405931 0.031962704 0.023928305 0.00087801146
000050 d3 a9 da bc 39 13 ab 3b 84 e1 d3 3c cb 5d 15 3b
       -0.026692307 0.0052207974 0.02586437 0.00227915
000060 c1 22 37 3c ea 0d 6d 3c ac 7b 5e bc 9c 88 28 3d
       0.01117772 0.014468649 -0.01357929 0.041145906
000070 1b 9d 9d bc 00 e3 5d 3d 31 9c c1 bb 88 3c bd 3c
       -0.019239953 0.054171562 -0.005908512 0.023100153
000080 c2 1f c6 3b 04 46 f5 bc 8b f5 3f bc ac 48 18 bd
       0.0060462663 -0.029940613 -0.011716257 -0.03717868
000090 fa 24 d4 ba 11 08 1d bd 5a 2a 50 3c 36 24 6d 3c
       -0.0016185336 -0.03833777 0.01270541 0.014473965
0000a0 8b 87 28 bd 55 be 0d bd 76 54 f8 3c 6e 03 f1 3c
       -0.04114489 -0.034605343 0.030313712 0.02942058
0000b0 02 ba dc bc 13 31 56 3c 5f f7 11 3d 26 e6 0e bd
       -0.026944164 0.013073224 0.035636302 -0.034887455
0000c0 84 74 61 3c 9a 61 f8 bc 13 72 86 3b 36 ee 85 3c
       0.01376069 -0.030319978 0.004102954 0.01634894
0000d0 8e de 3f 3d d6 73 ec bb 1b 6a ce 3c 87 c2 1c 3d
       0.046843104 -0.007215957 0.02519708 0.038271453
0000e0 1b 8c ac 3c 24 b7 b0 bb f9 bb 44 3b cf c0 cb bc
       0.021062901 -0.005392926 0.0030019267 -0.024872212
0000f0 ce 73 af ba 80 91 30 bc 50 c3 ab bc 48 7e 10 bc
       -0.0013385953 -0.010776877 -0.020967156 -0.00881917
000100 0a 12 9a bb 6d 29 95 bc c8 36 20 bd 31 9d 32 bd
       -0.0047018575 -0.01820823 -0.039114743 -0.04360694
000110 45 44 43 bc c8 1b 22 bd 0d a0 97 3c 2d 12 99 bc
       -0.011918132 -0.039577276 0.018508935 -0.018685425
000120 f0 17 a0 3c e3 b1 3f 3b c0 0b f1 3c f8 34 2b bd
       0.019542664 0.0029250316 0.029424548 -0.04179856
000130 e5 66 ca bc fd 17 ec 3c d1 18 3e bd 15 68 96 bc
       -0.024707267 0.028820032 -0.046410386 -0.018360177
000140 d3 c1 06 3d ce 50 19 bd 43 63 40 3c c6 96 7d b9
       0.03289969 -0.037430577 0.011742416 -0.00024184128
000150 04 b1 10 3c fb 6b 21 bc 48 14 97 bc d8 91 6e 3c
       0.008831266 -0.009852405 -0.018442288 0.014561139
000160 c6 86 5a bc b3 3e b3 3c 74 d0 1f 3c 7a c4 06 bc
       -0.013337797 0.021880483 0.009754289 -0.008225555
000170 e8 09 c1 3c 6f 74 be 3c 8f 1b df 3b 5f bc fc 3c
       0.023564294 0.02324888 0.006808705 0.030851541
000180 47 66 41 3d ff 07 d4 bb ea d2 37 3b 15 a7 85 3c
       0.04721668 -0.00647068 0.0028049299 0.016315022
000190 b7 6a 75 bb a5 50 ca 3c 29 7d e5 3b 78 79 0d bd
       -0.003744764 0.024696657 0.0070034456 -0.03453967
0001a0 8d 1c 16 bd b0 62 80 3c 0e 17 f3 bb 2a dd 15 bd
       -0.036648322 0.015672058 -0.00741852 -0.03658787
0001b0 97 83 51 3c c0 94 45 3b 63 3e 88 bb 8d 3b 8d 3c
       0.012787721 0.0030148476 -0.0041578277 0.01724031
0001c0 9b a3 5a 3c dc 4d 53 3c a4 51 b1 3c 63 33 be bc
       0.013344671 0.012896981 0.021645375 -0.023217862
0001d0 63 56 0d 3c 49 2b 59 ba 72 50 85 bb f5 ba 77 3b
       0.008626553 -0.0008284343 -0.0040684277 0.0037800644
0001e0 90 bd 2f bd 96 d0 cc 3c b5 fa 43 3c 7f 35 1f 3d
       -0.04290539 0.025001805 0.011961629 0.038869377
0001f0 20 a1 9f bc e5 da 58 bc 97 1e eb 3c 4e 17 05 3d
       -0.01948601 -0.013235782 0.02870111 0.03249293
000200 18 ce dc 3c 48 1c 13 bd 66 27 13 3d 36 b5 9a 3b
       0.026953742 -0.035915643 0.035926245 0.004721309
000210 84 ab 6f bc cd 6d 72 3b 75 6e 0c bc e0 1b 15 bd
       -0.014628295 0.0036991716 -0.008571257 -0.036403537
000220 a1 ee 01 bd 2d e5 1e 3d 37 30 a2 3b 0b 59 e8 bc
       -0.031721715 0.038792778 0.0049495953 -0.028362771
000230 9e a8 19 bd 8f 04 0c bc e0 51 66 3c 1d 31 bf bb
       -0.03751432 -0.008546009 0.014057606 -0.005834712
000240 dc 39 2f 3b 04 7e e8 3a 7e a0 1c 3c 29 da ca 3a
       0.0026737368 0.0017737751 0.009559749 0.0015476394
000250 9d 62 1e 3d c5 81 17 bc a4 e7 c7 ba 7a a5 1f bc
       0.038668264 -0.009247248 -0.0015251529 -0.0097440425
000260 35 c5 a5 3c 85 89 fa bc 15 7c 46 3d f6 26 2b bd
       0.020235637 -0.030583153 0.048458178 -0.041785203
000270 3f 46 ab 3c 45 b3 2e bd e3 04 02 bd 12 2a 0e 3d
       0.02090752 -0.042651433 -0.03174294 0.03470809
000280 3e ed a8 3b 3a b5 03 3b 34 16 18 bc 70 f7 8c 3c
       0.0051552346 0.0020097033 -0.009282637 0.017207831
000290 4a bc 5a bc 09 7c a7 3c a5 21 2f bd 3b 1f b8 3c
       -0.013350556 0.020444887 -0.042756695 0.02247583
0002a0 de 1d 91 bc d8 7c ea ba 4d 91 57 3c 80 f3 eb 3c
       -0.017714437 -0.001788999 0.013157201 0.028802633
0002b0 5a 91 5d 3c cc 11 ec bc 33 38 7e 3c e1 5b f0 bb
       0.013523424 -0.02881708 0.015516329 -0.0073351716
0002c0 f7 6a f8 3c ee 4e 33 3c cc 1d 34 bd 5f 32 15 bc
       0.030324442 0.010944111 -0.04397373 -0.009106248
0002d0 d5 17 e1 bb f9 12 d7 3c 26 d2 97 bc 7c 18 30 3c
       -0.006869296 0.026254164 -0.018532824 0.010748025
0002e0 b0 b0 ff 3c 8f dd 0c 3d be d0 00 3d 07 52 93 bc
       0.03121218 0.034390982 0.031449072 -0.01798345
0002f0 11 dd 06 bd cf 46 fa 3c ed f1 74 bb fd 50 20 3d
       -0.03292567 0.030551342 -0.0037375644 0.039139736
000300 67 e0 c4 bc 25 5b 93 bb 40 8e 91 bc 90 42 47 3c
       -0.024032785 -0.0044969493 -0.017768025 0.012161866
000310 90 05 e1 3c d3 cf 65 3c 47 8f 62 3c c7 08 8c 3c
       0.027468473 0.0140266 0.013828105 0.01709403
000320 c7 03 27 bd 82 d8 83 bc 8d 7b 1d 3d 85 1b 84 bb
       -0.040775087 -0.01609445 0.038447905 -0.004031601
000330 0d 54 8d 3c 4d d6 3c b9 00 dd 38 bd df 4b 08 bd
       0.017251993 -0.0001800891 -0.045132637 -0.03327548
000340 f3 33 9a 3c 3f 6d 83 3c e5 e6 b7 3c d7 4e 00 bd
       0.0188236 0.016043304 0.022448966 -0.031325188
000350 98 15 d8 3c bc 6c 05 bc 13 3b f4 bc 26 d3 86 bc
       0.026377484 -0.0081436 -0.029813325 -0.016458105
000360 78 db be bc 9f 96 ad 3b 2f 59 0d bd f6 0d ed 3b
       -0.02329801 0.0052974964 -0.03450888 0.0072343303
000370 f3 4c 14 bc 94 4b 07 bd 2a 4b 74 bc 5f 57 e2 3c
       -0.009051549 -0.03303106 -0.014910499 0.027629552
000380 b9 28 0f 3d 3d d3 42 bc 81 9c 4a bc d2 89 5c 3c
       0.034950946 -0.011891183 -0.012366415 0.013460593
000390 2f 84 a9 3c 91 ba 89 bc 1c d6 b3 bc 1c 80 2d bc
       0.020692913 -0.016812595 -0.021952681 -0.010589626
0003a0 41 24 b7 3c e4 d4 4b bc 7b 05 ca 3c 71 bb 15 3c
       0.022356154 -0.012440894 0.024660816 0.009138928
0003b0 cb 46 a4 bb 76 b0 03 bd bd 49 d8 bc b4 58 1b 3d
       -0.005013322 -0.03215071 -0.026402349 0.03792639
0003c0 71 0e a1 3c 45 e3 e6 bc 9d 1c a7 3c 42 97 02 3d
       0.019660207 -0.028184542 0.020399386 0.031882532
0003d0 ce 21 d9 bc ac c7 98 3b 7c a7 24 bd f8 90 56 3d
       -0.026505377 0.0046624746 -0.040198788 0.052384347
0003e0 a3 2b 17 3b f8 46 08 bd 1c c0 67 3c 59 77 63 3c
       0.002306678 -0.033270806 0.014144924 0.013883435
0003f0 85 10 8f 3b 42 73 33 3d d6 8e 00 3d 2d 57 1c 3c
       0.004365983 0.04381109 0.03138622 0.009542269

bias f4 [128]
000000 fe 19 32 3d 03 bd b1 bc 71 48 04 3b 28 71 a7 bc
       0.04348182 -0.021696573 0.002018478 -0.0204397
000010 93 41 d9 bc d1 00 87 bc a3 b1 18 bd f2 02 39 bd
       -0.026520526 -0.016479881 -0.037278783 -0.045168824
000020 4d 90 a7 bc b1 38 65 3c 4b bc 1c bd b1 0b ba bc
       -0.02045455 0.013990567 -0.038265508 -0.022710653
000030 08 f2 0f bd 9a c5 50 bb 46 41 80 ba 2b 1b 12 bb
       -0.03514293 -0.003185606 -0.0009785078 -0.0022294025
000040 50 03 3b 3d a4 27 dc 3b a9 a1 73 bb 20 f9 06 bd
       0.045657456 0.0067185927 -0.0037175214 -0.032952428
000050 e6 5b ea bc 16 21 59 3b 9c 3b 09 bd ec a7 a8 3c
       -0.028608274 0.0033131293 -0.033504114 0.020587884
000060 00 26 3b bc 46 a9 29 bc 71 8e 13 bd 48 94 87 3b
       -0.011422634 -0.010355299 -0.036024515 0.0041375495
000070 82 49 25 3d fa 7c bb 3c 27 36 25 bd 10 7f 53 3c
       0.040353306 0.022886742 -0.040334847 0.012908712
000080 26 19 80 3c 62 4a 10 bd c0 9b 13 3c d9 2a 2e bb
       0.015636992 -0.035227187 0.009009302 -0.0026575832
000090 fa 6b 26 bc f5 ff 00 3d 0d f7 09 3d 51 9a 21 3d
       -0.01015758 0.0314941 0.03368287 0.03945381
0000a0 c9 c9 0c bd c8 93 e9 3c a2 5a 42 3c 38 87 f5 bc
       -0.034372125 0.02851285 0.011862429 -0.029971704
0000b0 1c 17 11 3c 66 8b 3e 3d bf 92 8b bc 4d 53 f7 3c
       0.008855607 0.04651966 -0.017037747 0.030191088
0000c0 91 40 4f bd 58 f3 11 3c 82 dc 1d 3c b7 3d 0e bd
       -0.050598685 0.008908115 0.009635093 -0.034726825
0000d0 38 b6 8d 3c bb 29 0b 3c de 08 1c bd 3d 88 14 bd
       0.017298803 0.008493836 -0.038094394 -0.03626274
0000e0 67 94 c8 3c d3 f7 01 3b 5e ef 37 bd 19 37 e4 ba
       0.024484826 0.0019831553 -0.044906013 -0.001741144
0000f0 16 30 31 bd ce aa 28 bb eb d4 0c bd 19 8a 69 bc
       -0.04325875 -0.0025736573 -0.034382742 -0.014254116
000100 22 18 86 bb 68 81 2d 3c cd ea 1f bd e0 97 1c 3d
       -0.0040922323 0.010589935 -0.039042283 0.038230777
000110 e1 45 83 bc 53 5b 5c 3c 7f 23 92 3c e3 68 0f 3d
       -0.016024532 0.013449508 0.017839191 0.035012137
000120 13 10 e0 bc 28 08 12 3d 92 e1 8d 3c 43 e4 b1 bc
       -0.027351415 0.03565231 0.017319474 -0.021715289
000130 33 9e ef bb 33 98 20 bd 51 e6 0e 3c 68 11 ba bc
       -0.00731256 -0.03920765 0.008721904 -0.022713378
000140 f9 87 22 3d 71 ba a3 3c f5 5c b6 bc 2b 85 11 bd
       0.039680455 0.019986363 -0.022261122 -0.03552739
000150 6c cb a2 bc 86 d7 33 3c 52 6c e6 bc 05 ac 02 bd
       -0.01987239 0.010976678 -0.028127823 -0.03190233
000160 1a d4 c4 bb 53 08 92 3c 75 da f6 bc f8 3f 9c 3c
       -0.00600673 0.017826235 -0.030133465 0.019073471
000170 81 5c 40 3d 9d 7a a4 3c 3c 81 e8 bc 7e 35 25 3c
       0.04696322 0.020077998 -0.028381936 0.010083554
000180 8a 1e 94 3c 27 02 68 bc fd c4 51 3c e9 15 0d 3d
       0.018080968 -0.014160669 0.012803313 0.034444723
000190 de 5f d6 3c ce cd 29 bc 09 8b 99 bc cc 5d 34 39
       0.02616876 -0.010364009 -0.018743055 0.0001720108
0001a0 6c 88 89 bc 03 b5 4b 3c 47 ad ad 3c 6f 16 83 3c
       -0.016788684 0.012433293 0.02120079 0.016001908
0001b0 a8 2e 11 3d 3b 5a bd bc 00 c2 0e bc 89 80 32 3b
       0.035444885 -0.023114314 -0.008713245 0.0027237257
0001c0 22 98 3f bb 47 1d 07 3d 41 a2 65 bb 15 f6 f5 bc
       -0.0029234965 0.032986905 -0.0035039338 -0.030024568
0001d0 95 f4 60 bb 49 f7 0c bd 32 76 05 bd 98 01 ca bb
       -0.003432547 -0.034415517 -0.032583423 -0.006164741
0001e0 5c ab 86 3c c8 13 a1 3b 16 45 13 bd b6 ab 95 bc
       0.016439132 0.004915688 -0.035954557 -0.018270355
0001f0 b6 28 18 3d 4c 67 10 3d a3 d8 83 bc 05 4e d9 bc
       0.0371482 0.03525476 -0.016094511 -0.02652646

weight f4 [128, 128]
000000 26 ac 79 3d 22 5a 70 3d 67 02 a3 bd a5 b4 a4 3c
       0.06095519 0.058679707 -0.079594426 0.02010567
000010 ec 72 90 bd a8 7e 37 bc 98 02 69 3c d9 9c 04 bd
       -0.070531696 -0.011199631 0.01422181 -0.032376144
000020 a0 59 ba bc c6 7f 96 3d 7e d5 cf 3c 38 bb 82 bd
       -0.022747815 0.073485896 0.025370356 -0.063833654
000030 2a 81 09 3d f7 2d bf bc dd ad 24 bd 0b 67 4f 3a
       0.033570446 -0.023337347 -0.04020487 0.0007911778
000040 3b 8c 5a bd 91 40 9e bd 0d 86 8f 3d 60 df a2 bd
       -0.05335639 -0.07727159 0.0700799 -0.07952762
000050 5f a8 a0 bd 58 61 12 bd 10 9c 14 bc a4 c5 e4 3c
       -0.07844614 -0.035737365 -0.009070411 0.027926274
000060 0f 0d 81 3d 18 98 00 3c 23 3d ae 3d cf 36 ab 3d
       0.06301319 0.007848762 0.08507755 0.08360063
000070 87 b8 ac 3d ee 4f 69 bd 66 56 10 bd 8b 58 13 bd
       0.08433633 -0.056960993 -0.035238646 -0.035973113
000080 4a 65 ed bb a1 67 ad 3d 3c 74 87 bd 8f 5a 11 bd
       -0.0072447406 0.08467031 -0.06613967 -0.035486754
000090 74 da 15 3d 29 a1 c5 bc 5e 41 e3 bc e0 3e 98 3d
       0.036585286 -0.024124699 -0.02774113 0.074338675
0000a0 c4 15 48 3a 08 35 2f bd c7 db a4 3d 6a cc 44 3d
       0.0007632638 -0.042775184 0.08049732 0.048046507
0000b0 88 d3 6e bd 74 2c 88 bd 9c e4 08 bd c3 81 8e bd
       -0.0583072 -0.06649104 -0.033421144 -0.06958344
0000c0 6d 75 a0 bc 6c 4e 2e 3d 0f 7e e9 bc 09 86 9e 3c
       -0.019587243 0.042555258 -0.028502492 0.019351022
0000d0 10 0b 52 bd 2f 0a 8f 3d 98 75 98 bc 82 d3 83 bd
       -0.05128008 0.06984364 -0.01861076 -0.06436826
0000e0 5e 48 11 bd ee f4 6b 3d 04 56 51 3c f5 f1 75 bd
       -0.035469405 0.05760663 0.012776855 -0.0600452
0000f0 73 a0 4a bd 0c a1 8e bd 4a 2a a3 b8 ed 9e ff 3b
       -0.049469423 -0.06964311 -7.7803226e-05 0.007800928
000100 5a 2d 95 3d b8 51 17 bd ae 7d 71 bc ec 69 95 3d
       0.07284041 -0.036943167 -0.014739437 0.072955936
000110 f8 1a d1 3c 7c 9f 36 bd 95 3e 9c bd f1 98 9e 3d
       0.025525555 -0.04458569 -0.07629124 0.07744015
000120 5e d9 a2 bd 25 75 98 bd 84 7d 33 bd 58 71 c9 bc
       -0.07951616 -0.074442185 -0.043820873 -0.02459018
000130 12 43 82 3d b4 bb a3 3c 49 8f 74 3d f1 c4 8b bd
       0.06360449 0.019986965 0.05970696 -0.06824673
000140 e0 0b b6 bc 8e a3 95 3d 4a e2 60 bd 4d 06 56 bd
       -0.02222246 0.07306586 -0.054903306 -0.052252103
000150 73 a4 b0 3d 9b 22 9b bd 80 08 a2 bb 33 38 8e 3d
       0.08625116 -0.0757496 -0.004944861 0.06944313
000160 30 3d b5 3b b4 2c 62 bd b9 c6 a6 3d f7 eb 53 bd
       0.0055309758 -0.055218413 0.08143372 -0.051738705
000170 9d a4 7a ba 2c 4d c5 bc ef 61 b1 bd 8a f9 6d 3d
       -0.00095612725 -0.02408465 -0.086612575 0.058099307
000180 84 54 ca 3c f6 f1 fd bc 1e ed 4d 3d 2c 5b a6 bc
       0.024698503 -0.030999165 0.05027496 -0.020307146
000190 2a d8 84 3d ac c0 0a bc 00 aa 93 bc 09 fe cc 3c
       0.064865425 -0.008468788 -0.018025398 0.025023477
0001a0 7e 44 c6 bc f7 9c cb 39 f2 9e b4 bd 7c 45 87 bd
       -0.024202581 0.00038836125 -0.08819379 -0.0660505
0001b0 f0 b2 6f 3c c2 66 36 bd 84 25 3c bd 52 52 95 3d
       0.014630064 -0.04453159 -0.045934215 0.07291092
0001c0 6a 28 47 3d 4c c8 af 3c 60 eb a6 3c 59 d7 65 bd
       0.048622526 0.021457814 0.020375907 -0.056113575
0001d0 99 01 6c bd c3 6f 87 3d 44 4c 52 3c 57 7d 39 3d
       -0.05761871 0.06613114 0.012835566 0.04528555
0001e0 f6 12 7b 3b 1b 70 10 bd 99 d0 ab 3c fb 8e 98 3d
       0.0038310862 -0.035263162 0.02097349 0.07449146
0001f0 6a ce a0 bd f2 c2 70 3d d9 e4 cd 3c 28 93 91 3d
       -0.0785187 0.058779664 0.025133537 0.07108146
000200 13 99 2f bc 29 f2 2e bd c9 db ca 3c e9 0e 90 3d
       -0.010717648 -0.04271141 0.024763005 0.07034094
000210 78 8f 82 bc 36 ca 9c bd b0 48 e7 3c 31 ca 81 3d
       -0.015937552 -0.07655756 0.028232902 0.06337393
000220 97 59 19 bd 9c 38 b9 3d 07 71 6d 3d 28 71 93 3b
       -0.037438955 0.090440005 0.05796912 0.0044995733
000230 00 bc 73 ba de b5 7f 3d b9 25 24 bc 12 4d d3 bc
       -0.00092977285 0.0624293 -0.010018759 -0.025793586
000240 d5 43 e1 3d 54 53 43 3d b0 64 2d 3c 17 23 4c 3b
       0.10999266 0.04768689 0.010583088 0.0031148845
000250 06 d9 6d bc 9c 1a 97 3d 54 6a 73 bd 87 dc d3 bc
       -0.014517074 0.07378122 -0.059427574 -0.025861992
000260 92 88 13 3d 34 8d 98 bc 75 08 19 bd 40 50 8a 3d
       0.036018915 -0.018622018 -0.03736158 0.06753588
000270 78 56 34 bc 0c 8c c9 3c 1c b3 9c 3c 06 6e 8a bc
       -0.011006944 0.024602912 0.019128375 -0.016898166
000280 f1 d6 ac 3c 59 95 ad 3d 2d dc 8a 3d a5 c9 88 3d
       0.021098586 0.084757514 0.067802764 0.06679086
000290 ec 69 28 3d 00 f1 37 3d 0f 76 83 3d 12 bd 56 bc
       0.04111664 0.04490757 0.06419002 -0.013106601
0002a0 4b bf 25 3d 76 df 33 bd a9 3e ee bc 09 88 f1 3c
       0.040465634 -0.04391428 -0.029082613 0.029483812
0002b0 d2 13 6c bd 58 d9 19 3d 1b f8 ac 3d 13 27 8d 3d
       -0.05763609 0.03756079 0.0844576 0.068922184
0002c0 04 62 16 bd 2d 1f 36 bb 5e a7 8f bd fd b5 d8 bc
       -0.03671457 -0.0027789578 -0.07014345 -0.026453966
0002d0 fb a2 10 bd c6 c1 a4 3d 73 d6 a1 3d d0 bc 55 bd
       -0.03531168 0.08044772 0.07902231 -0.05218202
0002e0 ca 9b b2 bd 69 05 9b bd 09 20 61 3c 95 73 ad 3d
       -0.08721121 -0.07569391 0.013740548 0.08469311
0002f0 25 9e 43 bd bf 59 19 3d d8 56 cb 3c 17 4d 2e 3d
       -0.04775824 0.037439104 0.024821684 0.042553987
000300 e8 e6 c1 3a ac 3b b2 bd 15 3f 15 bd d3 91 1d 3d
       0.0014793547 -0.08702788 -0.036437113 0.038469147
000310 5a 71 9e bd 9e bf 8a 3d bf bf 65 3d 11 8e 21 3d
       -0.07736464 0.06774829 0.056091066 0.039442126
000320 ca 38 85 bd 52 07 31 bb ab 0d 40 bd 19 30 a5 3d
       -0.06504972 -0.002701242 -0.046888035 0.080658145
000330 55 ab 58 bd a8 a2 04 bd e6 3f 75 3d cb e1 ae bd
       -0.05289777 -0.032381684 0.05987539 -0.0853916
000340 7e ee ca bc 1f 6e 66 bd 60 ba d1 3d e2 f7 89 3d
       -0.024771925 -0.056257363 0.10240626 0.06736733
000350 2d 69 f4 bc 5f 97 4c 3d ab cf 9b bd 9f 94 3b bb
       -0.029835308 0.049949046 -0.07607969 -0.002862252
000360 1d 2b 8e bc 98 0e a9 bd a0 fb c3 b9 bf fd b2 bd
       -0.017354542 -0.08254737 -0.00037380774 -0.087398045
000370 7b d0 a8 3d c1 44 13 3d 8c 45 dc 3c d2 5a 59 bd
       0.082428895 0.03595424 0.026888631 -0.05306513
000380 ce c7 be 3c 51 00 e9 3c 18 a6 55 bd 7d 96 61 bd
       0.023288634 0.028442534 -0.052160352 -0.055075157
000390 2c 72 8d 3d 4d 87 67 3d 8e e1 9a bd 02 24 51 bd
       0.06906542 0.056525517 -0.075625524 -0.05105973
0003a0 7e cc d0 bd 56 a2 6a bd 2c 46 9f 3d ff 69 00 3d
       -0.10195254 -0.057283722 0.07777056 0.031351086
0003b0 a3 87 85 bc cc e9 69 bd f4 4f e1 3c 36 be df bc
       -0.016300028 -0.05710773 0.027503945 -0.02731238
0003c0 48 8e 59 bb 36 67 88 bc 75 f2 9e bd 48 c7 d2 bc
       -0.0033196378 -0.016650777 -0.07761089 -0.02572979
0003d0 cd 70 8c 3d 1d 9f 23 bd c8 68 90 3d 78 23 78 bd
       0.068574525 -0.039946664 0.070512354 -0.0605807
0003e0 f2 7a 82 bd 6c a2 a1 3d 32 42 95 bd 5f 2d 81 bd
       -0.06371106 0.07892308 -0.072880164 -0.06307482
0003f0 f1 ed 92 bd 40 1d 84 bd fc a8 81 3d e3 2d ae 3d
       -0.0717429 -0.064508915 0.06331059 0.08504846

bias f4 [128]
000000 ae 6d ef 38 1c f3 22 3d 2d 4d 7b 3d b0 40 0f 3d
       0.000114168375 0.03978263 0.061352897 0.0349738
000010 55 07 99 3d f2 a4 f3 bc 71 88 2b bc 8e a2 ce 3c
       0.074721016 -0.029741738 -0.010469542 0.025223996
000020 f2 d8 3a 3d c7 16 2a 3d 80 ad 04 3d 69 9c 15 3b
       0.04561705 0.04152563 0.032392025 0.0022828823
000030 a7 49 9a 3d 67 e0 b2 3d 3a 07 4e bd 8e fe 51 bd
       0.07533579 0.087342076 -0.05029986 -0.051268153
000040 f0 d5 2d 3d f0 84 a4 bd 90 8b 6a bc 74 5a e9 bc
       0.042440355 -0.08033168 -0.014315501 -0.028485514
000050 9a 2a ad bd 5d a6 73 bd bf 81 a8 bc 68 cc 32 3c
       -0.08455391 -0.05948483 -0.02056968 0.010912992
000060 28 0e ac 3d 65 7c 91 bb 5e ea 83 3b 91 3b c8 3b
       0.084011376 -0.004439878 0.0040257415 0.0061106165
000070 21 3d 4a ba 35 94 9e 3c b6 cc 1a 3d fa 3b 93 3c
       -0.00077147974 0.01935778 0.037792884 0.017972935
000080 00 85 13 bd 97 37 83 bd 5a c6 a4 bd a5 ea 49 b9
       -0.03601551 -0.06407087 -0.08045645 -0.00019256266
000090 1a 84 79 bd 33 9f b7 bc 44 4c a1 bd 76 9d 14 ba
       -0.060916997 -0.02241478 -0.07875875 -0.00056692155
0000a0 7c d9 af bc 55 a4 0d 3d 29 6b 0b bd fc 2e 26 3d
       -0.02146601 0.034580547 -0.034037743 0.04057215
0000b0 a3 9d 52 bc 9d cd c8 bc ee 81 9c 3d 61 59 94 3c
       -0.012854966 -0.024512107 0.076419696 0.018109025
0000c0 72 65 9e 3d eb 80 8a 3d 3b fc 4d bd 6c 63 9d 3c
       0.07734193 0.067628704 -0.050289374 0.019212447
0000d0 78 a1 12 3d 50 82 28 bc cd e3 90 bb 7d eb 5c bd
       0.03579852 -0.010284975 -0.004421687 -0.053935517
0000e0 cd c0 7c 3d b2 d6 8f 3d 71 8e 10 3d 9e 18 c2 3c
       0.061707307 0.07023372 0.035292093 0.023693379
0000f0 a3 7d a5 3d c3 8d 59 3c 94 59 19 3d 8b 22 8c bd
       0.08080604 0.0132784275 0.037438944 -0.06842526
000100 4b d4 69 3d fb 26 9a 3d d9 a5 56 bd 97 02 d7 3c
       0.057087224 0.07526966 -0.05240426 0.026246352
000110 67 24 d5 3c d8 1e 9d bc 09 af 5f bd c6 71 af bd
       0.026018335 -0.019179747 -0.054610286 -0.085666224
000120 5a 79 a1 bc b9 1a 4d 3d 1f 4d 77 3c b0 9a 30 3c
       -0.019711185 0.050074313 0.015094071 0.010779068
000130 31 ff 12 3d ac a2 a1 bd c0 4c 53 bc 02 f6 b0 bd
       0.0358879 -0.07892355 -0.012896717 -0.08640672
000140 32 10 89 3d 41 59 a4 3d a1 25 39 3d 50 cf ad 3b
       0.06692542 0.08024836 0.0452019 0.0053042546
000150 5d 8a ad 3d a7 28 61 3d a6 8f 82 bd d1 1d 32 3d
       0.08473656 0.05497041 -0.06375055 0.043485466
000160 fa 11 0d 3c 7e 1a 19 3c e9 26 d8 bd 76 13 67 bd
       0.008610243 0.009344695 -0.105542965 -0.056415044
000170 a4 30 8b 3c 93 90 71 bd 54 25 88 3c 2a 5b 4d bd
       0.016990967 -0.058975767 0.016619362 -0.05013577
000180 5f 2d b1 3d a3 3f 7b 3c 8f 08 38 3c 0c 47 d6 bc
       0.08651232 0.015334996 0.011232509 -0.026156925
000190 38 3b 05 3c 3d 90 4e bd fb 50 04 bd f2 68 45 3d
       0.008131795 -0.050430525 -0.03230379 0.048195787
0001a0 d8 11 17 3d a4 f8 a9 3c 4c 1c bc bc 9d 6f f8 3a
       0.03688225 0.020748444 -0.022962712 0.0018954162
0001b0 12 c8 92 bd 06 17 9d bd 91 60 54 bd aa ac 36 3b
       -0.07167067 -0.07670407 -0.051849905 0.0027873912
0001c0 10 74 a9 3d 12 99 aa 3d 28 2f 35 bc bd 7f a0 bd
       0.0827409 0.08329977 -0.011058606 -0.07836864
0001d0 5b 36 93 3d c9 91 05 bd 14 f9 8f bd ac a5 a9 3d
       0.07188102 -0.032609735 -0.0702993 0.082835525
0001e0 41 d5 9f 3d 00 e6 56 bb 10 f1 9a 3c 8c 8c 87 3b
       0.07804347 -0.00327909 0.018913776 0.0041366275
0001f0 53 14 70 bc ca 88 97 3d 1f 69 76 3c 01 93 96 3d
       -0.014653283 0.07399137 0.015039711 0.073522575

weight f4 [2, 128]
000000 3f a5 09 bd 1e 46 b3 3d c0 ae 98 bc a9 c6 05 be
       -0.033604857 0.08753608 -0.018638015 -0.13064064
000010 de e6 ec bc 99 18 b5 bc f4 fd 12 be 80 10 04 bc
       -0.02891868 -0.022106456 -0.14354688 -0.0080605745
000020 fc 81 a0 bd c7 c2 4a 3d c3 37 c6 3c 5a d0 9e 3b
       -0.078372926 0.04950216 0.024196511 0.004846615
000030 ca 20 10 3d 44 f4 2f bd 7c a2 62 3b 80 94 d1 bc
       0.03518752 -0.04295756 0.0034581712 -0.025583506
000040 6c 7b 8c 3a 0c f8 ee 3c c9 3a 23 bd 5d b5 d3 3b
       0.0010717935 0.029171012 -0.039850984 0.006460829
000050 2a 8b 7c 3d 9f b5 bf bb ce 38 85 bd ef 44 99 bd
       0.061656155 -0.0058505083 -0.06504975 -0.07483851
000060 11 c6 87 3d d4 db 42 bd 5d 29 a7 bd 28 c8 94 3d
       0.06629575 -0.047572926 -0.08162186 0.07264739
000070 6e a4 dd bd ec ed 3c bc 87 01 99 bd 2f 3b dc bd
       -0.10822378 -0.011531334 -0.074709944 -0.10753476
000080 50 75 f7 bc 66 84 13 bd c2 0e 22 bd b2 a5 7d 3d
       -0.030207306 -0.036014937 -0.039564855 0.061925597
000090 85 0b 9c 3d 9c 11 a7 bd 53 73 a6 bd 12 4a 93 bd
       0.07619385 -0.081576556 -0.08127465 -0.07191862
0000a0 c8 7c fd bc 6f 04 b7 bd 74 e1 82 3d 6b f2 15 3e
       -0.03094329 -0.089363925 0.06390658 0.14643256
0000b0 cf a5 97 3a 34 34 b6 bc 9a ad 86 bd 83 98 13 3e
       0.00115698 -0.02224169 -0.065760806 0.14413647
0000c0 ce 8b 45 bc b5 f2 1b bb 4a 02 cb bd ab 86 77 3d
       -0.012057258 -0.0023795788 -0.09912546 0.060431164
0000d0 c7 40 ad 3d 40 03 41 3d b6 d5 e4 3c 8a 57 8c 3d
       0.08459621 0.04712224 0.027933937 0.06852634
0000e0 11 22 3e 3e 48 eb 91 bc d5 a5 b7 bd 0e 7a 96 3d
       0.18567683 -0.017812386 -0.08967177 0.07347499
0000f0 5e b7 e8 bc 3a 3f bc 3d aa 92 28 3e 02 a6 5e bd
       -0.028407749 0.09191747 0.16462198 -0.054357536
000100 5e 7c 75 3b 1a 59 9b bd f2 0a dc 3d 4b 95 a1 bd
       0.0037458162 -0.07585354 0.10744275 -0.078898035
000110 7b de 71 3a 73 2f a3 3d e2 48 a0 bd 06 ff 9d 3d
       0.00092265726 0.079680346 -0.07826401 0.077146575
000120 99 9e 43 be 6b bb 20 3e 6f 8b d7 bd 11 19 42 bd
       -0.19103469 0.15696494 -0.10524642 -0.047387186
000130 e2 5c 9c 3a 91 28 a7 3d 99 dd 4f bd 84 1e bd 3c
       0.0011929537 0.08162034 -0.05074844 0.02308584
000140 e9 d8 81 bc 8b 9e ee 3b a0 43 64 bd f0 b8 07 3c
       -0.015850501 0.0072820834 -0.055728555 0.008283839
000150 fc 20 2c 3e 56 32 86 bd e4 67 65 be 71 91 dd 3d
       0.16809458 -0.065525696 -0.22402912 0.10818756
000160 43 e5 35 bc a5 be b9 3c 89 6a 48 be b8 03 55 3d
       -0.011102024 0.022673914 -0.1957189 0.0520055
000170 66 16 43 3d 99 3c 33 3e 27 56 44 bd 97 0f 07 be
       0.047628783 0.17503585 -0.047933724 -0.13189541
000180 24 62 ab 3d 00 cf c4 bd c7 12 a2 bc 72 d6 a2 bd
       0.08368328 -0.096097946 -0.019784344 -0.079510584
000190 19 64 b6 3d 22 4d 73 3c ca 07 bc bd 41 6f 94 3d
       0.08905811 0.014849933 -0.09181173 0.072477825
0001a0 3a 56 86 bd 9a 67 2b 3e 6c df ec bc 24 09 3f 3d
       -0.06559415 0.1673874 -0.02891513 0.046639577
0001b0 82 96 b5 bd b7 1d 46 3c d0 99 55 bd d2 c9 96 3d
       -0.08866598 0.0120920455 -0.05214864 0.07362713
0001c0 74 4f 80 bd c7 09 3b 3d 98 32 91 bc 07 df dc 3b
       -0.062651545 0.04566362 -0.01772432 0.006740454
0001d0 79 ee 17 be aa 53 96 3d f1 8b d0 bd 52 d6 32 3c
       -0.14837064 0.073401764 -0.10182942 0.010915356
0001e0 69 76 59 bc 98 a4 9d bc 59 36 22 3e 9e 68 02 be
       -0.01327286 -0.019243523 0.15841044 -0.12735221
0001f0 20 f2 3e bd 63 0a 92 bd bf de 4d 3e 79 40 81 3d
       -0.046617627 -0.07130887 0.20104502 0.06311125
000200 ce 57 c5 3c 9c 08 01 be 05 a6 37 bb 06 31 34 3e
       0.02408972 -0.1260094 -0.002802254 0.17596826
000210 26 61 1f 3d 1b 89 3c bd dc f7 91 3d 32 f0 f0 3c
       0.038911007 -0.04602919 0.071273535 0.029411409
000220 e0 5b 69 3d fb fb 56 3d 53 21 10 3d bc 66 91 3d
       0.056972384 0.0524864 0.03518803 0.07099673
000230 30 0b d4 3b 76 4d 01 3b 27 7c a3 bd f5 b7 48 3d
       0.00647106 0.0019730008 -0.079826646 0.04900356
000240 c8 76 27 3d 66 94 0e 3d 5a 4f a4 bd 95 e7 81 3c
       0.040884763 0.034809493 -0.080229476 0.015857497
000250 d8 77 46 3d ed 10 84 bc bc 65 01 bd ad 5f 79 bd
       0.048454136 -0.016121352 -0.031591162 -0.06088226
000260 30 f7 ee bd fb 11 71 3c da c9 81 bc d6 86 1a 3d
       -0.11668241 0.0147137595 -0.01584332 0.037726246
000270 12 31 2b 3d df e4 13 bc f1 28 1e 3e ec 0e 1a bd
       0.041794844 -0.009026735 0.15445305 -0.037611887
000280 0b 3f 43 bd 64 4f e4 bb 79 d8 f4 bc 0d 7c 76 3c
       -0.047667544 -0.006967472 -0.029888378 0.015044224
000290 39 cc 1f 3c a1 b5 d9 3b 1f 62 ff 3c 69 77 2d 3e
       0.00975328 0.0066439663 0.031174717 0.16940083
0002a0 40 10 59 3c 88 d5 b3 3d 25 1c 21 3d fc 9f 10 be
       0.013248503 0.08780962 0.03933348 -0.14123529
0002b0 dd 06 b3 bd 82 22 93 3d cb a3 98 3d 9f 77 a5 bc
       -0.087415434 0.07184316 0.07453116 -0.020198641
0002c0 1b 15 92 bd 37 46 96 bd 84 27 0d 3e 70 72 c0 3b
       -0.07132932 -0.07337611 0.13784605 0.005873017
0002d0 07 d7 13 3c 31 30 e6 bc 48 20 2d bd 0c 37 30 3c
       0.0090234345 -0.028099151 -0.042267114 0.010755312
0002e0 31 43 4b be 51 7d c0 3d 66 0f ac 3d 19 43 d3 bc
       -0.1984985 0.09398902 0.084013745 -0.02578883
0002f0 bb 19 ae bd 4f f3 a8 bd 24 87 ea bd af 6e af bc
       -0.085010014 -0.082495324 -0.11451557 -0.021415083
000300 9c 03 7f bd 95 b4 9e 3d 3e d1 52 3c 8a 88 93 3d
       -0.0622593 0.07749287 0.01286727 0.07203777
000310 44 7a d1 bd c8 01 39 3c a7 89 37 bc 91 bf a5 3d
       -0.102283984 0.011291929 -0.0112022525 0.08093179
000320 53 ce 5c 3e cd 95 f1 bd bf 21 1d 3d ae 4f d7 bc
       0.21563081 -0.1179615 0.03836226 -0.026283111
000330 3f 4d 0c 3b 67 32 8f bd 82 ae 2d bd 6b 08 9f bc
       0.0021408347 -0.06992035 -0.04240275 -0.019413194
000340 5f 26 6a bd 1c a8 43 bc 6e 36 a0 3d 60 5a 6a bc
       -0.0571655 -0.011941936 0.07822882 -0.014303774
000350 f6 1e 1d be 03 76 12 3e 08 96 35 3e d0 68 e7 bd
       -0.15343842 0.1430283 0.17733014 -0.11299288
000360 fa c7 41 3c 45 5b 3a bd df 32 63 3e d7 b2 a4 3d
       0.011827463 -0.045497198 0.22187375 0.080419235
000370 b6 50 41 3d da b5 3e be c8 af 9a 3d ae fa 91 3d
       0.047196113 -0.18624058 0.07553059 0.071278915
000380 b9 a3 aa 3d 94 26 26 3d e5 81 46 bc de 9c a2 bd
       0.08332009 0.040564135 -0.01211593 -0.07940076
000390 58 f2 cd bd fa 47 84 3c ee 18 d5 3d b1 b2 ee bb
       -0.10055989 0.016147602 0.104051456 -0.0072844853
0003a0 e7 5b f4 3d ae 6b da bd 94 37 f1 3c 4b 76 3a 3c
       0.119315915 -0.106650695 0.029445447 0.011380742
0003b0 ac 8c 90 bd 0b b1 d4 3c c3 19 15 bd ba e9 e7 bc
       -0.07058081 0.025963327 -0.03640152 -0.028309692
0003c0 70 1b 7d 3d 3a 2a 89 3b 0d f4 b3 bd af de 31 3d
       0.061793745 0.004185942 -0.08786783 0.04342526
0003d0 ca 9a a3 3d f1 8b 94 3c 64 b1 51 3d d8 c7 d5 bd
       0.07988508 0.018133136 0.051194564 -0.10438508
0003e0 06 8f 53 3d c8 7d 0c 3c cf 18 25 be 95 22 08 3e
       0.05165007 0.00857491 -0.16122745 0.13294442
0003f0 f3 09 05 bd 30 8e 3e bb 5d a5 67 bd 91 d4 81 3d
       -0.03248019 -0.002907645 -0.056554187 0.06339372

bias f4 [2]
000000 9a 73 aa 3d c6 05 ab bc
       0.083228305 -0.020876776
